com.unity.ml-agents/Samples/3DBall/TFModels/3DBallHard.onnx (onnx, 93825 bytes, 11 tensors)

76 f4 [27]
00000000: fb5b 213f 3072 703f 469f 243f 1ed6 253f
00000010: e308 633f cc92 283f 12e2 2a3f 8360 543f
00000020: 6605 2d3f 5995 303f 5637 443f de0b 323f
00000030: 9206 373f b432 323f f5bb 373f e549 3e3f
00000040: 4ccd 1d3f b529 3e3f 5571 463f 192e 063f
00000050: 8966 453f b98a 4f3f ea5b d33e 4782 4d3f
00000060: 83a0 593f 49fb 863e 6588 563f
0.63030976 0.93924236 0.6430553 0.6477984 0.88685435 0.65848994 0.66751206 0.82959765
0.6758636 0.68977886 0.76646936 0.6954936 0.714944 0.69608617 0.71771175 0.74331504
0.61641383 0.7428239 0.7751668 0.5241409 0.7710958 0.8107105 0.41281062 0.8027691
0.85010546 0.2636359 0.8380187

79 f4 [18]
00000000: 04bb 583d 8e18 5a3d 24f6 5c3d cb31 5e3d
00000010: 6c60 613d 496a 623d 97f6 653d 30c5 663d
00000020: f59d 6a3d f736 6b3d f053 6f3d e5a5 6f3d
00000030: 8717 743d d202 743d b3db 783d 0e72 783d
00000040: a0b9 7d3d 7edb 7c3d
0.052912727 0.053246073 0.053945675 0.054246705 0.055023596 0.055277143 0.05614337 0.056340396
0.057279546 0.057425465 0.05842966 0.05850782 0.05959275 0.059573002 0.060756397 0.060655646
0.061944604 0.06173276

action_model._continuous_distribution.log_sigma f4 [1, 2]
00000000: 9408 9cbd fc12 7fbd
-0.07618824 -0.062273964

action_model._continuous_distribution.mu.bias f4 [2]
00000000: 9648 9abc ba29 4ebc
-0.01883344 -0.012583191

action_model._continuous_distribution.mu.weight f4 [2, 128]
00000000: a2c7 c43a 43a5 babd 415b 93bd 5010 283c
00000010: 7b1a fd3c cb1e 26bd b648 8f3c 1a54 d73c
00000020: f057 7d3c 1a9d 46bd ee3e 0b3d 86e0 9b3d
00000030: 6e62 663d e864 07bd c2e3 50bd 7c07 4c3c
00000040: 9ce4 22bd b3c7 033d 981b a3bc cf2e 153d
00000050: 19a6 9d3d e142 5dbc 4a75 87bb 60a5 f53c
00000060: 171e 953d 2f7d 7cbc 4ef8 95bd 626b 283d
00000070: 9a87 91bc b225 b3bd e888 84bd 16d1 fe3c
00000080: 4ad5 903c 1d17 cfbd bb35 1abd 6825 0a3c
00000090: 43be 15bc 3e59 043d f143 863d a6a7 3bbd
000000a0: bcf7 ee3c 7af5 953d 9093 323d 6d9c 29bd
000000b0: d1ca c93c bf55 103c e68c 633e 5e53 053d
000000c0: 12e3 93bd 719f e93c af13 f7ba 5323 fa3c
000000d0: 98d1 013d fd37 1dbc c06d 1abd ebb9 6bbc
000000e0: 2f92 633d aad6 963d 80ec 7c3d b0c1 a83c
000000f0: aae3 50bd eb78 24bd e382 92bd 3f3d 123c
00000100: ff09 68bd 064a a03c 5fcb ba38 35d9 99bd
00000110: bce3 48bd 10b4 8ebd 55ac ce3d 7a5e 8e3b
00000120: 5580 623d d69f 873c 3d97 08bb 9f8f dd3b
00000130: f317 2e3d 9df3 d93d c9da 903c bde6 823d
00000140: fe65 91bb ea60 aabd da66 f6bc 6ee4 683c
00000150: b2e2 4a3b 7827 eabc ccdf f5ba f9c5 1abc
00000160: 4ccc a43d dde1 1c3e 15ee 763d e133 5abd
00000170: 2246 9bbc 4021 023e 713a 44bd 2705 123d
00000180: fca2 20bc f60f 17bd c780 b5bc 1330 133d
00000190: c716 24be a63b 9fbd 6ac4 4d3c 204f 7d3c
000001a0: 3333 b6bd b02a 303c f5e1 43bc aced 31bc
000001b0: 98a2 4bbc a0d7 0fbc e6c3 133c cbd8 0cbd
000001c0: 6527 b33a c0e0 a13b d12a f63d 1d9e 8cbc
000001d0: d013 22bd b88d 94bd d949 b33c de60 c6bc
000001e0: b965 3dbd c154 1fbd 416d f1bd 04e5 9a3d
000001f0: 57fe d93d 33c0 913d f5d4 bf3c 5a80 80bc
00000200: f2a7 e23d b145 f83d d992 96bd 987c 163d
00000210: 5bf0 b03d 4cc2 e9bc 60d5 2abd 4273 d83d
00000220: 19a3 e0bd c29f 2f3d f3af 2ebd b786 293d
00000230: 27b6 983b 72cb 9f3b 5161 7ebc b515 96bc
00000240: 4257 b4bc 651a a93c 8a8c 9d3c 425b cc3c
00000250: fe20 ddbc 8b89 45bb e814 c3bb 9cdb 173c
00000260: e133 9a3d e18e 9e3d 820d dabc baa4 773c
00000270: cf5b 9abd eb29 4f3d bf34 a83c 33f1 f43c
00000280: cf88 c0bb b4a7 f9bc ab28 15bc f4fc 383b
00000290: a074 e5bc 34df f8bc cac1 543c b91a 823d
000002a0: 55c6 503d e03c 4bbd 7dea 83bd f743 e6bd
000002b0: bf71 eaba 04f2 6e3d 85f7 5f3d 5a7e 7bbd
000002c0: 6ed4 afbc 9a3b 55bc 2b6b b0bd 0518 c9bb
000002d0: 10f5 5ebb 3e7a a53d c998 bc3d 8f63 34bd
000002e0: 741e 9c3d df7a c43c 0893 9c3c 7642 0f3d
000002f0: dd40 f93d 9be1 9cbd cedd 983d 6a77 f03d
00000300: 0666 0cbc 5682 f93c a4a6 953c b9b2 25bd
00000310: 8e58 39bc 2506 943d 186b 00bb 96c1 9fbb
00000320: 057e 6e3c 705e 9cbd 2773 80bd db09 9e3d
00000330: 14d8 c53c ac25 303d 0a0b c43d 3eeb 633d
00000340: b2ae e33d 0146 f0bc a1bc e1bb ca04 e1bc
00000350: 94ef b53d 3141 3bbc f7c3 c4bd 1c4a 96bd
00000360: d51a 3ebc 0daf 19bd ee42 893d af5f d6bc
00000370: 95d3 5dbd 41fb fa3c 9c13 dfbd 3273 45ba
00000380: 9243 943d 83d9 d33b b3cc 3fbd ee1a deb9
00000390: 29ef 003d 98f6 b83d 971f 9dbc 797a c13c
000003a0: 6011 d7bc ade6 f5bc 3537 0e3c c575 883d
000003b0: 15c7 e23d f605 5c3d 897f 9e3d 815a 773a
000003c0: fe0c 163d d7e8 73bb 9d86 453d b3d4 3abd
000003d0: 1245 babb d0ae e0bc 6b32 0cbd 1b43 ffbc
000003e0: 2be1 3ebc 67d9 3ebd 888f e63b cb5a 923c
000003f0: 8903 8ebd 6f81 e2bd dcf1 843c 6bcd 073d
0.0015013108 -0.091135524 -0.0719514 0.010257795 0.030896416 -0.04055671 0.017490726 0.02628522
0.01546286 -0.048489667 0.03399556 0.07611184 0.056246214 -0.033055216 -0.050998457 0.012452956
-0.0397688 0.03217287 -0.019910619 0.036421593 0.07697696 -0.013504715 -0.004133855 0.029986084
0.0728113 -0.0154107055 -0.07322751 0.041118033 -0.017764855 -0.08747424 -0.06471425 0.03110556
0.01767983 -0.101118304 -0.037648898 0.00843177 -0.0091396 0.03231167 0.065559275 -0.04581418
0.029170863 0.073222116 0.043597758 -0.041408945 0.024632843 0.008809506 0.22221717 0.03255021
-0.072210446 0.02851841 -0.0018850471 0.030534422 0.031694025 -0.009595868 -0.037702322 -0.014387588
0.055559333 0.07365163 0.06174898 0.02060017 -0.050998367 -0.04015438 -0.07153871 0.008925735
-0.056650158 0.019566547 8.907052e-05 -0.07512132 -0.04904531 -0.06967938 0.100914635 0.0043447586
0.05529817 0.016555708 -0.0020842098 0.0067615057 0.04250331 0.10642169 0.01768245 0.06391666
-0.0044372072 -0.08319266 -0.03007834 0.014214618 0.0030957875 -0.028583273 -0.0018758713 -0.009446614
0.08046779 0.15320535 0.060285646 -0.05327213 -0.01895434 0.12707996 -0.047907297 0.035649445
-0.0098044835 -0.036880456 -0.022156132 0.03593452 -0.16024314 -0.07775049 0.012559036 0.015460759
-0.08896484 0.010752365 -0.011955728 -0.010859888 -0.012428902 -0.008779436 0.009018874 -0.034386437
0.0013668357 0.0049401224 0.12019885 -0.017165238 -0.039569676 -0.07253593 0.0218858 -0.024216112
-0.04623959 -0.038899187 -0.11788417 0.075632125 0.106442146 0.07116737 0.023416976 -0.015686203
0.11067189 0.121226676 -0.07352228 0.036739916 0.08639594 -0.02853503 -0.041707397 0.10568859
-0.109686084 0.042876966 -0.042648267 0.04138824 0.004660386 0.0048765475 -0.015526132 -0.018320898
-0.022014264 0.020642469 0.019232053 0.024945859 -0.026993271 -0.0030141796 -0.00595342 0.009268668
0.07529426 0.07742096 -0.02661777 0.0151149575 -0.07537042 0.050577085 0.020532964 0.029900169
-0.005875684 -0.030475475 -0.009103934 0.0028226944 -0.028009713 -0.030379869 0.012985656 0.06352753
0.050970394 -0.0496186 -0.064412095 -0.11243432 -0.0017886682 0.058336273 0.054679412 -0.061399795
-0.021463599 -0.013014698 -0.08614191 -0.0061368966 -0.003402058 0.080799565 0.09208829 -0.04404026
0.07622996 0.02398437 0.019113079 0.03497549 0.12170575 -0.07660218 0.07464181 0.117415264
-0.008569246 0.030457657 0.018267937 -0.040453646 -0.011312617 0.072277345 -0.0019595083 -0.004875372
0.014556413 -0.076352 -0.062719636 0.077167235 0.024150886 0.043004677 0.09572418 0.055644266
0.11117305 -0.029330255 -0.0068889414 -0.027468104 0.088835865 -0.011429117 -0.0960769 -0.07338354
-0.011603077 -0.037520457 0.06702219 -0.026168672 -0.05415686 0.030637385 -0.10892412 -0.0007532119
0.072394505 0.0064651384 -0.046826076 -0.00042363204 0.03147808 0.09031409 -0.019180102 0.02361797
-0.026253402 -0.030017221 0.008680155 0.06663088 0.11073128 0.053716622 0.07739169 0.00094357884
0.036633484 -0.003721764 0.04822408 -0.045613002 -0.0056845034 -0.027427107 -0.03422777 -0.031159928
-0.011650364 -0.04659405 0.007036153 0.01786556 -0.06934268 -0.11059844 0.016228609 0.033154886

network_body.linear_encoder.seq_layers.0.bias f4 [128]
00000000: 66e5 043d 447b acbd 1f1d 7c3d fb80 adbd
00000010: 68b6 883d 14ef 013b 1ff6 b33d 2c23 1e3c
00000020: 2c35 65bd 5db1 51bd 5b84 91bd 4091 a53b
00000030: 4eb0 1e3a ef4a adba 32a0 f4bd efcd 9d3c
00000040: 398d b8bd 2a2b b53c 6902 3f3d 0543 d4ba
00000050: 37c9 cf3c d3ee 363c 55e8 633b 9aee 8b3b
00000060: 0ca5 c73c 6d4e e2ba 4b5d 763d 6984 4d3c
00000070: d06d 73bd 56c9 35bd dae6 c23c 8ebd 3b3d
00000080: b99b 853c b0dd 04bd 3201 383d 84b6 8a3c
00000090: 86a1 0f3b 31d0 063c 81b9 763d 01ef b4bc
000000a0: ea2a a23b 084d 903d 547e 043d 7193 9e3d
000000b0: 7ac9 6739 f7bb 153d d5f0 8ebc 0b54 dd3c
000000c0: b588 a6ba f822 a6bc f9d9 22bd 4026 253b
000000d0: 7e72 493c 0c19 30bc d6e6 193c 34c2 573c
000000e0: da73 f73b 43a9 66bb 7939 55bd 0d8e 083d
000000f0: 8cdb 903d a646 acbc c383 a33c 8140 4c3d
00000100: 5a63 8dbd dc8c 253c 704e 8c3d 8159 1b3b
00000110: 4501 e1bd a3f9 5e3d cfc2 9c3a 64b4 6d3b
00000120: e0d0 4dba cef1 02bd c1ab abbd 8d27 583d
00000130: 6761 43bc 2de0 9ebc fb23 733d f08a 3c3c
00000140: 83c4 17bc 9296 4fbd 4a0e 7c3c d47d d23b
00000150: d1b8 56bd c611 cd3b 3372 bdbd 5e72 88bc
00000160: 1f06 b03b f17b 673c b4ec 053d 35f7 a43c
00000170: 5af5 9ebd 0801 103d 1e76 1a3d 3af1 7dbc
00000180: 73ae a23c a367 27bd 02ac 52bd b747 42be
00000190: 9ff5 b7bc 65ab 923c e3f0 83bd b35b 323d
000001a0: cbf6 c5bd 2be5 89bb ce3a 113d 1bdb 563d
000001b0: 226b 703d 9654 503c 84b7 3c3d b9cc c2bc
000001c0: a14a 633c 902b ac3c 9d06 ca3c 65da e53c
000001d0: 4d80 acbc 4769 c0bc e47b 063d b9fa b2bc
000001e0: 7e80 aa3c a734 b73c ee16 82bd 2335 76bb
000001f0: 1776 43bd ca39 9dbc 1a2a cdbd dd48 c8bd
0.032445334 -0.084219486 0.06155121 -0.08471867 0.06675416 0.001982634 0.08787178 0.00965194
-0.05595891 -0.051194537 -0.07105323 0.0050527155 0.0006053493 -0.0013221184 -0.11944617 0.019263236
-0.09011311 0.022115309 0.046633158 -0.001619429 0.025364501 0.011165339 0.0034775932 0.004270387
0.024370693 -0.0017265804 0.060147565 0.012543776 -0.059430897 -0.044381462 0.02379172 0.04583507
0.016309606 -0.03243798 0.044923015 0.016932733 0.0021916344 0.008228348 0.060235504 -0.022086622
0.0049489634 0.070459425 0.03234704 0.07742966 0.00022104933 0.03655621 -0.017448822 0.027017614
-0.0012705537 -0.020280346 -0.039758656 0.00251998 0.0122953635 -0.010748159 0.0093934145 0.01316886
0.0075516524 -0.0035196103 -0.052056763 0.033338595 0.07073125 -0.021029782 0.01996029 0.049866203
-0.069037154 0.010104384 0.06850898 0.0023704472 -0.1098657 0.05443729 0.0011959913 0.0036270851
-0.0007851254 -0.031968884 -0.08382369 0.052772094 -0.011925078 -0.019394005 0.059360486 0.011507735
-0.009263161 -0.050680704 0.015384266 0.0064236913 -0.05242235 0.0062582223 -0.092502974 -0.016656097
0.0053718234 0.014128671 0.03269644 0.020137409 -0.07761641 0.035157233 0.0377103 -0.015499407
0.019858574 -0.04087032 -0.05143357 -0.1897267 -0.022455988 0.017903993 -0.0644243 0.043544482
-0.09666213 -0.004208227 0.03545647 0.05245505 0.05869592 0.012715479 0.04607345 -0.02377926
0.013872773 0.021016866 0.024661357 0.02805824 -0.021057272 -0.0234877 0.032832995 -0.02184807
0.020813223 0.022363974 -0.0635203 -0.0037568293 -0.04772004 -0.019192595 -0.10017796 -0.097795226

network_body.linear_encoder.seq_layers.0.weight f4 [128, 45]
00000000: fa40 553d 365c b4bc ecaf 803d ed9d 223b
00000010: 97e8 553e b667 753d ab3c 2ebc 960c 233d
00000020: 4d36 c3bd 6fb1 dbbb afbe ebbd 61ac 9c3e
00000030: 930d c63c fb4b 4dbe 5f55 23be b1e2 d9bd
00000040: d615 883e dd67 2fbe 2fe8 6dbe 837e 3cbe
00000050: db31 8ebe f0b0 46bd eb12 64bd e95a 30bd
00000060: 999f 46be d53a 863e 09b7 38be 0756 93bd
00000070: c312 10bd 7467 dfbb 1c19 a9bc af84 8f3e
00000080: fef5 14bd 271e e63c 9f43 2b3e 4275 0fbe
00000090: a679 3cbe 02ec fb3d 4425 1b3e 3190 d4bd
000000a0: 8304 383d a8af 753c 7967 313d 9d20 993e
000000b0: 4d6b 65bd 7325 813d 6c8d a5bd 1ffa 10be
000000c0: 56cb e03c a004 0cbe 5861 aebd dceb 22be
000000d0: 359c 56bd ab11 b2bd dfd3 363d 2f01 333c
000000e0: 2f50 04be 8331 993e f46d 83bd 84af 78bd
000000f0: 3888 29be fd06 9c3d 2178 eebc 6b8d 113e
00000100: 0627 6d3e ac53 28be c2f6 41be f296 36be
00000110: d367 893d 558e 0f3c d4b8 c33d f988 b93e
00000120: 4c6d efbd 956b 40bc 9664 303d 194a 0cbd
00000130: 6923 5dbe ee45 84be db30 f4bd 3f81 17bd
00000140: a8df 8e3d 6d34 0b3e bcac 373d 32e1 afbd
00000150: 11f4 e53d d9e6 2abd 9231 b9bd 4772 b9be
00000160: 87d4 02be 22bb 8e3d 479d 9ebd 4d7b 77bd
00000170: f8fa 953c 29e5 2dbe 9a48 ce3b aa10 69be
00000180: 5f0c 0e3e f01d 2e3d cc15 833d 82e3 c3bd
00000190: ca16 0a3e 99ed 0ebd 5e23 173e 970d 1fbe
000001a0: 8b90 063e 0fa5 db3d 8759 92be b36e 853e
000001b0: 346a 12be a6e8 303e 4221 81bd 3553 f2bd
000001c0: 42f9 6ebd 0f2b 9d3e ff1f f2bd 22a8 e0bd
000001d0: 7103 a33e fbf6 fc3d 9f28 abbc 4423 b63d
000001e0: 1233 c2bd fc40 ee3d 3a20 05be 5b14 8d3c
000001f0: aebe 7d3c 5ec9 3ebe 5fe4 58bd c5e7 e43c
00000200: db85 853e d831 92bd 000d 733e 0b0d e13d
00000210: 1ffb f53d 9350 1bbe 3c67 50bb cd6f 1d3b
00000220: 785a 493d 41d1 1c3c c967 2d3e 0a3b 7e3d
00000230: e6d6 14be 9211 ca3d a848 813c eb65 643e
00000240: 4534 4d3d 9582 15be d27f f43c de1d e5bd
00000250: 41c7 1fbe 553d 743e 1326 abbd 0bbc 42bd
00000260: cf55 6e3d 71bd 17bd 2419 073e ee22 053e
00000270: ece1 dcbd 68a5 c3bd 7e3a 51bb 5897 2dbd
00000280: d7d6 5f3e d10f 833d a1fa 40be bc25 443e
00000290: 985c d9bc 3764 9d3d f2f7 9d3d 8dfb 24be
000002a0: 0e96 a33d 9174 623d 59ae 9c3d c203 373e
000002b0: 61a7 10bb 7b2f 203e b2ee d7bc 8542 42bb
000002c0: 5c4a f53c 15ae a0bc 70b3 ab3d 1e8b f43d
000002d0: b635 c6bc da71 843e 30b9 a2be 9a24 8d3e
000002e0: 60e6 03be 32f6 0fbd f935 53be 564e c03d
000002f0: 6645 aa3e 3106 81be 92d7 053e c355 ab3c
00000300: 1f26 fcbd 29a3 b4bd 2b47 21bd 5f7c 833b
00000310: ad7d cebd cc06 5c3d 3bb5 38be a76f 2f3e
00000320: 7c36 df3e 2eca 93bc 7527 8c3e cd58 173e
00000330: 7753 15be b896 933e 54db ca3d c499 613d
00000340: 2b52 ce3e 3f5a fd3b f14f e0bd ef60 913d
00000350: b380 ba3d f449 e0bd 10e6 45be 6a3d fbbd
00000360: f54b 583e 45cc 13be 2b90 303e 4f8a 1fbd
00000370: 8d80 06be 5207 f1bd cfe5 0a3e 6819 953d
00000380: 7b56 283e 3aa1 513e bc55 703e e06c 1e3e
00000390: 059c 84bd b32c cbbd 65e2 c23d ab43 24be
000003a0: 6128 a7bd 15aa 513e 1dd2 983e e924 06be
000003b0: c8f5 89bd f457 99bc 93e9 783e 7715 523c
000003c0: d4cd 273e 1257 31bd f588 023d 79ff c43c
000003d0: 176e ca3e a72a 203e cbe0 e4bd 39d8 a6bd
000003e0: 123c 0f3d d0d1 e8bd 52f4 113e a326 5f3b
000003f0: 1f1d 12be 244a 41bd 66cc 733d 31fa ab3d
0.05206392 -0.022016626 0.062835544 0.002481337 0.20889507 0.05991336 -0.010634582 0.039806925
-0.095318414 -0.0067045013 -0.115109794 0.30600265 0.024176395 -0.20048515 -0.15950535 -0.10638941
0.2657916 -0.17129464 -0.23233102 -0.18407635 -0.27772412 -0.048508584 -0.055682104 -0.04305545
-0.19396819 0.2621676 -0.18038572 -0.07194143 -0.035174143 -0.0068177525 -0.020641856 0.28030917
-0.03636741 0.02809055 0.16725014 -0.14009574 -0.1840578 0.12300874 0.15150934 -0.10379065
0.044926178 0.014995493 0.04331157 0.29907694 -0.056010533 0.06305971 -0.08083615 -0.14157914
0.027440708 -0.1367364 -0.085146606 -0.15910286 -0.052395064 -0.08694776 0.04463565 0.010925575
-0.12921213 0.29920587 -0.06417456 -0.06071426 -0.1655587 0.076185204 -0.029110016 0.14214103
0.23159418 -0.16438168 -0.18941787 -0.17831019 0.06709256 0.008761962 0.095567375 0.36237314
-0.116907686 -0.0117444 0.043064676 -0.034250353 -0.21595539 -0.25834602 -0.11923381 -0.036988493
0.06976253 0.13594218 0.044842467 -0.085878745 0.112281926 -0.04172406 -0.09042658 -0.3622
-0.12776385 0.069692865 -0.07744842 -0.060420323 0.018308148 -0.16981949 0.006295276 -0.22760263
0.13871907 0.04250902 0.06400642 -0.09564878 0.13485256 -0.03489456 0.14759585 -0.15532528
0.13141076 0.10724842 -0.2858393 0.2606102 -0.14298326 0.17276248 -0.063051715 -0.11832277
-0.05834318 0.30696914 -0.11822509 -0.10969569 0.31838563 0.12351795 -0.020893393 0.08893445
-0.09482397 0.116334885 -0.13000575 0.01722162 0.015487356 -0.18631503 -0.052952167 0.027942548
0.26078686 -0.07138413 0.23735428 0.10988816 0.12010788 -0.15167455 -0.0031799814 0.0024022937
0.049158543 0.009571374 0.16934122 0.062068023 -0.14535102 0.098666325 0.015781716 0.22304504
0.050098676 -0.14600594 0.029846106 -0.11187337 -0.15603353 0.23851521 -0.083568715 -0.047542613
0.058187302 -0.0370459 0.13193184 0.13001606 -0.10785279 -0.09553033 -0.0031925733 -0.04238066
0.21859299 0.06399501 -0.18845607 0.1915502 -0.02653341 0.0768513 0.077133074 -0.16111584
0.07987605 0.055286948 0.07650442 0.17872527 -0.0022072422 0.15643112 -0.026358936 -0.00296417
0.029942684 -0.019614259 0.08383834 0.11940597 -0.024195533 0.25868112 -0.31781912 0.27566987
-0.1288085 -0.0351469 -0.20626058 0.093899414 0.33256072 -0.25200036 0.13070515 0.020914918
-0.123119585 -0.08820183 -0.03937451 0.004012629 -0.100825645 0.05371742 -0.18037884 0.17132436
0.43596256 -0.018040743 0.27373853 0.14779969 -0.1458262 0.28825927 0.09905115 0.055078283
0.40297064 0.0077317054 -0.109527476 0.07098567 0.09106579 -0.109516054 -0.19326043 -0.12267573
0.21122725 -0.14433391 0.17242496 -0.03895026 -0.13134976 -0.11768974 0.13564228 0.072802365
0.1643924 0.2047166 0.23470205 0.1547122 -0.06475071 -0.09920635 0.095158376 -0.16041438
-0.081619985 0.20475037 0.29847804 -0.13100018 -0.06736332 -0.018718697 0.24307851 0.0128225
0.16387111 -0.043295927 0.031868894 0.0240476 0.39537117 0.1564127 -0.11175688 -0.0814671
0.034969397 -0.113681436 0.14253357 0.003405013 -0.14268921 -0.047189847 0.0595211 0.083973296

network_body.linear_encoder.seq_layers.2.bias f4 [128]
00000000: 38d6 e73c 0dc2 c83d 49ef 9a3d dcb5 bfbc
00000010: a16d ba3c b9b2 a93c 2e66 cb3c cca2 813d
00000020: 8a25 183d 8df4 453c f3ae b43c 0581 3a3b
00000030: 382f c2bb e03e 1c3c f0f8 093d 47a2 653c
00000040: 4a54 f43c febc d1bc 7c1f 0fbd 0275 fdbc
00000050: 302f dc3c ccb6 a13c 7556 07bb 46b2 31bc
00000060: f594 e83c e4bb a13c 8b0d a63d 6e64 80bc
00000070: 8766 153d 163d 5b3d da0d 1f3d 751e a2bc
00000080: f784 78bc 2106 a53d 43bf 343c 0859 d3bc
00000090: 8199 4a3c c380 463b 2b20 963b fc60 f33c
000000a0: a48e 213c ecf4 e73c 8d27 eb3c 2c75 7e3d
000000b0: 5f49 8abc 1d05 cc3b b583 d13d 1e39 e33c
000000c0: 3d69 b23d e80d 3c3c dafb 0d3d ef82 983a
000000d0: 67b2 cebb 33a4 013c d98a 923c 4a93 723c
000000e0: 4479 0c3b c0ac e7ba 9cc4 c2ba 912a b8bc
000000f0: 841c bb3c 9d58 233d 32be 6c3d fe22 443d
00000100: b88c 863c e640 a5bc 2d7e 7ebc 785d 8a3d
00000110: ac9b 693d 7ea7 b03c a6aa 7f3c 18ce abbc
00000120: cfad 54bb 6c13 ec3c aba6 a43c 8f73 df3c
00000130: 6069 5dbc af81 133d 4c45 153d 6c3b 293a
00000140: 17cb 483d 0fe4 913d f43a e73c df67 0d3c
00000150: 6205 393c de2f 863c 4414 423d 880e 643d
00000160: 850a 903c cbd8 5c3d d508 d73c 0701 1b3d
00000170: a1bf e33c 5538 1d3d eec5 b33d 047d 44bc
00000180: 0644 a3bb 786a 9f3c 135a 0d3d e6bf 15bb
00000190: 9c91 db3d 770d 3f3d af3c 2e3c f275 10bd
000001a0: 3f46 603d ecf3 c73c 3fac d3bc f61f 8b3c
000001b0: e37d 4a3d f22a 6b3c 18a1 99bc 8611 e93c
000001c0: 5eaa 3bbc 3978 3cbc ac74 253d cf3d 0e3d
000001d0: db09 b73b 217b 953d ba4b f93c 8bff 023c
000001e0: 0c37 463d 7b4f 823d a95d 953d 4ddb 5b3c
000001f0: 1de2 183d afdc a33d 2b7b ffbc 1728 21bc
0.02830039 0.09802637 0.07565171 -0.023402147 0.022757353 0.020715104 0.024828997 0.06329879
0.037145175 0.012082231 0.022056079 0.002845825 -0.005926039 0.009536475 0.03368467 0.014015741
0.029825348 -0.025602814 -0.034942135 -0.030939583 0.02687797 0.019740485 -0.0020650898 -0.010845726
0.02839134 0.019742914 0.08108052 -0.015672889 0.03647473 0.053525053 0.03883157 -0.019789914
-0.01516842 0.080578096 0.0110319285 -0.02579929 0.0123657 0.003028915 0.0045814714 0.029709332
0.009860668 0.02831503 0.028705383 0.062123463 -0.01688069 0.0062261955 0.10230199 0.027737197
0.08711479 0.011477925 0.034664012 0.0011635701 -0.0063078883 0.007912683 0.017888473 0.014805624
0.0021434585 -0.0017675385 -0.001485962 -0.022481235 0.022840746 0.03987943 0.057798572 0.047884934
0.016424522 -0.020172548 -0.015533012 0.06756109 0.057033226 0.021564241 0.015604651 -0.020972297
-0.003245223 0.028817855 0.020099005 0.027276782 -0.013513893 0.036012348 0.03644304 0.0006455693
0.049021807 0.07123577 0.028226353 0.008630722 0.011292787 0.016380247 0.047382608 0.05567792
0.017583141 0.053917687 0.026249329 0.037842777 0.027801337 0.0383838 0.087779865 -0.011992697
-0.0049824743 0.019459948 0.03450973 -0.0022849976 0.10721132 0.0466437 0.010634585 -0.03526873
0.054754492 0.024408303 -0.02583897 0.016983014 0.04943646 0.014353501 -0.018753573 0.028450739
-0.011454193 -0.011503273 0.04039447 0.034726914 0.0055858917 0.072988756 0.030431617 0.0079954965
0.04839234 0.06362816 0.07293255 0.013418985 0.037325013 0.080010764 -0.03118666 -0.009836218

network_body.linear_encoder.seq_layers.2.weight f4 [128, 128]
00000000: 73c1 b43e bac2 733c 828a e6bd 3bb7 40bd
00000010: f6fe 38be de7a 5b3c 46b5 05be e518 12bd
00000020: 8ee3 b63b bc47 bb3d f6e4 86bd c6f1 fc3c
00000030: 9407 b0bd eabf 39be bd06 1f3e 7fcf dabd
00000040: 72ec 75be 48d9 14bc eec6 26bc 51e4 11be
00000050: 1e8a 3e3d 0645 f63a 631e c2bd 7155 353c
00000060: e5c9 13be 0959 09be 9954 71bc b83e 56bb
00000070: 2059 ddbd f0c9 153e 97d6 1e3e 9993 0d3e
00000080: 4050 3c3e 8764 68be ad37 c03c 51d3 04bc
00000090: 10af d53d d685 d63c 176c a3bc bca1 1e3d
000000a0: ec1b e0bd 1779 f83d 37e4 87bd ac15 3dbe
000000b0: 3533 ffbd 9722 c13d 6de5 b23d 0c47 acbd
000000c0: 1159 a73d 6198 2a3d 2812 2dbd 3fc7 6f3e
000000d0: e455 2cbd 0134 49bc 72e0 b13d b6a3 623b
000000e0: 4259 20bc 94b1 e53b f4d2 b93c 06b3 ab3d
000000f0: 000b 67bb 487d 1f3c 919f 973d 68dc ffbc
00000100: 88bd 153e 6cfc 4abe c3fb 2cbe 85cd 80bd
00000110: 8788 7b3c 9963 a5bc f77d edbc f081 a13d
00000120: 3d79 e93c 8881 833d 4add f53d d8e8 353c
00000130: 8d2f b63c 7981 0c3e 22e0 493c 06c5 f2bd
00000140: 6040 2c3e 8417 623d 75b2 c23d 0dbc aabc
00000150: 5da8 88bc 54f5 0fbe a79a ad3d 6800 053d
00000160: 04ab dbbc d60d 6b3c b946 953c 330f 4bbd
00000170: e669 9dbd 4b15 4dbe 494e 1bbd 73db 853c
00000180: 7bff 44bd 66b6 81be 20f6 2ebe 94c8 8ebc
00000190: fb9c b23c b66c 243e 4d29 cbbd c2d7 8e3d
000001a0: 4ebf 46bd 51e1 ccba b8ec 81bd a90f 0c3d
000001b0: 6c2d e9bc a8e0 0bbe e865 19bd 7127 d23d
000001c0: 8c2a 5c3b b938 ad3d 1ed9 cdbc d3c8 bb3d
000001d0: cd19 583d 70ba 01be 9838 1bbe ab79 34bc
000001e0: 39bf 1a3e 9a7c 7ebd 117b d93d 2bc8 1bbd
000001f0: 7344 4ebd 85a4 52bd 0b6f d8ba dfc6 cf3c
00000200: 3c7f c13d ead8 f8bc 9983 8abd 051e 94bd
00000210: bc44 763d c5c3 eebc 8bb7 b0be 70d7 31be
00000220: 3fb7 78bd 659b df3b 2f72 dc3d 4d33 0a3d
00000230: 791e 13be fbe9 05be ff84 b5bc 97bb b1bd
00000240: 1ea9 fe3d 8c72 f33d 421a e53c 3eb0 62bd
00000250: 2b45 af3d ddfd abbd 051f a2bd 3e98 3fbe
00000260: 175c 12be 8c56 7bba 6a7c b83d 4397 a13d
00000270: 0dfa f9bd 0b73 91bb d87a bd3d ec8e 78bd
00000280: b4f2 1c3b ffc7 23be 1db5 51be 45cc 1bbe
00000290: f196 05bd 6d1e 6abd 808e cc3d 3328 4dbe
000002a0: 57b3 263e e11e 8abc 2de8 133e 97d9 f0bd
000002b0: ee25 b7bd d774 53be 202b 0bbe d9b3 2f3d
000002c0: 5e57 ae3d f7c3 dc3d d803 4f3c 3121 923c
000002d0: 8c0f a83d dcbc bd3d 4c6c 0fbe df68 33be
000002e0: 6c4e a73b e10c 83bd 5903 3dbd 33b8 f93c
000002f0: 06b4 ae3d 41cc 0e3e a19b e73d 6d21 07be
00000300: e5f6 56bc 1bb4 00be e3b0 42be 25da cabc
00000310: 1c9d 9dbd 9b3d 28bc df3d 9ebd 6dbb 893d
00000320: 759a d23c bcbf 9a3d 873a 26be 49d4 0d3d
00000330: 037d fd3c ca5e 1dbd e3c4 bd3b 9b83 0d3e
00000340: d65e dfbd 34ef 323e f2f9 cebb 810a 173e
00000350: 99db 83bc f9a5 b63d c891 47bc 8e2c f13d
00000360: 23b9 ecbc ef2e 84be 1b70 d03c 8904 913c
00000370: d8cb 01be 594d edbd c588 f2bd 2fc6 833d
00000380: aeaa 10bd c738 6fbe 89c7 c9bd 69a7 30bd
00000390: 5260 3abe 17b0 c83c 313b 4abd ccf6 afbd
000003a0: 5f02 90bd 3690 23be 3774 8abe fc70 a33c
000003b0: 6eba 453d e079 cabd 2e33 92bc 3f75 5b3c
000003c0: f24a 2b3c 2443 a23d 997a c63d 69b1 183d
000003d0: 082c 953d 4024 f2bd 1695 94bc 4320 abbd
000003e0: c220 113d 2e15 903c 5b70 373c b713 7a3b
000003f0: b32e c03d 2118 c63d d84e e3bd 03dc 273c
0.3530384 0.014877969 -0.11256887 -0.047049742 -0.1806601 0.013395993 -0.13057432 -0.035668273
0.005581326 0.091445416 -0.065866396 0.030877005 -0.085951954 -0.18139616 0.15529914 -0.10684108
-0.24015978 -0.009085007 -0.0101792645 -0.14247252 0.046518438 0.0018788881 -0.09478452 0.011067734
-0.14432485 -0.1341287 -0.014729642 -0.0032691192 -0.10808015 0.14627814 0.15511547 0.13825835
0.18389988 -0.22694598 0.023464048 -0.008107022 0.10433781 0.026186865 -0.019949002 0.03872846
-0.10942826 0.12132471 -0.066353254 -0.18465298 -0.12460939 0.094304256 0.08735166 -0.084119886
0.08171285 0.041649226 -0.042253643 0.2341585 -0.0420741 -0.012280465 0.08685388 0.0034582443
-0.009786906 0.0070096944 0.022683598 0.083837554 -0.003525436 0.009734459 0.07403482 -0.031233028
0.14623082 -0.19822854 -0.16892914 -0.062892 0.015352375 -0.020189093 -0.028990729 0.07886112
0.028500194 0.064211905 0.12005098 0.011102878 0.02223947 0.13721265 0.012321504 -0.118539855
0.16821432 0.055198207 0.09506694 -0.020841623 -0.016681844 -0.14058429 0.08476763 0.03247109
-0.026814945 0.01434656 0.0182222 -0.049575042 -0.07686214 -0.20027654 -0.037916455 0.016339993
-0.048095208 -0.2533447 -0.17086077 -0.017429627 0.02180337 0.16057095 -0.09919987 0.06974746
-0.048522286 -0.0015631114 -0.06343979 0.034194622 -0.028464042 -0.13659918 -0.0374507 0.10261429
0.0033594696 0.084580846 -0.025127944 0.091691636 0.05275898 -0.12668777 -0.15158308 -0.011015336
0.15112008 -0.062130548 0.10619176 -0.038032692 -0.050358247 -0.05142643 -0.0016512586 0.025363384
0.09448096 -0.03037687 -0.067633815 -0.07232288 0.060124144 -0.029146085 -0.34515032 -0.17367339
-0.060721632 0.0068239444 0.10763966 0.03374033 -0.14367093 -0.13077538 -0.022158144 -0.08678358
0.124346 0.118870825 0.027966622 -0.05534386 0.085581146 -0.0839803 -0.07916073 -0.1871042
-0.14292942 -0.00095877866 0.09008105 0.07890179 -0.122058965 -0.004438763 0.09251946 -0.060683176
0.0023948373 -0.15994261 -0.20479245 -0.15214641 -0.032614652 -0.057157923 0.09988117 -0.20034866
0.1627935 -0.016860427 0.14444037 -0.11760252 -0.089427814 -0.2065004 -0.1359067 0.042896125
0.08512758 0.10779565 0.012635194 0.017838093 0.0820609 0.09264538 -0.14006156 -0.17520474
0.005105784 -0.06398941 -0.04614577 0.03048334 0.085304305 0.13945104 0.11308981 -0.13196345
-0.013120388 -0.12568705 -0.1901279 -0.024762223 -0.07695982 -0.010268594 -0.07726645 0.06725202
0.025708416 0.07556102 -0.16233264 0.03462628 0.0309434 -0.038420476 0.005791293 0.13819735
-0.109067604 0.17474061 -0.006316417 0.147501 -0.016095923 0.089183755 -0.012180753 0.11776076
-0.028896874 -0.25817057 0.025444081 0.017702358 -0.12675416 -0.115870185 -0.11842493 0.06434285
-0.035319023 -0.23361503 -0.098525114 -0.043128405 -0.18200806 0.024498029 -0.049372856 -0.08591995
-0.07031702 -0.15972981 -0.2704179 0.019951336 0.048273496 -0.09886527 -0.01784667 0.013394653
0.01045488 0.07922962 0.096913524 0.037278567 0.07283789 -0.118233204 -0.018137496 -0.08355763
0.03543163 0.017588224 0.011196221 0.0038158724 0.09383907 0.09672571 -0.110990226 0.010245326

network_body.processors.0.normalizer.running_mean f4 [27]
00000000: 1ff2 533d 3b66 3440 4f1d 953c 17e7 503d
00000010: c7b7 3640 d02e 983c 5b0d 4d3d fd01 3940
00000020: 05d0 9b3c c350 483d 4242 3b40 a90d a03c
00000030: 219e 423d 5e75 3d40 10d6 a43c 72e1 3b3d
00000040: cc96 3f40 7938 aa3c 6209 343d 82a0 4140
00000050: e434 b03c 2cff 2a3d c48a 4340 9bc2 b63c
00000060: 67ac 203d 724c 4540 b1e8 bd3c
0.051744577 2.8187397 0.018202452 0.051001634 2.8549669 0.01857701 0.050061565 2.8907464
0.01902009 0.048905145 2.925919 0.019537764 0.047514085 2.9602885 0.020121604 0.0458693
2.993579 0.020778881 0.04395426 3.0254216 0.021509595 0.041747257 3.0553446 0.022309592
0.039226916 3.0827909 0.023182245

network_body.processors.1.normalizer.running_mean f4 [18]
00000000: e54e 683a 1659 9439 951b 8c3a 87cd a639
00000010: ca1e a73a d23c b139 c9db c33a d16f bb39
00000020: 3d3a e33a 0e87 bf39 ce15 023b e697 c239
00000030: ea6b 133b 2cdb c339 d95a 253b aa0d c639
00000040: f63a 373b 1585 c239
0.0008861854 0.00028295134 0.0010689372 0.00031815117 0.0012750265 0.00033805385 0.001494282 0.0003575073
0.0017336082 0.00036530982 0.0019849422 0.00037115737 0.0022494742 0.00037356594 0.0025231151 0.00037775683
0.0027958727 0.00037101717
