com.unity.ml-agents/Tests/Editor/TestModels/continuous2vis8vec2action_v1_0.onnx (onnx, 332019 bytes, 21 tensors)

95 f4 [8]
00000000: db6e 073e 3b22 193e ba1d a33f 5015 1c3f
00000010: acb5 a43f 43b3 a43f aa12 9e3f 47ef a23f
0.13225882 0.14954464 1.2743447 0.6097002 1.2867942 1.2867206 1.2349446 1.2729272

96 f4 [1, 2]
00000000: 0000 0000 0000 0000
0.0 0.0

action_model._distributions.0.mu.bias f4 [2]
00000000: 0000 0000 0000 0000
0.0 0.0

action_model._distributions.0.mu.weight f4 [2, 128]
00000000: 3540 673a 23d9 9d3c eb30 21bc 8f95 60bc
00000010: cea9 0bbc 8fc3 cfb9 7376 a6bc 3c16 9bbc
00000020: 926e b8bb 0888 b73c c760 a1ba d3de 1ebc
00000030: 1ee5 23bd 8ad3 7cb9 3381 a53a bbd7 eabb
00000040: 0b0b 8dbb edd8 cebc e710 fb3b 974a 38bc
00000050: 80fa adbb 52ac 853b f810 7abb 4b15 c33c
00000060: 4224 d1bb 1f6f b7bb 8ffe ceba 73aa a1bc
00000070: d926 a5bb 67fe 523b 33e9 dbbb 8f77 a53b
00000080: 5ab9 f638 cf8b 80ba ecc7 b43c 1bf2 323c
00000090: 83f1 593a 33fe bdbc 3f75 39bc f48c 4cbc
000000a0: a584 103c 4ae4 543b 4610 223c bbf0 06bb
000000b0: ba77 893c 50f9 023d 1294 d03b 1f88 023c
000000c0: a0d4 2b3c fa3e 0dbb 535f fcbb 55a7 21bc
000000d0: 0eb7 903c 530e 5a38 ca5d deba 1532 6e3c
000000e0: 9130 473b 4fa2 123d 1fbe f33b f2ad 513a
000000f0: 136a 073c 4be5 a83b f402 28bc 03dd fe3b
00000100: 48a1 dbbc f5d1 563c 7dcb 8738 2c2a 9aba
00000110: 8fac f5bb e9bf 823c f983 c63b efe0 61ba
00000120: 5ad1 3c3c 2772 13ba 17b3 1dbc b410 0fbc
00000130: 3086 103c d038 d43a dd34 0439 3c33 bd3c
00000140: 0634 c53b 4d78 fbbc 1ad2 24bb 42ea 8eba
00000150: d299 5c3c e18f 1d3c 5c08 9abc 1b74 bc3c
00000160: c33f 98bb 9370 2b3c 75f2 fc3b ff48 233b
00000170: 6bef 223c c1f9 0e3b f3f4 2abc 86bc 9bba
00000180: 6586 ae3c 408d dc3b 30b6 283c b26a 303b
00000190: 4f48 3e3b fb9b deba bc14 97bb fb0b 583c
000001a0: 407c 1b3c ef37 0a3d 874e 0a3c 236c 96ba
000001b0: 7c61 8dba bbeb c03b f754 ffbc 6469 c63b
000001c0: d641 3c3c 3501 153c 4d9e 6fbb 6fb5 273c
000001d0: 315b b33c 6390 6fbc f38a 903c c062 43bc
000001e0: 436b 3a3c 388d 843c 2d6f ad3c 984b 60bc
000001f0: f341 683b b817 d5bb 48fa 8bbc 46e6 c8bb
00000200: 57eb ef3a bf40 dcbb 7f8a 013c 6c46 053c
00000210: b018 573c 60bd 79bc 47fd d53c 875b 20bb
00000220: 5b00 8cbc 569b ca3c d81d 72bb 29c0 2d3c
00000230: 1500 fa3c f522 bd3c a377 9ebc c611 b1bb
00000240: b3d2 80ba e0bd b5ba 17f4 bebc c8f4 d6bb
00000250: 67f8 e23b 1b6e 97bb 872e 833b 24c1 ac3b
00000260: 07a8 cc3c 1eba 44bb 777c f7bb fb84 073c
00000270: 7605 083b 75f7 533a 58bb 59bc 51d1 a4ba
00000280: d85c 83bc cf78 8dbc b384 c3bb e9f1 bbbc
00000290: c810 70bb 3b69 66bc df21 9a3b bd43 403c
000002a0: cace b53b 322a 563b 1368 2dbb 931f f0b9
000002b0: b284 533b ab57 4d3b 0234 fc3b aa25 02bd
000002c0: 0fa5 4a3c 7abe 863b 6d04 fc39 a903 37bc
000002d0: 4011 63bb 18d9 dc3b 9f8a 693b a04f 0e3b
000002e0: 4b18 2a3b 0f50 8e3b 25c0 6abc 4d46 123c
000002f0: 592b 8fb9 5803 efbc f24e 54bc f0b3 47bb
00000300: 8ab8 393c 7779 64ba 8794 93bc 248b 8aba
00000310: 5b71 80bc 6385 863c 0ba8 9f3c 3b53 bcbc
00000320: f944 9d3b 464b 353a 7708 353c bf27 21bc
00000330: 5d07 dc3c 4d99 943b a7dc 0d3b b21e fe3b
00000340: 1239 273c 6111 10bc 461a 3f3b 25a3 a03b
00000350: 8a69 c1bb f5e4 b53b dc40 30bc 0240 74bc
00000360: 4206 bb3c 41fc 0ebc 1889 343b 9333 a4bc
00000370: 4f9d 9b3c 6352 e93c 2faa 10bc fec4 0b3b
00000380: b5f6 e3ba fbad 383c e919 1bbc 01f8 cb3b
00000390: 27fc bd3b 97b6 85bc 9626 233c 4f5e 5239
000003a0: b34f ffbc 51b9 453c 2b5d dbba fa8a 4f3b
000003b0: 9f8e 7f3c 9b5e 923c ef01 113b 033b 8bbc
000003c0: 81c2 163c 4b03 57ba dbf7 59bc a91b b83b
000003d0: 4a59 06bd 73a3 ccbc da3d d5bb 7030 3c3c
000003e0: 124c ecba 4e61 44ba 113e 11bc 4f09 bb3b
000003f0: ea11 a8bc bbf0 3dbc d59f e33a 0b29 6ebc
0.0008821518 0.019268578 -0.009838323 -0.013707533 -0.008524371 -0.0003962782 -0.020320153 -0.0189315
-0.0056284154 0.022403732 -0.0012312167 -0.00969668 -0.040013425 -0.00024111397 0.0012627005 -0.0071668304
-0.004304295 -0.025249923 0.007661927 -0.011248252 -0.005309403 0.00407938 -0.0038157087 0.023813864
-0.006382496 -0.0055979635 -0.0015792417 -0.019734597 -0.0050400314 0.0032195093 -0.006711149 0.005049653
0.000117647185 -0.0009807291 0.022067986 0.01092198 0.0008313881 -0.0231925 -0.011319458 -0.012484778
0.008820687 0.0032484704 0.009891575 -0.0020590264 0.016780723 0.031976044 0.0063653076 0.007967024
0.0104877055 -0.002155243 -0.007701793 -0.009866555 0.017665412 5.198859e-05 -0.0016965207 0.014538308
0.0030393938 0.03579932 0.0074384357 0.0007998637 0.008265036 0.005154287 -0.01025461 0.0077778115
-0.026810303 0.013111581 6.475204e-05 -0.0011761836 -0.007497377 0.01596065 0.006058213 -0.00086165866
0.011524523 -0.0005624615 -0.009625218 -0.00873201 0.008821055 0.0016191248 0.00012608194 0.02309572
0.0060181646 -0.030697012 -0.0025149644 -0.0010903555 0.013464408 0.009616823 -0.018802814 0.023004582
-0.004646273 0.0104638515 0.007719333 0.0024915335 0.009944777 0.0021816345 -0.010434377 -0.0011881746
0.021304319 0.0067307055 0.010297343 0.0026919064 0.0029034798 -0.0016983742 -0.004610626 0.01318645
0.009490073 0.03374475 0.008441574 -0.0011476319 -0.0010786499 0.0058874763 -0.031168444 0.006055044
0.011490306 0.009094526 -0.003656286 0.010236128 0.02189407 -0.014621827 0.017644381 -0.011925399
0.011378112 0.01618062 0.021171177 -0.013689898 0.00354397 -0.0065030716 -0.017087117 -0.0061309664
0.001830439 -0.0067215855 0.007906555 0.008134466 0.013128445 -0.015242904 0.026121749 -0.0024468617
-0.017090013 0.024732273 -0.0036944058 0.010604897 0.030517617 0.023087958 -0.019344157 -0.00540373
-0.0009828418 -0.0013865791 -0.02330975 -0.006559942 0.0069265845 -0.00462128 0.004003349 0.0052720476
0.024982465 -0.003001816 -0.007552679 0.008271451 0.0020755208 0.0008085885 -0.013289295 -0.0012574588
-0.016035482 -0.01726952 -0.0059667467 -0.0229425 -0.0036631096 -0.014063175 0.004703745 0.0117349
0.005548333 0.003267896 -0.0026459738 -0.00045799892 0.0032275137 0.0031332772 0.0076966295 -0.0317742
0.012368455 0.004112062 0.00048068483 -0.011170306 -0.0034647733 0.006739747 0.0035635603 0.002171494
0.002595442 0.00434304 -0.014328037 0.008927894 -0.00027307382 -0.0291764 -0.012958275 -0.0030472241
0.011335501 -0.00087156094 -0.01801516 -0.0010570032 -0.015679052 0.016421026 0.019489309 -0.022988906
0.004799482 0.00069158187 0.011049381 -0.009836136 0.02685898 0.0045348764 0.0021646412 0.007755124
0.010206478 -0.008793206 0.0029159947 0.004902261 -0.005902474 0.0055509754 -0.010757651 -0.014907839
0.022830132 -0.008727134 0.0027547535 -0.020044124 0.018995909 0.028481668 -0.008829637 0.0021327133
-0.001739225 0.011271949 -0.009466627 0.0062246327 0.005797881 -0.016322417 0.00995793 0.00020062293
-0.031165933 0.012068109 -0.001673614 0.003166853 0.015597968 0.017867377 0.0022126397 -0.016995912
0.009201647 -0.000820209 -0.013303722 0.0056185317 -0.032799996 -0.024980282 -0.0065076174 0.011486158
-0.0018028042 -0.0007491306 -0.008864895 0.005707897 -0.020516355 -0.011593039 0.0017366359 -0.014536153

network_body.linear_encoder.seq_layers.0.bias f4 [128]
00000000: 0000 0000 0000 0000 0000 0000 0000 0000
00000010: 0000 0000 0000 0000 0000 0000 0000 0000
00000020: 0000 0000 0000 0000 0000 0000 0000 0000
00000030: 0000 0000 0000 0000 0000 0000 0000 0000
00000040: 0000 0000 0000 0000 0000 0000 0000 0000
00000050: 0000 0000 0000 0000 0000 0000 0000 0000
00000060: 0000 0000 0000 0000 0000 0000 0000 0000
00000070: 0000 0000 0000 0000 0000 0000 0000 0000
00000080: 0000 0000 0000 0000 0000 0000 0000 0000
00000090: 0000 0000 0000 0000 0000 0000 0000 0000
000000a0: 0000 0000 0000 0000 0000 0000 0000 0000
000000b0: 0000 0000 0000 0000 0000 0000 0000 0000
000000c0: 0000 0000 0000 0000 0000 0000 0000 0000
000000d0: 0000 0000 0000 0000 0000 0000 0000 0000
000000e0: 0000 0000 0000 0000 0000 0000 0000 0000
000000f0: 0000 0000 0000 0000 0000 0000 0000 0000
00000100: 0000 0000 0000 0000 0000 0000 0000 0000
00000110: 0000 0000 0000 0000 0000 0000 0000 0000
00000120: 0000 0000 0000 0000 0000 0000 0000 0000
00000130: 0000 0000 0000 0000 0000 0000 0000 0000
00000140: 0000 0000 0000 0000 0000 0000 0000 0000
00000150: 0000 0000 0000 0000 0000 0000 0000 0000
00000160: 0000 0000 0000 0000 0000 0000 0000 0000
00000170: 0000 0000 0000 0000 0000 0000 0000 0000
00000180: 0000 0000 0000 0000 0000 0000 0000 0000
00000190: 0000 0000 0000 0000 0000 0000 0000 0000
000001a0: 0000 0000 0000 0000 0000 0000 0000 0000
000001b0: 0000 0000 0000 0000 0000 0000 0000 0000
000001c0: 0000 0000 0000 0000 0000 0000 0000 0000
000001d0: 0000 0000 0000 0000 0000 0000 0000 0000
000001e0: 0000 0000 0000 0000 0000 0000 0000 0000
000001f0: 0000 0000 0000 0000 0000 0000 0000 0000
0.0 0.0 0.0 0.0 0.0 0.0 0.0 0.0
0.0 0.0 0.0 0.0 0.0 0.0 0.0 0.0
0.0 0.0 0.0 0.0 0.0 0.0 0.0 0.0
0.0 0.0 0.0 0.0 0.0 0.0 0.0 0.0
0.0 0.0 0.0 0.0 0.0 0.0 0.0 0.0
0.0 0.0 0.0 0.0 0.0 0.0 0.0 0.0
0.0 0.0 0.0 0.0 0.0 0.0 0.0 0.0
0.0 0.0 0.0 0.0 0.0 0.0 0.0 0.0
0.0 0.0 0.0 0.0 0.0 0.0 0.0 0.0
0.0 0.0 0.0 0.0 0.0 0.0 0.0 0.0
0.0 0.0 0.0 0.0 0.0 0.0 0.0 0.0
0.0 0.0 0.0 0.0 0.0 0.0 0.0 0.0
0.0 0.0 0.0 0.0 0.0 0.0 0.0 0.0
0.0 0.0 0.0 0.0 0.0 0.0 0.0 0.0
0.0 0.0 0.0 0.0 0.0 0.0 0.0 0.0
0.0 0.0 0.0 0.0 0.0 0.0 0.0 0.0

network_body.linear_encoder.seq_layers.0.weight f4 [128, 264]
00000000: 2d8f 70bd 0a27 7cbc e80a 41bd cdd1 9e3c
00000010: c7c1 d93d 35d6 943d 3042 2c3e 235d 92bd
00000020: 99ba 533d 2e6a 8fbc a5ae 583d 2b01 63bd
00000030: 6107 26bd 34ad ae3d 0add 1f3d dbe4 ea3d
00000040: e382 db3b 2740 453d aa2c 8c3b 6f8e 2f3e
00000050: 298e e53d 649e 7a3d 7107 89bd 8cfe 4b3d
00000060: 4b80 e5bc ae00 e43d 8630 9a3c 8ef5 a23d
00000070: b15b 84bc 14af b93b 22f7 683d d97e fd3c
00000080: fccf 0dbc 05ad 8ebc d641 673d 4ad8 a83c
00000090: 5c75 c3bd 6758 be3d bf56 933d 1a5b b43d
000000a0: 26f6 6abd ccd6 0f3d 7f32 f93d 227b 9abc
000000b0: 9fb9 8dbd 6c0b 2abc c30b 923d 5fe9 13bd
000000c0: 2f10 d23c 4c3a cdbd 8139 483e d3bd c9bd
000000d0: 1680 b23c 4549 09bd a646 24bd 0f78 ed3c
000000e0: 85d4 2fbd 3ef3 9fbd 8e91 44bd 32bc c2bc
000000f0: d7b8 8abd 9a9d b13d d778 403c 5335 d83c
00000100: 4365 16bd d1d1 34be 02ed d23d 9d6e 0d3c
00000110: 4306 2cbe 3157 bebc 6958 433d 0c1e 19be
00000120: f01f b83d 16ac 003d 6911 173d 0f98 98bc
00000130: 1905 5ebd bd74 f8bc 135c 08be b0ab 7bbd
00000140: 792e ef3b 0bf5 d0bc 052b 123e 1b84 393d
00000150: 8553 2c3e ef6c acbd 94a3 d3bc 1280 093d
00000160: 494e ca3c f1f1 eebb 6014 9c3d 4729 4cbc
00000170: bd93 923c 1dea 86bc eac5 653d 6363 3bbd
00000180: fb2e 07bd d122 e1bd 76af c23b b1b2 b03d
00000190: 1fe7 c9bd 2ba6 17be 6b98 4f3d ff1e de3b
000001a0: ef63 4b3d ee30 cabd fcd5 b43d aac6 1f3c
000001b0: 193d e13d 3815 99bd 701c 34bd 0224 873d
000001c0: 8b4c 153e 6651 35bc 6818 90bd b34b 333b
000001d0: 7e94 263c e03f 60bd 758d a13d 5fe6 df3d
000001e0: 6f09 5fbc a410 2bbc 21a9 0fbc 223b 863c
000001f0: 0bcd cf3c 279d 19bd 4113 403d 2c2a 473d
00000200: bf26 02bb 954d 8f3d 220f ff3c 385c 4c3d
00000210: 92dd 38bd 4fa2 99bd 3f01 9d3d 82ba 813d
00000220: c911 fb3d 2967 f7bc e13e d03b 9675 853d
00000230: df2a 2bbe 23d3 c93d 98a4 013d b2db 17bd
00000240: a930 513d 484c 743d 1174 dbbd 4841 14be
00000250: 4e2e ca3d 1057 83bd 0cf3 363e ff0a 3ebd
00000260: 68e5 953d cc48 b9bd fa45 79bd 7f3a 09be
00000270: 54d9 acbd f2ac 02be 9967 aabd 14c0 133d
00000280: 39fb 1ebc f5b7 3f3e bf03 98bd 10f9 9b3d
00000290: ed21 003e 930f 6bbc 7044 e3bd 2dda ba3d
000002a0: 937d 673d 5d69 cdbd 0ee5 cc3c 0442 1cbd
000002b0: 3fb4 c4bd e40e b13d 7738 d1bd ccac 2abd
000002c0: 6fc3 193d 3d6d e53c f94e 1bbb b5b6 413c
000002d0: 358e abbc 4cce bd3d 7f26 a1bd 7a28 013e
000002e0: f6bc 6fbc c613 22bd c993 1fbe 59c9 ef3d
000002f0: 763e d23d bda2 27bc 4610 39bd ff3e 94bd
00000300: 946b 463c b97d 21bd ecf4 b33c 0017 733d
00000310: 7d9d e83b 4e36 3dbd b5f3 773d ee69 843d
00000320: 705b bebd 461a e2bd 12d0 cabc 99da ca3d
00000330: 1cf9 833b 16fd bfbd 86dc 013e bdf0 fcbd
00000340: fdb7 ac3c 2f82 e4bd d914 0dbe a3fb f1bc
00000350: 2626 873c 2bd6 633c 163b 603d a92b d2bd
00000360: 0436 74bd d8b2 12be 5754 d3bd 9d8f 13bc
00000370: 64a1 273b b77b 0f3d 5cd5 3dbd 4b73 e23d
00000380: c85c 3dbe f329 613d 1000 763c 9fa4 10be
00000390: 1303 203e 11e3 0a3d 3c04 aabc b182 2c3d
000003a0: dffa 853d ce1b ea3b d35c 9ebd 63b8 9c3c
000003b0: 0619 7fbd 1086 9fbd b35a adbd 5237 263d
000003c0: d8b9 fabd c10b 63bd 2131 86bd eb60 1d3d
000003d0: 31cc 63bd 85f9 e13a 8eb8 31be 33c0 563d
000003e0: 45d8 5dbd fde8 243e 1d4a ca3d cca4 59bd
000003f0: 7113 7dbc c528 6cbd 9791 1c3e a91e b43d
-0.058730293 -0.015390167 -0.04712954 0.01938715 0.10632663 0.07267419 0.16822124 -0.07146671
0.051691625 -0.017506685 0.05290093 -0.055421036 -0.04053438 0.085291296 0.03902916 0.11469432
0.0066989525 0.048156884 0.0042777853 0.17144178 0.112087555 0.06118621 -0.066908725 0.0498033
-0.028015276 0.11132942 0.018821966 0.07956992 -0.016157003 0.005666623 0.05687631 0.030944275
-0.008655544 -0.017416487 0.05645927 0.020610947 -0.09543869 0.09294205 0.0719428 0.08806439
-0.05736365 0.035116956 0.121678345 -0.018857542 -0.0692017 -0.0103787 0.071311496 -0.036111232
0.025642483 -0.10020885 0.19553186 -0.09850659 0.021789592 -0.03351714 -0.040106438 0.028987912
-0.042927284 -0.07810067 -0.047990374 -0.02377138 -0.06773537 0.08672638 0.01174756 0.026392614
-0.036717664 -0.17658164 0.10299112 0.008632329 -0.16799264 -0.023234935 0.047691736 -0.14952868
0.089904666 0.031414114 0.036881838 -0.018627195 -0.05420408 -0.030329103 -0.13316374 -0.06144303
0.007299241 -0.02550747 0.14274223 0.045292 0.16828735 -0.08419215 -0.025834836 0.033569403
0.024695532 -0.0072920253 0.07621074 -0.012461013 0.017892713 -0.016469056 0.05609695 -0.04574908
-0.03300379 -0.10992969 0.0059413267 0.08627833 -0.09858536 -0.14809482 0.050682466 0.0067785974
0.04965585 -0.09872614 0.08829877 0.009751955 0.109979816 -0.0747475 -0.043972433 0.06598665
0.1457998 -0.01106677 -0.07035905 0.0027358353 0.010167239 -0.054748416 0.07888309 0.10932612
-0.013613089 -0.010440979 -0.008768351 0.016385619 0.025366327 -0.037503388 0.046893362 0.048624203
-0.001985952 0.069972195 0.031135146 0.049892634 -0.04513318 -0.07501661 0.07666253 0.06334402
0.122592516 -0.030200558 0.006355152 0.06516568 -0.16715573 0.09854724 0.03165111 -0.037074752
0.051071797 0.05964306 -0.10715497 -0.14478028 0.09872113 -0.0641309 0.17866153 -0.046397205
0.073191464 -0.09047088 -0.06085775 -0.1340122 -0.084398896 -0.12761286 -0.08320541 0.03607185
-0.009703451 0.18722518 -0.074225895 0.07615864 0.12512942 -0.014346975 -0.11097038 0.09123645
0.05651624 -0.10029862 0.025011566 -0.038148895 -0.09604692 0.08645418 -0.10215848 -0.0416687
0.037539896 0.02800619 -0.0023698194 0.011823346 -0.020941833 0.09267864 -0.07868671 0.12613097
-0.014632454 -0.03956964 -0.1558372 0.11708326 0.1026582 -0.010231671 -0.045181535 -0.07238578
0.01211061 -0.03942654 0.021967374 0.059348106 0.007098852 -0.046194367 0.06053515 0.06465517
-0.09294784 -0.110401675 -0.024757419 0.099049754 0.004027499 -0.09374444 0.1268178 -0.12350605
0.021083826 -0.11157643 -0.13777484 -0.029538935 0.016497683 0.013906042 0.05474385 -0.10262234
-0.059621826 -0.14326036 -0.10318821 -0.009006408 0.0025578374 0.035030093 -0.046346053 0.11057147
-0.18492424 0.054971647 0.015014663 -0.14125298 0.15626173 0.033907954 -0.020753972 0.042116825
0.065419905 0.007144428 -0.077325486 0.019130891 -0.062279724 -0.07789242 -0.08464565 0.0405801
-0.12242478 -0.05543113 -0.06552339 0.038422506 -0.055614654 0.00172405 -0.17355558 0.05242939
-0.05416133 0.16104503 0.09877417 -0.05313568 -0.01544653 -0.05765607 0.15289913 0.087949105

network_body.linear_encoder.seq_layers.2.bias f4 [128]
00000000: 0000 0000 0000 0000 0000 0000 0000 0000
00000010: 0000 0000 0000 0000 0000 0000 0000 0000
00000020: 0000 0000 0000 0000 0000 0000 0000 0000
00000030: 0000 0000 0000 0000 0000 0000 0000 0000
00000040: 0000 0000 0000 0000 0000 0000 0000 0000
00000050: 0000 0000 0000 0000 0000 0000 0000 0000
00000060: 0000 0000 0000 0000 0000 0000 0000 0000
00000070: 0000 0000 0000 0000 0000 0000 0000 0000
00000080: 0000 0000 0000 0000 0000 0000 0000 0000
00000090: 0000 0000 0000 0000 0000 0000 0000 0000
000000a0: 0000 0000 0000 0000 0000 0000 0000 0000
000000b0: 0000 0000 0000 0000 0000 0000 0000 0000
000000c0: 0000 0000 0000 0000 0000 0000 0000 0000
000000d0: 0000 0000 0000 0000 0000 0000 0000 0000
000000e0: 0000 0000 0000 0000 0000 0000 0000 0000
000000f0: 0000 0000 0000 0000 0000 0000 0000 0000
00000100: 0000 0000 0000 0000 0000 0000 0000 0000
00000110: 0000 0000 0000 0000 0000 0000 0000 0000
00000120: 0000 0000 0000 0000 0000 0000 0000 0000
00000130: 0000 0000 0000 0000 0000 0000 0000 0000
00000140: 0000 0000 0000 0000 0000 0000 0000 0000
00000150: 0000 0000 0000 0000 0000 0000 0000 0000
00000160: 0000 0000 0000 0000 0000 0000 0000 0000
00000170: 0000 0000 0000 0000 0000 0000 0000 0000
00000180: 0000 0000 0000 0000 0000 0000 0000 0000
00000190: 0000 0000 0000 0000 0000 0000 0000 0000
000001a0: 0000 0000 0000 0000 0000 0000 0000 0000
000001b0: 0000 0000 0000 0000 0000 0000 0000 0000
000001c0: 0000 0000 0000 0000 0000 0000 0000 0000
000001d0: 0000 0000 0000 0000 0000 0000 0000 0000
000001e0: 0000 0000 0000 0000 0000 0000 0000 0000
000001f0: 0000 0000 0000 0000 0000 0000 0000 0000
0.0 0.0 0.0 0.0 0.0 0.0 0.0 0.0
0.0 0.0 0.0 0.0 0.0 0.0 0.0 0.0
0.0 0.0 0.0 0.0 0.0 0.0 0.0 0.0
0.0 0.0 0.0 0.0 0.0 0.0 0.0 0.0
0.0 0.0 0.0 0.0 0.0 0.0 0.0 0.0
0.0 0.0 0.0 0.0 0.0 0.0 0.0 0.0
0.0 0.0 0.0 0.0 0.0 0.0 0.0 0.0
0.0 0.0 0.0 0.0 0.0 0.0 0.0 0.0
0.0 0.0 0.0 0.0 0.0 0.0 0.0 0.0
0.0 0.0 0.0 0.0 0.0 0.0 0.0 0.0
0.0 0.0 0.0 0.0 0.0 0.0 0.0 0.0
0.0 0.0 0.0 0.0 0.0 0.0 0.0 0.0
0.0 0.0 0.0 0.0 0.0 0.0 0.0 0.0
0.0 0.0 0.0 0.0 0.0 0.0 0.0 0.0
0.0 0.0 0.0 0.0 0.0 0.0 0.0 0.0
0.0 0.0 0.0 0.0 0.0 0.0 0.0 0.0

network_body.linear_encoder.seq_layers.2.weight f4 [128, 128]
00000000: 1e14 523e a344 ac3d 9b64 943d e1c2 2f3e
00000010: 1d1b 963d 8adb d7bc b5ba e33b 5821 3dbe
00000020: 90d8 ae3b f7fe 88be 8c34 093e 0631 01be
00000030: 3991 34bc 0051 10be 605a 0bbc 27c7 dd3c
00000040: 5baf 4e3e 5f40 913c 4739 88bd 820c c53d
00000050: 91bb 4bbe 86d3 b1bc 56de 14bd a5b2 663c
00000060: e2b1 98bd 58b3 4cbd f6b1 2ebd 57b3 cf3d
00000070: ae0a 4d3d c0c1 dc3c d9f9 1fbe cdca ab3d
00000080: 694c 30bd d91b 16be 9f38 08bd 258a 4a3d
00000090: 1183 e5bc 4750 8f3d 3ddd 0fbe 9ff3 3d3c
000000a0: b90d 0c3e 77dc 123e aaa5 8a3e 33bd 70bc
000000b0: 31f9 78be a7aa b13d 7a9d ed3c b9ce 853c
000000c0: ca00 313e f5ee 25bd aadc 51bd c051 3e3c
000000d0: 775a 533e 6c99 0f3e 53dd 9a3e 3c3b 27bd
000000e0: a645 593e 0658 cf3d 7158 d3bd 0ebe 1b3e
000000f0: fc28 02be b7be 9bbd 0a1e 22bd ae95 d6bd
00000100: 5ba5 4ebe 9327 073e ca7a 4dbd 900a b13d
00000110: a149 65bd a4ba 22be 088e f93d 46b0 e13c
00000120: 4d22 623e 9f95 9f3d 6919 c83d 3f61 a73d
00000130: 05f5 b2bd 42c1 babd fd76 44be 5389 76be
00000140: b1b3 fe3d e307 853e 5f9c 16be 7507 a93c
00000150: 56b2 ca3d e2d5 813d caff 8fbd e57b 883c
00000160: f62d 75bd da58 a03d 04cf 0a3d 8872 bcbd
00000170: b0c6 59be 3b3a da3b 5539 423e 28fa c93d
00000180: e351 2c3b 2781 3fbd 2eb2 563e 12f2 e33b
00000190: 0a67 6d3e caf6 19be cf84 5bbd 2986 913e
000001a0: c1ef 6dbd 3f74 303d 5364 f5bc 3bb5 9ebd
000001b0: e075 b3bb 5902 843d 0651 0ebe 8195 a13d
000001c0: 4e2e 6abc eee5 d3bc 89cd d03b 6367 fb3d
000001d0: f8b2 d0bc 0e6d 023d bc5f 88bd 6ae7 5a3e
000001e0: 809e 1cbd a98d 1fbd bcb9 a4bd 5ac6 013e
000001f0: f59f 3e3e 0c9b 363d f923 02be b10b 02be
00000200: db34 a9bd a25f 5d3d 456f 71bd 888d 1d3d
00000210: 8b2a 863e 5bfd d1bc 0cc3 a6bc f813 b3bc
00000220: 6731 763c 1144 d73d b3eb 173e 7c5e c23d
00000230: 94bf ba3d d627 fabd 5301 53be 08e8 f83d
00000240: a80d ac3c 218f 143e ca10 113d a67b 9c3e
00000250: 63e8 23be e247 323d df4f 823d 0447 e6bd
00000260: af2d dcbd 7e0d 10be 6b0f dabd 980a 373d
00000270: 1615 1dbd 90ba 4d3d 0391 823c 8435 093e
00000280: 797c 783d 8c4b 3abd f169 87be 7d51 01be
00000290: f006 dc3c dde0 aebd cf29 37be c24a 3c3e
000002a0: 7136 a7bd e2b1 ab3d ebc3 60be 8691 08bd
000002b0: 6fed 8dbd 960f 223e 1d43 a03d d7ea c83d
000002c0: 5470 f83d f10c 9f3d b73a 4d3e e259 993d
000002d0: bd60 35be 69a7 743d 40cd a7bd 96d2 dbbd
000002e0: a8a2 54ba ba96 9a3d 77ad eebd 7ce5 af3d
000002f0: fa63 b53c d6d7 5b3e fe74 20be 6b0c 053e
00000300: 2c43 3a3c 53a8 cc3d 4c64 58bd 6829 54be
00000310: 180e 46bd a5ac db3d 1aa4 c73d 9f2a 95bb
00000320: f272 89ba 97a4 61bd 12ff a0bd 5b5b 8abd
00000330: 0e68 18bd 5e03 14bc 233e e9bd f755 01bd
00000340: 2e55 173b 9112 eabd 85a7 0a3d 94ce 373e
00000350: ad62 113d 5f81 bb3c 41ce 4b3e 9137 86be
00000360: 5982 993d ff4a 1a3e 2e62 7dbb e9cb bfbd
00000370: 5f81 cd3d ac8f 013e ebec 8ebd 871b 013e
00000380: 68a8 973d 04fa 223d bf90 353c 87d8 36be
00000390: 319a 1a3c 0dc6 32be 00c1 663d 54b9 ea3c
000003a0: b77f 53bd f01a c53c 78db 9c3e 119d fb3d
000003b0: 4ddc 33bc 9985 103e 192d c1bd 0bc2 243d
000003c0: 8c3a 95bd 1f70 623e b8da 55bc f7fd 833d
000003d0: 309f 323e 8160 14bd 8581 7dbd a862 eb3d
000003e0: 9289 81bd ad80 913d a8e8 5a3b fd83 0dbe
000003f0: 6b40 4cbc 2e2a 1e3e eac6 9d3d 1208 82bd
0.20515487 0.08411529 0.072457515 0.17164184 0.0732939 -0.026349802 0.0069497474 -0.18469751
0.005335875 -0.26757023 0.13398951 -0.12616357 -0.011020952 -0.14093399 -0.008505434 0.027072502
0.2018408 0.01773089 -0.0665155 0.09621526 -0.1989577 -0.021707308 -0.03634485 0.014080678
-0.074558035 -0.049975723 -0.042650186 0.10141628 0.050059013 0.026947856 -0.15622653 0.083882906
-0.04304162 -0.1465906 -0.033257123 0.04944815 -0.028016599 0.069977336 -0.1404924 0.011593728
0.1367711 0.14341913 0.27079517 -0.014693546 -0.24313809 0.086751275 0.029005755 0.016333925
0.17285457 -0.04051109 -0.051235832 0.01161617 0.20639978 0.1402337 0.30246982 -0.040827975
0.21217975 0.10124211 -0.10319603 0.15209219 -0.12710947 -0.07604735 -0.03957943 -0.10477768
-0.20180266 0.1319869 -0.05016593 0.08644593 -0.05597842 -0.1589151 0.121852934 0.027549874
0.22083397 0.0779221 0.097704716 0.08172845 -0.0873814 -0.09118892 -0.19186015 -0.24075823
0.12436617 0.2598258 -0.14708088 0.020633439 0.09897296 0.06339623 -0.0703121 0.01666064
-0.059858285 0.07829447 0.03388883 -0.092015326 -0.212672 0.0066597736 0.18967183 0.09862167
0.0026293925 -0.04675403 0.20966408 0.0069563473 0.23183838 -0.15035549 -0.053593453 0.2842267
-0.058089975 0.04307961 -0.029955065 -0.07749411 -0.0054766983 0.0644576 -0.13898095 0.07889844
-0.014293266 -0.025866475 0.006372158 0.12275579 -0.025475964 0.031842284 -0.06658885 0.2137734
-0.038237095 -0.038953457 -0.080432385 0.12673321 0.18615706 0.044581458 -0.12709035 -0.12699772
-0.082620345 0.05404628 -0.058944006 0.038465053 0.26204333 -0.025633505 -0.020356677 -0.021860108
0.015026427 0.105110295 0.14836006 0.09490678 0.09118572 -0.12214629 -0.20605974 0.121536314
0.021002606 0.14507724 0.035416402 0.30563086 -0.16006617 0.043525584 0.063628905 -0.11244014
-0.10750901 -0.14067647 -0.10647472 0.044687837 -0.038350187 0.050226748 0.015938288 0.13399321
0.06066558 -0.045482203 -0.26448014 -0.12628742 0.026858777 -0.08538983 -0.17887042 0.18387893
-0.08164681 0.08383538 -0.21949737 -0.033341907 -0.069300525 0.15826258 0.07825301 0.09810417
0.121308 0.0776614 0.20041929 0.07487847 -0.17712684 0.059729967 -0.08193445 -0.107335255
-0.0008111396 0.0754828 -0.116541795 0.085886925 0.0221424 0.21469054 -0.15669629 0.12993018
0.011368554 0.09993043 -0.052830026 -0.2071892 -0.048353285 0.10726289 0.09748097 -0.0045522
-0.0010486527 -0.055088606 -0.07861151 -0.06755706 -0.03720861 -0.009034006 -0.11388805 -0.031576123
0.0023091543 -0.114293225 0.033851165 0.17949897 0.035494495 0.022888837 0.19902898 -0.2621427
0.07495565 0.15067671 -0.0038663256 -0.09365065 0.10034441 0.12652463 -0.06978782 0.12608157
0.07405168 0.039789215 0.011081873 -0.17856036 0.009436176 -0.17458363 0.056336403 0.028652824
-0.05163547 0.024060696 0.3063619 0.122858174 -0.010977817 0.14113463 -0.0943243 0.040224116
-0.072865576 0.22113083 -0.013052635 0.06444924 0.17443538 -0.036224846 -0.061891098 0.114934266
-0.063250676 0.07104621 0.0033402834 -0.13819881 -0.01246653 0.15445778 0.077039555 -0.063491955

network_body.vector_processors.0.normalizer.running_mean f4 [8]
00000000: d7d9 c5bc 676a b1bc 0014 583e 52a4 4540
00000010: 0e73 7b3e 6721 833e e0a0 bfbf a4cd d6bc
-0.024151726 -0.021657182 0.2110138 3.0881543 0.24555609 0.2561142 -1.497097 -0.026221104

network_body.visual_processors.0.conv_layers.0.bias f4 [16]
00000000: ce32 c7bc 04fd 153d 10af 1c3c e42a 773d
00000010: 6665 3d3d e584 79bd e6d1 343d 7c79 803c
00000020: a0aa 6b3d aa18 35bd c67f 59bd 9e1a 443d
00000030: b8a8 49bd 00ff e93b b897 f73c 64bb 393d
-0.024316218 0.036618248 0.0095632225 0.060343638 0.04623928 -0.060917754 0.044145487 0.015682928
0.057535768 -0.044212975 -0.05310037 0.047876947 -0.04923317 0.007140994 0.030223712 0.045344725

network_body.visual_processors.0.conv_layers.0.weight f4 [16, 3, 8, 8]
00000000: a03d 91bb 881d 05bd c08d 8bba 6e8c 233d
00000010: 80c6 5dba 2459 1abd 746b 883c c665 1d3d
00000020: 62fc 3ebd fe89 8a3d b326 63bd 262b 323d
00000030: bef5 57bd 9798 8fbd 8b52 89bd ba0e 04bd
00000040: 2ce2 72bc 5aff 4d3d d45b d6bc 2ed9 cfbc
00000050: f89e 773c 340b acbc 9ef6 473d b084 433c
00000060: ac8b 3d3d aa5b 893d 58b0 cf3c add6 1abd
00000070: 7c04 e93c 61f7 88bd 90bf 5a3c 68df c13c
00000080: ce1c 4abd 3099 8ebc d4a3 6e3d 2a0b 1d3d
00000090: 0068 023a dcd3 3dbc 00e3 89ba 6a2a fdbc
000000a0: b45b eb3c f821 c7bc eade ccbc 544b 8fbd
000000b0: bd35 86bd 4d53 70bd ecc1 a53c a014 0bbb
000000c0: 48c2 523d 3cfa 8dbc 7f50 0bbd 9892 623d
000000d0: 386c 67bc f6a2 ffbc 2111 06bd e2ea 72bd
000000e0: e001 bf3b 8ea0 36bd c030 57bd a462 f93c
000000f0: 7cc8 e5bc 1e0f 2a3d fe06 3b3d 0e40 8a3d
00000100: 9a9e 093d 6015 47bd d66b 4abd a86f 513c
00000110: b8bd 593d f409 f9bc 0021 32bd e841 90bc
00000120: 9016 84bd 70a2 533d 2e2f 513d 0079 f63a
00000130: 80b3 b83b e4e3 82bc 66ce c6bc 4a4f 71bd
00000140: c4d5 34bd 14f2 c13c bdc3 48bd c80c 663d
00000150: babc 243d a0e0 1f3b cae8 4abd c0ee 24bc
00000160: aefe 4f3d bed0 75bd 56ec b6bc 76c8 8abd
00000170: f241 93bd 3073 743d 782b 2b3c 5c19 4fbd
00000180: d257 27bd c3ec 69bd 5ad1 353d 96ec 61bd
00000190: a1d6 21bd 408c d33c 7c74 73bc 001c 563c
000001a0: d299 433d 9a90 3dbd 804d 8bba 489c 093c
000001b0: eadf 26bd 30c8 babc 80d8 393b 1a07 8a3d
000001c0: aefa 8a3d a851 193d 626f 383d 7894 7d3d
000001d0: f094 febb c0b9 333c e86e 49bc cc29 8f3c
000001e0: a4b0 753d fb38 10bd 7c91 d8bc 8492 923c
000001f0: 551e 4fbd 9a94 4b3d ca58 81bd 9a04 80bd
00000200: 0431 903d e05a 04bc 7807 6a3d 8a02 aabc
00000210: ce5b 36bd cc40 48bd bc61 b63c f247 4e3d
00000220: 7045 253d 2af1 73bd 70bf cb3b d922 19bd
00000230: a08a 10bc 4e34 883d e6cb 98bc 00fd 0c3d
00000240: 184c 8cbc 8cf3 c3bc 0202 88bc b464 2fbd
00000250: dc01 cabc 0090 9dbc feb9 133d f1f3 00bd
00000260: e4cf 3ebd 127d 75bd a2d3 c8bc b611 32bd
00000270: f035 6d3d aab1 933d d38f 91bd f18f 73bd
00000280: ba9e 42bd 0cb3 dc3c d023 f93c b83a 18bc
00000290: f865 05bc fc9e 483d d443 c43c e877 38bd
000002a0: 2c26 c73c d0c2 babb 605e fe3b de8a 75bd
000002b0: c0e8 d7bb 9c85 3abd c008 883d 80f9 4d3d
000002c0: fe90 4d3d e022 6b3c 4086 6f3c 40a4 673d
000002d0: d09f 583c d88e 1dbc a014 813d 3063 fcbb
000002e0: f852 223c a06d c83b 6189 5fbd d073 0cbc
000002f0: 7008 393d 2afc cebc 6693 043d 3618 913d
00000300: 405a ef3c 4a4f 4abd 264c 62bd f204 43bd
00000310: 344b 85bd a0ce 863b 8c65 b93c fa3d 853d
00000320: f33c 8fbd e68c 7bbd ac54 25bd 1c16 d9bc
00000330: 0038 523a b05f 913b 0a26 243d 2801 633c
00000340: 3c8b 203d d4ee 4d3d 1011 97bb 20c9 0fbc
00000350: 406f b1ba 8037 953c 38ad 01bc 80ab 053c
00000360: d0e6 2e3c 88f3 5d3d 8ced 92bd e08f 3b3b
00000370: 581b e03c 805b 2a3c 4eb1 66bd afe2 92bd
00000380: 9cc2 153d 40f4 d23c 9e54 63bd 8098 0b3d
00000390: 18d8 25bc c07e 493c 4383 07bd f026 03bc
000003a0: 202e ec3c b8b3 4fbd b687 12bd 74df e53c
000003b0: 0cc1 0a3d d5dc 76bd 90a8 60bc 7cae 863d
000003c0: 74c1 8cbd 94bd b53c a0be 603d 2042 8fbb
000003d0: 7e96 2abd 806f 183c e053 7e3d c71a 4fbd
000003e0: 4e23 6cbd 5429 d73c 80ea ec3b 7660 8fbd
000003f0: 3c43 8abc 4869 453c 1445 813c 02ce 9fbc
-0.004432395 -0.032498866 -0.0010647103 0.039928846 -0.000846006 -0.037682667 0.0166528 0.038427137
-0.04662741 0.06764601 -0.05545683 0.04349818 -0.052724592 -0.07011526 -0.06705197 -0.032240607
-0.014824431 0.05029235 -0.026166834 -0.025372114 0.015113585 -0.021001436 0.048819177 0.011933491
0.04627578 0.06706937 0.025352642 -0.037802387 0.028444521 -0.06687809 0.013351336 0.023666099
-0.049343877 -0.01740703 0.058261707 0.038340725 0.00049746037 -0.011586156 -0.0010519922 -0.030904014
0.02873025 -0.02430819 -0.025008637 -0.069967896 -0.065532185 -0.05867319 0.02023407 -0.002122201
0.051454812 -0.017331235 -0.034012314 0.055315584 -0.014124922 -0.031205636 -0.03273118 -0.059306033
0.005829081 -0.04458671 -0.052536726 0.030442543 -0.0280497 0.041518323 0.045660965 0.06750499
0.03359852 -0.04860437 -0.049419247 0.012782969 0.053159446 -0.030400254 -0.043488503 -0.017609552
-0.06449616 0.051668584 0.051070385 0.0018804371 0.0056366324 -0.015977807 -0.02426834 -0.058913507
-0.044149175 0.023675002 -0.049014796 0.056164533 0.040219046 0.0024395362 -0.04953841 -0.010066688
0.05077999 -0.060013525 -0.02232949 -0.06776516 -0.071903124 0.059680164 0.0104473755 -0.050561294
-0.040855236 -0.05711056 0.044389106 -0.055157267 -0.039511327 0.025823712 -0.014859315 0.013068199
0.047754116 -0.04628048 -0.0010627955 0.008399077 -0.040740885 -0.022800535 0.0028357804 0.06739636
0.067860946 0.03743139 0.045028098 0.06190917 -0.0077692196 0.010969579 -0.0122945085 0.017475985
0.05998291 -0.03521059 -0.02643656 0.01789213 -0.050566036 0.049702264 -0.06315763 -0.06250878
0.07040599 -0.008078307 0.05713603 -0.020753164 -0.044521146 -0.04888992 0.0222634 0.05036158
0.040349424 -0.059556164 0.0062178895 -0.03738675 -0.008822113 0.06650601 -0.018651914 0.034420967
-0.017126128 -0.023919843 -0.01660252 -0.042820647 -0.02465909 -0.019233704 0.036066048 -0.03148264
-0.04658498 -0.05993373 -0.024514977 -0.04347392 0.057912767 0.07211621 -0.071075104 -0.059463445
-0.047514655 0.026940845 0.030412585 -0.009291343 -0.008141987 0.048979744 0.023958124 -0.045036227
0.024310194 -0.005699493 0.007762715 -0.059946887 -0.0065890253 -0.045537576 0.06642294 0.05028677
0.050187103 0.014351577 0.01461941 0.056553125 0.013221696 -0.009616576 0.06302762 -0.0077022538
0.009907477 0.006116584 -0.054574374 -0.008572534 0.045174062 -0.025266726 0.032367133 0.07084696
0.02921784 -0.049392022 -0.055248402 -0.047612138 -0.065084845 0.004113987 0.02263143 0.06505962
-0.06994047 -0.061413668 -0.040363953 -0.0264998 0.0008019209 0.0044364557 0.04007534 0.013855256
0.039195284 0.050276592 -0.0046101883 -0.008775979 -0.0013537183 0.018214941 -0.007914834 0.008158565
0.010675147 0.054187328 -0.07174215 0.0028619692 0.027356789 0.010397792 -0.056321435 -0.07172143
0.036562547 0.025751233 -0.05550062 0.034080982 -0.010122322 0.012298286 -0.033084165 -0.008004889
0.028830588 -0.050708503 -0.035773955 0.028060652 0.03387551 -0.060269196 -0.013712063 0.06576249
-0.06872836 0.022185124 0.054869294 -0.0043718964 -0.041647427 0.009303927 0.06209171 -0.050562646
-0.057650857 0.026264824 0.007230103 -0.0700082 -0.016877763 0.012049027 0.01578001 -0.019507412

network_body.visual_processors.0.conv_layers.2.bias f4 [32]
00000000: 644e e93c b4ef f2bc acba 3c3d 64e2 6ebd
00000010: 20c1 053c e460 5cbd 7090 85bc 2227 04bd
00000020: 604f 36bd 80f4 4d3d 30ae 2fbc 7091 fb3c
00000030: 60de cc3c 9898 7e3c bc6f b83c d0d3 38bd
00000040: 987f 7abc d863 403d d0dc 77bd f8d2 c2bc
00000050: 527a 06bd 8024 5f3b 7ae1 613d 0086 e2b9
00000060: 603a bebc dc99 15bd b22e 65bd ced7 10bd
00000070: 682f efbc d261 573d 1836 3abc 00f3 bfbc
0.028479762 -0.029655315 0.04607646 -0.05832137 0.00816372 -0.05380334 -0.016304225 -0.032263882
-0.04450929 0.050282 -0.010722682 0.030708998 0.02500838 0.015539311 0.022514217 -0.045123875
-0.01528921 0.04697022 -0.060513318 -0.023782238 -0.032831497 0.0034048855 0.05514667 -0.00043205917
-0.023221195 -0.036523685 -0.055952735 -0.035362057 -0.02919741 0.052583523 -0.011365436 -0.023431301

network_body.visual_processors.0.conv_layers.2.weight f4 [32, 16, 4, 4]
00000000: 109a d33b 58e7 4ebc 1462 45bd 90c9 00bd
00000010: 3888 5abc f2c4 663d c022 483c f0e6 e53b
00000020: 66c3 6f3d 281b 6fbc d0e1 2c3c e461 9e3c
00000030: 6ec0 0dbd f0a9 fbbb 486b 073c 088d fabc
00000040: 28df b8bc ac46 893c bab8 56bd 40af c23a
00000050: 0056 cbb9 9c7b 6b3d b4cb 513d 0e32 01bd
00000060: 72a1 173d b637 4bbd d2a4 22bd e0c1 873c
00000070: 7859 6cbc 90be 23bd 6c21 2fbd b0bf 6ebd
00000080: 4074 57bd c020 15bc 50cd 213d f840 6b3c
00000090: a8a2 463d 3451 d1bc 2e3b 60bd 00a7 f7bc
000000a0: b885 7bbc 20b8 323d 24ab d03c 0043 17bc
000000b0: 609d 28bb b678 4e3d 2005 0abb 7c91 f6bc
000000c0: 24c4 18bd d037 ac3c b8a0 00bc e03e 91bb
000000d0: f080 a7bb a6cf 3fbd 44f4 523d 8e11 1d3d
000000e0: 9cc2 f33c e8fc 693c 30a6 f93b ec60 293d
000000f0: 0ecd 1abd 9e23 643d d895 1ebd b024 3b3c
00000100: a4b7 9b3c b0fd c2bb 6e12 7e3d f6b0 09bd
00000110: 2eac 23bd f032 8e3b acad a7bc c828 083d
00000120: 20ba 47bb f826 ecbc ee2d 4a3d 109b e93c
00000130: 6cc8 113d 16e7 4f3d 788d 58bd a063 083c
00000140: 00d0 fb3c f037 6b3d 2a8b 543d cad5 6c3d
00000150: e6e0 4ebd 3004 0f3d 9ac7 26bd c8eb 7c3c
00000160: 6633 103d 8a01 2cbd d0ef f9bc beef 2ebd
00000170: f02c 823c 4876 e93c 0ce7 ba3c 181d 57bc
00000180: 2072 aabb c065 a93b 4c3f f23c 00d0 4e3c
00000190: 007a 88bb 0cc4 6abd e07a 6b3b 80aa 543a
000001a0: 4432 94bc c047 cf3c 08e2 ad3c 62f8 06bd
000001b0: dee7 36bd dc72 9dbc fc8e ddbc 5073 85bb
000001c0: 0069 153d 409f b33c 949c 033d 9c53 78bd
000001d0: 8807 82bc 4a5c 75bd c833 6bbd f8c1 6cbd
000001e0: bcda cbbc d24d 0b3d 3cc4 273d 8064 233a
000001f0: 0067 25bd 90b1 e4bb 82de 013d 4487 37bd
00000200: 1893 68bc 2077 cfbb 14ec c93c f82e 55bd
00000210: 385f dcbc 7463 fcbc e855 163d 28c8 433c
00000220: 7658 01bd 9479 15bd 60a7 1e3b 341e e73c
00000230: 0816 79bd 74fb 72bd 807f f23c 9010 e93c
00000240: 808a df3c 9426 c03c 26bb 37bd f47a 2e3d
00000250: 6e8a 3bbd 6011 7c3c 38d6 4b3c 3467 babc
00000260: c0f1 c7bc 309d c7bc d2b4 4fbd 8020 c33c
00000270: c89c 343d dc45 893c 50e8 cd3c 5c12 ca3c
00000280: 00db 513d 64d5 f6bc 603e 13bc 00b3 19ba
00000290: a0a3 96bb 74f0 7d3d 68d6 503d f0f6 b33c
000002a0: 7cc9 423d ae13 633d 0048 4e3c c4ad 573d
000002b0: b04b b3bb 1c49 7bbd 64ea 233d 982e 11bc
000002c0: c01e cdba 6233 523d a44f 18bd 58d9 7f3c
000002d0: a8a5 33bc 22db 2dbd 7653 72bd 4c15 c5bc
000002e0: e293 383d 38d0 d0bc 509b e5bc 9c05 94bc
000002f0: 72db 36bd 6e79 6a3d 2409 98bc ccdd 4cbd
00000300: 0022 653a 80d5 4cba e067 1abb f85d 02bd
00000310: d20a 70bd 3087 89bb 5229 073d 320a 34bd
00000320: 7eed 663d 12dc 4ebd 006e 45ba f065 e33c
00000330: ea2e 19bd 1040 673c e0f8 fe3c 3e53 0dbd
00000340: b640 01bd 6062 4ebb 6816 643c f880 7cbc
00000350: 40e7 b0bc 808b cdba bca7 5b3d f804 503d
00000360: 827e 5dbd a2d2 5b3d c002 a93c 005c cf3c
00000370: be00 0b3d 78de 463d b094 a33c a084 5b3d
00000380: 08a3 16bc 800d 43bb 368c 733d 70d5 d13b
00000390: d0ee c93b f402 493d 6cb8 e6bc 7487 b7bc
000003a0: 3095 113d bea2 1a3d 1aae 033d f468 9c3c
000003b0: 9653 503d a041 833b 90af fe3b bc32 5fbd
000003c0: f05c 9dbb a057 e73b 5a74 6f3d da73 133d
000003d0: b037 99bb ecff 203d 743b 32bd 3cfb 92bc
000003e0: 90ba 933b 9e22 30bd c046 9f3a a01a 35bd
000003f0: 04aa a63c 08a8 23bd 8065 1abb 7ce3 7cbd
0.0064575747 -0.012628399 -0.048189238 -0.031442225 -0.013338141 0.056340165 0.012215316 0.0070160553
0.058535956 -0.014593877 0.010551885 0.019333787 -0.034607343 -0.0076801702 0.008265324 -0.030584827
-0.022567347 0.016757332 -0.052422263 0.0014853254 -0.00038783252 0.05749093 0.051219657 -0.031541876
0.0370192 -0.049613677 -0.039707966 0.016571939 -0.014425628 -0.039976656 -0.042756483 -0.058288276
-0.0526011 -0.0091020465 0.039502442 0.0143587515 0.048494965 -0.025551416 -0.05474394 -0.030230999
-0.015351705 0.043632627 0.025472231 -0.009232283 -0.0025728568 0.050408088 -0.0021060184 -0.03009867
-0.03729643 0.021022707 -0.007850818 -0.004432544 -0.005111806 -0.04682889 0.05150248 0.03834682
0.029755883 0.014281489 0.007618688 0.041352198 -0.03779321 0.05569803 -0.03871712 0.011422321
0.019008465 -0.005950652 0.062029295 -0.03361603 -0.039959125 0.0043395683 -0.020468555 0.033242017
-0.003047593 -0.028827175 0.04936021 0.028516322 0.035591528 0.05075749 -0.05286929 0.008324534
0.03073883 0.057426393 0.05189053 0.057821073 -0.05050745 0.034916103 -0.0407177 0.015437074
0.035205267 -0.041993655 -0.03050986 -0.042709105 0.015890568 0.028498784 0.02281525 -0.013129495
-0.005201593 0.0051696002 0.029571198 0.012622833 -0.004164934 -0.05731587 0.0035931394 0.00081125647
-0.018090375 0.025302768 0.021225944 -0.03295172 -0.04465472 -0.019219808 -0.02704572 -0.004072584
0.03647709 0.021926522 0.032131746 -0.06062661 -0.015872732 -0.059902467 -0.05742243 -0.05780217
-0.024884574 0.034009762 0.040958628 0.0006232932 -0.04038143 -0.006979175 0.03170634 -0.044806734
-0.014195226 -0.0063313395 0.024648704 -0.052046746 -0.026900873 -0.030809142 0.03670302 0.011949576
-0.031578504 -0.0364929 0.002420865 0.028212644 -0.060812026 -0.059321836 0.029601812 0.02845028
0.027287722 0.023455895 -0.044856213 0.042597726 -0.045786314 0.015385002 0.01244121 -0.02275429
-0.024407268 -0.024366945 -0.050709553 0.023819208 0.04409483 0.016756944 0.02513519 0.024666958
0.051234245 -0.03013105 -0.008987039 -0.000586316 -0.0045971423 0.061996892 0.050985724 0.021968335
0.04755543 0.05543869 0.012590408 0.05265595 -0.005471669 -0.06134902 0.040018454 -0.0088612065
-0.0015649423 0.051318534 -0.037185326 0.015615784 -0.0109647885 -0.04244531 -0.059161626 -0.024058007
0.045062907 -0.025489911 -0.02802816 -0.018069081 -0.044642873 0.05724471 -0.018559046 -0.05001621
0.0008740723 -0.00078137964 -0.002356045 -0.031827897 -0.05860407 -0.004197024 0.03299839 -0.043955036
0.056378834 -0.050502844 -0.0007531345 0.027758569 -0.037398256 0.014114395 0.031124532 -0.034503214
-0.031555854 -0.0031491742 0.013921358 -0.015411608 -0.021594644 -0.0015681833 0.05362676 0.05078599
-0.054075725 0.053667672 0.020631194 0.025312424 0.033936255 0.048552006 0.01996836 0.053593278
-0.009194143 -0.0029762685 0.059459887 0.0064036176 0.006162502 0.049075082 -0.028164111 -0.022403456
0.035542667 0.03775286 0.032148458 0.019093014 0.050860964 0.004005626 0.0077723935 -0.054491743
-0.004802339 0.0070600063 0.05846057 0.035999157 -0.004675828 0.039306566 -0.04351373 -0.017942064
0.004508324 -0.043001764 0.0012151822 -0.044214845 0.020344742 -0.03995517 -0.0023559034 -0.061740384

network_body.visual_processors.0.dense.0.bias f4 [128]
00000000: 0000 0000 0000 0000 0000 0000 0000 0000
00000010: 0000 0000 0000 0000 0000 0000 0000 0000
00000020: 0000 0000 0000 0000 0000 0000 0000 0000
00000030: 0000 0000 0000 0000 0000 0000 0000 0000
00000040: 0000 0000 0000 0000 0000 0000 0000 0000
00000050: 0000 0000 0000 0000 0000 0000 0000 0000
00000060: 0000 0000 0000 0000 0000 0000 0000 0000
00000070: 0000 0000 0000 0000 0000 0000 0000 0000
00000080: 0000 0000 0000 0000 0000 0000 0000 0000
00000090: 0000 0000 0000 0000 0000 0000 0000 0000
000000a0: 0000 0000 0000 0000 0000 0000 0000 0000
000000b0: 0000 0000 0000 0000 0000 0000 0000 0000
000000c0: 0000 0000 0000 0000 0000 0000 0000 0000
000000d0: 0000 0000 0000 0000 0000 0000 0000 0000
000000e0: 0000 0000 0000 0000 0000 0000 0000 0000
000000f0: 0000 0000 0000 0000 0000 0000 0000 0000
00000100: 0000 0000 0000 0000 0000 0000 0000 0000
00000110: 0000 0000 0000 0000 0000 0000 0000 0000
00000120: 0000 0000 0000 0000 0000 0000 0000 0000
00000130: 0000 0000 0000 0000 0000 0000 0000 0000
00000140: 0000 0000 0000 0000 0000 0000 0000 0000
00000150: 0000 0000 0000 0000 0000 0000 0000 0000
00000160: 0000 0000 0000 0000 0000 0000 0000 0000
00000170: 0000 0000 0000 0000 0000 0000 0000 0000
00000180: 0000 0000 0000 0000 0000 0000 0000 0000
00000190: 0000 0000 0000 0000 0000 0000 0000 0000
000001a0: 0000 0000 0000 0000 0000 0000 0000 0000
000001b0: 0000 0000 0000 0000 0000 0000 0000 0000
000001c0: 0000 0000 0000 0000 0000 0000 0000 0000
000001d0: 0000 0000 0000 0000 0000 0000 0000 0000
000001e0: 0000 0000 0000 0000 0000 0000 0000 0000
000001f0: 0000 0000 0000 0000 0000 0000 0000 0000
0.0 0.0 0.0 0.0 0.0 0.0 0.0 0.0
0.0 0.0 0.0 0.0 0.0 0.0 0.0 0.0
0.0 0.0 0.0 0.0 0.0 0.0 0.0 0.0
0.0 0.0 0.0 0.0 0.0 0.0 0.0 0.0
0.0 0.0 0.0 0.0 0.0 0.0 0.0 0.0
0.0 0.0 0.0 0.0 0.0 0.0 0.0 0.0
0.0 0.0 0.0 0.0 0.0 0.0 0.0 0.0
0.0 0.0 0.0 0.0 0.0 0.0 0.0 0.0
0.0 0.0 0.0 0.0 0.0 0.0 0.0 0.0
0.0 0.0 0.0 0.0 0.0 0.0 0.0 0.0
0.0 0.0 0.0 0.0 0.0 0.0 0.0 0.0
0.0 0.0 0.0 0.0 0.0 0.0 0.0 0.0
0.0 0.0 0.0 0.0 0.0 0.0 0.0 0.0
0.0 0.0 0.0 0.0 0.0 0.0 0.0 0.0
0.0 0.0 0.0 0.0 0.0 0.0 0.0 0.0
0.0 0.0 0.0 0.0 0.0 0.0 0.0 0.0

network_body.visual_processors.0.dense.0.weight f4 [128, 32]
00000000: 8622 ccbe 9e06 15be 18cc f5bd 5228 a1be
00000010: 4d28 ed3e 1b08 fdbe 0c3d c8be c6a4 a8be
00000020: 79f6 df3d 2602 e4bd 86d2 73be b816 193f
00000030: 09a8 86bd 3342 10bf ec4c a53e ad39 e0be
00000040: a10a 593e 3230 fbbd c5ed a73c 48ce 90be
00000050: f757 883d 7047 f13d 87ed c43e 2cc8 39be
00000060: ff42 e63e 340e c8be 77df e43e 9173 80be
00000070: 826a 71bd a655 48be c004 2bbc ec83 db3d
00000080: bf4d 763e ddb7 8ebe 7fa4 72bd d4dc d63e
00000090: d47c 01be 8e98 e5bd 7aa5 273d 97cb 3dbe
000000a0: f90e 9bbe 02c2 babe c2ce db3d 0113 a73d
000000b0: 8189 833d 71ac 823c 0b8e e3be 8e60 713d
000000c0: 311d 13be b925 34be 1dbf 55be af0b 4e3e
000000d0: 0dbc 27be 311a 6dbe d097 1ebe dfed 523d
000000e0: 433d c83e 53d5 4c3e dcbe 77bc dfae 8a3e
000000f0: 6ab2 b33d 2fee 4d3e d37a 8cbe e018 b63e
00000100: 084b e43c 4115 91bd cc2e 93bd 78e9 60be
00000110: 7641 e43e 87a1 a9bc ee90 66be 041d ab3e
00000120: e9cd 753d 21c0 bdbe 5820 92bd 8a38 123e
00000130: 838f 21be 37ee b43d 52cf 893e 0f9a d5be
00000140: 9a08 92bd b9c4 b23c 0c41 77be 206a d33d
00000150: 519c e1bd 2805 86be 7940 05be 055d e73e
00000160: 7efa 623e 5c05 b9be fbd4 a13e d46d b1bd
00000170: 38f3 0e3e e904 ae3e 59f6 923c 0d92 0bbe
00000180: cadd b2bd c141 abbd aa9a 37bd ed08 7dbe
00000190: 8a13 653d 8bfa 5ebc 99fb d7bd 227a 5f3e
000001a0: 450e 92be 9210 35be e664 8d3e f02a 4f3c
000001b0: 45f3 1c3e 7c9d 443e b5ce 4e3e 47f0 efbe
000001c0: 4d5e fd3e 9490 dcbd e377 dfbd 6e39 f43d
000001d0: b224 44be fb45 c43b 93d1 803e c752 563e
000001e0: f8ce 9cbd 5384 a8be 1fd9 3c3d d028 57bc
000001f0: 1523 2ebc 63ef c03e 26a5 123d 0bdd 40be
00000200: c70a 4c3d 4f9a 803b 3da6 df3d d9bf 4ebd
00000210: d3e4 203e def9 033f a0c8 02bf b15e 0f3d
00000220: c542 78be db41 b53c 86f1 ef3d e675 2b3e
00000230: 2a3e a3be 8f69 bbbe a380 13be c911 3dbe
00000240: 842d f93d a0c0 0ebe 573c 2b3e 53a7 80bd
00000250: a14c 1fbf f9d9 87be 05ee 413e 0cfb a53d
00000260: 5b2c be3d 87d7 c93e 7cf1 bc3e 5659 613e
00000270: 5776 e9bc c278 fcbd fe06 a1bd 702f 68be
00000280: c44a 5d3e 2e02 963e 5cfb bbbb 3394 18bf
00000290: 0c5e a7be d75c 92be b7b6 cabe 5bd8 a4be
000002a0: 0ec2 f3be e1a0 17be 7161 70bd 896a 113f
000002b0: e799 543e 8b59 d4be da1e 73be 6202 843d
000002c0: 094f b43e f76f 323c d03c 86bb 60eb cabe
000002d0: 5563 bbbe 1152 8a3e 8772 5dbe bb25 2dbe
000002e0: 2b65 653e 0a26 afbe 8c36 6d3e bd07 cebe
000002f0: cc7b 2fbe 2f3d 8fbe c64a 433e 80b9 c6bc
00000300: b682 a1be caef 813e ba4c 91be 3e19 da3d
00000310: d60e b2be 78ac 12be 6fa3 8f3d a7d8 f3bd
00000320: d878 2abe c55b 32bd 6b02 463d c6a0 f33d
00000330: 0009 2a3e af19 c5bd 7760 1a3f 73ac a7bd
00000340: c70a 14be 0942 37be 00c6 5ebe 5f69 a7be
00000350: dbc7 86be e2d1 883e addc a13e e0a3 6e3e
00000360: 2e9d 7b3e 201d 093e d944 a63d 97bd 28be
00000370: bc7d 71be fe92 d7be 4a6b 173e 6e7a 5a3e
00000380: 268e ee3e 20ec 863d c2df a6be 942f f23e
00000390: 20e3 91be 5b74 d23e bc33 653d 3f13 883e
000003a0: b162 c53d fbbb 18be 8591 bcbe 03ce edbd
000003b0: 065f 0a3e 416d c0be 1bea 5e3d af37 fcbd
000003c0: 599b 643e e52a 82bc b6b9 d9bd eea0 1c3f
000003d0: fab6 4f3e ec3b 8e3d 2cea e6bd e45b 7c3e
000003e0: 4949 543e 300d 723d 8afa e0be 2f13 9c3d
000003f0: 180f 563d 8d21 76be c01d 543d de0f b9be
-0.3987009 -0.14553306 -0.120018184 -0.31476074 0.4631981 -0.49420246 -0.39109075 -0.32938212
0.10935683 -0.11133222 -0.23810777 0.5980029 -0.06575019 -0.5635101 0.3228525 -0.43794003
0.21195461 -0.12265052 0.02049912 -0.2828238 0.06657403 0.11781204 0.3846247 -0.18142766
0.4497299 -0.39073336 0.4470174 -0.2508817 -0.058939464 -0.19563922 -0.010438144 0.107185215
0.24053095 -0.27874652 -0.059238907 0.41965353 -0.12645274 -0.11210738 0.040929295 -0.18534695
-0.3028486 -0.3647614 0.10732795 0.081579216 0.06422711 0.015951367 -0.44444308 0.058929972
-0.14366604 -0.17592515 -0.20873685 0.20121644 -0.1638033 -0.23154522 -0.154876 0.051496383
0.3910924 0.20003252 -0.015121188 0.2708654 0.08774264 0.20110391 -0.27437457 0.35565853
0.027867809 -0.07084132 -0.0718666 -0.21964061 0.44581193 -0.020706905 -0.22516224 0.33420575
0.060010824 -0.37060645 -0.07135075 0.1427938 -0.15777402 0.088344984 0.26915985 -0.417191
-0.07130547 0.02182232 -0.24145907 0.10322976 -0.11016143 -0.2617581 -0.13012876 0.45188156
0.22165868 -0.361369 0.31607804 -0.08663526 0.13959968 0.3398812 0.017939733 -0.13629933
-0.08733709 -0.08362151 -0.044825234 -0.24710436 0.055926837 -0.013609539 -0.10546035 0.21823934
-0.28526512 -0.17682102 0.27616042 0.012644514 0.15327175 0.192007 0.2019604 -0.46863005
0.49486008 -0.107697636 -0.109115385 0.11925016 -0.19154623 0.0059897876 0.25159892 0.20930015
-0.07656664 -0.32913455 0.0461055 -0.013132289 -0.010628481 0.37682638 0.03580203 -0.18834321
0.049814966 0.003924645 0.10920379 -0.05047593 0.1571229 0.5155314 -0.5108738 0.035002414
-0.2424422 0.022126129 0.11715989 0.16744193 -0.31883365 -0.36603972 -0.1440454 -0.18463816
0.121668845 -0.13940668 0.16722237 -0.062819146 -0.622263 -0.26533487 0.18938453 0.08104524
0.09285804 0.39422247 0.36902988 0.22006735 -0.028498812 -0.1232772 -0.07862662 -0.22674346
0.21610552 0.29298538 -0.0057367515 -0.59601134 -0.3268894 -0.28586456 -0.39592525 -0.32196316
-0.4760899 -0.14807464 -0.058686677 0.56803185 0.20761834 -0.41474566 -0.23742238 0.06445767
0.3521655 0.010890952 -0.004096605 -0.39632702 -0.36599222 0.27015737 -0.2162572 -0.16908924
0.22401874 -0.3420871 0.23165339 -0.4024028 -0.17137069 -0.27976367 0.19071493 -0.024258375
-0.31545037 0.25378257 -0.2837885 0.10649346 -0.34776944 -0.14323604 0.07013594 -0.119065575
-0.1664766 -0.04354455 0.04834215 0.118958995 0.16604996 -0.096240394 0.60303444 -0.08187189
-0.14457236 -0.17896284 -0.21755219 -0.3269758 -0.26324353 0.26722628 0.31613675 0.23304701
0.24571678 0.13390017 0.081186004 -0.16478573 -0.2358312 -0.42104334 0.14787021 0.21335766
0.46592826 0.06588006 -0.3259259 0.47301924 -0.28493595 0.41104397 0.05595754 0.26577184
0.096379645 -0.14915459 -0.36829773 -0.11611559 0.13512811 -0.37583354 0.05442248 -0.12315308
0.22324885 -0.015889594 -0.10631125 0.6118306 0.20284644 0.06945023 -0.112751335 0.24644428
0.20731081 0.059094608 -0.43941146 0.076208465 0.05226049 -0.24036236 0.051786184 -0.36144918

network_body.visual_processors.1.conv_layers.0.bias f4 [16]
00000000: d656 aebc cc78 3f3d 3c8c 883c 7079 85bb
00000010: 040f 3f3d 2cea 30bc c60d 853d d4ab 953c
00000020: a436 9d3c 825a b8bc 1ce5 2d3d 7302 83bd
00000030: 570d 55bd 92e0 373d 8fa0 00bd b0c4 8c3b
-0.021281641 0.04674606 0.016668431 -0.0040733144 0.04664518 -0.010798018 0.06496768 0.01827041
0.019191094 -0.022504095 0.042454824 -0.063969515 -0.052014675 0.0448919 -0.03140312 0.004295908
