com.unity.ml-agents/Tests/Editor/TestModels/deterDiscrete1obs3action_v2_0.onnx (onnx, 3715 bytes, 4 tensors)

network_body._body_endoder.seq_layers.0.weight f4 [20, 20]
0.44172436 0.007326334 -0.2517354 0.37534404 0.061775338 0.027928965 0.31438094 0.11819406
0.48457047 -0.004565538 -0.28191644 -0.2598982 -0.28156286 -0.110272445 -0.652606 0.1973293
0.046081487 -0.16075777 0.05819984 -0.5198485 -0.35657346 0.1989614 0.07207567 0.19477446
0.23668794 -0.16298734 0.12582378 -0.39018956 0.48490193 0.1673075 -0.57402176 -0.4120415
-0.36472538 -0.4254681 -0.46484408 0.17299075 0.023597326 -0.14158192 0.35882148 -0.4393073
-0.030788 0.0682691 0.2471224 -0.34564012 0.06614538 -0.22159353 0.016048811 -0.2677081
0.050983984 -0.21382958 0.55881673 0.29509482 -0.0001968883 0.44453907 0.5912039 0.13133153
-0.06146079 -0.12408723 -0.45275176 0.00016762571 0.26959094 -0.06522927 -0.2043626 0.018052612
0.39112934 0.073478036 0.13669835 -0.1541475 0.008059922 -0.3477363 0.5449221 0.115716726
0.1639198 0.92745745 -0.008506329 -0.055706255 0.032794897 0.13557968 0.661573 -0.103505425
0.22127621 0.3875705 0.03453135 0.09231902 0.001476232 0.052880406 0.20847046 0.25497523
-0.28787 0.35417247 0.48409814 0.4368332 -0.097953066 0.4698302 0.6021174 -0.07408372
-0.19504987 -0.1679393 -0.5181273 0.20061074 0.28143933 -0.13831727 0.04017519 -0.24602671
-0.086588725 0.11138493 0.17032343 -0.53905153 -0.06567784 0.013675961 0.29275128 0.4804997
0.053604644 0.79356056 0.28446442 0.20136806 0.14292698 0.108798556 0.124748446 0.2564662
-0.07686623 -0.19178247 -0.103054665 -0.007164608 -0.084652886 0.3102743 -0.03701088 -0.17060074
-0.15884762 -0.28038982 0.3375922 0.47486043 0.036078583 0.55491734 0.5128207 0.10432661
-0.07427104 0.20312281 0.21693365 0.48227876 -0.19362208 0.091098115 -0.08963749 0.001953689
0.034511197 -0.07470059 0.19573396 0.27715632 -0.2694792 -0.03401397 0.26264697 0.19872713
-0.23543432 0.4098944 0.23025858 0.037340034 -0.10502723 -0.30474824 -0.12005996 -0.048827536
0.3423612 0.14063321 0.30329624 -0.03406052 -0.057298448 -0.20696329 -0.14871565 -0.17112596
0.08005314 -0.1579854 0.21156846 0.5491687 0.418374 0.3546808 0.8611599 0.2405166
-0.025480803 -0.13277663 -0.108902596 -0.25574866 -0.16629149 -0.18422545 0.043379262 -0.034968097
-0.09215513 0.048973612 0.40932816 0.09371477 0.14567876 -0.00018451625 -0.16847558 -0.4303218
0.2743532 -0.4092074 -0.276056 0.13213472 -0.31935382 -0.05872243 -0.063182876 0.014174287
-0.24380146 -0.27386686 0.43010002 0.16752122 -0.41528288 0.16616052 0.23366185 -0.015213
-0.29296032 -0.22860825 -0.30443445 -0.60892844 -0.5325314 -0.4181629 -0.028880162 0.06220327
-0.15571766 0.12371494 -0.06255957 0.09459196 0.28414005 -0.077586606 0.13355473 -0.3862633
-0.027754279 -0.01294441 0.26103342 0.18887633 -0.30458707 -0.13594715 0.21277066 0.14888388
0.31729203 0.69454503 0.36906716 -0.4036169 -0.08706896 -0.1210422 0.2552025 0.29411247
0.2922685 -0.3112599 -0.15200758 0.20494643 -0.19009304 0.21910861 0.17410608 -0.2624587
0.015225358 0.39867017 0.54979604 0.2568733 0.09469974 -0.13181823 0.01566466 -0.3489301
00000000: b229 e23e be11 f03b 76e3 80be 182d c03e
00000010: 2308 7d3d 49cb e43c 8af6 a03e ba0f f23d
00000020: 9f19 f83e 829a 95bb 5a57 90be 6011 85be
00000030: 0229 90be 85d6 e1bd 3011 27bf b110 4a3e
00000040: f1bf 3c3d af9d 24be f562 6e3d cb14 05bf
00000050: cc90 b6be 8abc 4b3e 699c 933d f572 473e
00000060: 535e 723e 27e6 26be f3d7 003e edc6 c7be
00000070: 1145 f83e a852 2b3e 17f3 12bf 1af7 d2be
00000080: 49bd babe f4d6 d9be 0b00 eebe 7d24 313e
00000090: 2e4f c13c dafa 10be 73b7 b73e e3ec e0be
000000a0: 1e37 fcbc abd0 8b3d a80d 7d3e bef7 b0be
000000b0: 3b77 873d 6ae9 62be cc78 833c 0911 89be
000000c0: 95d4 503d 24f6 5abe 9d0e 0f3f ab16 973e
000000d0: cd73 4eb9 a09a e33e 2459 173f c67b 063e
000000e0: 4fbe 7bbd 7221 febd 14cf e7be afc4 2f39
000000f0: d307 8a3e ec96 85bd 6e44 51be 12e3 933c
00000100: 1b42 c83e a77b 963d a7fa 0b3e d8d8 1dbe
00000110: c30d 043c 7e0a b2be 0480 0b3f e4fc ec3d
00000120: 98da 273e da6d 6d3f 215e 0bbc 3e2c 64bd
00000130: f153 063d 66d5 0a3e d95c 293f a7fa d3bd
00000140: 3b96 623e a46f c63e bf70 0d3d c111 bd3d
00000150: 207e c13a 2099 583d 4879 553e 1d8c 823e
00000160: b263 93be 1856 b53e b6db f73e 9aa8 df3e
00000170: 9e9b c8bd 958d f03e 5e24 1a3f 35b9 97bd
00000180: 27bb 47be 48f8 2bbe fea3 04bf e76c 4d3e
00000190: d118 903e 0ba3 0dbe bd8e 243d 6dee 7bbe
000001a0: 6e55 b1bd c81d e43d 4469 2e3e 48ff 09bf
000001b0: 1a82 86bd 2311 603c 7fe3 953e 0f04 f63e
000001c0: 8b90 5b3d c926 4b3f 52a5 913e 6e33 4e3e
000001d0: 735b 123e c7d1 de3d 1d7c ff3d 8a4f 833e
000001e0: 0b6c 9dbd a062 44be 530e d3bd 17c5 eabb
000001f0: 7e5e adbd 46dc 9e3e b898 17bd f6b1 2ebe
00000200: f3a8 22be 418f 8fbe e3d8 ac3e e820 f33e
00000210: 23c7 133d 100f 0e3f 3848 033f 31a9 d53d
00000220: 6a1b 98bd 6dff 4f3e db23 5e3e 3eed f63e
00000230: de44 46be a691 ba3d dc93 b7bd 7609 003b
00000240: 9d5b 0d3d 9ffc 98bd 7c6e 483e 6fe7 8d3e
00000250: 2df9 89be 3c52 0bbd aa79 863e 207f 4b3e
00000260: b215 71be aedd d13e e8c8 6b3e ddf1 183d
00000270: 8418 d7bd f607 9cbe ffe1 f5bd 62ff 47bd
00000280: f849 af3e 2702 103e a549 9b3e 0b83 0bbd
00000290: c7b1 6abd 2fee 53be ea48 18be a53b 2fbe
000002a0: e7f2 a33d edc6 21be 67a5 583e 5296 0c3f
000002b0: 1e35 d63e b998 b53e fa74 5c3f fc49 763e
000002c0: 1ebd d0bc 99f6 07be 5308 dfbd 7df1 82be
000002d0: 5148 2abe 99a5 3cbe 74ae 313d b53a 0fbd
000002e0: d4bb bcbd 8e98 483d 7693 d13e 88ed bf3d
000002f0: d02c 153e b47a 41b9 dd84 2cbe 2453 dcbe
00000300: 0678 8c3e a283 d1be 3657 8dbe 534e 073e
00000310: 5882 a3be ee86 70bd 0666 81bd 453b 683c
00000320: 17a7 79be 4738 8cbe 1236 dc3e af8a 2b3e
00000330: f59f d4be fc25 2a3e 0d45 6f3e f23f 79bc
00000340: e5fe 95be 4818 6abe d5de 9bbe bce2 1bbf
00000350: fa53 08bf 7319 d6be 1796 ecbc dbc8 7e3d
00000360: 7374 1fbe 425e fd3d 3b1f 80bd 6eb9 c13d
00000370: ce7a 913e bae5 9ebd 92c2 083e 4ec4 c5be
00000380: f15c e3bc ca14 54bc 2ca6 853e cc68 413e
00000390: d6f2 9bbe bb35 0bbe 8de0 593e 0475 183e
000003a0: 1a74 a23e b4cd 313f 5ff6 bc3e e0a6 cebe
000003b0: 3651 b2bd f9e4 f7bd e7a9 823e e995 963e
000003c0: 38a4 953e 755d 9fbe e0a7 1bbe 7add 513e
000003d0: c0a7 42be 025e 603e dd48 323e fd60 86be
000003e0: c873 793c 7f1e cc3e 6fbf 0c3f e684 833e
000003f0: f0f1 c13d 5cfb 06be 2c53 803c f7a6 b2be

network_body._body_endoder.seq_layers.0.bias f4 [20]
-0.59011626 -0.6178916 0.7897388 0.774759 0.81319964 0.74578196 0.77003163 0.7485071
0.78309363 -0.62920046 -0.6794831 0.80666894 0.32352975 0.7012812 -0.58879334 0.75710493
0.84131724 0.7799976 -0.6142413 -0.6381455
00000000: dc11 17bf 252e 1ebf 522c 4a3f 9b56 463f
00000010: da2d 503f 91eb 3e3f cb20 453f 299e 3f3f
00000020: d378 483f 4813 21bf 9bf2 2dbf db81 4e3f
00000030: b1a5 a53e 2a87 333f 29bb 16bf a1d1 413f
00000040: 9160 573f ecad 473f eb3e 1dbf 815d 23bf

action_model._discrete_distribution.branches.0.weight f4 [3, 20]
0.47205955 0.54745483 -0.57758087 -0.47881117 -0.5597388 -0.4828407 -0.60424304 -0.49139965
-0.55997753 0.4052962 0.49980107 -0.54460585 -0.17176974 -0.43689442 0.34758285 -0.50324667
-0.5453628 -0.47049662 0.3467146 0.41436836 0.5387861 0.5292103 -0.6014257 -0.5801694
-0.49065635 -0.567878 -0.6526201 -0.59685755 -0.5725171 0.47753924 0.4384479 -0.53314817
-0.019870035 -0.5786582 0.47880113 -0.58458537 -0.43949187 -0.5430728 0.40821162 0.46595216
-0.6599133 -0.70139956 0.7676306 0.74468297 0.7483666 0.7527902 0.7896369 0.8012259
0.7202174 -0.60401875 -0.6060498 0.7652432 0.13547945 0.76460314 -0.64614576 0.7559399
0.637415 0.7302224 -0.6030643 -0.6282978
00000000: cab1 f13e 0026 0c3f 57dc 13bf bd26 f5be
00000010: 0b4b 0fbf e536 f7be acaf 1abf bc98 fbbe
00000020: b05a 0fbf fc82 cf3e ede5 ff3e 4a6b 0bbf
00000030: 68e4 2fbe a0b0 dfbe 61f6 b13e c6d4 00bf
00000040: e59c 0bbf efe4 f0be 9384 b13e 1728 d43e
00000050: e3ed 093f 547a 073f 09f7 19bf fb85 14bf
00000060: 4f37 fbbe 7460 11bf 1c12 27bf a8cb 18bf
00000070: 7b90 12bf 0680 f43e 3e7c e03e 667c 08bf
00000080: 7cc6 a2bc f222 14bf 6c25 f53e 63a7 15bf
00000090: 1405 e1be d206 0bbf 1d01 d13e 4891 ee3e
000000a0: 14f0 28bf ec8e 33bf 7083 443f 8ba3 3e3f
000000b0: f494 3f3f dcb6 403f a525 4a3f 241d 4d3f
000000c0: 2b60 383f f9a0 1abf 1426 1bbf fae6 433f
000000d0: 20bb 0a3e 08bd 433f cf69 25bf 4785 413f
000000e0: a12d 233f dbef 3a3f 6c62 1abf 20d8 20bf

action_model._discrete_distribution.branches.0.bias f4 [3]
-0.46382967 -0.3730209 0.568711
00000000: 157b edbe 98fc bebe 0b97 113f
