Project/Assets/ML-Agents/Examples/Hallway/TFModels/Hallway.onnx (onnx, 324696 bytes, 9 tensors)

94 f4 [1, 256, 128]
0	0x3d7244d2	0.059147663
1	0x3d5c0216	0.053712927
2	0xbe448529	-0.19191422
3	0x3d12bb3b	0.03582309
4	0x3df86146	0.121279284
5	0x3d8e3863	0.06944349
6	0xbdce376a	-0.10069163
7	0xbdf8b532	-0.12143935
8	0x3ddbdaaf	0.1073507
9	0xbe2ef8f0	-0.1708715
10	0x3dc8d736	0.09806673
11	0xbe376030	-0.17907786
12	0xbc7b6370	-0.015343532
13	0x3dfb44e4	0.12268999
14	0x3df4f202	0.11960222
15	0x3d626591	0.055272643
16	0xbbb9dcb0	-0.00567206
17	0xbe2ee51c	-0.17079586
18	0xbdbdf9c4	-0.09276155
19	0xbd8db8e2	-0.06920029
20	0xbdec5e6e	-0.115414485
21	0xbcfdee3d	-0.03099739
22	0x3e260bad	0.16215391
23	0xbd12a576	-0.035802327
24	0x3d9b202a	0.07574494
25	0x3d8127ed	0.06306443
26	0xbdba1863	-0.09086683
27	0x3cc1c06a	0.02365132
28	0x3d8a9791	0.0676719
29	0xbb497a74	-0.0030743154
30	0x3d42c7d1	0.04755384
31	0xbe6708cc	-0.2256195
32	0xbe347077	-0.17621027
33	0xbe159aab	-0.14609782
34	0x3e2ff1e6	0.1718212
35	0x3d0dee6a	0.034651197
36	0x3e43d43e	0.19123933
37	0x3da0bc31	0.07848395
38	0xbdcb98ed	-0.09941278
39	0xbe12ad4d	-0.14323922
40	0x3be0d8ab	0.0068617663
41	0x3e0766b3	0.1322277
42	0x3de9790c	0.11400041
43	0xbe09d57a	-0.13460341
44	0xbe2e0d88	-0.1699735
45	0x3e6299f8	0.22129047
46	0x3ade119f	0.0016942507
47	0x3dcd80ac	0.10034308
48	0x3c26536d	0.010151726
49	0xbe0178e1	-0.12643768
50	0x3d266e22	0.040632375
51	0x3e34aefa	0.17644873
52	0x3cdfa3b4	0.02729974
53	0xbddc125f	-0.107456915
54	0x3d99c984	0.07509139
55	0xbdd668ff	-0.10469245
56	0xbe75d26e	-0.24006054
57	0xbe331cb5	-0.1749142
58	0x3e8c3b4c	0.2738899
59	0x3c422920	0.011850625
60	0xbdfb2881	-0.12263585
61	0x3e5005b4	0.20314676
62	0xbe3846c5	-0.17995746
63	0xbdd05049	-0.10171563
64	0x3e43369f	0.19063805
65	0x3d42a188	0.04751733
66	0x3d4fc963	0.050729167
67	0x3d242ff7	0.040084805
68	0xbd19d46d	-0.0375561
69	0xbd6c1f72	-0.057647176
70	0xbd3a75c6	-0.045522474
71	0xbd8b8746	-0.06812911
72	0xbdb2f21c	-0.08737585
73	0xbde2e347	-0.11078506
74	0xbdf74e06	-0.12075429
75	0xbe2dad30	-0.16960597
76	0xbc9ec107	-0.019379152
77	0x3d83ef2b	0.06442102
78	0x3ecdd44a	0.40201026
79	0x3e45c8ed	0.19314928
80	0x3ea11cfe	0.31467432
81	0xbe6ded91	-0.23235156
82	0x3e0b124c	0.13581198
83	0xbe38d385	-0.18049438
84	0x3e55f187	0.20892917
85	0x3bd52cd7	0.0065055895
86	0x3e3f5cc2	0.18687728
87	0xbdc26fa3	-0.09493949
88	0xbdc18f91	-0.09451211
89	0x3e10fa61	0.14158012
90	0xbeae4b1e	-0.34041685
91	0xbe044e31	-0.12920453
92	0x3ddd8cb6	0.10817854
93	0x3dd68d36	0.104761526
94	0x3c1012bb	0.008793528
95	0xbd91aa88	-0.071126044
96	0xbd33df8f	-0.043914374
97	0xbcccd10b	-0.025002023
98	0x3d86b374	0.06577197
99	0xbe129cf7	-0.1431769
100	0xbe4c5a58	-0.19956338
101	0xbda1e266	-0.0790451
102	0xbd81108f	-0.063019864
103	0x3e290ee5	0.16509588
104	0xbd26b889	-0.04070333
105	0x3de797c2	0.113082424
106	0xbd9cf626	-0.076641366
107	0xbc7030a3	-0.014660033
108	0xbd01a294	-0.031649187
109	0x3de12bc1	0.109946735
110	0xbe41e30e	-0.1893427
111	0x3e6f2f3b	0.2335786
112	0x3daf3213	0.08554473
113	0x3de1a9b6	0.11018698
114	0x3e1aa11d	0.15100522
115	0xbda9566b	-0.08268436
116	0x3e565946	0.20932493
117	0x3d891bb0	0.06694734
118	0x3e08b2d5	0.13349469
119	0xbe8afc02	-0.27145392
120	0xbdb3d1c3	-0.08780243
121	0x3e75e2c5	0.24012287
122	0x3dc21680	0.09476948
123	0xbe0de445	-0.13856609
124	0x3d5df216	0.05418595
125	0x3e5dd7bf	0.21664332
126	0xbd29546c	-0.041340277
127	0x3d1def5e	0.038558356
128	0x3e1d35ba	0.15352526
129	0xbd38abab	-0.04508559
130	0x3cf66e24	0.030081816
131	0xbd716c50	-0.058941185
132	0xbd2938f8	-0.041314095
133	0x3e1a0ea8	0.15044653
134	0xbd1ea30e	-0.03872972
135	0x3d385933	0.045006942
136	0xbdb73644	-0.08945897
137	0xbe4c33f3	-0.19941692
138	0xbe891702	-0.26775366
139	0x3e46a80d	0.19400044
140	0x3e4e0cf9	0.20122136
141	0x3db91822	0.09037806
142	0xbe763df8	-0.24047077
143	0xbcf3b211	-0.029747995
144	0xb8f08139	-0.000114681614
145	0x3d208817	0.039192285
146	0xbe8bbdfd	-0.27293387
147	0x3e360afb	0.17777626
148	0x3d083bee	0.03326028
149	0x3eb0380c	0.3441776
150	0x3e92e28d	0.2868847
151	0xbb931e7d	-0.0044897185
152	0xbdaeaef2	-0.08529462
153	0x3e3b4094	0.18286353
154	0xbe79fbce	-0.24412462
155	0xbdeb3a61	-0.11485744
156	0xbe1c9eb4	-0.15294915
157	0xbe159819	-0.14608802
158	0xbd866a5f	-0.065632574
159	0x3e910c7a	0.2832983
160	0x3de26e5d	0.110562064
161	0x3da11374	0.078650385
162	0xbd677ffd	-0.056518544
163	0xbe06f5d1	-0.13179709
164	0xbca15ab0	-0.019696563
165	0xbdb8625f	-0.09003138
166	0x3d059c2a	0.032619633
167	0xbe28c7fe	-0.16482541
168	0xbcaed930	-0.021343797
169	0x3e0c2bc7	0.13688575
170	0xbd4df04d	-0.050277997
171	0x3e506b62	0.20353463
172	0x3da42735	0.08015291
173	0xbdf9f176	-0.12204258
174	0x3dee787c	0.11644074
175	0xbd65077f	-0.055915352
176	0x3e38ac14	0.18034393
177	0x3de24fcd	0.11050377
178	0x3e9c310f	0.3050618
179	0xbd4ac190	-0.049501
180	0xbd00273b	-0.031287413
181	0xbc0ed55b	-0.00871786
182	0xbd7ba690	-0.061438143
183	0xbe10b673	-0.14132099
184	0x3de8b416	0.11362474
185	0xbd1f2b57	-0.03885969
186	0xbd15e744	-0.036597505
187	0x3e069efc	0.13146585
188	0x3e8f45d4	0.27982962
189	0xbe305162	-0.17218545
190	0x3e7916e2	0.24325135
191	0xbde5a214	-0.112125546
192	0xbd0adde9	-0.033903036
193	0x3e04a468	0.12953341
194	0x3e9e6598	0.30936885
195	0x3befaacf	0.007314063
196	0xbe26fba5	-0.16306932
197	0xbe6dd79f	-0.23226784
198	0xbc8a41cd	-0.01687708
199	0x3e15eb94	0.14640647
200	0x3e591b47	0.21201812
201	0xbd36d70c	-0.04463868
202	0xbd8dbf83	-0.069212936
203	0xbdbec2ba	-0.09314485
204	0x3e5259ce	0.2054207
205	0xbac73c1f	-0.0015200413
206	0x3d0ce1a5	0.03439488
207	0xbe5f9bf0	-0.21836829
208	0x3cafbc8d	0.021452213
209	0x3e482a3e	0.19547364
210	0x3d8a87fb	0.067642175
211	0x3debb614	0.11509338
212	0xbe294d36	-0.1653336
213	0xbe42f4ab	-0.19038646
214	0xbdca7e8f	-0.098874204
215	0x3dee0464	0.11621931
216	0xbdbbdb99	-0.09172744
217	0xbe0ef6b6	-0.139613
218	0xbd7afad7	-0.061274376
219	0x3d999810	0.07499707
220	0xbc46baf8	-0.012129538
221	0x3db5428f	0.08850586
222	0x3dba32bd	0.09091709
223	0xbe1c93ae	-0.1529071
224	0x3e0c5d63	0.13707499
225	0xbe581fec	-0.21105927
226	0xbc860606	-0.016360294
227	0xbe4f941d	-0.20271344
228	0x3dd18476	0.10230343
229	0x3db7e20d	0.08978663
230	0xbdd63519	-0.10459346
231	0x3d843126	0.06454687
232	0xbe1d95a8	-0.1538912
233	0x3dce4aaf	0.100728385
234	0xbb7c48ea	-0.0038495609
235	0x3df81ae1	0.12114502
236	0x3da48831	0.08033789
237	0x3d7f1c9d	0.062283147
238	0x3bbc8582	0.00575322
239	0x3dc8dcba	0.09807725
240	0xbcbf1a71	-0.023328038
241	0xbe2c0074	-0.16797048
242	0xbe258dd5	-0.16167386
243	0xbe810ca6	-0.25204962
244	0xbea0a138	-0.31373
245	0x3e977914	0.29584563
246	0x3dbfe17c	0.093691796
247	0x3ce37784	0.02776695
248	0x3e632128	0.22180617
249	0x3dfecae3	0.12441041
250	0xbe13cfc4	-0.14434725
251	0x3d6aee46	0.05735614
252	0xbdbc68a3	-0.09199645
253	0xbe4c9d37	-0.19981848
254	0xbcca5f58	-0.024703667
255	0xbe6515d4	-0.22371608

95 f4 [1, 256, 64]
0	0xbe9d5c5c	-0.30734527
1	0xbbfb6ce2	-0.007672892
2	0x3d8d6776	0.06904499
3	0xbe21280e	-0.15737936
4	0x3d6fa2a4	0.058504716
5	0xbe2a6473	-0.16639881
6	0x3b25300d	0.0025205642
7	0x3d19a595	0.037511427
8	0x3e206bdf	0.1566615
9	0xbd8342fc	-0.06409261
10	0x3e83d4d0	0.257483
11	0xbe35f221	-0.17768146
12	0xbd082d1f	-0.033246156
13	0x3d446e39	0.04795668
14	0x3cc0dbc0	0.023542285
15	0x3e1bcb56	0.15214285
16	0xbdc3ae6a	-0.09554751
17	0xbd9565b1	-0.07294787
18	0x3d999f59	0.07501096
19	0xbe614c1c	-0.2200169
20	0xbd7ab352	-0.06120617
21	0xbda49b02	-0.08037378
22	0x3e2ea924	0.1705671
23	0xbdc3c7f3	-0.09559622
24	0x3ce14f51	0.027503641
25	0xbdc88a44	-0.09791997
26	0xbcee64da	-0.029100824
27	0xbe8cc39f	-0.27492997
28	0x3de46f7b	0.11154076
29	0xbce18b44	-0.027532227
30	0xbe21c832	-0.15799025
31	0x3eb932ff	0.3617172
32	0xbe443c7a	-0.19163695
33	0xbdc909b1	-0.098163016
34	0x3d5ae3e5	0.053439993
35	0x3d46b67e	0.04851388
36	0x3e85e3de	0.2615041
37	0xbe36b09a	-0.17840806
38	0xbd96e820	-0.07368493
39	0xbc78c069	-0.015182593
40	0xbdd411a4	-0.10354927
41	0x3d2e8b32	0.042613216
42	0x3d27be6d	0.04095309
43	0xbe5e7266	-0.21723327
44	0xbcf2dbe3	-0.029645866
45	0xbe7372f0	-0.23774314
46	0xbc599a92	-0.013281481
47	0xbd0f5194	-0.03498991
48	0xbbb3727f	-0.0054762955
49	0x3e142a91	0.14469363
50	0xbdccab15	-0.09993569
51	0xbddf24fe	-0.108957276
52	0x3d9230c8	0.071382105
53	0xbe03bac3	-0.12864213
54	0xbe323088	-0.17401326
55	0x3c348526	0.011018073
56	0x3e32dd3c	0.17467207
57	0x3db77257	0.089573555
58	0x3cebc1fe	0.028779026
59	0x3db9c87a	0.09071441
60	0x3e3899f9	0.18027486
61	0x3e700176	0.23438057
62	0x3df66089	0.12030131
63	0xbe9318cc	-0.28729856
64	0xbe9c4eaf	-0.3052878
65	0x3ebcffc3	0.3691388
66	0x3d2d3cfe	0.042294495
67	0xbc93f648	-0.018061772
68	0xbe2df2a1	-0.16987087
69	0x3cdb17a5	0.026744673
70	0xbe1a946f	-0.15095685
71	0xbe04f913	-0.1298564
72	0x3e86e89f	0.2634935
73	0x3e1e1427	0.15437375
74	0x3d9e49db	0.077289306
75	0x3e2a8e7f	0.1665592
76	0x3e3a6794	0.18203574
77	0x3d34dee9	0.044157896
78	0x3cf6e329	0.030137615
79	0xbcc8d47e	-0.024515387
80	0x3c060188	0.008179076
81	0xbe6a3c39	-0.22874536
82	0xbe36e53c	-0.17860883
83	0xbeac1e40	-0.3361683
84	0xbd1ed0fc	-0.03877352
85	0xbe3b5f67	-0.18298112
86	0x3db7954c	0.08964023
87	0x3ded24c5	0.11579279
88	0x3d63bfb1	0.055602733
89	0x3d8731c4	0.06601289
90	0xbe1c112a	-0.15240923
91	0xbe5df182	-0.21674159
92	0xbe61e489	-0.22059835
93	0x3df3e34a	0.11908586
94	0x3e0dc0a0	0.13843012
95	0xbd61e1c9	-0.055146966
96	0x3e7eb6cc	0.24874419
97	0x3d850e65	0.06496886
98	0xbe6182b5	-0.22022517
99	0x3c249c2f	0.010047003
100	0x3d7ee307	0.06222823
101	0xbe44566a	-0.1917359
102	0xbdf981ab	-0.12182935
103	0xbda4f619	-0.08054752
104	0xbd245e57	-0.040129032
105	0xbe0367c9	-0.1283256
106	0xbe2607ba	-0.16213885
107	0xbd42f75b	-0.047599178
108	0xbd99ef1a	-0.07516308
109	0x3e31aa92	0.17350224
110	0x3d303f32	0.043029018
111	0x3c6c5b6a	0.014426092
112	0x3dc70973	0.09718599
113	0x3e3bca4b	0.18338887
114	0x3e658114	0.2241252
115	0xbd61f340	-0.055163622
116	0xbdf7591a	-0.12077542
117	0xbe2e37b8	-0.17013443
118	0x3afcb750	0.0019280706
119	0x3d2c8335	0.042117316
120	0xbdcc936f	-0.09989058
121	0x3d30cdee	0.04316514
122	0xbe3c21bd	-0.18372245
123	0x3e969841	0.29413036
124	0x3c937c29	0.01800354
125	0xbe71168c	-0.23543757
126	0x3e05f060	0.13079977
127	0xbe86998f	-0.2628903
128	0x3e387e50	0.18016934
129	0x3e05bef6	0.13061127
130	0xbea51777	-0.32244465
131	0x3dc70af5	0.09718887
132	0xbe653751	-0.22384383
133	0xbc782110	-0.015144601
134	0x3e44724b	0.19184224
135	0x3d9fe9c9	0.07808263
136	0xbe1d6cdb	-0.15373556
137	0xbcb9d1d1	-0.022683056
138	0x3e5434bb	0.2072324
139	0x3e647481	0.22310068
140	0xbcbc266d	-0.022967542
141	0x3dd5657e	0.10419749
142	0x3e233670	0.15938735
143	0xbd699d8b	-0.05703501
144	0x3e91c278	0.2846868
145	0x3dfd963f	0.12382173
146	0x3ddaaf48	0.106779635
147	0xbe16875e	-0.14700076
148	0xbe3ac436	-0.18238911
149	0x3ec9d1ba	0.3941782
150	0x3ea2d376	0.31801957
151	0x3e3b0821	0.1826482
152	0x3dea82e9	0.114507504
153	0xbee58862	-0.44830614
154	0xbe73bef6	-0.23803315
155	0xbca048bb	-0.01956593
156	0xbdaf13f4	-0.08548728
157	0xbe00ff59	-0.12597407
158	0x3d325d89	0.043546233
159	0x3d83a9ee	0.06428896
160	0xbebf37b1	-0.37347177
161	0xbe64a6c7	-0.22329246
162	0xbd75af09	-0.05998138
163	0x3ced9718	0.029002711
164	0x3c69d625	0.014272247
165	0x3e5a4a9c	0.21317524
166	0x3d9d02c4	0.07666543
167	0xbe1c0a9a	-0.15238419
168	0x3ed0f849	0.40814427
169	0x3e20b695	0.1569465
170	0x3de01577	0.10941594
171	0x3e5c6ecf	0.21526645
172	0x3daf2d23	0.08553531
173	0xbda7533e	-0.08170174
174	0xbeac09b0	-0.3360114
175	0xbe86760f	-0.26261947
176	0x3e405c0d	0.18785115
177	0x3dec7a50	0.11546767
178	0x3ea91e13	0.33030757
179	0x3d850062	0.06494214
180	0xbe3c8bad	-0.18412657
181	0x3cb50801	0.022098543
182	0xbd8177e5	-0.06321696
183	0xbdd87d21	-0.105707414
184	0x3ea58129	0.32325104
185	0x3dc2c4d2	0.09510197
186	0xbe16f369	-0.14741291
187	0x3e102adb	0.14078848
188	0xbdbd8a3f	-0.09254884
189	0xbd5e328a	-0.054247417
190	0xbe0e965d	-0.13924547
191	0x3ce4d131	0.027931781
192	0x3e2f9450	0.1714642
193	0x3c877655	0.016535917
194	0x3e346a93	0.1761878
195	0xbc06ccd8	-0.0082275495
196	0x3dbd1faf	0.09234559
197	0x3ea5a2ba	0.32350713
198	0xbd3472ab	-0.04405467
199	0xbe509a19	-0.20371284
200	0x3e6121b2	0.2198551
201	0x3da0db74	0.07854357
202	0x3e336379	0.17518415
203	0x3e372804	0.17886358
204	0xbe952ca2	-0.29135615
205	0x3dc819d2	0.0977055
206	0x3dcee0db	0.101014815
207	0x3d5ed244	0.054399744
208	0xbdf4bdc7	-0.1195026
209	0x3ceab400	0.028650284
210	0xbe1ab40e	-0.15107748
211	0x3e26aa0e	0.16275808
212	0xbe18bd3c	-0.14915937
213	0x3e4633d0	0.19355702
214	0xbd19c580	-0.037541866
215	0x3cb7071b	0.022342255
216	0x3e73ff4b	0.23827855
217	0xbde1a851	-0.11018432
218	0xbe8894ef	-0.26676127
219	0xbe24f003	-0.16107182
220	0xbbbd5ff1	-0.0057792594
221	0xbde34ef2	-0.11099042
222	0xbd9061a3	-0.07049873
223	0x3dc5cbce	0.09658013
224	0xbea07142	-0.3133641
225	0xbe54f568	-0.2079674
226	0xbe242d47	-0.16032897
227	0x3e148de0	0.14507246
228	0xbadca633	-0.0016834199
229	0xbd12db4d	-0.035853673
230	0xbe7e1ccf	-0.24815677
231	0xbe88a264	-0.26686394
232	0x3d3f559d	0.046712507
233	0x3e73e4bc	0.23817724
234	0x3e2cae42	0.16863349
235	0xbc104975	-0.008806576
236	0x3cf2d55f	0.029642759
237	0xbd29cf0b	-0.041457217
238	0xbdc93501	-0.09824563
239	0xbe16428e	-0.14673826
240	0x3e697884	0.2279988
241	0x3dbc1b36	0.091848776
242	0xbd5b4dd6	-0.053541027
243	0x3da87797	0.08225935
244	0xbe274e47	-0.16338454
245	0xbe4e8912	-0.20169476
246	0xbd00c4e9	-0.03143779
247	0xbda9ba60	-0.08287501
248	0x3e635c64	0.22203213
249	0x3d9a4246	0.07532172
250	0x3da697cd	0.081344225
251	0x3eb9ee81	0.36314777
252	0x3d808922	0.06276156
253	0x3e23c3ee	0.1599271
254	0x3dcae71c	0.09907362
255	0x3d383b8c	0.044978663

96 f4 [1, 512]
0	0x3d16a169	0.036775026
1	0x3b54a63a	0.0032447712
2	0x3db6e5ba	0.089305356
3	0x3bda1074	0.0066547934
4	0x3d9c5bc5	0.07634691
5	0x3d7ace47	0.061231878
6	0x3e084374	0.13306981
7	0x3dae5303	0.08511927
8	0x3d03c7a3	0.03217281
9	0x3e6a10c4	0.22857958
10	0xbd8e84bc	-0.06958911
11	0x3e030215	0.12793763
12	0x3dfa0093	0.12207141
13	0x3e172ac5	0.14762409
14	0x3dd2fdc1	0.10302306
15	0x3c788d41	0.015170396
16	0x3dc51d58	0.096247375
17	0x3d1652dd	0.03670012
18	0xbce04305	-0.027375707
19	0x3d74042d	0.059574295
20	0x3e7a5c76	0.24449334
21	0xbe02e9b5	-0.12784465
22	0x3de25199	0.1105072
23	0x3d82da75	0.063893236
24	0xbd07f4d9	-0.03319249
25	0xbdae6d6c	-0.08516964
26	0x3de4e41f	0.11176323
27	0x3d5d8e0c	0.054090545
28	0x3d996005	0.074890174
29	0x3df0fd7b	0.117670976
30	0x3de4f175	0.11178867
31	0x3dd1a3eb	0.10236343
32	0xbe12799e	-0.14304206
33	0x3df4a7fa	0.119461015
34	0x3e01d3fa	0.12678519
35	0x3cc17041	0.023613097
36	0x3e3ece31	0.18633343
37	0x3e20188c	0.15634364
38	0x3d8331db	0.064059936
39	0xbd556e67	-0.05210724
40	0x3e241c20	0.16026354
41	0x3b1d0200	0.002395749
42	0x3deb7917	0.114977054
43	0x3e498d34	0.19682771
44	0x3e83f04d	0.25769272
45	0x3d693ed5	0.056944687
46	0x3d980aa1	0.07423902
47	0xbcf2976c	-0.02961322
48	0x3e43cb9f	0.19120644
49	0x3d9a64f1	0.07538784
50	0x3e256bf5	0.16154464
51	0x3e0f3398	0.13984525
52	0x3e1bd3ba	0.15217486
53	0x3e1761be	0.1478338
54	0x3c9a1cdd	0.018812591
55	0x3d2a7f32	0.04162521
56	0x3dbcaac9	0.09212262
57	0x3d86fd13	0.06591239
58	0x3db6f8e1	0.08934189
59	0x3e271b89	0.16319098
60	0x3d327b0d	0.04357438
61	0x3e37b184	0.1793881
62	0x3e52931f	0.20563935
63	0x3da04af5	0.07826797
64	0x3d882d31	0.066492446
65	0x3dacc337	0.08435672
66	0x3e0df49c	0.13862842
67	0x3e1ffa0f	0.15622734
68	0x3dd6eddf	0.10494589
69	0x3b6e1794	0.0036329972
70	0x3e2de2cf	0.16981052
71	0x3db5953c	0.08866355
72	0x3d4fd969	0.050744448
73	0x3e20c788	0.15701115
74	0x3d8e6772	0.069533244
75	0x3d78aa65	0.060709376
76	0xbd86f79c	-0.065901965
77	0x3dc1dc03	0.09465792
78	0x3e0d65cd	0.13808365
79	0x3d52bff9	0.05145261
80	0x3d58868d	0.052862693
81	0x3e225f46	0.15856656
82	0xbd178bd6	-0.036998592
83	0xbc7473ec	-0.014920216
84	0x3dc17152	0.09445442
85	0x3e119910	0.14218545
86	0xbd08551f	-0.033284303
87	0x3d056581	0.032567505
88	0xbd11293f	-0.035439726
89	0xbc985b06	-0.01859809
90	0x3d8189ea	0.06325133
91	0x3d0092cd	0.03139
92	0x3df673f6	0.120338365
93	0x3d443c2f	0.047908958
94	0x3d92901e	0.071563944
95	0x3d921eaf	0.07134759
96	0x3d53c9bb	0.051706057
97	0x3e19fbd4	0.15037471
98	0x3cebc46c	0.028780185
99	0x3d4bf29e	0.049791925
100	0x3e1b100e	0.15142843
101	0xbd215faf	-0.03939789
102	0x3d353d28	0.044247776
103	0x3dd9df68	0.106383145
104	0x3e252e24	0.16130883
105	0x3d9d23c5	0.07672838
106	0x3d9f0d78	0.07766241
107	0x3e147834	0.14498979
108	0x3e47b0f5	0.19501098
109	0x3b556b01	0.0032565
110	0x3e182bd1	0.14860465
111	0x3dc0aa70	0.094075084
112	0x3d43fb7e	0.047847264
113	0x3c762ef2	0.015025841
114	0x3db36ce1	0.087610014
115	0x3d039ca7	0.032131817
116	0x3da8bddf	0.0823934
117	0x3d7ed5d4	0.06221564
118	0x3db517b0	0.08842409
119	0x3d2c4789	0.04206041
120	0x3dd135b8	0.10215324
121	0x3e4d297a	0.20035353
122	0xbb3509bd	-0.0027624213
123	0x3dde03ae	0.108405456
124	0x3ca116aa	0.019664127
125	0x3e23d819	0.16000403
126	0x3d871fcb	0.06597861
127	0xbd60b1db	-0.054857116
128	0x3f832748	1.0246363
129	0x3f89111a	1.0708344
130	0x3f648fc9	0.892819
131	0x3f7c08ed	0.9845112
132	0x3f802332	1.0010741
133	0x3f7a3609	0.977387
134	0x3f87c9f3	1.0608505
135	0x3f84ed57	1.038493
136	0x3f82d8b2	1.022238
137	0x3f6400d5	0.8906377
138	0x3f83323c	1.0249705
139	0x3f8a0529	1.0782825
140	0x3f7bfd13	0.98433036
141	0x3f88cb43	1.068703
142	0x3f7cfc43	0.9882242
143	0x3f7f5181	0.9973374
144	0x3f7c4e29	0.9855676
145	0x3f69938e	0.91240776
146	0x3f8baac6	1.0911491
147	0x3f72ecc6	0.9489254
148	0x3f6a6d17	0.9157271
149	0x3f8c5821	1.0964395
150	0x3f824889	1.0178386
151	0x3f8b0c8b	1.0863203
152	0x3f766b92	0.9625789
153	0x3f8d8759	1.105693
154	0x3f8a1316	1.0787075
155	0x3f82bab5	1.0213228
156	0x3f808830	1.0041561
157	0x3f743cc6	0.9540523
158	0x3f7a4b04	0.97770715
159	0x3f8dd76c	1.1081367
160	0x3f90cdd3	1.1312813
161	0x3f89b923	1.0759624
162	0x3f83dddf	1.0302085
163	0x3f78f871	0.9725409
164	0x3f8a6515	1.0812098
165	0x3f89b66c	1.0758796
166	0x3f810553	1.007975
167	0x3f85a862	1.0442011
168	0x3f8859b9	1.0652381
169	0x3f7bc0bc	0.98340964
170	0x3f694d73	0.91133803
171	0x3f767009	0.962647
172	0x3f7a5c3e	0.97797
173	0x3f89376a	1.0720036
174	0x3f6edf1f	0.93309206
175	0x3f8e8a4d	1.1135956
176	0x3f70b8b4	0.94031835
177	0x3f7ff978	0.99990034
178	0x3f739e1d	0.95163137
179	0x3f67ec75	0.9059518
180	0x3f4808bc	0.7813833
181	0x3f7c3afb	0.985275
182	0x3f7672c9	0.962689
183	0x3f73715b	0.9509484
184	0x3f66a98b	0.9010245
185	0x3f7e7415	0.9939588
186	0x3f88c53c	1.0685191
187	0x3f87887b	1.0588526
188	0x3f8374c9	1.0270015
189	0x3f800364	1.0001035
190	0x3f83089a	1.0237
191	0x3f864d59	1.0492355
192	0x3d626c7c	0.05527924
193	0xbd833dc8	-0.06408268
194	0xbd3a9b2e	-0.045558147
195	0xbce37a49	-0.027768271
196	0x3dad24ea	0.084543064
197	0x3d0d739b	0.034534078
198	0x3e2a40d3	0.16626291
199	0x3d0db7d0	0.034599125
200	0x3dfd9350	0.12381613
201	0x3b1f9e9f	0.002435602
202	0x3cebc320	0.028779566
203	0xbce7c887	-0.028293861
204	0x3cbd03fa	0.023073185
205	0x3a4176ae	0.00073800504
206	0xbbba17e7	-0.005679119
207	0xbda4bf78	-0.08044332
208	0xbd42c8ea	-0.047554888
209	0xbe0ae539	-0.13564004
210	0x3d248c1e	0.04017269
211	0x3d675f67	0.056487467
212	0x3da36760	0.079787016
213	0x3b07db26	0.0020729988
214	0xbc610c72	-0.013735877
215	0x3da53bb9	0.08068032
216	0xbd0ca24a	-0.03433446
217	0x3c647f1e	0.013946323
218	0xbdf1b2fa	-0.11801715
219	0xbdbf81fd	-0.09350965
220	0xbddf64ac	-0.109078735
221	0xbd0c79d8	-0.034295887
222	0xbd3728c6	-0.04471662
223	0xbdaa5f33	-0.08318939
224	0x3d714816	0.058906637
225	0xbcbfab0a	-0.023396987
226	0x3ca709f9	0.020390498
227	0x3bb83078	0.0056210123
228	0x3d3a6378	0.045505017
229	0x3d4a7a61	0.049433116
230	0x3dc387ab	0.09547361
231	0xbdc33809	-0.09532172
232	0x3c873e4b	0.016509196
233	0xbd37998d	-0.04482417
234	0x3d6d44d7	0.05792698
235	0xbd70df2d	-0.058806587
236	0xbe0ccd9a	-0.13750306
237	0xbd8c1640	-0.06840181
238	0x3d3e431b	0.046450716
239	0x3da441f6	0.080203936
240	0xbca564bc	-0.020189635
241	0x3c62c8e1	0.013841839
242	0x3cebc9f0	0.028782815
243	0x3dbbba93	0.091664456
244	0xbd10f116	-0.035386167
245	0x3db7fc48	0.08983666
246	0x3a33fca1	0.0006865953
247	0x3d30df03	0.04318143
248	0x3d773adb	0.060358863
249	0x3c05e9b9	0.0081734
250	0x3b746188	0.0037289578
251	0xbcdbb014	-0.026817359
252	0x3c61ed3c	0.013789471
253	0xbc0c3a7c	-0.008558866
254	0x3ce86c40	0.02837193
255	0x3d24866d	0.04016726

action_model._discrete_distribution.branches.0.bias f4 [5]
0	0xbe1515da	-0.14559117
1	0x3e12b011	0.14324977
2	0xbea20f89	-0.31652477
3	0x3dd68119	0.10473842
4	0xbc3ca430	-0.011513755

action_model._discrete_distribution.branches.0.weight f4 [5, 64]
0	0xbd3e41b6	-0.046449386
1	0x3d8de2b6	0.06928007
2	0x3e11f933	0.14255218
3	0x3d9e5996	0.07731931
4	0xbe66b6b0	-0.22530627
5	0xbcf1c0eb	-0.029510936
6	0xbd2ffe31	-0.042967025
7	0x3cae3ea8	0.021270111
8	0xbe06d4f8	-0.13167179
9	0xbda7d908	-0.08195692
10	0x3db65b0c	0.089040846
11	0xbd5bf8d7	-0.05370411
12	0x3da5109b	0.08059808
13	0x3e46253f	0.19350146
14	0xbd112452	-0.03543503
15	0x3daa21c6	0.08307223
16	0x3d7954c8	0.06087187
17	0x3d8fce29	0.07021744
18	0x3b911a20	0.004428163
19	0x3cadbc65	0.021207998
20	0xbe261226	-0.1621786
21	0xbe096af6	-0.13419709
22	0xbe0fabdf	-0.14030407
23	0x3d3d5a9f	0.046229
24	0x3deac422	0.114631906
25	0xbbfb286b	-0.0076647303
26	0x3e6cbbd1	0.23118521
27	0x3df7182e	0.12065159
28	0x3e3e5fab	0.18591182
29	0x3e74fe40	0.23925114
30	0x3cc3d5b4	0.023905613
31	0xbd862296	-0.065495655
32	0x3d853044	0.065033466
33	0x3e1286ff	0.1430931
34	0xbe3d00be	-0.18457314
35	0xbe2d91ed	-0.16950198
36	0xbe163bfe	-0.14671323
37	0xbc672f7f	-0.014110445
38	0xbe325822	-0.17416432
39	0x3e6f254e	0.23354074
40	0xbc4a436e	-0.012345178
41	0x3e1e3b00	0.15452194
42	0xbcacc433	-0.021089649
43	0x3be5b882	0.0070105204
44	0x3d20f59b	0.039296728
45	0x3d81ea26	0.063434884
46	0xbd4c7133	-0.049912643
47	0xbe7c09e1	-0.24613144
48	0xbd1a0ec6	-0.037611745
49	0x3e177185	0.14789398
50	0x3b7377b0	0.0037150197
51	0xbb58a3d7	-0.003305664
52	0xbe0ccc6f	-0.1374986
53	0xbd99e3e9	-0.075141735
54	0x3d4d578e	0.050132327
55	0xbd21ab33	-0.03946991
56	0xbe0b9476	-0.13630852
57	0xbe2c0d9c	-0.16802067
58	0xbe037355	-0.12836964
59	0xbde89279	-0.113560624
60	0xbe3fbaaf	-0.18723558
61	0x3db21ffb	0.08697506
62	0xbe3df083	-0.18548779
63	0xbe36f34b	-0.17866246
64	0xbdaea6b3	-0.08527889
65	0xbdd46155	-0.10370127
66	0xbe13618f	-0.14392684
67	0x3e80502a	0.2506116
68	0x3de7f6db	0.11326381
69	0x3dd14ee4	0.10220125
70	0x3e01b32c	0.12666005
71	0xbdd08a53	-0.10182633
72	0x3eaf3f3c	0.34227931
73	0x3e90172e	0.28142685
74	0x3e447a55	0.19187291
75	0x3eb3e564	0.3513595
76	0xbe107e1c	-0.14110607
77	0x3d1a2dde	0.0376414
78	0xbe1b8829	-0.1518866
79	0x3e8b5d6c	0.27219713
80	0x3e22e22f	0.15906595
81	0xbdf37c98	-0.11888999
82	0xbd786bcd	-0.06064968
83	0xbdf08e37	-0.11745875
84	0xbdd2f0b5	-0.102998175
85	0xbd46a3c2	-0.048496015
86	0xbdfb725d	-0.122776724
87	0x3e197c09	0.14988722
88	0xbe41c427	-0.18922482
89	0x3ebe5242	0.37172133
90	0xbed07582	-0.4071465
91	0xbe8db0a3	-0.27673826
92	0xbe5eea74	-0.21769124
93	0xbe01f4be	-0.12691018
94	0xbe8881c7	-0.26661512
95	0x3e7e8487	0.24855243
96	0x3ed11d97	0.40842888
97	0xbd576354	-0.05258496
98	0xbe173364	-0.14765698
99	0x3ea95f99	0.33080748
100	0x3e26638d	0.16248913
101	0xbe2280f9	-0.15869512
102	0x3eacd871	0.33758882
103	0xbdba6c3d	-0.09102676
104	0x3e79b8af	0.24386857
105	0xbe8f38fc	-0.27973163
106	0x3ecd4ddf	0.40098473
107	0xbe981453	-0.29703006
108	0xbe8c2356	-0.2737071
109	0x3e2e00a7	0.16992436
110	0xbe91b780	-0.28460312
111	0xbdbccb38	-0.092184484
112	0x3e89f652	0.2694574
113	0xbe3b4fa1	-0.18292095
114	0x3efc8aaa	0.49324542
115	0x3e91de5c	0.2848996
116	0xbf0aaf64	-0.54173875
117	0x3ed649df	0.41853234
118	0xbea65bab	-0.32491812
119	0xbe8d0c8c	-0.27548635
120	0x3ea3cf6d	0.3199419
121	0x3e87848f	0.26468322
122	0x3e21b510	0.15791726
123	0x3dc87ad7	0.09789055
124	0x3de8b028	0.11361724
125	0x3cb919f3	0.022595381
126	0xbc0dd860	-0.008657545
127	0xbc8c3039	-0.017112838
128	0xbe36f071	-0.17865159
129	0x3dd32394	0.1030952
130	0x3c86620a	0.01640417
131	0xbd76b06c	-0.060226843
132	0xbe38969f	-0.18026207
133	0x3d4e0635	0.05029889
134	0xbe68469b	-0.22683184
135	0x3e59ed0b	0.21281831
136	0xbe34b88a	-0.17648521
137	0xbdc12f11	-0.09432805
138	0xbdfde8de	-0.123979315
139	0xbda16ddf	-0.078822844
140	0xbcb74434	-0.022371389
141	0xbd11af3b	-0.035567503
142	0xbd076db6	-0.033063613
143	0xbbe377cd	-0.0069417716
144	0x3e2c8472	0.16847399
145	0x3eb05fab	0.3444799
146	0xbcf6e477	-0.030138237
147	0x3e662dfd	0.2247848
148	0xbcbe0be3	-0.023199027
149	0x3e195bfc	0.14976496
150	0xbe28abed	-0.16471834
151	0xbdbdadc7	-0.09261661
152	0x3e7be497	0.24598919
153	0xbe36df5e	-0.17858645
154	0x3e825b35	0.2546021
155	0x3e21f74d	0.15816994
156	0x3e5313fc	0.20613092
157	0x3d61a036	0.05508443
158	0x3d8c2ba5	0.06844262
159	0xbcfee032	-0.031112764
160	0xbe0c24ce	-0.13685915
161	0xbe1af45d	-0.1513228
162	0xbd7be4e8	-0.0614976
163	0xbe4b0143	-0.198247
164	0xbe9c7ddc	-0.30564773
165	0xbdc280f4	-0.09497252
166	0xbe61570f	-0.22005866
167	0xbde2171b	-0.11039563
168	0xbe0078f4	-0.1254614
169	0x3e048064	0.12939602
170	0xbe4b15c2	-0.19832519
171	0x3e07b781	0.13253595
172	0x3e9664bd	0.29373732
173	0x3e19785f	0.14987324
174	0x3dac3396	0.08408277
175	0xbe5fc775	-0.2185343
176	0xbe446c0d	-0.19181843
177	0xbe1f008d	-0.15527554
178	0xbddaa9ef	-0.106769435
179	0xbe4ed479	-0.2019824
180	0xbd01ba1b	-0.031671625
181	0xbe09a640	-0.13442326
182	0x3ca353b0	0.019937366
183	0xbdb96918	-0.09053248
184	0xbe7f35f5	-0.24922927
185	0xbe3fe5a5	-0.18739946
186	0x3ddf36f9	0.10899157
187	0xbd4b60ac	-0.04965274
188	0xbcebefd6	-0.028800886
189	0x3d7d0774	0.061774686
190	0xbe7c50fa	-0.24640265
191	0xbe19b330	-0.15009761
192	0x3e994bcc	0.2994064
193	0x3e9574d2	0.2919069
194	0x3f038c2d	0.51385766
195	0xbe125393	-0.14289694
196	0x3dee7107	0.11642652
197	0xbe0ac453	-0.13551454
198	0x3d7a4b22	0.06110681
199	0xbe01af18	-0.12664449
200	0xbe95fc3b	-0.29294
201	0x3e94eee1	0.290885
202	0xbeb4f4d3	-0.35343036
203	0xbe876119	-0.26441267
204	0x3b52d348	0.003216939
205	0xbea17a7d	-0.31538764
206	0x3d7d409b	0.06182919
207	0xbef4a305	-0.47780624
208	0xbe9f7b8d	-0.3114895
209	0x3ddaee0b	0.10689934
210	0x3d62a16d	0.05532973
211	0x3e9b69a7	0.30354044
212	0x3ebfae53	0.37437686
213	0x3d3645b0	0.044500053
214	0x3e1e48e1	0.15457489
215	0xbe48b807	-0.19601451
216	0xbdfa73b0	-0.12229097
217	0xbe8eae6b	-0.27867445
218	0x3decb538	0.11558002
219	0x3e83f77f	0.25774762
220	0xbe308439	-0.17237939
221	0x3beb0cbc	0.007173149
222	0x3e11218e	0.14172956
223	0xbe215306	-0.15754327
224	0xbf207f48	-0.62694216
225	0x3e8dfe1e	0.2773294
226	0x3e7432f0	0.23847556
227	0xbe1685c4	-0.14699465
228	0x3e51f5bf	0.20503901
229	0x3e9d7ee5	0.30760875
230	0x3dd5383c	0.104111165
231	0x3d75a059	0.059967373
232	0xbeada886	-0.33917636
233	0x3e585226	0.21125087
234	0xbefb54e3	-0.490882
235	0xbe4fb6c4	-0.20284563
236	0xbe4bc48d	-0.19899197
237	0xbea2f72e	-0.31829208
238	0x3f0db3eb	0.5535266
239	0x3e9d4b59	0.30721548
240	0xbed10c91	-0.408299
241	0xbd7db133	-0.06193657
242	0xbf1ac6f2	-0.60459816
243	0xbe2fb16a	-0.17157522
244	0x3f2a6db9	0.66573673
245	0xbeb5f51b	-0.35538563
246	0x3d8d13c8	0.068885386
247	0x3e97b6bd	0.29631606
248	0x3da2a535	0.07941667
249	0x3e40f33e	0.1884279
250	0x3e8bda7a	0.27315122
251	0xbe17b2d5	-0.14814313
252	0xbdeb8a9d	-0.11501048
253	0xbe8ff2eb	-0.2811502
254	0x3ea2be21	0.31785682
255	0x3e64d3f6	0.22346482

network_body._body_endoder.seq_layers.0.bias f4 [128]
0	0x3b457d68	0.0030134562
1	0xbcc247f2	-0.023715947
2	0x3d22eb7c	0.039775357
3	0xbce0c43c	-0.027437322
4	0x3d046525	0.03232302
5	0xbd813d17	-0.0631048
6	0x3c6d578c	0.014486205
7	0x3d04ccb4	0.032421783
8	0x3dadcdba	0.08486505
9	0xbd1b0004	-0.03784181
10	0x3d09602f	0.033538993
11	0x3ca764e2	0.020433847
12	0x3d389ed5	0.04507335
13	0x3d1a0146	0.03759887
14	0xbac5b351	-0.0015083348
15	0x3d1dbb01	0.03850842
16	0xbc05215b	-0.008125628
17	0xbb08216b	-0.0020771872
18	0xbbb112eb	-0.0054038665
19	0x3c257894	0.010099549
20	0xbd2299b6	-0.03969737
21	0x393f5b01	0.00018249081
22	0xbd1dbbca	-0.038509168
23	0x3d436f4d	0.047713567
24	0xbc096ec6	-0.008388227
25	0x3ce206e4	0.027591176
26	0x3d4cfddd	0.05004679
27	0x3d1165b2	0.035497375
28	0x3d4613f6	0.04835888
29	0x3c268f5d	0.010166016
30	0x3ca0f45b	0.019647768
31	0x3b96f728	0.0046071
32	0xbc05ac04	-0.0081586875
33	0x3c24d8f2	0.010061489
34	0x3be5bec9	0.0070112688
35	0x3d026781	0.03183699
36	0x3a925836	0.0011165205
37	0xbcaa159c	-0.020762257
38	0x3c254c73	0.010089028
39	0xbd089f85	-0.033355255
40	0x3ca36969	0.019947724
41	0xbca9d03e	-0.02072918
42	0xba2a7b2f	-0.0006503341
43	0xbc492aa0	-0.012278229
44	0xbb5ac82d	-0.0033383474
45	0x3d041b59	0.032252643
46	0x3ca57726	0.020198416
47	0x3b87a44e	0.0041394597
48	0x3c85af70	0.016319007
49	0xbd4d7c4f	-0.050167378
50	0x3ba711c3	0.005098553
51	0x3cf8f9ef	0.030392615
52	0xbc9d5c44	-0.019209035
53	0xbbde0e44	-0.006776603
54	0x3c62592e	0.013815207
55	0xbac42088	-0.0014963308
56	0x3b0e138e	0.0021679136
57	0xbba6d747	-0.005091581
58	0x3cb42165	0.02198858
59	0x3d42071d	0.047370065
60	0x3c34445c	0.011002626
61	0x3ccc825d	0.024964506
62	0x3d626aca	0.055277623
63	0xbd0af0ca	-0.03392104
64	0xbc9567b4	-0.018237926
65	0xbbace819	-0.0052766916
66	0xbad12e8c	-0.0015959307
67	0x3d25984c	0.040428445
68	0x3b8b9f7b	0.004260955
69	0x3d51a552	0.051183052
70	0xbb25addf	-0.0025280637
71	0xbd365a0d	-0.044519473
72	0x3ab3e7ee	0.0013725737
73	0xbc09a32b	-0.008400719
74	0x3d120943	0.035653364
75	0x3a432ff4	0.0007445805
76	0x3c9ff216	0.019524615
77	0xbb0693b5	-0.0020534818
78	0xbcae5718	-0.021281764
79	0x3c29458b	0.010331522
80	0x3d6bb62e	0.057546787
81	0xbd58ae2b	-0.052900475
82	0x3d06325c	0.03276287
83	0x3cc78e33	0.024359798
84	0x3cb3db07	0.021955026
85	0x3c45edea	0.012080649
86	0x3bac1848	0.005251918
87	0x3c55b517	0.013043663
88	0x3cfaba52	0.030606423
89	0x3c2f6c17	0.010706923
90	0x3b39dc70	0.002836015
91	0x3d306dd9	0.04307351
92	0x3cb71c54	0.022352375
93	0x3c43c21a	0.011948133
94	0x3a079197	0.0005171536
95	0x3d83054b	0.06397494
96	0x3d3d16f4	0.046164468
97	0x3d0746e8	0.033026606
98	0x3d10a512	0.035313673
99	0x3bf3b302	0.007437111
100	0x3ca1ad70	0.019736022
101	0x3cee0652	0.029055748
102	0xbcb57fee	-0.022155728
103	0x3cf07303	0.029351717
104	0xbd17ea3e	-0.037088625
105	0x3c2592a9	0.010105767
106	0xbd79dc30	-0.061001003
107	0xbd882ab0	-0.06648767
108	0x3c11e907	0.008905656
109	0xbcfc8c03	-0.030828482
110	0x3d3cc694	0.046087816
111	0xbcb75bc7	-0.02238263
112	0x3c608a96	0.013704916
113	0x3cd7f3a7	0.0263613
114	0x3d858669	0.06519777
115	0xbce31d92	-0.027724061
116	0x3cfa5a6f	0.0305607
117	0x3bfbde9f	0.0076864506
118	0x3b8789f0	0.0041363165
119	0x3cd93d50	0.026518494
120	0x3d23a8a8	0.039955765
121	0x3c1b08c5	0.00946254
122	0xbd07727f	-0.033068176
123	0x3a9d536f	0.0012003015
124	0x3c8a6bcd	0.016897107
125	0x3d4accb3	0.049511623
126	0xbae04b9e	-0.001711238
127	0x3d3e84cb	0.04651336

network_body._body_endoder.seq_layers.0.weight f4 [128, 108]
0	0xbe6a34c4	-0.22871691
1	0xbd58a71f	-0.052893754
2	0xbccd50ae	-0.025062885
3	0xbd6960b6	-0.056976996
4	0x3e6d8823	0.23196463
5	0x3d520e8f	0.051283415
6	0x3d20b5a4	0.039235726
7	0xbe040673	-0.12893085
8	0x3ca822b7	0.020524366
9	0xbd861eb1	-0.06548823
10	0x3de8faaa	0.113759354
11	0x3e66ef45	0.22552212
12	0x3d8006cf	0.06251299
13	0xbd05991e	-0.032616727
14	0x3e579651	0.21053435
15	0xbd357c23	-0.04430784
16	0xbd6be661	-0.057592753
17	0xbdb26881	-0.08711339
18	0x3c3a784b	0.011381219
19	0xbe3c59cd	-0.18393631
20	0x3dd06d87	0.10177141
21	0xbe054ea7	-0.13018285
22	0x3e08cb29	0.1335875
23	0xbe6beafe	-0.23038861
24	0xbd9fe85f	-0.07807993
25	0x3d0443a8	0.032291085
26	0x3d32145c	0.043476447
27	0xbd2f3573	-0.042775583
28	0x3cb5e58d	0.022204185
29	0xbe4fbdbf	-0.20287226
30	0xbe27942f	-0.16365121
31	0xbdaf50d0	-0.08560336
32	0x3d21b0d4	0.039475277
33	0xbd50cf00	-0.05097866
34	0x3e52cb9a	0.2058548
35	0x3c594652	0.013261395
36	0xbdeceb45	-0.115683116
37	0x3db90ec0	0.090360165
38	0x3e267b2d	0.16257925
39	0x3dc6fd1d	0.09716246
40	0x3e43529a	0.19074479
41	0x3d70d55e	0.058797233
42	0xbdb3b3c5	-0.08774523
43	0xbcdbf614	-0.026850738
44	0x3d442293	0.047884535
45	0x3ddaf57e	0.10691355
46	0x3e12abf2	0.14323404
47	0xbe36e29e	-0.17859885
48	0xbe456099	-0.1927513
49	0x3d8c1df5	0.06841651
50	0xbc99ceba	-0.018775333
51	0xbdf6bfba	-0.12048288
52	0xbd3ef07f	-0.046616074
53	0x3af63a03	0.0018785599
54	0xbdf1eb32	-0.11812438
55	0x3dd0f47e	0.10202883
56	0x3d15c154	0.036561325
57	0x3e5ea2e8	0.21741831
58	0x3e1481b7	0.14502607
59	0xba4fa843	-0.0007921496
60	0x3d7db765	0.061942477
61	0xbd595649	-0.053060804
62	0xbd8807b2	-0.06642093
63	0x3deb818b	0.11499318
64	0x3e0a05c0	0.13478756
65	0xbe0a460a	-0.1350328
66	0x3e5417df	0.20712231
67	0x3dc9e067	0.098572545
68	0xbd876cc8	-0.06612545
69	0x3e360a59	0.17777385
70	0xbe7af69d	-0.24508138
71	0xbe2a1951	-0.1661122
72	0x3d82ea63	0.06392362
73	0xbc8d73a1	-0.01726705
74	0x3ea635e5	0.32462993
75	0xbe56890e	-0.2095072
76	0xbca189fe	-0.01971912
77	0xbd538a3c	-0.051645502
78	0x3e2b1355	0.16706593
79	0xbccae8f4	-0.024769284
80	0xbbec904f	-0.0072193514
81	0x3eee5c15	0.46554628
82	0xbe29072c	-0.16506642
83	0xbc6df6c4	-0.014524166
84	0x3e1b963f	0.15194033
85	0xbe50c70b	-0.20388429
86	0xbe353c4b	-0.17698781
87	0xbdc4ece0	-0.09615493
88	0x3dd462d8	0.103704154
89	0x3def80a5	0.11694459
90	0x3db33f4a	0.08752306
91	0x3a2afee1	0.0006522965
92	0x3e56ac95	0.20964272
93	0x3e79de53	0.24401216
94	0x3d27dcad	0.040981937
95	0xbe7d9b0e	-0.2476618
96	0x3b19b939	0.0023456349
97	0xbbc88b01	-0.006120086
98	0x3b524b10	0.0032088198
99	0xbc38edd6	-0.011287173
100	0xbee2d7e3	-0.44305333
101	0x3d85c812	0.06532301
102	0x3d6a2e23	0.057172906
103	0xbc9c3078	-0.01906608
104	0x3e800885	0.250065
105	0xbcd3088b	-0.02576091
106	0xbdfb7694	-0.12278476
107	0x3d007656	0.031362854
108	0x3d240bed	0.040050436
109	0x3d47683f	0.0486834
110	0xbed4e6b0	-0.4158225
111	0x3d82451c	0.06360838
112	0xbdf8830e	-0.12134372
113	0x3e59f678	0.21285427
114	0xbdfe5375	-0.12418262
115	0x3dad9439	0.08475537
116	0x3d881fc4	0.06646684
117	0x3db01ac4	0.08598855
118	0xbe62a743	-0.22134118
119	0xbd33e61e	-0.04392063
120	0xbde1315e	-0.10995744
121	0x3dad4db0	0.08462083
122	0x3d93e254	0.07220903
123	0x3e4ddd94	0.20104057
124	0xbe0434d8	-0.12910783
125	0xb8aa18c0	-8.110842e-05
126	0x3e16e4df	0.14735745
127	0xbda34fdb	-0.079742156
128	0xbe50641d	-0.2035069
129	0x3d521aea	0.0512952
130	0xbde88f16	-0.113554165
131	0x3e9528d8	0.29132724
132	0xbe3fa58d	-0.18715496
133	0x3e1c190b	0.15243928
134	0x3e11ffd9	0.14257754
135	0x3da6d15e	0.08145402
136	0xbe3a1cab	-0.18174998
137	0xbcbcbf9e	-0.023040589
138	0x3bc81e0e	0.0061070984
139	0x3dfcb722	0.12339617
140	0xbde03e7f	-0.1094942
141	0xbe470ecb	-0.19439237
142	0xbde5be9f	-0.11217999
143	0x3e729db0	0.23692966
144	0x3e44385f	0.19162129
145	0xbea59ffb	-0.32348618
146	0x3d171a80	0.036890507
147	0xbe1737c3	-0.14767365
148	0xbdda4323	-0.106573366
149	0xbd05181f	-0.032493707
150	0x3d77c5cb	0.060491364
151	0x3dc224f3	0.09479704
152	0x3e1eca22	0.15506795
153	0xbeb79f14	-0.35863554
154	0xbdd96c96	-0.10616414
155	0x3d927296	0.07150762
156	0xbc7f77ba	-0.01559251
157	0xbcb3ae90	-0.021933824
158	0x3d74d296	0.059771143
159	0xbe0e2fb6	-0.13885388
160	0xbe5c44df	-0.21510647
161	0x3d3d8af0	0.04627508
162	0xbdaf34f9	-0.085550256
163	0x3d3bce5a	0.04585109
164	0x3cf2ca35	0.029637435
165	0xbc6942c3	-0.014237109
166	0x3e98d671	0.29851106
167	0xbebeb2ae	-0.37245697
168	0x3d05edfd	0.032697666
169	0xbcc2da04	-0.023785599
170	0xbcedd1ca	-0.0290307
171	0x3d8d8988	0.06910998
172	0xbe5b7bfa	-0.21434012
173	0xbe0f28e6	-0.13980445
174	0x3e047e74	0.12938863
175	0x3e90be87	0.2827036
176	0xbe0ea687	-0.13930713
177	0xbd0bee55	-0.034162838
178	0x3ee3745f	0.44424722
179	0xbc07be11	-0.008285061
180	0xbd3c2178	-0.045930356
181	0xbe58a918	-0.21158254
182	0xbe401592	-0.18758228
183	0xbe131e3b	-0.14367001
184	0xbdae76cb	-0.08518752
185	0x3c62f08b	0.013851295
186	0x3e04254d	0.12904854
187	0x3d92a416	0.07160203
188	0xbe7e6105	-0.24841698
189	0xbde1981e	-0.11015342
190	0x3e5e57ed	0.21713229
191	0x3d917393	0.07102122
192	0xbbff9c5a	-0.007800621
193	0x3d5c0ce6	0.05372324
194	0xbe1552ec	-0.14582413
195	0xbdcde33d	-0.10053108
196	0x3d659942	0.05605436
197	0xbe5d675e	-0.21621463
198	0x3d092fb9	0.033492777
199	0xbe4200eb	-0.18945663
200	0xbd129fb7	-0.035796847
201	0x3ea71517	0.32633278
202	0xbe419575	-0.1890467
203	0xbdc07b76	-0.09398548
204	0x3da3ffcf	0.08007776
205	0xbd648bf6	-0.05579754
206	0x3e35c278	0.17749965
207	0xbd366d70	-0.04453796
208	0xbdcfdadd	-0.10149167
209	0x3c930778	0.017947897
210	0x3dc44784	0.09583953
211	0xbe30cf5c	-0.17266601
212	0xbdf1f0fb	-0.118135415
213	0x3db11b04	0.08647731
214	0xbd595f9d	-0.0530697
215	0x3e323298	0.17402112
216	0xbe23601c	-0.15954632
217	0x3e4f1e94	0.20226508
218	0xbe86e3e5	-0.26345745
219	0xbd2bad8c	-0.041913554
220	0xbdb0d757	-0.08634823
221	0x3eb271e7	0.34852526
222	0x3d24491d	0.04010879
223	0x3e5d3914	0.21603805
224	0xbc84a225	-0.016190598
225	0xbe33dab7	-0.17563902
226	0x3d9ed902	0.07756235
227	0x3da003cd	0.07813225
228	0xbdd25bfc	-0.10271451
229	0x39d9d506	0.0004154818
230	0x3d9b5738	0.07584995
231	0xbd066557	-0.03281149
232	0x3cf1c1a9	0.02951129
233	0x3c41255b	0.011788691
234	0x3dabb0d5	0.083833374
235	0xbde516fb	-0.11186024
236	0x3e2bd46c	0.16780251
237	0x3d10b701	0.035330776
238	0xbc3555e5	-0.011067842
239	0xbed63231	-0.41835168
240	0xbce6af7a	-0.028159846
241	0xbcbec679	-0.023287999
242	0x3db53ebe	0.08849858
243	0xbdbd8faf	-0.09255921
244	0x3d50de58	0.050993294
245	0xbdb40abe	-0.087911114
246	0xbdd0223b	-0.10162779
247	0xbe0eb4d0	-0.13936162
248	0x3e2405ec	0.16017884
249	0x3dc114d7	0.09427803
250	0x3d435f67	0.047698405
251	0xbd62eba8	-0.05540052
252	0x3c4a23f3	0.0123376725
253	0xbeb8cdc7	-0.36094496
254	0x3dae2757	0.08503597
255	0x3e115c40	0.14195347

network_body._body_endoder.seq_layers.2.bias f4 [128]
0	0x3d1ee86f	0.038795885
1	0x3c12300a	0.008922586
2	0xbcab972f	-0.020946113
3	0x3c8ce86e	0.017200675
4	0x3d5f544e	0.05452376
5	0x3d207f5b	0.039183956
6	0x3d4f5648	0.050619394
7	0xbd461dbb	-0.048368197
8	0x3cb053a9	0.021524267
9	0x3c27f716	0.010251781
10	0x3ce50fab	0.027961573
11	0x3b313aca	0.0027043098
12	0x3d6794f8	0.056538552
13	0x3d4da1e6	0.050203227
14	0x3d00c51a	0.03143797
15	0xbd28f815	-0.041252214
16	0xbd89f612	-0.06736387
17	0x3ca2afc3	0.0198592
18	0x3dc82829	0.09773285
19	0x3d1eb0cb	0.03874282
20	0x3c628a06	0.013826853
21	0x3da1e6fa	0.079053834
22	0x3b17fef5	0.0023192738
23	0x3d973e9b	0.07384988
24	0x3d8047ae	0.06263672
25	0xbb2a3f02	-0.0025977497
26	0xbc9f274f	-0.019427923
27	0x3cfb82d7	0.030702038
28	0x3d2ad888	0.041710407
29	0xbbef469e	-0.0073021194
30	0x3cd92f32	0.026511762
31	0x3d044386	0.032290958
32	0x3e17715f	0.14789341
33	0xbc6c2db6	-0.014415195
34	0x3c975685	0.018473873
35	0x3ccab4ae	0.024744358
36	0x3d79135a	0.06080947
37	0x3cf2ccf4	0.029638745
38	0x3d9baf44	0.07601789
39	0x3dc31573	0.095255755
40	0xbc39bf0c	-0.011337053
41	0xbdd3bafe	-0.103384
42	0x3dad6c08	0.08467871
43	0x3d4bbd33	0.04974098
44	0x3d3207c5	0.04346444
45	0x3d309567	0.04311123
46	0xbc805e34	-0.01566992
47	0x3b8d3e25	0.0043103867
48	0x3d15cf5a	0.0365747
49	0x3e1d15a9	0.15340294
50	0x3db5c6f9	0.08875842
51	0x3d417bb1	0.047237102
52	0x3da8917f	0.08230876
53	0x3cd54120	0.02603203
54	0xbbe20d94	-0.0068985913
55	0x3d23eb58	0.040019363
56	0x3c875636	0.0165206
57	0x3ade681d	0.0016968284
58	0x3d6900f1	0.056885663
59	0x3c5514a7	0.013005412
60	0x3d98a3cd	0.074531175
61	0xbd23a8ed	-0.039956022
62	0xbc843ad0	-0.016141325
63	0x3b9d05d6	0.0047919555
64	0x3dc2a25e	0.09503625
65	0xbcef1b6f	-0.029187886
66	0x3d16f3e8	0.0368537
67	0xbd3c3129	-0.04594532
68	0x3cb2aad9	0.021809982
69	0x3cefbf7d	0.029266113
70	0x3de27600	0.11057663
71	0x3de42009	0.11138923
72	0xbbcb8261	-0.0062106107
73	0x3d30e084	0.043182865
74	0x3d0bdaa9	0.034144077
75	0x3ce995e0	0.028513849
76	0xbc84fb4c	-0.016233109
77	0x3d096bde	0.033550136
78	0xbc07a606	-0.008279329
79	0xbc4d62ac	-0.012535732
80	0x3a5b5e26	0.0008368216
81	0x3d0c80f8	0.03430268
82	0xbca060bc	-0.019577377
83	0x3c832c97	0.016012473
84	0xbd37bd2e	-0.04485815
85	0x3d42d401	0.047565464
86	0xbd14eebc	-0.036360487
87	0xbd69fd11	-0.05712611
88	0x3b286703	0.0025696165
89	0xbca8ac02	-0.020589832
90	0x3d20e96a	0.0392851
91	0xbce6d3be	-0.028177138
92	0x3d6ae970	0.05735153
93	0xbc12a970	-0.00895153
94	0xbd0dbb35	-0.034602363
95	0x3c05c92c	0.008165639
96	0x3bbb337e	0.0057129255
97	0x3d3b457a	0.045720555
98	0x3d97c058	0.074097335
99	0x3d0de806	0.034645103
100	0x3cbc6384	0.022996671
101	0x3d913767	0.07090645
102	0x3d552b0f	0.052043017
103	0x3d80ecdb	0.062951766
104	0x3d0ca4c2	0.034336813
105	0x3cbc625a	0.022996116
106	0xbce999b5	-0.028515676
107	0x3dcd5258	0.100254714
108	0x3d73e96d	0.059548784
109	0x3d8c3315	0.068456806
110	0xbc757e19	-0.014983677
111	0x3d16162d	0.036642242
112	0x39cbc6e6	0.00038867368
113	0x3c0e4ea3	0.008685741
114	0x3d8b1a10	0.067920804
115	0x3d964bcd	0.073386766
116	0x3d2deb37	0.042460646
117	0xbdfb961f	-0.12284493
118	0xbcabbf28	-0.020965174
119	0xbbc8ee13	-0.0061318963
120	0x3e099885	0.13437088
121	0x3d856850	0.06514037
122	0x3c940435	0.018068412
123	0x3ddf21ed	0.10895143
124	0x3c8c5384	0.017129667
125	0x3c80a9dc	0.015705995
126	0xbacdde04	-0.0015706425
127	0x3dbb70f3	0.09152403

network_body._body_endoder.seq_layers.2.weight f4 [128, 128]
0	0x3d09a364	0.033603087
1	0x3c86eef3	0.016471362
2	0xbcea7251	-0.028618963
3	0x3b87e2a9	0.004146893
4	0x3db86e94	0.09005466
5	0x3d2a4a50	0.041574776
6	0x3d0311a2	0.031999238
7	0x3da2e7ec	0.07954392
8	0x3dae7d56	0.0852
9	0x3e1445c5	0.1447974
10	0x3e8630b0	0.2620902
11	0x3e0cd3d8	0.13752687
12	0xbdadb0fa	-0.08481021
13	0xbd71f7f2	-0.05907435
14	0xbb8250eb	-0.0039769313
15	0x3e49e2b9	0.19715394
16	0x3d835681	0.06412984
17	0x3b8c14aa	0.0042749243
18	0xbe62e913	-0.22159223
19	0x3ce4c2be	0.027924892
20	0x3e1168a1	0.14200069
21	0x3d5efb94	0.054439142
22	0xbd885812	-0.06657423
23	0x3cfee9a3	0.031117266
24	0xbcb8ee28	-0.0225745
25	0x3d03b7b1	0.032157604
26	0xbde202ca	-0.11035688
27	0x3c157a50	0.0091234
28	0x3e363366	0.17793044
29	0x3ad86bbf	0.0016511603
30	0x3c81bfae	0.01583847
31	0x3e3562e5	0.17713507
32	0xbd7211fb	-0.05909918
33	0x3db1a183	0.08673384
34	0x3e26c4e1	0.16286041
35	0xbd8a8b14	-0.06764808
36	0xba8b7938	-0.0010640984
37	0xbe2224de	-0.15834376
38	0x3e0e6954	0.13907367
39	0xbd8bd880	-0.068284035
40	0x3ce8ce17	0.028418584
41	0x3d0fceff	0.035109516
42	0x3e03316a	0.12811819
43	0x3df09fd3	0.11749234
44	0xbdde68ea	-0.108598545
45	0xbdbd587c	-0.09245393
46	0xbe12fe09	-0.14354719
47	0x3d836804	0.06416324
48	0x3dba7763	0.091048025
49	0xbdec78b4	-0.1154646
50	0xbd3b8b73	-0.045787286
51	0x3e099207	0.13434611
52	0x3d0d8339	0.03454897
53	0x3d635910	0.05550486
54	0x3d1619cd	0.0366457
55	0xbe0b99cc	-0.13632888
56	0xbe58e480	-0.21180916
57	0xbd0c949e	-0.03432142
58	0xbc8d9777	-0.017284138
59	0xbceb8e2c	-0.028754316
60	0xbe320cb3	-0.17387657
61	0xbd63bbf5	-0.05559917
62	0x3e3d3a34	0.18479234
63	0x3dc9597b	0.0983152
64	0x3cc17501	0.023615362
65	0x3e8149d9	0.25251654
66	0xbe90e1ba	-0.28297216
67	0x3e5cfd98	0.21581113
68	0x3d7c314d	0.061570454
69	0x3e4cafcb	0.19988935
70	0xbe29fb28	-0.16599715
71	0x3d4ba057	0.04971346
72	0xbdbe93dc	-0.09305546
73	0x3d2fc7e0	0.042915225
74	0x3d1974fe	0.037465088
75	0x3d6aa20a	0.05728344
76	0x3e28543b	0.16438381
77	0x3cb77d5b	0.022398641
78	0x3d07a686	0.033117794
79	0xbe08ad8a	-0.1334745
80	0x3cd4e8b8	0.025989875
81	0x3dcb4a03	0.09926226
82	0x3e0d8077	0.13818537
83	0xbd527735	-0.051383216
84	0x3da180f8	0.07885927
85	0xbe1a2dbb	-0.15056507
86	0xbceb2ec6	-0.028708827
87	0x3ddcbcad	0.107781745
88	0x3e15123d	0.14557739
89	0xbe09a8e4	-0.13443333
90	0xbca71dec	-0.02040001
91	0x3e6e0e7b	0.23247711
92	0x3da31c71	0.07964409
93	0x3db4dbf5	0.08831016
94	0x3e010269	0.12598576
95	0x3da6fd47	0.081537776
96	0x3e849765	0.25896755
97	0x3de80c05	0.113304175
98	0xbe1949b0	-0.14969516
99	0x3d5269af	0.05137032
100	0xbd7434c5	-0.059620637
101	0x3d96705d	0.0734565
102	0x3dde5826	0.10856657
103	0xbcb95807	-0.022624983
104	0xbd5d0829	-0.05396286
105	0xbd7c9091	-0.061661307
106	0xbc215a35	-0.009848167
107	0xbd1ddab8	-0.038538665
108	0x3d13cea1	0.03608573
109	0x3d0818ea	0.033226885
110	0xbca1b7bd	-0.019740934
111	0xbdda810e	-0.106691465
112	0xbdcd8353	-0.10034814
113	0x3e333d36	0.17503819
114	0x3dd483b0	0.1037668
115	0xbe47c668	-0.1950928
116	0x3d805681	0.06266499
117	0x3e6149ac	0.2200076
118	0xbe4a0045	-0.19726665
119	0x3dc1adf3	0.09457006
120	0xbd396abb	-0.0452678
121	0xbdb32c62	-0.087487
122	0x3d95cf43	0.07314923
123	0x3e729414	0.236893
124	0x3e0ca0a3	0.13733153
125	0x3d84c5be	0.06483029
126	0xbe45fda5	-0.19335039
127	0xbcfe4886	-0.031040441
128	0xbabb4466	-0.0014287352
129	0x3dd0427c	0.10168931
130	0xbe22e63a	-0.15908137
131	0x3dc6c789	0.09706027
132	0xbca0006b	-0.01953145
133	0x3d5e54f1	0.054280225
134	0xbd8f83d4	-0.07007566
135	0xbcf99521	-0.030466618
136	0xbe4dd0b3	-0.20099144
137	0x3d8d48cf	0.06898653
138	0x3de430ed	0.11142144
139	0xbdc945ad	-0.09827743
140	0xbe4a2915	-0.19742234
141	0x3df2525e	0.118321165
142	0x3dac9626	0.08427076
143	0xbe4c048f	-0.19923614
144	0x3e33cf44	0.17559534
145	0x3e732ae7	0.23746835
146	0xbd1200a2	-0.035645135
147	0xbda16d3f	-0.07882165
148	0x3d923726	0.07139425
149	0x3cc21e4e	0.023696091
150	0xbe05e853	-0.13076906
151	0x3acdd008	0.0015702257
152	0x3d995326	0.074865624
153	0x3e6cf4ba	0.23140231
154	0x3d226aeb	0.039652746
155	0x3d201bfb	0.039089184
156	0xbdcc3b26	-0.09972219
157	0xbd1d2fa6	-0.03837552
158	0xbde467d3	-0.111526154
159	0x3de3e9a8	0.11128551
160	0xbd97cc64	-0.07412031
161	0x3bffbc18	0.007804405
162	0xbd2106dc	-0.039313182
163	0xbe16986c	-0.14706582
164	0xbe25d1af	-0.16193269
165	0xbdfb10b7	-0.122590475
166	0x3e72e654	0.23720676
167	0x3d4c95e3	0.04994763
168	0x3c69c7be	0.014268814
169	0xbc9ee8d3	-0.019398129
170	0x3da4ac2d	0.080406524
171	0x3c7bbb0d	0.015364421
172	0xbe3db0d4	-0.18524486
173	0xbdba6009	-0.091003485
174	0xbe03b04f	-0.12860225
175	0x3dd5d12f	0.10440289
176	0x3e050adb	0.12992422
177	0x3d9940e3	0.07483079
178	0xbdd7d62f	-0.10538899
179	0xbe2017a6	-0.15634021
180	0x3d73c3da	0.05951295
181	0x3d3063f2	0.043064065
182	0xbd65df3c	-0.056121096
183	0xbd6a45ea	-0.05719558
184	0x3e38c93f	0.1804552
185	0x3d21f3cb	0.03953914
186	0xbe41cd56	-0.18925986
187	0x3ba3e120	0.005001202
188	0x3d44c726	0.048041485
189	0xbd904165	-0.07043723
190	0xbe0a61b9	-0.1351384
191	0x3d42ac0f	0.04752737
192	0x3e1775c9	0.14791025
193	0xbd040fb4	-0.03224154
194	0xbe2e86bb	-0.17043583
195	0x3e0cbcd4	0.13743907
196	0x3d91283d	0.07087753
197	0xbe10acb6	-0.14128384
198	0x3d88f35c	0.06687042
199	0xbc4efdce	-0.012633754
200	0xbd8d55de	-0.069011435
201	0x3d810a80	0.06300831
202	0xbb4f02aa	-0.0031587281
203	0x3e00aa84	0.12565047
204	0x3d72e03b	0.059295874
205	0x3d3dcae0	0.046336055
206	0xbcb16d57	-0.021658583
207	0x3e045fca	0.12927166
208	0x3e18ebd2	0.14933708
209	0x3c978986	0.018498193
210	0xbc413f80	-0.011794925
211	0xbe44e472	-0.1922777
212	0x3db58d44	0.08864835
213	0x3c6581cd	0.014007998
214	0x3e03fca4	0.12889344
215	0x3dfaa772	0.12238969
216	0x3d1badb2	0.038007446
217	0xbdb84c77	-0.089989595
218	0xbe59cf05	-0.21270378
219	0x3dee82c9	0.11646039
220	0x3dd90a50	0.1059767
221	0xbc32628d	-0.010887754
222	0xbd6612e8	-0.056170374
223	0xbe6891fd	-0.2271194
224	0xbdfe8bd6	-0.12429015
225	0xbe6367cb	-0.22207563
226	0x3cb0f32c	0.021600328
227	0x3ddba184	0.10724166
228	0x3e095fd5	0.13415463
229	0xbea34dcf	-0.318953
230	0x3e3ee1bf	0.18640803
231	0xbcd30f9e	-0.025764283
232	0x3e003ef4	0.12524015
233	0x3e0f7a1f	0.14011429
234	0x3dd64f7e	0.10464381
235	0x3e7c0707	0.24612056
236	0xbcc7899a	-0.024357606
237	0xbdbdeab5	-0.092732824
238	0xbe274645	-0.163354
239	0x3cb4ca36	0.022069078
240	0xbdcdfdbd	-0.10058162
241	0xbe061b1b	-0.13096277
242	0x3de3c10e	0.11120807
243	0x3e8ce5fb	0.2751921
244	0xbe1e48e1	-0.15457489
245	0xbe119714	-0.14217788
246	0xbd7f3149	-0.06230286
247	0x3e3192ff	0.17341231
248	0xbe836d50	-0.25669336
249	0xbd117276	-0.03550955
250	0xbd40a2d5	-0.04703029
251	0x3d8432ea	0.064550236
252	0xbb2ee752	-0.002668817
253	0x3cf84e67	0.030310823
254	0xbdfec380	-0.124396324
255	0xbe1dc6c3	-0.15407853
