Project/Assets/ML-Agents/Examples/Match3/Models/Match3VectorObs.onnx (onnx, 472137 bytes, 7 tensors)

running_mean/read:0 f4 [648]
0	0x3e2924cf	0.16517948
1	0x3e24826d	0.16065378
2	0x3e2e3a06	0.17014322
3	0x3e2d4c26	0.1692358
4	0x3e2bd0a9	0.16778816
5	0x3e2b020e	0.16700003
6	0x3f332643	0.6998026
7	0x3e4d974e	0.2007725
8	0x3dcb9f66	0.09942512
9	0x3e27a23c	0.16370481
10	0x3e2e17b2	0.17001227
11	0x3e27917b	0.1636409
12	0x3e2a3ee7	0.16625558
13	0x3e2c4736	0.1682404
14	0x3e2c2ebb	0.16814701
15	0x3f3341a3	0.7002203
16	0x3e49d3b7	0.19709669
17	0x3dd24af4	0.102682024
18	0x3e2914b5	0.16511805
19	0x3e2dae14	0.16960937
20	0x3e282fb9	0.16424455
21	0x3e30be48	0.17260087
22	0x3e279c63	0.1636825
23	0x3e28b2de	0.16474482
24	0x3f334c3e	0.7003821
25	0x3e4bea8b	0.1991369
26	0x3dcdc8cd	0.10048065
27	0x3e2f5458	0.17122018
28	0x3e2a12b5	0.16608699
29	0x3e2ef979	0.17087354
30	0x3e26d76a	0.16293111
31	0x3e270de8	0.16313899
32	0x3e29ba32	0.16574934
33	0x3f322899	0.695932
34	0x3e501f72	0.20324495
35	0x3dce7c98	0.10082358
36	0x3e297f49	0.16552462
37	0x3e2de3ed	0.16981478
38	0x3e286004	0.16442877
39	0x3e2b5c88	0.16734517
40	0x3e2ba674	0.16762716
41	0x3e2939e9	0.16525997
42	0x3f328002	0.69726574
43	0x3e4f93f7	0.20271288
44	0x3dccd82b	0.10002168
45	0x3e29c160	0.16577673
46	0x3e283cd3	0.16429453
47	0x3e2ca3e6	0.16859397
48	0x3e2dd7ea	0.16976896
49	0x3e289acf	0.16465305
50	0x3e2aeb5b	0.16691343
51	0x3f32a1b6	0.69778
52	0x3e503cab	0.20335643
53	0x3dca799f	0.09886479
54	0x3e2e614f	0.17029308
55	0x3e28cdd1	0.16484763
56	0x3e298223	0.1655355
57	0x3e265d41	0.16246511
58	0x3e3026b3	0.17202263
59	0x3e28caff	0.16483687
60	0x3f32e1be	0.69875705
61	0x3e4e0a72	0.20121172
62	0x3dccdcf4	0.10003081
63	0x3e29423d	0.16529174
64	0x3e2c38d2	0.1681855
65	0x3e2a50ab	0.16632335
66	0x3e3075f4	0.17232496
67	0x3e25aad1	0.16178443
68	0x3e2a13ab	0.16609065
69	0x3f33a6e0	0.70176506
70	0x3e4b4db1	0.19853856
71	0x3dcc2dc5	0.09969667
72	0x3e2f63e8	0.17127955
73	0x3e2a484c	0.16629142
74	0x3e2ce9cb	0.1688606
75	0x3e298161	0.1655326
76	0x3e2824eb	0.16420333
77	0x3e27c3ac	0.16383237
78	0x3f34cf23	0.70628566
79	0x3e481775	0.19540198
80	0x3dc957ad	0.09831176
81	0x3e2c705a	0.16839734
82	0x3e2922c1	0.16517164
83	0x3e2a20e6	0.16614112
84	0x3e266fe0	0.16253614
85	0x3e2b2821	0.16714527
86	0x3e2eb3e4	0.1706081
87	0x3f32eeda	0.6989571
88	0x3e4cc14b	0.1999561
89	0x3dcf067e	0.1010866
90	0x3e28ae73	0.16472797
91	0x3e2b9f44	0.16759974
92	0x3e2ae7c9	0.16689982
93	0x3e27d247	0.16388808
94	0x3e2cb675	0.16866477
95	0x3e2c41fd	0.16822048
96	0x3f338b24	0.70134187
97	0x3e4c9377	0.19978128
98	0x3dca7fb3	0.09887638
99	0x3e2aa2d1	0.16663672
100	0x3e28996c	0.16464776
101	0x3e29b90c	0.16574496
102	0x3e2c18f9	0.16806401
103	0x3e2b576c	0.16732568
104	0x3e2b9a72	0.16758135
105	0x3f32e579	0.698814
106	0x3e4d8a56	0.20072302
107	0x3dcdbfeb	0.10046371
108	0x3e2a44c9	0.16627802
109	0x3e29e743	0.16592126
110	0x3e272984	0.1632443
111	0x3e2c84c8	0.16847527
112	0x3e2c0065	0.16797026
113	0x3e2c253f	0.16811083
114	0x3f3245ea	0.6963793
115	0x3e50c607	0.20388041
116	0x3dcc44ba	0.09974046
117	0x3e277324	0.16352516
118	0x3e2bf5e9	0.16793026
119	0x3e2ef8cd	0.17087097
120	0x3e27b33a	0.16376963
121	0x3e28cf47	0.1648532
122	0x3e2d1bb1	0.16905095
123	0x3f3329da	0.69985735
124	0x3e4c1714	0.19930679
125	0x3dce8279	0.100834794
126	0x3e2bc904	0.167759
127	0x3e2d6a13	0.16934995
128	0x3e2c2514	0.16811019
129	0x3e26db6d	0.16294642
130	0x3e2ac158	0.16675317
131	0x3e290b35	0.16508181
132	0x3f339a6d	0.7015751
133	0x3e4bdad2	0.19907692
134	0x3dcb7705	0.099348105
135	0x3e2aa3ec	0.16664094
136	0x3e2c8e1a	0.16851082
137	0x3e2ac243	0.16675667
138	0x3e2aa0e9	0.16662945
139	0x3e28220e	0.16419241
140	0x3e2b487b	0.16726868
141	0x3f32d8bf	0.6986198
142	0x3e4c036c	0.1992318
143	0x3dd133f6	0.10214989
144	0x3e2908ac	0.16507214
145	0x3e2ba0e1	0.16760589
146	0x3e2b4b78	0.16728008
147	0x3e2d7054	0.16937381
148	0x3e2a9ec8	0.16662133
149	0x3e27fbcc	0.16404647
150	0x3f336c2d	0.7008694
151	0x3e4b5ea3	0.1986032
152	0x3dcde172	0.10052766
153	0x3e2bed0a	0.16789642
154	0x3e28acdb	0.16472189
155	0x3e2aaf0d	0.16668339
156	0x3e2c253c	0.16811079
157	0x3e2848e0	0.1643405
158	0x3e2c4913	0.1682475
159	0x3f31faeb	0.69523495
160	0x3e501579	0.20320691
161	0x3dcffdf3	0.10155859
162	0x3e2dd768	0.16976702
163	0x3e2ac6a8	0.16677344
164	0x3e2baa21	0.16764118
165	0x3e2aa248	0.16663468
166	0x3e2a2a5e	0.16617724
167	0x3e26eb32	0.16300657
168	0x3f3395f2	0.70150673
169	0x3e4ca2d4	0.19983989
170	0x3dca0a7f	0.09865283
171	0x3e2928c1	0.16519453
172	0x3e293d1e	0.1652722
173	0x3e2adb87	0.16685306
174	0x3e2d8d34	0.16948396
175	0x3e2a0128	0.16602004
176	0x3e2b3003	0.16717534
177	0x3f33053e	0.69929874
178	0x3e4c0e1c	0.19927257
179	0x3dcfba5a	0.101429656
180	0x3e28b153	0.16473894
181	0x3e296163	0.16541056
182	0x3e2a3220	0.16620684
183	0x3e2ad349	0.16682161
184	0x3e2cd43d	0.16877837
185	0x3e2c1383	0.16804318
186	0x3f33043c	0.69928336
187	0x3e4eea63	0.20206599
188	0x3dca0973	0.098650835
189	0x3e2d54bb	0.16926853
190	0x3e2c53aa	0.1682879
191	0x3e2d10e1	0.1690097
192	0x3e299555	0.16560872
193	0x3e28b706	0.16476068
194	0x3e26fa51	0.16306426
195	0x3f33a5df	0.70174974
196	0x3e4a5b90	0.19761491
197	0x3dce19de	0.100635275
198	0x3e29b94b	0.1657459
199	0x3e259b2c	0.16172475
200	0x3e2cda27	0.16880094
201	0x3e2c768c	0.16842097
202	0x3e2ca007	0.1685792
203	0x3e2abafe	0.16672894
204	0x3f33fae4	0.70304704
205	0x3e47d07c	0.19513124
206	0x3dd087eb	0.10182174
207	0x3e2b51bb	0.16730396
208	0x3e2d96e1	0.16952087
209	0x3e2589aa	0.16165796
210	0x3e297644	0.16549021
211	0x3e2bedc7	0.16789924
212	0x3e2c29b3	0.16812782
213	0x3f33e0be	0.70264804
214	0x3e4bd4e5	0.19905432
215	0x3dc95100	0.09829903
216	0x3e2ac1d8	0.16675508
217	0x3e2b2f2f	0.16717218
218	0x3e2cc532	0.16872099
219	0x3e287e82	0.16454509
220	0x3e2b987e	0.1675739
221	0x3e2932ac	0.16523236
222	0x3f3327be	0.69982517
223	0x3e4c2397	0.19935451
224	0x3dce7b60	0.10082126
225	0x3e261a2a	0.16220918
226	0x3e29b031	0.16571118
227	0x3e2b1da1	0.16710521
228	0x3e2c39b1	0.16818883
229	0x3e2c93f6	0.16853318
230	0x3e2c4a51	0.16825224
231	0x3f3377be	0.7010459
232	0x3e4cff02	0.20019153
233	0x3dca4433	0.09876289
234	0x3e2a2f0b	0.16619508
235	0x3e2b584f	0.16732906
236	0x3e2a4fb6	0.1663197
237	0x3e2a4824	0.16629082
238	0x3e2a6850	0.16641355
239	0x3e2b788b	0.16745202
240	0x3f326f16	0.69700754
241	0x3e5003ab	0.20313899
242	0x3dcc80aa	0.09985478
243	0x3e2ac600	0.16677094
244	0x3e2a7350	0.1664555
245	0x3e2cface	0.1689255
246	0x3e295d14	0.16539413
247	0x3e2a5690	0.16634583
248	0x3e2a1845	0.1661082
249	0x3f323e55	0.6962636
250	0x3e509475	0.20369132
251	0x3dcce3ec	0.1000441
252	0x3e2ba1ed	0.16760989
253	0x3e2bd75d	0.16781373
254	0x3e2ad5bf	0.166831
255	0x3e2b83b3	0.16749458

policy/main_graph_0/hidden_1/kernel/read:0 f4 [128, 128]
0	0x3de99cf5	0.1140689
1	0x3e587123	0.21136908
2	0x3e6d5c02	0.2317963
3	0xbdef2f64	-0.11678961
4	0x3e212f60	0.15740728
5	0x3df6b4f8	0.12046236
6	0x3cbb7847	0.022884501
7	0xbe50f65e	-0.20406482
8	0xbe85722a	-0.26063663
9	0x3c5089d7	0.012728176
10	0xbe152300	-0.14564133
11	0xbdee26c1	-0.116284855
12	0x3d74edb9	0.059797022
13	0xbe1b0063	-0.15136866
14	0xbd7b22b5	-0.061312396
15	0xbd6fd1ff	-0.058549877
16	0x3e81563c	0.25261104
17	0xbddd2b0a	-0.10799225
18	0x3e31b14c	0.1735279
19	0x3e422303	0.18958668
20	0xbe61d758	-0.22054803
21	0x3e044647	0.12917434
22	0xbd6d7890	-0.057976305
23	0xbc11aaf3	-0.008890855
24	0x3defa704	0.117017776
25	0xbdf93c3b	-0.12169691
26	0xbd2aad2a	-0.04166905
27	0x3da0226d	0.07819066
28	0x3cafd070	0.021461695
29	0x3d24661d	0.040136445
30	0xbe249a7a	-0.16074553
31	0x3e084175	0.1330622
32	0xb9ac321e	-0.00032843737
33	0x3d5b0e83	0.053480636
34	0xbdfe14b2	-0.12406291
35	0xbde5d552	-0.11222328
36	0xbeaf6b93	-0.3426176
37	0x3e3fd9e5	0.18735464
38	0xbc7410ca	-0.014896581
39	0xbe930c00	-0.28720093
40	0x3d10ca66	0.035349272
41	0xbe9d6ea4	-0.30748475
42	0xbe335254	-0.17511874
43	0xbd707c94	-0.058712557
44	0xbe274752	-0.163358
45	0xbb971c2e	-0.0046115136
46	0xbdd4c058	-0.10388249
47	0xbe14a243	-0.14515023
48	0x3e857a23	0.26069745
49	0x3e0c9e35	0.13732226
50	0x3e0a7116	0.13519701
51	0xbea48cde	-0.32138723
52	0xbe9b5de1	-0.3034506
53	0xbe54ef55	-0.20794423
54	0x3ea30004	0.3183595
55	0xbbd5105a	-0.0065021934
56	0x3dacf741	0.084455974
57	0x3d956857	0.07295292
58	0x3df60584	0.12012771
59	0xbd4a68ce	-0.049416356
60	0x3dcbb1f9	0.09946055
61	0xbe1572f8	-0.14594638
62	0xbddfec62	-0.10933758
63	0x3e252913	0.1612895
64	0xbd2d37b9	-0.04228947
65	0xbdb12f2a	-0.08651574
66	0x3e1669f3	0.14688854
67	0x3e75104d	0.23932
68	0x3b49bd65	0.0030783054
69	0x3e24e107	0.16101466
70	0xbd2af80a	-0.041740455
71	0xbd8eab65	-0.06966285
72	0x3dcee510	0.10102284
73	0x3cb7e7dd	0.022449428
74	0x3e0cbc3a	0.13743678
75	0xbe841ad0	-0.25801706
76	0x3dd0aaef	0.10188853
77	0xbcb3e2b6	-0.02195869
78	0xbd9fcedf	-0.078031294
79	0x3da1dc33	0.07903328
80	0x3cfb9d0f	0.03071454
81	0x3dfc4830	0.12318456
82	0x3e3043b7	0.17213331
83	0xbcfaecba	-0.030630458
84	0xbbcc4073	-0.006233269
85	0x3cbd0a3c	0.02307617
86	0xbb72cbbe	-0.003704771
87	0x3ddede04	0.1088219
88	0xbe2ab58e	-0.1667082
89	0x3e007f9c	0.12548679
90	0x3e553f2b	0.20824878
91	0xbe80118f	-0.25013396
92	0x3c71aef9	0.014751189
93	0xbd955616	-0.0729181
94	0xbdd19e3e	-0.102352604
95	0xbd5f8a03	-0.054574978
96	0xbec27444	-0.3797933
97	0xbc0e4e81	-0.008685709
98	0xbe3aa455	-0.1822675
99	0x3da3e02d	0.080017425
100	0xbdbd95c5	-0.09257082
101	0x3e4bc7e3	0.1990047
102	0x3d63bd9e	0.055600755
103	0xbe57a346	-0.21058378
104	0x3d936ae9	0.07198126
105	0xbd927d83	-0.07152846
106	0xbeb82589	-0.35966137
107	0x3e0aed4b	0.13567083
108	0x3cfcbde0	0.030852258
109	0xbe2da453	-0.16957216
110	0xbe1da96a	-0.15396658
111	0x3cc1a5ef	0.023638694
112	0xbe92b839	-0.28656176
113	0x3dd87c9e	0.10570644
114	0xbcb3681d	-0.021900231
115	0xbe4d3a10	-0.2004168
116	0x3e385656	0.18001685
117	0x3db449af	0.088031165
118	0xbba4cc02	-0.0050292024
119	0x3e568f77	0.20953165
120	0x3c0a5240	0.0084424615
121	0xbd85b262	-0.065281644
122	0xbeb49246	-0.35267848
123	0x3e5e48a7	0.21707402
124	0x3dacf54b	0.084452234
125	0xbce012a8	-0.027352646
126	0x3d0ae447	0.03390911
127	0x3e904308	0.2817614
128	0x3ddd3bc2	0.108024135
129	0x3e10308b	0.14081018
130	0x3d81055e	0.06299852
131	0x3dd20768	0.10255319
132	0x3db8a82d	0.09016452
133	0x3da88038	0.08227581
134	0xbd9cb367	-0.07651406
135	0x3e6e8f01	0.23296739
136	0xbdf1f1be	-0.11813687
137	0xbeb72ef7	-0.3577802
138	0xbda5c665	-0.080944814
139	0xbe0dfad8	-0.1386522
140	0xbeb37381	-0.3504906
141	0x3e1ea8d8	0.15494096
142	0xbde2a7e3	-0.11067178
143	0x3d8d40fa	0.06897159
144	0xbd2e6ddc	-0.04258524
145	0x3dd0988e	0.101853475
146	0xbd6a879c	-0.057258233
147	0x3e08ccce	0.13359377
148	0xbd533d0d	-0.051571894
149	0x3e930426	0.28714103
150	0xbde2babb	-0.11070772
151	0xbe09a091	-0.13440157
152	0x3e108c57	0.14116035
153	0x3e108b68	0.1411568
154	0xbe1da11c	-0.1539349
155	0x3e255251	0.16144682
156	0x3d7cd049	0.061722074
157	0xbeec4f16	-0.46154088
158	0x3d6c8ccf	0.057751473
159	0xbe931a55	-0.28731027
160	0x3da285fb	0.07935711
161	0xbde9d0d9	-0.11416788
162	0x3eaec956	0.34137982
163	0xbe6e5ad6	-0.23276839
164	0xbdf17949	-0.117907114
165	0xbe95232b	-0.29128394
166	0xbda0f4fc	-0.07859227
167	0xbe2f1d1f	-0.17100953
168	0xbd80e6f6	-0.06294052
169	0x3d8b31ee	0.06796633
170	0xbdc2ab92	-0.09505381
171	0x3b57fa94	0.0032955753
172	0x3e332ca4	0.17497498
173	0xbe39b12f	-0.18133996
174	0xbe8f7222	-0.28016764
175	0x3dbc4c15	0.09194199
176	0x3e46e52d	0.19423361
177	0x3e1416a0	0.14461756
178	0x3cb1a209	0.02168371
179	0xbe15d5d3	-0.14632349
180	0xbd95afb4	-0.07308903
181	0x3dea14a5	0.11429719
182	0x3d61a997	0.055093374
183	0xbde3d233	-0.11124077
184	0xbded1a20	-0.115772486
185	0xbe493f3d	-0.1965303
186	0x3d5d1ddd	0.053983558
187	0x3db2bf6c	0.08727917
188	0x3da891f0	0.0823096
189	0xbad1f28d	-0.001601772
190	0xbe238f0e	-0.1597254
191	0xbe876833	-0.26446685
192	0x3e3046a1	0.17214443
193	0xbda45129	-0.080232926
194	0x3d5a7507	0.053334262
195	0x3de3cf3c	0.11123511
196	0x3e5f553d	0.2180986
197	0xbdc1fb95	-0.094718136
198	0xbd74c02c	-0.059753582
199	0x3d04a4fb	0.0323839
200	0xbe1e263e	-0.15444276
201	0xbcba2f25	-0.022727558
202	0xbcaead9d	-0.02132302
203	0x3df8d8fa	0.1215076
204	0x3e8248ad	0.25446072
205	0xbdb5d641	-0.08878756
206	0x3da9003d	0.082519986
207	0x3d0f8aa7	0.03504434
208	0xbd582e24	-0.052778378
209	0x3e974abd	0.29549208
210	0x3d9e61e5	0.07733516
211	0xbd517504	-0.051136985
212	0x3d483a02	0.048883446
213	0xbd50c333	-0.050967406
214	0x3c2b7296	0.010464331
215	0x3d093a4b	0.033502858
216	0x3d5c3af4	0.05376716
217	0xbda92bf0	-0.082603335
218	0x3dc0eb73	0.094199084
219	0xbe9545d2	-0.2915483
220	0xbea45e64	-0.32103264
221	0x3d7660d7	0.060150947
222	0x3d80f25a	0.06296225
223	0x3d2ac548	0.04169205
224	0xbd9a15dd	-0.07523701
225	0xbce407b3	-0.027835703
226	0x3e89a9d2	0.26887375
227	0x3e43f0dd	0.19134851
228	0x3e6304e5	0.22169836
229	0x3c79fad5	0.015257557
230	0xbb7abdce	-0.0038260105
231	0x3ead3019	0.33825758
232	0xbee794f4	-0.4523083
233	0x3ea89396	0.329251
234	0x3df1a4d9	0.1179902
235	0x3d622ec3	0.055220377
236	0xbe01c9bc	-0.12674612
237	0xbdc17ad0	-0.09447253
238	0xbe2f97a8	-0.17147696
239	0xbdd19f9c	-0.10235521
240	0x3d5a9b66	0.053370856
241	0x3e51047f	0.20411871
242	0x3e140c12	0.1445773
243	0xbd4c9f55	-0.04995664
244	0x3e8e14e0	0.277503
245	0x3d25df59	0.040496204
246	0x3e043338	0.12910163
247	0xbe0ee3aa	-0.13954034
248	0xbe16c0d4	-0.14721996
249	0x3e03e456	0.12880072
250	0x3e048133	0.1293991
251	0xbd6a133b	-0.057147246
252	0xbe185665	-0.14876707
253	0x3db11a00	0.08647537
254	0xbe349f03	-0.17638783
255	0x3e59af50	0.21258283

policy/main_graph_0/hidden_1/bias/read:0 f4 [128]
0	0xbd7c3089	-0.061569724
1	0xbdc1ba7a	-0.09459396
2	0xbd0f1d31	-0.03493995
3	0xbd13bd42	-0.036069162
4	0xbd1f294f	-0.038857754
5	0xbd51f9ca	-0.051263608
6	0xbd4f795c	-0.050652847
7	0xbd11a881	-0.03556109
8	0x3c79a823	0.015237841
9	0xbd5760af	-0.05258244
10	0xbd7b2cfc	-0.061322197
11	0xbca10120	-0.019653857
12	0xbc5ed109	-0.013599643
13	0xbc0fc31e	-0.008774547
14	0x3c257467	0.010098553
15	0xbd8fd57c	-0.07023141
16	0xbd067e8b	-0.032835525
17	0xb991aad1	-0.00027783823
18	0x3cc2d275	0.023781994
19	0xbc1ebefe	-0.009689091
20	0xbd3b9298	-0.0457941
21	0xbc8b9cd6	-0.017042559
22	0xbd7212f7	-0.059100118
23	0xbd2f652b	-0.04282109
24	0xbc9f5809	-0.019451158
25	0xbd1ba2ad	-0.037996937
26	0xbba83d4a	-0.0051342594
27	0xbd7ecf36	-0.06220933
28	0xbc99074e	-0.018680241
29	0xbb878286	-0.0041354327
30	0x3d39448b	0.045231383
31	0xbb01f039	-0.0019827022
32	0xbc0f188f	-0.008733883
33	0xbbeaf62d	-0.0071704597
34	0xbd420550	-0.047368348
35	0xbc1721dc	-0.009224381
36	0xbc49fa6d	-0.012327773
37	0xbd905105	-0.07046703
38	0xbccc42b0	-0.024934143
39	0xbd60cafd	-0.054881085
40	0x39713af6	0.00023005516
41	0x3b8d4a20	0.004311815
42	0x3b9ab060	0.0047207326
43	0x3c9bc532	0.019014928
44	0xbda7c1eb	-0.08191284
45	0x3be0cba0	0.0068602115
46	0xbd4c935b	-0.049945217
47	0xbd02ab30	-0.03190154
48	0xbd26f529	-0.040761147
49	0xbc97f795	-0.018550673
50	0xbcc04e0c	-0.023474716
51	0x3d0edced	0.03487866
52	0xbd3e33f7	-0.046436276
53	0xbcebdccc	-0.028791808
54	0xbcb53e4f	-0.022124438
55	0xbd42f0e6	-0.04759302
56	0xbced8d30	-0.028997988
57	0xbd6a96ab	-0.057272594
58	0xbd0a2e2d	-0.033735443
59	0xbb264009	-0.0025367758
60	0xbc239f07	-0.009986646
61	0x3c9f89fc	0.019474976
62	0x3d10c3c5	0.03534295
63	0x3bdc44c1	0.0067220633
64	0xbd8c311a	-0.06845303
65	0xbce3b266	-0.027795028
66	0xbd04f5f7	-0.032461133
67	0xbc3a2fd6	-0.011363944
68	0xbd25334c	-0.040332124
69	0xbd2101e4	-0.039308444
70	0xbbe34366	-0.0069355248
71	0xbcb630f9	-0.022240149
72	0xbd9d8338	-0.076910436
73	0xba180011	-0.000579835
74	0xbcf38e97	-0.029731078
75	0xbc51255b	-0.012765254
76	0xbc8f7723	-0.017512864
77	0xbca73806	-0.020412456
78	0xbc763c05	-0.015028958
79	0xbcc655c7	-0.024210824
80	0x3d12316f	0.035691675
81	0xbd9a4c76	-0.07534115
82	0xbcd1798d	-0.025570655
83	0xbd943573	-0.07236757
84	0xbbd0baf9	-0.006369945
85	0xbcbef3c7	-0.023309601
86	0xbd0d39d7	-0.03447899
87	0x3b36f92d	0.0027919516
88	0xbd890ff6	-0.066924974
89	0xbd6fe0c4	-0.058563963
90	0xbd69b2c8	-0.057055265
91	0xbb41a19f	-0.0029545797
92	0xbd3143c3	-0.043277513
93	0xbd2c28a9	-0.042030964
94	0xbd0a7594	-0.033803537
95	0xbd29dcf0	-0.041470468
96	0xbd2593e4	-0.040424243
97	0x3d24733f	0.04014897
98	0xbd965e60	-0.07342219
99	0xbcfe4f7a	-0.031043757
100	0xbd468590	-0.04846722
101	0xbc3b5c4b	-0.011435579
102	0x3d57933f	0.05263066
103	0x3ba75299	0.005106282
104	0xbc85f262	-0.016350929
105	0xbcd32d67	-0.025778485
106	0xbcbde69a	-0.023181248
107	0xbdb9e371	-0.09076584
108	0x3b03a365	0.0020086404
109	0xbd70495f	-0.058663722
110	0xbcf74f0e	-0.030189063
111	0xbd322cb8	-0.04349968
112	0xbcacf760	-0.021114051
113	0xbd140ad7	-0.03614315
114	0x3be7d802	0.0070753107
115	0x3befd138	0.007318642
116	0xbddbfadd	-0.10741208
117	0xbd3784f5	-0.044804532
118	0x3ba5e4fc	0.0050626975
119	0xbc89630e	-0.016770866
120	0x3bb24282	0.0054400573
121	0xbd54442b	-0.051822823
122	0xbcd707e7	-0.026248885
123	0x3c6725ce	0.014108134
124	0x3c868d51	0.016424807
125	0xbd8d074b	-0.06886157
126	0xbc93f25d	-0.018059904
127	0xbd4e2155	-0.050324757

policy/main_graph_0/hidden_0/kernel/read:0 f4 [648, 128]
0	0x3e4318b8	0.19052398
1	0x3d125b3f	0.03573155
2	0x3dd375a3	0.10325172
3	0xbe03c9fb	-0.12870018
4	0x3d3b1c66	0.04568138
5	0xbd5d8f03	-0.054091465
6	0xbd1abbd4	-0.037776783
7	0x3c9cf3a9	0.019159155
8	0xbdd4dff4	-0.10394278
9	0xbc8f6b00	-0.017507076
10	0x3e16a9ac	0.14713162
11	0x3df954e4	0.12174395
12	0xbdaff7f2	-0.08592214
13	0x3e012300	0.12611008
14	0x3d9d5e17	0.07683962
15	0x3bc42979	0.0059863892
16	0xbcdc1b28	-0.026868418
17	0x3cc6d0d0	0.024269491
18	0x3e09c4f3	0.13454036
19	0xbd8057fa	-0.0626678
20	0xbe092e09	-0.13396467
21	0x3d29162a	0.041280903
22	0x3e7f7adc	0.24949211
23	0xbd79e78d	-0.06101184
24	0x3ddd60cb	0.108094774
25	0x3c70427f	0.014664291
26	0xbdd0bd7e	-0.10192393
27	0xbd736d0e	-0.059430175
28	0x3d44ca12	0.04804427
29	0x3c9fe3c3	0.019517785
30	0xbd054666	-0.03253784
31	0x3ba2e60f	0.004971273
32	0x3e0b84d3	0.13624887
33	0x3d97234c	0.07379779
34	0xbe07bc2c	-0.13255376
35	0xbdd75e6e	-0.10516058
36	0x3e08fb63	0.13377146
37	0x3e24f4d8	0.16109025
38	0x3d563d80	0.052304745
39	0x3d0c1822	0.034202702
40	0x3a8f2095	0.0010919744
41	0xbd85a1b9	-0.06524987
42	0x3db33f4d	0.08752308
43	0x3da22121	0.07916475
44	0xbc7ea175	-0.015541424
45	0xbd42f695	-0.04759844
46	0x3ce6e1e6	0.028183889
47	0xbd445704	-0.047934547
48	0x3db629f7	0.08894723
49	0x3e0aae69	0.13543095
50	0x3aa5c9cd	0.0012648642
51	0x3d6d3601	0.05791283
52	0x3c3e7678	0.011624925
53	0x3e7480bf	0.23877238
54	0x3de92686	0.11384301
55	0xbd6c455c	-0.057683334
56	0xbe07634b	-0.13221471
57	0x3deb43bc	0.11487529
58	0x3e00cc00	0.1257782
59	0xbcc2c206	-0.023774158
60	0x3bd62b40	0.0065359175
61	0x3be15ddc	0.006877644
62	0xbc9b903b	-0.018989673
63	0xbe5ed25c	-0.21759933
64	0x3cb8c177	0.022553189
65	0x3d81dc82	0.06340887
66	0x3dd117a7	0.102095895
67	0x3dcc44a4	0.0997403
68	0xbd947222	-0.072483316
69	0x3dabd4cd	0.08390198
70	0xbd09e9dc	-0.03367029
71	0xbe4ffd21	-0.20311405
72	0x3d77e8e1	0.060524825
73	0x3b9322fd	0.004490255
74	0x3d6b6993	0.05747373
75	0xbc1fa7cd	-0.009744597
76	0x3d47dbf2	0.04879374
77	0xbd41d864	-0.047325507
78	0x3cb35b25	0.021894047
79	0x3dd936b5	0.10606138
80	0xbd3af1aa	-0.045640625
81	0x3dc5d42a	0.09659608
82	0xbdb8ae15	-0.090175785
83	0x3cd406a8	0.02588208
84	0xbe04aabf	-0.1295576
85	0xbdb284e0	-0.0871675
86	0xbde73fd8	-0.11291474
87	0x3e5488b3	0.20755272
88	0x3de6c459	0.11267919
89	0xbc77bd2a	-0.015120784
90	0xbdbc1f16	-0.09185617
91	0xbd0e5882	-0.034752376
92	0xbd8c4e55	-0.06850878
93	0x3d322a92	0.04349763
94	0xbc8a499b	-0.016880801
95	0xbb3b0e79	-0.0028542562
96	0x3da0be4c	0.07848796
97	0x3d74c564	0.05975856
98	0x3e021266	0.12702331
99	0xbd3006b0	-0.042975128
100	0xbd7590b6	-0.05995246
101	0x3d741dbe	0.059598677
102	0x3d6b4fcb	0.057449143
103	0xbcd0b1c5	-0.025475392
104	0x3d4fec2a	0.050762333
105	0xbdbbe66f	-0.09174811
106	0x3e076ff7	0.13226305
107	0x3d2bca73	0.041941117
108	0xbe2067b0	-0.15664554
109	0xbdef1b07	-0.11675077
110	0xbdeb0d1b	-0.11477109
111	0x3dc77740	0.09739542
112	0x3cd9db82	0.026593927
113	0x3dddea14	0.108356625
114	0xbd12cb83	-0.035838615
115	0xbe2343fa	-0.159439
116	0xbc92830f	-0.01788476
117	0xbe929ab7	-0.28633663
118	0xbcc0f30a	-0.02355339
119	0x3d35b9db	0.0443667
120	0x3df3799f	0.11888432
121	0x3be65c48	0.0070300438
122	0xbe24d74e	-0.16097757
123	0x3d9cab47	0.07649856
124	0x3e1069ee	0.14102909
125	0x3de56ce1	0.11202408
126	0xbcbfbd48	-0.023405686
127	0x3c938f6f	0.01801273
128	0x3e56c20c	0.2097246
129	0x3c3cfebe	0.011535345
130	0x3d411d5e	0.047147147
131	0x3e1fe1ec	0.15613526
132	0xbc18a83e	-0.009317456
133	0x3e4939f7	0.19651018
134	0xbdbdf021	-0.092743166
135	0x3e1dee49	0.1542293
136	0x3e1940f7	0.14966188
137	0x3e4a75da	0.1977152
138	0x3c87a93e	0.016560193
139	0x3dd6aa2f	0.10481679
140	0xbd2833d5	-0.041065056
141	0x3d8882f2	0.06665601
142	0xbddff832	-0.109360114
143	0xbd92843d	-0.07154129
144	0x3cd4dcc1	0.02598417
145	0xbd286228	-0.041109234
146	0x3da84b6d	0.08217511
147	0xbd0f3ef9	-0.034972165
148	0x3d82e0a5	0.06390504
149	0xbdf826a8	-0.12116748
150	0xbe053398	-0.13007963
151	0x3e0d1344	0.1377688
152	0x3d8f4a23	0.06996562
153	0xbe228ba5	-0.15873583
154	0xbc0a8023	-0.008453402
155	0xbcdbdd20	-0.026838839
156	0xbd71f07f	-0.059067246
157	0xbd7aa0f8	-0.061188668
158	0x3d1e4fbe	0.038650267
159	0x3df0e807	0.11763006
160	0xbe061d30	-0.13097072
161	0x3e6df690	0.23238587
162	0x3d8bda97	0.06828802
163	0x3d0724a1	0.032993916
164	0xbdf38bf4	-0.11891928
165	0x3d81fdf2	0.06347264
166	0x3e2cb52a	0.16865984
167	0x3d0273fa	0.031848885
168	0xbd586802	-0.052833565
169	0x3e052518	0.13002431
170	0xbd3b5ce1	-0.045742873
171	0xbd380201	-0.044923786
172	0x3d8c52e5	0.068517484
173	0x3cea8f8d	0.028632903
174	0x3db27207	0.08713155
175	0x3dbc79bd	0.09202907
176	0xbe034b2d	-0.12821646
177	0x3db1e268	0.08685762
178	0x3d81e97b	0.06343361
179	0xbdaba042	-0.08380176
180	0xbe2e5945	-0.17026241
181	0x3e0aceeb	0.13555495
182	0x3d685fe0	0.05673206
183	0x3e3decef	0.18547414
184	0xbde0c3eb	-0.109748684
185	0xbe3ab7c1	-0.18234159
186	0xbe3f569b	-0.18685381
187	0x3d497022	0.049179204
188	0xbdb6d04c	-0.08926448
189	0xbe481380	-0.19538689
190	0x3cae267f	0.02125859
191	0x3d8f8e76	0.07009594
192	0x3df04c93	0.117333554
193	0x3e3955e7	0.18099175
194	0xbdb8fc49	-0.090324946
195	0xbdebee10	-0.11520016
196	0xbc8cba2d	-0.01717862
197	0xbcddd53d	-0.027079219
198	0xbe3cbf70	-0.18432403
199	0x3e40f9ad	0.18845244
200	0xbda8f1bd	-0.08249233
201	0x3da41f8f	0.08013832
202	0xbd433d46	-0.047665857
203	0xbd461c13	-0.048366617
204	0x3e2367b7	0.15957533
205	0xbe6b16e9	-0.22957958
206	0xbd0bd4d9	-0.034138534
207	0x3e9218b5	0.28534475
208	0xbdd8aee3	-0.10580232
209	0x3be38131	0.006942891
210	0x3d41c6a4	0.04730858
211	0xbe087287	-0.13324939
212	0x3d00357c	0.031301007
213	0xbceb9324	-0.028756686
214	0x3d4f875a	0.05066619
215	0xbe029199	-0.12750854
216	0xbdf97a2a	-0.12181504
217	0xbe76e11b	-0.24109308
218	0xbdd541a3	-0.1041291
219	0x3dafb08c	0.085785955
220	0x3dee6a04	0.116413146
221	0xbe1cd45b	-0.15315382
222	0xbd744e10	-0.05964476
223	0xbd1e3751	-0.038626973
224	0xbe5fdbae	-0.21861145
225	0xbccc86b0	-0.024966568
226	0xbdca2e99	-0.09872169
227	0xbca02a53	-0.019551432
228	0x3df77cc7	0.12084346
229	0xbde5f6c5	-0.11228708
230	0xbe620259	-0.22071208
231	0xbda8fa69	-0.08250887
232	0xbd5fdb70	-0.05465263
233	0x3df7561a	0.120769694
234	0x3e35263c	0.17690367
235	0x3cd034c0	0.025415778
236	0xba8331e3	-0.0010009374
237	0x3d02e49e	0.031956308
238	0x3da03e00	0.078243256
239	0xbcab2436	-0.02089129
240	0x3c13cdf3	0.00902127
241	0xbc094c93	-0.008380073
242	0x3d3fabb5	0.046794612
243	0x3d8a47c9	0.06751973
244	0x3d8abb0b	0.06773957
245	0x3df0af69	0.11752207
246	0x3c88da9d	0.016705805
247	0x3c778c6b	0.015109162
248	0x3dfc865e	0.12330316
249	0x3dd69761	0.10478092
250	0xbc530c58	-0.012881361
251	0xbe1a55b3	-0.15071754
252	0xbe33393a	-0.17502299
253	0xbd9e9ae7	-0.07744389
254	0xbdd340a8	-0.103150666
255	0xbdfe18c7	-0.1240707

policy/main_graph_0/hidden_0/bias/read:0 f4 [128]
0	0xbc46a093	-0.012123245
1	0xbd817048	-0.06320244
2	0xbe16ccd3	-0.14726572
3	0x3c6c282d	0.0144138755
4	0x3e1d5033	0.15362625
5	0xbca2d32c	-0.019876085
6	0xbd1e2264	-0.038607016
7	0xbda01a4c	-0.07817516
8	0xbc85ac26	-0.016317438
9	0xbdd71492	-0.1050197
10	0xbdb1fb34	-0.08690491
11	0xbc61fe56	-0.013793549
12	0xbb19e02a	-0.002347956
13	0xbd0e7c92	-0.03478677
14	0xbe263a2d	-0.1623313
15	0xbe0efb9b	-0.13963167
16	0xbe1b9687	-0.1519414
17	0xbcb1d776	-0.021709185
18	0x3ce32d38	0.027731523
19	0xbdb11970	-0.0864743
20	0x3d991916	0.07475488
21	0x3d0041b4	0.03131266
22	0xbdc4b8cc	-0.0960556
23	0xbdf91f31	-0.121641524
24	0x3d9cbc40	0.07653093
25	0xbe11e45d	-0.1424727
26	0xbdea2685	-0.11433128
27	0xbd9da87f	-0.07698154
28	0xbdc97518	-0.09836787
29	0xbd73776a	-0.059440054
30	0xbe0b5d3d	-0.13609786
31	0xbcd27e0c	-0.02569487
32	0x3d43d6fa	0.04781244
33	0x3c7390b5	0.014866044
34	0x3d3fb495	0.046803076
35	0xbde033cc	-0.109473795
36	0xbe0d60a4	-0.13806397
37	0xbe15df80	-0.1463604
38	0xbe520f2d	-0.20513602
39	0xbd7d6780	-0.061866283
40	0xbcbdfe08	-0.02319242
41	0x3cb43704	0.02199889
42	0xbe555b56	-0.20835623
43	0x3bdd297c	0.00674933
44	0x3c51e1fb	0.012810226
45	0x3ce3bdc0	0.02780044
46	0xbc7908a2	-0.015199812
47	0xbd0bfe15	-0.03417786
48	0xbe80ef25	-0.25182453
49	0xbe5b61b8	-0.21423995
50	0xbda73b96	-0.08165662
51	0x3ba0d1fb	0.004907844
52	0xbd725106	-0.0591593
53	0xbdcc3391	-0.09970773
54	0x3dc668d9	0.09687967
55	0xbddf1ac2	-0.108937755
56	0xbe46b73e	-0.19405839
57	0xbcbc8394	-0.02301196
58	0xbd9b3bd5	-0.075797714
59	0xbd6be5a1	-0.057592038
60	0xbe2b0306	-0.16700372
61	0x3e1d19ce	0.15341875
62	0xbd532fc3	-0.05155922
63	0xbdce0327	-0.10059195
64	0xb83739a2	-4.3684275e-05
65	0xbcd29884	-0.02570749
66	0xbe218bae	-0.1577594
67	0xbdf77efc	-0.12084767
68	0x3d20c89e	0.039253823
69	0xbdfe517e	-0.12417887
70	0xbe0f887e	-0.14016911
71	0x3d7ee139	0.062226508
72	0xbde3b9e2	-0.11119439
73	0x3c9767ff	0.018482206
74	0xbd032476	-0.032017194
75	0xbca4ecd4	-0.02013246
76	0x3c9175a6	0.017756294
77	0xbd843c95	-0.064568676
78	0xbc83d32d	-0.016091907
79	0xbd0af988	-0.033929378
80	0xbdeea5d0	-0.1165272
81	0x3bdb1ed5	0.006687025
82	0xbdf1798d	-0.11790762
83	0x3c94d185	0.018166313
84	0xbe12591d	-0.14291807
85	0xbe739821	-0.23788501
86	0xbcf34833	-0.029697513
87	0xbe1ac906	-0.15115747
88	0xbdf3fd0f	-0.119135015
89	0xbe1b75ce	-0.15181658
90	0xbe503768	-0.20333636
91	0xbd533a08	-0.051569015
92	0xbb47c992	-0.0030485136
93	0x3abbf66e	0.001434041
94	0x3c4778cd	0.012174797
95	0xbbf6bcc6	-0.0075298278
96	0x3c9547a8	0.018222645
97	0xbdc84855	-0.09779421
98	0xbdd2bbb4	-0.10289708
99	0xbdaae5e3	-0.08344629
100	0xbd4f87a6	-0.050666474
101	0xbe3a3fa6	-0.18188342
102	0xbdb53175	-0.08847324
103	0xbdc00cf0	-0.09377468
104	0xbcdbdeee	-0.0268397
105	0xbd6fbd7c	-0.058530316
106	0xbd6b7db6	-0.057492934
107	0xbe262aec	-0.16227311
108	0xbe033643	-0.12813668
109	0x3d3473f9	0.044055913
110	0xbdba98da	-0.09111185
111	0xbdab5793	-0.08366313
112	0xbdb8b124	-0.09018162
113	0xbcd78210	-0.026307136
114	0xbdde4863	-0.108536504
115	0xbe254cdc	-0.16142601
116	0xbdf63eeb	-0.120237194
117	0xbd49f549	-0.049306188
118	0xbd8c8edb	-0.06863185
119	0xbde0262a	-0.10944779
120	0xbe2052d9	-0.15656604
121	0xbe6fc6df	-0.23415707
122	0x3c247b3e	0.010039149
123	0xbd931655	-0.07181994
124	0xbda75ef1	-0.081724055
125	0xbe26df07	-0.16296016
126	0x3c887d72	0.01666138
127	0xbe0fa806	-0.1402894

policy/dense/kernel/read:0 f4 [128, 127]
0	0x3dc9ea16	0.098591015
1	0x3e63bda2	0.22240308
2	0xbd9ca977	-0.0764951
3	0x3e146f3f	0.14495562
4	0xbe197828	-0.14987242
5	0xbd808c39	-0.06276745
6	0x3e619049	0.22027697
7	0x3d800b31	0.062521346
8	0x3d6cea69	0.05784074
9	0x3e3bc2be	0.18336007
10	0xbbb6ec59	-0.005582374
11	0xbe0512e5	-0.12995489
12	0x3c4f3fca	0.012649486
13	0x3e0e7a99	0.13913955
14	0x3cc8c9d6	0.024510305
15	0xbd9fa2fd	-0.077947594
16	0xbdb703c9	-0.08936269
17	0xbe300a5a	-0.17191449
18	0xbd1e69f7	-0.038675275
19	0x3e261cc1	0.16221906
20	0xbd9ede97	-0.077572994
21	0x3ca7c34a	0.020478863
22	0xbbf618c2	-0.0075102756
23	0xbe6a0924	-0.2285505
24	0xbdb68dd6	-0.08913772
25	0x3da1e8e3	0.07905748
26	0xbe406add	-0.18790765
27	0x3c2f1231	0.0106854895
28	0xbd35e2fb	-0.04440592
29	0xbd49c866	-0.04926338
30	0x3d8fc9fd	0.07020948
31	0x3d00de25	0.031461854
32	0x3ba2ede4	0.0049722064
33	0xbcd72c38	-0.026266202
34	0x3d0b0154	0.033936813
35	0xbc9302d6	-0.017945688
36	0x3d28762c	0.041128322
37	0xbe3776c0	-0.17916393
38	0x3bd3bbb3	0.0064615845
39	0xbe1674c3	-0.14692979
40	0xbe6326af	-0.22182725
41	0x3e150925	0.1455427
42	0x3ce3bf37	0.02780114
43	0xbe002e5b	-0.12517683
44	0xbe29f8d5	-0.16598828
45	0x3d3d00ce	0.046143346
46	0xbd38bbf5	-0.045101125
47	0xbd4a6d50	-0.049420655
48	0x3de96c00	0.113975525
49	0x3d774993	0.0603729
50	0x3ccf70c9	0.025322335
51	0x3d9c8ab2	0.076436415
52	0x3e3d73e2	0.18501237
53	0xbdaada27	-0.083423905
54	0x3ddc5516	0.10758416
55	0xbdf6f417	-0.12058275
56	0x3d4ef5fa	0.05052755
57	0xbdc07156	-0.09396617
58	0x3d10852f	0.035283264
59	0x3c85de93	0.016341483
60	0xbd13e200	-0.036104202
61	0x3d462889	0.0483785
62	0x3dbddbe4	0.092704564
63	0xbd417392	-0.047229357
64	0x3d227015	0.03965767
65	0x3d3b23cf	0.045688447
66	0x3cefd9f2	0.02927873
67	0xbe42cb9c	-0.19022983
68	0x3e0f34a6	0.13984928
69	0xbd673793	-0.056449484
70	0x3d92f7e0	0.07176185
71	0x3c79b255	0.015240272
72	0x3db02265	0.0860031
73	0xbc68eff1	-0.014217363
74	0x3dea1b4f	0.1143099
75	0x3d4f9f2a	0.0506889
76	0x3e20f402	0.15718082
77	0xbe0ff920	-0.14059877
78	0xbd8a89af	-0.06764542
79	0x3deab959	0.114611335
80	0xba34a5be	-0.00068911526
81	0x3d01eb53	0.031718563
82	0x3e839724	0.2570125
83	0xbd1be70c	-0.03806214
84	0x3e6087be	0.21926782
85	0x3e467837	0.19381796
86	0xbe1a3601	-0.15059663
87	0x3d946ac9	0.0724693
88	0xbddb3b0b	-0.10704621
89	0xbdaa5005	-0.08316044
90	0xbd8ce366	-0.0687931
91	0x3d7773b1	0.060413066
92	0xbe0e4a66	-0.13895568
93	0xbb9d3ecd	-0.004798746
94	0xbdf5ac05	-0.11995701
95	0xbdec7f80	-0.11547756
96	0xbe0002b8	-0.12501037
97	0x3c8f4466	0.01748867
98	0xbe329e9d	-0.17443319
99	0xbd11c178	-0.035584897
100	0x3e189dad	0.14903899
101	0xbd88c0eb	-0.06677421
102	0x3ad07edd	0.0015906949
103	0xbcc5e17b	-0.024155369
104	0x3d75658b	0.059911292
105	0xbdb0b1f0	-0.08627689
106	0x3dc45c71	0.09587944
107	0x3d03f436	0.03221532
108	0x3e5f7afd	0.2182426
109	0x3e6d2bb0	0.23161197
110	0x3d97476c	0.073866695
111	0xbe1e8209	-0.15479292
112	0x3e2abe0c	0.1667406
113	0xbe1906a5	-0.14943941
114	0x3e0b06e3	0.13576846
115	0x3e49f0f5	0.19720824
116	0x3cdd99b5	0.027050832
117	0xbc7bddd1	-0.015372709
118	0xbcdb3cf3	-0.026762461
119	0x3cfc71dc	0.030816011
120	0xbda8a098	-0.08233756
121	0x3d5bec86	0.053692363
122	0xbdd3d038	-0.10342449
123	0x3ddf60dd	0.10907147
124	0xbd8c8fc2	-0.06863357
125	0xbdddf0e7	-0.10836964
126	0xbb82838e	-0.0039829677
127	0x3bbdde21	0.005794302
128	0x3de4d3b3	0.11173191
129	0x3d035533	0.032063674
130	0x3d1041fe	0.035219185
131	0x3d830112	0.063966885
132	0xbc92195e	-0.017834362
133	0x3d933512	0.07187857
134	0x3dc81442	0.09769489
135	0xbddae5da	-0.10688372
136	0x3ab97c31	0.0014151392
137	0x3e726207	0.23670207
138	0x3dadd377	0.08487599
139	0xbe0197bd	-0.1265554
140	0x3cc49831	0.023998352
141	0x3d3e77ca	0.04650096
142	0x3e46f8cb	0.19430844
143	0x3d574877	0.052559342
144	0xbdca54fd	-0.098794915
145	0x3d8bcd1e	0.068262324
146	0xbd036369	-0.032077227
147	0x3de5c5e7	0.112193875
148	0xbd86f3a4	-0.065894395
149	0xbdf944e6	-0.121713445
150	0x3d9ed833	0.077560805
151	0x3d97628a	0.07391842
152	0x3b32ca29	0.0027281141
153	0xbdb0848d	-0.08619032
154	0xbd770b91	-0.060313765
155	0x3d6b4c0b	0.057445567
156	0x3cb45180	0.022011518
157	0x3d1bd1b6	0.038041793
158	0xbc682c91	-0.014170782
159	0xbeaadb01	-0.33370212
160	0x3e05ab2d	0.1305358
161	0x3e2082cd	0.15674897
162	0xbe4ef992	-0.20212391
163	0xbc592e34	-0.013255645
164	0xbd8d0600	-0.0688591
165	0x3a4c6577	0.0007797102
166	0x3dc1cef2	0.094633
167	0x3ce63e16	0.028105777
168	0xbcbe6e07	-0.023245825
169	0xbcfc3b24	-0.03078992
170	0x3da9f363	0.082983755
171	0x3daecead	0.08535514
172	0x3e1e2302	0.15443042
173	0x3da7eeef	0.0819987
174	0xbc19efc8	-0.009395547
175	0xbd12bc10	-0.03582388
176	0xbe64cb96	-0.22343287
177	0x3e2d038c	0.16895884
178	0xbe1d5bc5	-0.15367039
179	0xbcffa4ba	-0.031206477
180	0x3d8df471	0.06931389
181	0x3d6f3f3d	0.058409918
182	0x3b666418	0.0035154875
183	0xbde66871	-0.11250389
184	0xbbdf29f6	-0.006810422
185	0x3cd44dc8	0.025915995
186	0x3cf35a84	0.029706247
187	0x3df523c0	0.119697094
188	0xbc826cc6	-0.015921008
189	0xbe083073	-0.13299732
190	0x3d782f6e	0.060592107
191	0xbc825e77	-0.015914185
192	0x3db33127	0.087496094
193	0x3e5e0015	0.21679719
194	0x3da1fa6b	0.079090916
195	0xbc64ebbb	-0.013972218
196	0x3de38cd8	0.11110848
197	0xbe64eee8	-0.2235676
198	0x3c89de4c	0.016829632
199	0x3dcc6a50	0.09981215
200	0x3ba8f665	0.0051563256
201	0x3d9b0c7f	0.07570743
202	0xbd368590	-0.04456097
203	0xbe11439d	-0.14185949
204	0xbdded7e8	-0.108810246
205	0x3cd7718a	0.026299257
206	0x3cdaf3da	0.026727606
207	0xbce2503f	-0.027626155
208	0x3d66f326	0.05638423
209	0xbd3f564e	-0.046713166
210	0x3dfcd01f	0.123443834
211	0x3dbc7fdd	0.092040755
212	0xbe5e7403	-0.21723942
213	0x3db58cc7	0.08864742
214	0xbd808f7b	-0.06277367
215	0x3dbd8305	0.092535056
216	0x3c7e9737	0.015538982
217	0xbdaef5df	-0.0854299
218	0xbe4170de	-0.18890712
219	0x3e2aeb44	0.16691309
220	0x3bad80fe	0.005294918
221	0x3d99e10a	0.07513626
222	0x3d9a0828	0.07521087
223	0x3d8abb5f	0.067740194
224	0x3dcae529	0.0990699
225	0x3cfea6b5	0.031085351
226	0xbd9fd2d6	-0.07803886
227	0xbe12bccb	-0.14329831
228	0xbe744eac	-0.23858136
229	0xbba3aa25	-0.004994648
230	0x3d83be09	0.06432731
231	0xbc8ddc3a	-0.017316926
232	0xbce1126b	-0.027474603
233	0x3d960f46	0.07327132
234	0xbe02003a	-0.12695399
235	0x3e46b5aa	0.19405237
236	0xbd18e4ad	-0.037327457
237	0x3c80f54f	0.015741972
238	0x3b29ca07	0.0025907771
239	0xbd64f442	-0.055897005
240	0xbd66295a	-0.05619178
241	0x3db046b8	0.086072385
242	0xbe469735	-0.19393618
243	0xbd8eefca	-0.0697933
244	0xbdf4f7dc	-0.11961338
245	0xbdf5cd7d	-0.120020844
246	0x3dca8c10	0.09889996
247	0xbe3c5961	-0.1839347
248	0xbd8ae8f1	-0.06782711
249	0xbe27bb40	-0.16380024
250	0xbb8fcecb	-0.0043886653
251	0xbe3af680	-0.18258095
252	0x3df9489a	0.12172051
253	0xbe59d188	-0.21271336
254	0x3d2cd203	0.04219247
255	0xbcdffb80	-0.027341604

ConstantFolding/truediv_2_recip:0 f4 [648]
0	0x402c58f9	2.6929305
1	0x402e495a	2.723227
2	0x402a5273	2.6612823
3	0x402aaf63	2.6669548
4	0x402b4542	2.6761022
5	0x402b97cd	2.6811402
6	0x400ba21a	2.181769
7	0x401fc4e9	2.4963934
8	0x4055e194	3.3418932
9	0x402cf827	2.702646
10	0x402a5fd4	2.662099
11	0x402cff20	2.7030716
12	0x402be667	2.6859376
13	0x402b162e	2.6732287
14	0x402b1fd6	2.673818
15	0x400bb05b	2.182639
16	0x4020e1f3	2.5137908
17	0x4052d7d2	3.2944226
18	0x402c5fa1	2.6933367
19	0x402a88f6	2.6646094
20	0x402cbda9	2.699076
21	0x40295b37	2.6461923
22	0x402cfaa8	2.7027988
23	0x402c87aa	2.6957803
24	0x400bb5d9	2.182974
25	0x40204292	2.5040631
26	0x4054e12e	3.3262439
27	0x4029e54b	2.65462
28	0x402bf842	2.6870275
29	0x402a085b	2.65676
30	0x402d4cb4	2.7078066
31	0x402d35ee	2.7064166
32	0x402c1c27	2.6892183
33	0x400b2084	2.1738596
34	0x401f0a5a	2.4850068
35	0x40548ebd	3.321212
36	0x402c340f	2.6906774
37	0x402a73fb	2.663329
38	0x402ca9ab	2.6978557
39	0x402b738b	2.6789272
40	0x402b5613	2.6771286
41	0x402c505c	2.6924047
42	0x400b4cb6	2.176557
43	0x401f322c	2.4874372
44	0x40555008	3.3330097
45	0x402c1938	2.6890392
46	0x402cb843	2.6987464
47	0x402af192	2.6709943
48	0x402a78b6	2.6636176
49	0x402c9191	2.6963847
50	0x402ba0da	2.6816926
51	0x400b5ddb	2.1776035
52	0x401f020b	2.4844997
53	0x40566b62	3.3503041
54	0x402a433d	2.660354
55	0x402c7ca4	2.6951075
56	0x402c32f8	2.690611
57	0x402d7fde	2.7109294
58	0x402994d1	2.649708
59	0x402c7dd5	2.6951802
60	0x400b7eb9	2.1796095
61	0x401fa36d	2.4943497
62	0x40554de6	3.3328795
63	0x402c4cf2	2.6921964
64	0x402b1be3	2.673577
65	0x402bdf31	2.6854975
66	0x402976ac	2.6478682
67	0x402dcb34	2.7155275
68	0x402bf7d7	2.687002
69	0x400be554	2.185872
70	0x40207101	2.5068972
71	0x40559f1e	3.3378367
72	0x4029df5e	2.6542583
73	0x402be28f	2.685703
74	0x402ad5fa	2.66931
75	0x402c334f	2.6906316
76	0x402cc218	2.6993465
77	0x402cea4b	2.7018
78	0x400c843d	2.1955712
79	0x4021688b	2.5220058
80	0x4056f4b5	3.3586857
81	0x402b05e5	2.6722348
82	0x402c59d2	2.6929822
83	0x402bf280	2.686676
84	0x402d781a	2.7104554
85	0x402b887f	2.680206
86	0x402a233d	2.6584008
87	0x400b8577	2.180021
88	0x40200365	2.5002072
89	0x40544fcf	3.3173711
90	0x402c897a	2.695891
91	0x402b58ef	2.677303
92	0x402ba25a	2.6817842
93	0x402ce454	2.701436
94	0x402aea3d	2.6705468
95	0x402b183f	2.6733549
96	0x400bd6ca	2.1849847
97	0x402010cc	2.5010252
98	0x40566884	3.3501291
99	0x402bbe04	2.6834726
100	0x402c921b	2.6964176
101	0x402c1c9c	2.6892462
102	0x402b2884	2.6743479
103	0x402b7598	2.6790524
104	0x402b5ad0	2.6774178
105	0x400b8099	2.179724
106	0x401fc8ab	2.4966228
107	0x4054e537	3.3264902
108	0x402be3ef	2.685787
109	0x402c09dd	2.688102
110	0x402d2a64	2.7057123
111	0x402afdd3	2.6717422
112	0x402b3241	2.6749423
113	0x402b239a	2.674048
114	0x400b2f48	2.1747608
115	0x401edaf8	2.4821148
116	0x40559474	3.3371859
117	0x402d0bc9	2.7038443
118	0x402b366f	2.6751974
119	0x402a08a3	2.6567771
120	0x402cf121	2.7022173
121	0x402c7c06	2.6950698
122	0x402ac25f	2.6681135
123	0x400ba404	2.1818857
124	0x4020356e	2.503261
125	0x40548c0c	3.3210478
126	0x402b4841	2.676285
127	0x402aa39f	2.6662366
128	0x402b23b5	2.6740544
129	0x402d4b02	2.707703
130	0x402bb1b9	2.6827223
131	0x402c637b	2.6935718
132	0x400bded2	2.1854749
133	0x40204725	2.5043423
134	0x4055f462	3.343041
135	0x402bbd9c	2.6834478
136	0x402afa20	2.6715164
137	0x402bb157	2.682699
138	0x402bbecd	2.6835206
139	0x402cc341	2.6994174
140	0x402b7b89	2.679415
141	0x400b7a09	2.1793234
142	0x40203b33	2.5036132
143	0x4053544a	3.3020196
144	0x402c6485	2.6936352
145	0x402b5841	2.6772616
146	0x402b7a52	2.6793408
147	0x402aa127	2.666086
148	0x402bbfa0	2.6835709
149	0x402cd304	2.7003794
150	0x400bc684	2.1839914
151	0x40206bf9	2.5065901
152	0x4054d5de	3.3255534
153	0x402b39e1	2.6754076
154	0x402c8a2e	2.6959338
155	0x402bb91e	2.6831737
156	0x402b23a2	2.6740499
157	0x402cb344	2.6984415
158	0x402b156f	2.6731832
159	0x400b0999	2.1724608
160	0x401f0d0e	2.4851718
161	0x4053dfaf	3.3105276
162	0x402a78e4	2.6636286
163	0x402bafa2	2.6825948
164	0x402b548e	2.6770358
165	0x402bbe48	2.6834888
166	0x402beead	2.6864426
167	0x402d4464	2.7072992
168	0x400bdc77	2.185331
169	0x40200c54	2.5007524
170	0x40569fdd	3.3535073
171	0x402c5765	2.6928341
172	0x402c4f05	2.692323
173	0x402ba72b	2.6820781
174	0x402a95d3	2.6653945
175	0x402bff4d	2.6874573
176	0x402b855b	2.6800144
177	0x400b9100	2.180725
178	0x4020380e	2.5034213
179	0x4053fe50	3.312397
180	0x402c8850	2.6958199
181	0x402c404b	2.6914241
182	0x402beb6f	2.6862447
183	0x402baa8d	2.6822846
184	0x402ade69	2.6698248
185	0x402b2aa9	2.6744788
186	0x400b9078	2.1806927
187	0x401f62cc	2.490405
188	0x4056a051	3.353535
189	0x402aabfa	2.6667466
190	0x402b113b	2.6729267
191	0x402ac691	2.6683695
192	0x402c2b1b	2.690131
193	0x402c860c	2.6956816
194	0x402d3e17	2.7069147
195	0x400be4c8	2.1858387
196	0x4020b92e	2.5113025
197	0x4054bbf3	3.3239715
198	0x402c1c80	2.6892395
199	0x402dd1d1	2.7159312
200	0x402adc1b	2.6696842
201	0x402b036e	2.6720843
202	0x402af317	2.671087
203	0x402bb44f	2.6828802
204	0x400c11dc	2.18859
205	0x40217e2f	2.5233266
206	0x4053a17a	3.3067307
207	0x402b77e6	2.679193
208	0x402a921c	2.6651678
209	0x402dd934	2.716382
210	0x402c37c7	2.6909044
211	0x402b399a	2.6753907
212	0x402b21d8	2.6739407
213	0x400c03df	2.1877363
214	0x402048e4	2.504449
215	0x4056f7eb	3.3588817
216	0x402bb18f	2.6827123
217	0x402b85b7	2.6800363
218	0x402ae45b	2.6701877
219	0x402c9d32	2.6970944
220	0x402b5b98	2.6774654
221	0x402c534d	2.6925843
222	0x400ba2d7	2.181814
223	0x402031bc	2.5030355
224	0x40548f52	3.3212476
225	0x402d9c30	2.712658
226	0x402c203c	2.6894674
227	0x402b8cbe	2.6804652
228	0x402b1b80	2.6735535
229	0x402af7ce	2.6713748
230	0x402b14ed	2.6731522
231	0x400bcc97	2.1843622
232	0x401ff148	2.4991016
233	0x405684a5	3.351846
234	0x402becd8	2.6863308
235	0x402b7534	2.6790285
236	0x402bdf91	2.6855204
237	0x402be293	2.685704
238	0x402bd5a3	2.6849144
239	0x402b6864	2.6782465
240	0x400b4418	2.176031
241	0x401f11ea	2.4854684
242	0x405578a5	3.3354886
243	0x402bafd3	2.6826065
244	0x402bd12b	2.6846416
245	0x402acf4b	2.6689022
246	0x402c4212	2.6915326
247	0x402bdcc9	2.6853507
248	0x402bf60c	2.6868925
249	0x400b2b7e	2.1745296
250	0x401ee912	2.4829755
251	0x40554aa7	3.3326814
252	0x402b57d9	2.6772368
253	0x402b4299	2.6759398
254	0x402ba98d	2.6822236
255	0x402b63e3	2.6779716
