Project/Assets/ML-Agents/Examples/FoodCollector/TFModels/FoodCollector.onnx (onnx, 625447 bytes, 13 tensors)

70 f4 [1, 3]
0	0xbe2fa258	-0.17151773
1	0xbe3c6d66	-0.18401107
2	0xbe82745d	-0.25479403

action_model._continuous_distribution.mu.bias f4 [3]
0	0xbd05d9b1	-0.03267831
1	0xbb6ecf50	-0.0036439486
2	0xbb61ed08	-0.0034473557

action_model._continuous_distribution.mu.weight f4 [3, 256]
0	0x3d18cd45	0.037305135
1	0x3d1b60e8	0.037934214
2	0x3bf6dc98	0.007533621
3	0xbbd8ba2b	-0.00661399
4	0x3d7072ac	0.05870311
5	0x3c2b19c3	0.010443154
6	0x3d8038d2	0.062608376
7	0x3bcd8811	0.006272324
8	0x3c7a3246	0.015270775
9	0xbc63e13e	-0.013908682
10	0x3c83bb78	0.016080603
11	0xbc411aa0	-0.011786133
12	0x3d61cc9f	0.055126783
13	0x3d13de16	0.03610047
14	0xbce82d21	-0.028341832
15	0x3d91c74d	0.07118092
16	0xbd351a49	-0.04421452
17	0xbb65b7f1	-0.0035052265
18	0xbcdd970f	-0.02704957
19	0x3cc67e3a	0.024230111
20	0xbc1c91cf	-0.009556248
21	0xbc7932c6	-0.015209859
22	0x3d8fd031	0.07022131
23	0x3d4f1143	0.05055357
24	0xbcced2d9	-0.025247024
25	0xbd0fbd8d	-0.03509288
26	0x3ce8fd14	0.02844099
27	0xbcd4995c	-0.025952034
28	0xbd2b3497	-0.0417982
29	0x3c60ba21	0.013716252
30	0x3d472fcb	0.048629563
31	0xbd73ff91	-0.0595699
32	0xbca202bc	-0.019776694
33	0x3d74052c	0.059575245
34	0xbc9ca0d9	-0.019119667
35	0xbc8969fa	-0.016774166
36	0x3d79ebc1	0.061015848
37	0xbcdb08c0	-0.02673757
38	0x3d5056d9	0.050864074
39	0x3d4a119e	0.049333207
40	0xbd32f72e	-0.04369276
41	0x3c411985	0.0117858695
42	0xbd1e9249	-0.038713727
43	0x3b0c3332	0.002139282
44	0x3cd13b91	0.025541099
45	0xbd273356	-0.040820442
46	0x3c868a40	0.016423345
47	0x3c303295	0.010754247
48	0x3d6a104a	0.05714444
49	0xbaeb6c11	-0.0017961283
50	0x3b4a2580	0.0030845106
51	0xbc042712	-0.008065956
52	0xbcbae34b	-0.02281346
53	0x3d43aaf8	0.04777047
54	0x3c0353e6	0.008015608
55	0xbc1f9739	-0.009740644
56	0x3d4a7b64	0.04943408
57	0x3cce6ce0	0.0251984
58	0xbc99572a	-0.01871832
59	0x3d2944fa	0.041325547
60	0xbd414d94	-0.047193125
61	0x3ccafb90	0.024778157
62	0x3bc8e83b	0.0061311997
63	0x3bd04593	0.00635595
64	0xbc813a98	-0.01577501
65	0x3c042dc1	0.008067549
66	0xbcd0d6e6	-0.025493097
67	0xbd2b5e6c	-0.041838095
68	0xbcc5cafe	-0.024144646
69	0xbc897f87	-0.016784443
70	0xba500a91	-0.0007936145
71	0xbc0b682f	-0.008508726
72	0xbc85ab6d	-0.016317094
73	0xbca88fb5	-0.020576337
74	0xbcf55577	-0.02994798
75	0xbbba7207	-0.0056898626
76	0x3d4dbc6e	0.05022853
77	0x3d9762a9	0.07391865
78	0x3bf27f7f	0.0074004526
79	0x3c94623d	0.01811325
80	0xbd1f056a	-0.038823523
81	0xbb2e8138	-0.0026627313
82	0xbcf1549a	-0.029459286
83	0x3d8a8854	0.06764284
84	0xbd0e52e4	-0.03474702
85	0xbc098f67	-0.008396006
86	0x3d8877ab	0.0666345
87	0x3d276844	0.04087092
88	0x3d2edad9	0.04268918
89	0x3ce8ad8d	0.028403068
90	0xbc904765	-0.017612169
91	0xbcfe257e	-0.031023737
92	0xbc86aa40	-0.016438603
93	0xbc232bee	-0.009959204
94	0x3cda0f93	0.026618754
95	0xbd1a1cfa	-0.03762529
96	0xbbdb9fe8	-0.006702412
97	0xbd19de62	-0.037565596
98	0x3d787bed	0.06066506
99	0xbcab4ad9	-0.020909714
100	0x3cb248f6	0.021763306
101	0x3cbbdf36	0.022933584
102	0x3d3d6b87	0.046245124
103	0x3d8346f8	0.064100206
104	0x3d4b326b	0.04960863
105	0x3d48d551	0.04903156
106	0x3cca8aaf	0.024724333
107	0xbb276d60	-0.002554737
108	0xbd219ed3	-0.039458107
109	0x3d2cbedd	0.04217421
110	0x3d59e07c	0.0531926
111	0xbc007824	-0.007841144
112	0xbc6cdc95	-0.014456888
113	0xbcab9511	-0.020945104
114	0xbd8f59fb	-0.06999584
115	0x3b09c0af	0.002101939
116	0x3d58a97f	0.05289602
117	0xbc392426	-0.011300122
118	0xbcc9f284	-0.024651773
119	0xbcd6bc75	-0.02621291
120	0x3d2ace98	0.04170093
121	0x3d830df1	0.063991435
122	0x3b507a6e	0.0031811255
123	0x3d20aa04	0.03922464
124	0xbcdab6ad	-0.026698435
125	0x3d76b31f	0.060229417
126	0xbd51ccf9	-0.051220868
127	0x3b8c046c	0.004272988
128	0x3d39a499	0.04532299
129	0x3d96ad30	0.07357252
130	0x3d153bd0	0.036433995
131	0xbc650088	-0.013977177
132	0xbd07a8d2	-0.033119984
133	0x3d98b023	0.074554704
134	0xbcb01cbd	-0.021498078
135	0xbd0c914d	-0.034318257
136	0x3cf10c81	0.029424908
137	0xbc68e31c	-0.014214303
138	0x3ceda9da	0.029011656
139	0x3d1b6c95	0.03794535
140	0xbcc5d6ef	-0.02415034
141	0xbc8f39c3	-0.017483598
142	0xbb44b470	-0.0030014776
143	0xbc022039	-0.007942253
144	0x3d9ba765	0.07600287
145	0x3d611358	0.05495009
146	0xbb9091db	-0.0044119186
147	0x3b32e578	0.0027297419
148	0xbc54e190	-0.012993231
149	0x3d08e046	0.03341701
150	0x3c3feadc	0.01171371
151	0x3b4af422	0.0030968268
152	0xbd34955a	-0.044087745
153	0xbc86276d	-0.016376222
154	0x3c84c719	0.016208218
155	0xbcdf1ab2	-0.027234409
156	0xbd1db6a4	-0.038504258
157	0x3be64815	0.007027636
158	0xbd1d27d4	-0.03836806
159	0x3b09a526	0.0021002977
160	0xbcb6ee39	-0.02233039
161	0x3d84d5ab	0.064860664
162	0xbcdbd5f5	-0.026835421
163	0x3d7d62dd	0.06186186
164	0xbd4149d9	-0.047189567
165	0xbcc64e26	-0.024207186
166	0x3cf53812	0.029933963
167	0x3d11cbfd	0.03559493
168	0x3ca199b7	0.019726617
169	0x3c534bc5	0.012896483
170	0x3d7a844e	0.06116133
171	0x3cd9d49e	0.026590642
172	0x3ba1ea18	0.004941236
173	0x3b188302	0.0023271446
174	0x3c1b8f0d	0.009494555
175	0x3a102d1f	0.00054998876
176	0xbce41ad3	-0.027844822
177	0xbbe286b2	-0.0069130296
178	0x3d2eb608	0.042654067
179	0xbd1b85eb	-0.03796951
180	0xbd2a8f44	-0.041640535
181	0x3c2488bb	0.010042365
182	0xbcd3fd60	-0.025877655
183	0x3d56283f	0.052284475
184	0xbd4f4c6a	-0.050609984
185	0xbcf2a91d	-0.029621655
186	0x3d1c119e	0.03810274
187	0x3caf15c6	0.021372687
188	0xbcab8f32	-0.020942304
189	0xbc3ae811	-0.011407868
190	0xbcde5e29	-0.027144508
191	0x3cd69483	0.026193863
192	0xbcc14940	-0.023594499
193	0xbd2c7f6f	-0.042113718
194	0x3d66399e	0.05620729
195	0x3c8a98d1	0.016918572
196	0xbca0e9c8	-0.019642726
197	0x3ce1a246	0.027543198
198	0xbcb66057	-0.022262735
199	0x3bc964ba	0.0061460407
200	0xbd4196db	-0.047263008
201	0x3d1a6655	0.037695248
202	0xbcc8d774	-0.024516799
203	0x3d748871	0.059700433
204	0xbce2a75d	-0.027667696
205	0xbd1a82bb	-0.03772233
206	0xbc0541ae	-0.008133335
207	0x3da1a411	0.07892621
208	0x3d481103	0.04884435
209	0xbb319c76	-0.0027101315
210	0xbc47f386	-0.012204057
211	0xbbca0818	-0.0061655156
212	0x3d423d1a	0.047421552
213	0x3c64678b	0.013940702
214	0xbcc67e40	-0.024230123
215	0xbc2867cd	-0.010278654
216	0x3d713224	0.05888571
217	0x3d35c30c	0.044375464
218	0xbcddf3c5	-0.027093777
219	0x3d4b57f6	0.049644433
220	0xbbd8cf96	-0.006616543
221	0x3d264b4f	0.040599164
222	0x3d8939a6	0.06700449
223	0x3d51a0eb	0.051178854
224	0xbcc2294a	-0.023701329
225	0xbcfd21d6	-0.030899923
226	0xbc0048d7	-0.007829866
227	0x3d215a68	0.03939286
228	0xbc8876c6	-0.016658198
229	0xbc1c22f4	-0.009529818
230	0xbd05110a	-0.032486953
231	0x3d0fdc24	0.03512205
232	0xbcde9d58	-0.027174637
233	0x3d5e2888	0.054237872
234	0xbccfe901	-0.02537966
235	0x3cf7754c	0.030207299
236	0xbd2514fd	-0.04030322
237	0x3cff41d2	0.031159315
238	0xbbf92023	-0.007602708
239	0xbc6257db	-0.013814892
240	0xbd32c582	-0.04364539
241	0x3d4eea44	0.05051638
242	0x3c8884fb	0.016664973
243	0x3d969697	0.073529415
244	0xbba94d6b	-0.0051666996
245	0xbd635900	-0.0555048
246	0x3cb5f138	0.022209749
247	0x3d01539b	0.031573873
248	0xbd43d44d	-0.047809888
249	0x3d54c742	0.05194784
250	0xbd096eb7	-0.03355285
251	0xbcc41f7f	-0.0239408
252	0x3d665dbd	0.05624174
253	0xbc094d09	-0.008380183
254	0x3a9ab5af	0.0011803414
255	0xbd31d407	-0.043415096

action_model._discrete_distribution.branches.0.bias f4 [2]
0	0xbba62939	-0.005070832
1	0x3ba62940	0.0050708354

action_model._discrete_distribution.branches.0.weight f4 [2, 256]
0	0xbb84507f	-0.004037916
1	0x3c2c9829	0.010534325
2	0xbd5d6f0e	-0.054060988
3	0xbc8705c6	-0.016482245
4	0xbcf76f2d	-0.03020438
5	0xbd9ca3ac	-0.076484054
6	0x3bd8b610	0.0066135004
7	0xbd0d16cf	-0.03444558
8	0x3b1fa0ec	0.0024357392
9	0xbb8cb1bd	-0.004293649
10	0xbd9b0b7b	-0.07570549
11	0x3d207e57	0.039182987
12	0xba90cab0	-0.0011046734
13	0xbb5dfaf6	-0.0033871508
14	0x3d22aac0	0.03971362
15	0xbd8a4530	-0.06751478
16	0x3d14e987	0.03635552
17	0x3cf09732	0.02936897
18	0x3d027b92	0.031856127
19	0xbd178af8	-0.036997765
20	0x3d109eb2	0.035307594
21	0xbcccada3	-0.02498514
22	0xbdab585e	-0.08366464
23	0xbd380b6c	-0.044932768
24	0x3d3317df	0.043723937
25	0x3d0c1f73	0.03420968
26	0x3c88a8bc	0.016682021
27	0x3ce7bad5	0.02828733
28	0x3c151489	0.009099134
29	0xbc80be15	-0.015715638
30	0xbbd9c69e	-0.0066459915
31	0x3d68e986	0.05686333
32	0x3d7a7a4f	0.0611518
33	0xbda7e257	-0.08197468
34	0x3cf3fe0d	0.029784227
35	0x3cf077c4	0.029353984
36	0xbb8bd931	-0.0042678346
37	0x3ce2e39c	0.027696423
38	0xbb8946c3	-0.0041893437
39	0x3bf530d2	0.0074826265
40	0x3d748d59	0.059705112
41	0x3bad7ea2	0.005294637
42	0x3d80b36f	0.06284224
43	0xbce473b6	-0.027887207
44	0xbcc0ed2f	-0.023550598
45	0x3d4a844c	0.049442574
46	0xbcd71a7c	-0.026257746
47	0xbd133e9b	-0.035948377
48	0xbd8fa340	-0.07013559
49	0xbd47cbf8	-0.048778504
50	0x3d6ee338	0.05832216
51	0x3aa114f5	0.0012289571
52	0x3d4e6eb8	0.05039856
53	0xbc0e423e	-0.008682786
54	0x3c19220f	0.009346499
55	0x3c6a5a4f	0.014303758
56	0xbbf4283f	-0.007451087
57	0xbd03af17	-0.0321494
58	0x3d342dd4	0.043989018
59	0xbc8c41fa	-0.017121304
60	0x3d6f9204	0.05848886
61	0x3c54d441	0.012990058
62	0xbd2a0d77	-0.041516747
63	0xbc92ac69	-0.017904477
64	0x3d0053f7	0.031330075
65	0x3b61dcf9	0.0034463985
66	0x3c84fda0	0.01623422
67	0x3d408e10	0.04701048
68	0x3c83b9e7	0.016079856
69	0x3cb0e400	0.021593094
70	0x3cc7a49e	0.024370488
71	0x3c1d4496	0.009598872
72	0x3c143eb3	0.009048152
73	0x3cfc9726	0.030833792
74	0x3d029778	0.031882733
75	0xbd0b3512	-0.03398616
76	0xbd5b4696	-0.053534113
77	0xbd2a5a3c	-0.04158996
78	0xba9b765c	-0.0011860835
79	0xbc7e7834	-0.015531588
80	0x3caf8476	0.021425467
81	0x3ca6633a	0.020310987
82	0x3d01af99	0.031661604
83	0xbd86bbf9	-0.06578822
84	0x3d68a6fe	0.05679988
85	0x3d0c4db7	0.034253802
86	0xbcd1eb8f	-0.025625018
87	0xbdbe69a4	-0.09297493
88	0x3b7c8670	0.003853228
89	0xbd6826bf	-0.056677576
90	0x3d26ed63	0.040753733
91	0xbba53f0b	-0.0050429157
92	0x3d4abfe1	0.049499396
93	0x3c874ce3	0.016516155
94	0xbc05ddfb	-0.0081706
95	0x3c88e803	0.016712194
96	0xbc0441d8	-0.008072339
97	0x3cfda728	0.030963495
98	0xbd9df52a	-0.07712777
99	0x3bf25059	0.007394832
100	0xbd11d5f1	-0.03560442
101	0xbd2dff02	-0.042479523
102	0xbd37646c	-0.044773504
103	0xbccee95e	-0.025257763
104	0xbc711082	-0.014713408
105	0xbd9cdfd7	-0.076598816
106	0xba3b934d	-0.00071554334
107	0xbcd7539c	-0.026284985
108	0x3d45df00	0.048308372
109	0xbd973087	-0.07382303
110	0xbbe33620	-0.0069339424
111	0x3d0c10bf	0.034195658
112	0x3c86eee4	0.016471334
113	0x3d0aa8b5	0.033852298
114	0x3d81ec3d	0.06343887
115	0xbc181118	-0.009281419
116	0xbc5e7b2d	-0.013579172
117	0x3c7d09fe	0.015444277
118	0x3c86d25c	0.016457729
119	0x3cd3c3bd	0.025850171
120	0xbdb550ce	-0.08853303
121	0xbd80670e	-0.06269656
122	0xbcabcd92	-0.020972047
123	0xbc10120e	-0.008793367
124	0xbca0432e	-0.019563284
125	0xbca41bc6	-0.020032775
126	0x3d2700a6	0.040772103
127	0x3c27d312	0.010243194
128	0xbdc3f614	-0.0956842
129	0xbd3f0bc8	-0.046642095
130	0xbccdfe7f	-0.025145767
131	0x3cd1ea21	0.025624337
132	0x3c32c390	0.010910884
133	0xbcb1ca92	-0.021703038
134	0x3d7e69c2	0.062112577
135	0x3d8670f9	0.065645166
136	0xbdb736a4	-0.08945969
137	0x3c3b06a3	0.011415157
138	0xbd96c80e	-0.07362376
139	0xbd97c020	-0.07409692
140	0xbc8071e4	-0.015679307
141	0x3d4dbd70	0.05022949
142	0x3cf4bfec	0.029876672
143	0x3c4ed9fe	0.012625216
144	0xbd8b83de	-0.06812261
145	0xbc885e9b	-0.016646674
146	0xbd973afc	-0.07384297
147	0x3d654f94	0.055984095
148	0x3cc6e1aa	0.024277527
149	0xbd000b8e	-0.03126102
150	0xbcfd9505	-0.030954847
151	0x3c8453fb	0.016153326
152	0x3cc0331f	0.023461876
153	0x3d1e8a8e	0.038706355
154	0xbc61f776	-0.013791909
155	0x3cbfcecb	0.023414036
156	0x3d2d15b4	0.042257026
157	0x3c378d59	0.0112031335
158	0x3d348677	0.04407355
159	0xbcb6c6ad	-0.022311533
160	0x3c8df65c	0.017329387
161	0xbc0a00ac	-0.008423012
162	0x3d33d117	0.043900575
163	0xbceac289	-0.028657215
164	0x3d057e1f	0.03259098
165	0x3cb0df5d	0.021590883
166	0xbd2e8bc0	-0.042613745
167	0xbc2750a2	-0.010212095
168	0x3d5656b2	0.052328773
169	0xbcd7caff	-0.026341913
170	0xbc0c8657	-0.008576951
171	0x3b09909e	0.002099074
172	0x3d406e06	0.046979927
173	0xbd68dd95	-0.056851942
174	0xbd86ab97	-0.06575697
175	0xba8afe69	-0.0010604385
176	0x3c90e90a	0.017689247
177	0xbc83f736	-0.01610909
178	0x3bd1348d	0.0063844384
179	0x3be4a50d	0.0069776834
180	0x3d4217e9	0.047386084
181	0xb8993564	-7.305553e-05
182	0x3d55293b	0.052041274
183	0xbcb6bb22	-0.022306029
184	0x3d0a0926	0.03370013
185	0x3d9c86e6	0.07642917
186	0xbd7a2c01	-0.06107712
187	0xbd00102f	-0.031265434
188	0x3a80e6f0	0.000983445
189	0x3d5294e3	0.05141152
190	0xbcc7b209	-0.024376886
191	0xbd8dda11	-0.069263585
192	0x3d313f33	0.043273162
193	0x3d33c3d7	0.04388794
194	0xbdadd7b8	-0.08488411
195	0xbc9cb245	-0.019127974
196	0x3c0d5a7c	0.00862753
197	0xbc64badf	-0.013960569
198	0x3d4378ff	0.047722813
199	0x3d42cc56	0.04755815
200	0x3d296644	0.041357294
201	0xbb98c1fa	-0.0046617957
202	0xbc82acd2	-0.015951548
203	0xbca2ce8e	-0.019873884
204	0x3d088514	0.03333004
205	0x3d40282e	0.04691332
206	0x3c1505bc	0.009095605
207	0xbd0e8e1c	-0.034803495
208	0xbc7d63a9	-0.015465655
209	0x3c3d5b0d	0.011557353
210	0x3d63e407	0.055637386
211	0x3cf874b6	0.03032909
212	0xbc56890e	-0.0130942
213	0xbbcb0fe4	-0.0061969627
214	0xbc63df97	-0.013908288
215	0x3d1acf99	0.037795637
216	0xbca0c8cf	-0.019627003
217	0xbd9a9290	-0.07547486
218	0x3c47d53d	0.012196836
219	0xbd83fabb	-0.064443074
220	0xba43c6b6	-0.000746827
221	0xbd2b0768	-0.04175511
222	0xbcdd72ca	-0.027032275
223	0xbc347ffc	-0.011016842
224	0x3cb90042	0.02258313
225	0x3cbda2ef	0.023148982
226	0x3c1d4b76	0.009600511
227	0xbcc78ce3	-0.024359172
228	0x3d8a1143	0.06741574
229	0x3a98dc8e	0.001166241
230	0x3d32bedd	0.043639053
231	0xbd45e4fc	-0.04831408
232	0x3d0303cc	0.031986043
233	0xbca49693	-0.02009133
234	0x3c49ebcb	0.012324284
235	0xbc94784d	-0.01812377
236	0x3da0cdee	0.07851778
237	0xbc83cc6a	-0.016088683
238	0x3b40cd99	0.002941942
239	0x3c562e18	0.013072513
240	0x3cb4fcff	0.022093294
241	0x3c16a8af	0.009195491
242	0xbcb91e3e	-0.022597428
243	0xbcd5fb52	-0.026120815
244	0xbd957393	-0.07297435
245	0x3d526ca2	0.05137313
246	0x3be14b1e	0.0068754097
247	0xbc7f11c9	-0.015568205
248	0x3d84fb2f	0.06493222
249	0xbc0fa325	-0.008766924
250	0x3d041153	0.032243084
251	0x3d36a575	0.044591386
252	0xbcfd9d5c	-0.030958824
253	0xbcfa9fac	-0.030593716
254	0x3c84a4eb	0.01619192
255	0x3cfaef95	0.03063182

network_body.linear_encoder.seq_layers.0.bias f4 [256]
0	0xbaa6e1cb	-0.0012732086
1	0xbcb85a8c	-0.022504114
2	0x3c69156f	0.014226302
3	0x3c81eb76	0.015859347
4	0xbc1a7458	-0.009427153
5	0x3c574dd6	0.013141116
6	0xbc80854c	-0.01568856
7	0xbcaa0500	-0.020754337
8	0xbbd87e12	-0.0066068256
9	0x3cc96a74	0.024586894
10	0x3c469e27	0.012122667
11	0x3c8f9d09	0.017530935
12	0xbc814f10	-0.01578477
13	0xbc8ce474	-0.017198779
14	0x3cac7df0	0.021056145
15	0xbc84ed44	-0.016226418
16	0x3cfdde0e	0.030989673
17	0x3c7d1258	0.015446268
18	0x3c7cbfdd	0.015426603
19	0x3a4c074b	0.0007783069
20	0x3ba299e0	0.004962191
21	0x3c39d93e	0.0113432985
22	0xbc4f110c	-0.012638342
23	0xbc88b035	-0.016685585
24	0x3c8bdab2	0.017072055
25	0x3ca70211	0.020386728
26	0xbc0472c1	-0.008084
27	0x3c9d05c5	0.01916779
28	0x3ce1cc77	0.027563317
29	0x3c29b310	0.010357633
30	0xbc913854	-0.017727055
31	0x3d04a102	0.03238011
32	0x3c7b647a	0.01534378
33	0xbb39b067	-0.0028333904
34	0x3c819fc6	0.015823256
35	0x3c7f2f34	0.015575219
36	0xbcc9b5aa	-0.024622757
37	0x3c8d974b	0.017284056
38	0xbcb7bae4	-0.022427984
39	0xbcc51254	-0.024056591
40	0x3ce83fe9	0.028350787
41	0x3c0d9f7f	0.008643984
42	0x3cf3d677	0.02976535
43	0x3cc09cdb	0.023512295
44	0xba92cac4	-0.0011199345
45	0x3cd0b0ee	0.025474992
46	0x3bc24ca9	0.0059295488
47	0x3c9b0171	0.018921586
48	0xbc33bd1f	-0.010970383
49	0x3c2447fd	0.010026929
50	0xbc2fb203	-0.010723594
51	0x3bb78440	0.005600482
52	0x3c8012b5	0.01563392
53	0xbba29daf	-0.004962645
54	0x3af60b21	0.0018771627
55	0x3c3b0078	0.011413686
56	0xbc856226	-0.016282152
57	0xb9da8b86	-0.00041684153
58	0x3c9e6015	0.019332925
59	0xbc06ea2c	-0.008234542
60	0x3d08b295	0.033373434
61	0x3b92cd84	0.004480066
62	0x3c45dc42	0.012076439
63	0x3b86c4a3	0.0041127964
64	0x3c888b4c	0.016667984
65	0x3a6fc30c	0.0009146191
66	0x3c82ac30	0.015951246
67	0x3ce35ec2	0.027755145
68	0x3c8113b2	0.015756462
69	0x3c1f2189	0.009712585
70	0x3c41fb3f	0.011839687
71	0x3c486610	0.012231365
72	0x3c2d208c	0.010566842
73	0x3c991bd9	0.018690037
74	0x3caa2c21	0.020772995
75	0x3cae6137	0.02128659
76	0xbc1750b3	-0.009235549
77	0xbc3eba5a	-0.011641109
78	0x3c84fa14	0.016232528
79	0xbb880532	-0.00415101
80	0x3cac4f15	0.021033803
81	0x3cafb9ae	0.021450844
82	0x3cbf5582	0.023356203
83	0xbc8f7fa2	-0.017516915
84	0x3cb4ac19	0.022054719
85	0x3b9d59cb	0.004801964
86	0xbc469c57	-0.012122235
87	0xba7ffea0	-0.000976542
88	0xbc8170c7	-0.015800847
89	0x3c1b167d	0.009465811
90	0x3c824c47	0.015905512
91	0x3ca35a99	0.019940661
92	0x3cc378c4	0.023861296
93	0x3c69f08f	0.014278545
94	0x3c271f37	0.010200313
95	0x3cca5fd3	0.024703896
96	0x3b6b5556	0.0035909018
97	0x3ccca257	0.024979753
98	0xbbcbffcf	-0.006225563
99	0x3c73870f	0.014863743
100	0x3c1ff52b	0.009763042
101	0x3c34c33c	0.011032876
102	0xbc56b486	-0.013104564
103	0xbcc4ee52	-0.024039421
104	0xbc013397	-0.007885835
105	0xbb0af891	-0.0021205286
106	0xbc975f71	-0.018478127
107	0x3be7f702	0.007079006
108	0x3cad2dfd	0.021140093
109	0x3aae7661	0.0013310426
110	0xbca000db	-0.019531658
111	0x3ccc5164	0.024941154
112	0x3c03e198	0.008049391
113	0x3ca2f410	0.019891769
114	0x3d0676e7	0.032828238
115	0x3c997a15	0.018734971
116	0xbc87c4ce	-0.016573336
117	0x3bc74248	0.0060808994
118	0x3c2fe481	0.010735632
119	0x3c8fa154	0.017532982
120	0x3c027797	0.007963083
121	0xbb7c1fba	-0.003847106
122	0x3bc80ef8	0.0061053
123	0xbc215a87	-0.009848244
124	0x3c1a30ca	0.009411046
125	0xbc7e800f	-0.015533461
126	0x3ceeec24	0.029165335
127	0xbbcd62b2	-0.006267869
128	0x3b946d0e	0.004529602
129	0xbc9ad18c	-0.018898748
130	0xbb2f9d39	-0.0026796593
131	0x3b8bf152	0.004270711
132	0x3cb694cd	0.02228775
133	0xbcc8abdd	-0.024496013
134	0x3c87fba2	0.01659948
135	0x3cd476fb	0.02593564
136	0x3b0d56b2	0.0021566567
137	0x3c4ef636	0.012631943
138	0xbb9e9d6d	-0.004840544
139	0x3a379f97	0.0007004677
140	0x3c782bcf	0.0151471635
141	0x3c9a8133	0.018860435
142	0x3c2f5bf2	0.010703074
143	0xbbc07847	-0.005873713
144	0xbc136977	-0.008997313
145	0xbb290a87	-0.0025793628
146	0x3cac37a6	0.021022629
147	0x3c01fefe	0.00793433
148	0x3bc8d838	0.006129291
149	0xbaeda11e	-0.0018129682
150	0x3b379687	0.0028013305
151	0x3bc87b90	0.0061182454
152	0x3d033102	0.03202916
153	0x3cd3eee6	0.025870752
154	0xbb62f435	-0.0034630422
155	0x3c7b5656	0.015340408
156	0x3cdeec73	0.027212357
157	0x3bb482c4	0.0055087525
158	0x3cc6ac06	0.024251949
159	0x3bc971b4	0.0061475877
160	0x3ce75a02	0.028241161
161	0xbcbe2745	-0.023212085
162	0x3c3113fb	0.010807986
163	0xbcaa004e	-0.020752098
164	0x3cd09b99	0.02546482
165	0x3c88e6b0	0.016711563
166	0xbc2735f6	-0.010205736
167	0xbc7bf46b	-0.015378098
168	0xbc2b4ce8	-0.010455348
169	0x3bfe33ec	0.0077576544
170	0xbc90856e	-0.01764175
171	0xbbc2ce41	-0.0059449975
172	0xbad2c6d5	-0.0016080985
173	0x3b8e2e75	0.004339034
174	0x3c1d0987	0.009584791
175	0x3ab35dd0	0.0013684575
176	0x3c967adf	0.018369136
177	0x3c738bf3	0.014864909
178	0xbc9d6212	-0.019211803
179	0x3cce7c48	0.025205746
180	0x3cbf371f	0.023341713
181	0x3bb83e27	0.0056226435
182	0x3c947862	0.01812381
183	0xbccc3e07	-0.02493192
184	0x3cf4e2a9	0.029893236
185	0x3cdfd836	0.027324777
186	0xbbf8c500	-0.0075918436
187	0x3c82c9b7	0.015965326
188	0x3c1b6b68	0.009486057
189	0x3c7d8062	0.015472503
190	0x3c904ae8	0.017613843
191	0x3c43a4d1	0.011941151
192	0x3cad762f	0.021174518
193	0x3ce5068d	0.027957225
194	0xbbca5245	-0.006174358
195	0x3c3907c8	0.011293359
196	0x3c9033ab	0.017602762
197	0xbb92a48a	-0.004475181
198	0x3c254cb6	0.01008909
199	0x3bb67bef	0.0055689733
200	0x3cca2f03	0.02468062
201	0xbc406f5e	-0.011745302
202	0x3cb7ddc6	0.022444617
203	0xbc9285aa	-0.017886002
204	0x3c899127	0.016792847
205	0x3c942e93	0.018088615
206	0x3ce71323	0.028207367
207	0xbbb1ea80	-0.005429566
208	0xbca4ef42	-0.020133618
209	0x3c1c22cd	0.0095297815
210	0x3cacf30e	0.021111991
211	0x3c226621	0.009912045
212	0xbc1af28b	-0.009457241
213	0x3c1e57e0	0.009664506
214	0x3ccb4946	0.024815213
215	0x3c7381e9	0.014862516
216	0xbc2f52ad	-0.010700864
217	0xbb87cd53	-0.0041443496
218	0x3c3d38aa	0.011549154
219	0xbb7ac36c	-0.0038263453
220	0x3cc9a057	0.024612589
221	0x3b0e2158	0.0021687355
222	0xbbedf5ad	-0.007261953
223	0xbca67fd6	-0.020324629
224	0x3c0f8f19	0.0087621445
225	0x3cb313bc	0.021859996
226	0x3c394cb8	0.011309795
227	0xbb438f76	-0.0029840148
228	0x3c67573d	0.01411992
229	0x3cc60b6c	0.024175368
230	0x3cd86aa5	0.02641804
231	0x39ad3165	0.00033033933
232	0x3c92056d	0.017824853
233	0xbc1bc122	-0.009506496
234	0x3ca4b9fd	0.020108217
235	0xbc3600f1	-0.011108623
236	0x3cf8daab	0.030377707
237	0x3b836284	0.0040095467
238	0x3c5be573	0.013421404
239	0x3bdbdfa2	0.0067100087
240	0x3cc26646	0.023730408
241	0xbcc79d68	-0.02436705
242	0xbb802760	-0.003910944
243	0xbc7f5acf	-0.015585615
244	0x3caf5245	0.021401534
245	0x3d041446	0.032245897
246	0x3c0f6844	0.008752886
247	0xbc493980	-0.0122817755
248	0x3d096e36	0.03355237
249	0xbca5c67d	-0.020236248
250	0x3ce6a4d3	0.028154766
251	0x3c76a26e	0.015053375
252	0xbbfa5c7e	-0.0076404205
253	0x3cb29612	0.021800075
254	0x3c9887c3	0.018619424
255	0x3ce59f7f	0.028030155

network_body.linear_encoder.seq_layers.0.weight f4 [256, 256]
0	0xbd13565b	-0.035971027
1	0xbd87e268	-0.066349804
2	0x3cb7c8f3	0.022434687
3	0x3e31df28	0.17370284
4	0x3cd9f04b	0.026603838
5	0xbcd92b0d	-0.026509786
6	0x3d4ca118	0.04995832
7	0x3e07ed1b	0.13274042
8	0xbd578146	-0.05261352
9	0x3d37449f	0.044743177
10	0x3c091669	0.008367159
11	0x3ddb812f	0.10717999
12	0x3bb335be	0.005469053
13	0x3d80f3f7	0.062965326
14	0xbcba803b	-0.022766223
15	0x3d455d62	0.04818476
16	0x3ddf5371	0.10904587
17	0x3d41bd5b	0.047299724
18	0xbdc4f510	-0.096170545
19	0x3c8d96b7	0.01728378
20	0x3b67a9ca	0.0035349005
21	0xbd2838cb	-0.041069787
22	0x3d242845	0.040077467
23	0x3d37e648	0.044897348
24	0xbe09b801	-0.13449098
25	0xbb0dad0c	-0.0021618037
26	0x3df1a5e8	0.11799222
27	0x3d7d5ab6	0.061854087
28	0x3e28616c	0.16443413
29	0xbb5242dd	-0.003208331
30	0x3b26080c	0.0025334386
31	0xbe152a76	-0.14566979
32	0xbcd4ca9c	-0.025975518
33	0xbd4a7c8c	-0.049435183
34	0xbdaa048e	-0.0830165
35	0x3b229864	0.002481007
36	0xbca5ac25	-0.020223686
37	0xbaa9536b	-0.0012918537
38	0xba86e63c	-0.0010292004
39	0xbdb9a44b	-0.090645395
40	0x3dd7e7ad	0.105422355
41	0xbd131049	-0.035904203
42	0x3c99d356	0.01877753
43	0xbdb6c2f6	-0.089239046
44	0xbcc507f5	-0.024051646
45	0x3d87b0a8	0.066254914
46	0xbd8eadee	-0.06966768
47	0x3de761d1	0.11297954
48	0x3d8deff8	0.06930536
49	0xbd13cc91	-0.03608376
50	0xbdd41485	-0.10355476
51	0x3db76fb8	0.089568555
52	0xbd9a4241	-0.07532168
53	0x3dc42f92	0.09579386
54	0xbd0510ce	-0.03248673
55	0x3d86aadc	0.065755576
56	0xbdc20c8c	-0.094750494
57	0xbc22a28e	-0.009926451
58	0x3d94c131	0.07263411
59	0xbd71707c	-0.058945164
60	0x3db0bc84	0.086297065
61	0xb9acce03	-0.00032959887
62	0x3dec6e7d	0.115445115
63	0x3c93ea7c	0.018056147
64	0xbd9fcf2e	-0.07803188
65	0x3a79980c	0.0009521253
66	0x3a1949d5	0.00058474886
67	0xbdd8104f	-0.105499856
68	0x3e0fd95d	0.14047761
69	0xbd62927d	-0.055315483
70	0x3c8ab1fa	0.016930569
71	0x3d81dedc	0.06341335
72	0xbbf9131b	-0.0076011545
73	0x3cd6fc1a	0.026243258
74	0x3ae6d2c3	0.0017610419
75	0x3cbe946c	0.023264132
76	0xbc4bc51f	-0.012437134
77	0xbd74449b	-0.05963574
78	0x3d855999	0.0651123
79	0x3d6f4441	0.0584147
80	0x3c1308e0	0.008974284
81	0x3d246ff5	0.040145833
82	0xbd95ad3b	-0.07308432
83	0x3d68fc05	0.05688097
84	0x3d16f8d8	0.03685841
85	0x3c23d45f	0.009999364
86	0x3e122802	0.14273074
87	0xbd776d11	-0.06040675
88	0xbd5a2bd5	-0.053264458
89	0xbd7306e0	-0.05933273
90	0xbd819ba7	-0.063285165
91	0x3db5453e	0.088510975
92	0xbd4fd753	-0.05074246
93	0xbce79f65	-0.028274247
94	0x3cbb026d	0.022828305
95	0xbe009545	-0.12556942
96	0x3d9651d2	0.07339825
97	0xbc4f9794	-0.012670416
98	0xbe0a2e1f	-0.13494156
99	0x3d550e73	0.052015733
100	0xbdf33ffc	-0.118774384
101	0xbd1da560	-0.038487792
102	0xbcf23a83	-0.029568916
103	0x3dc151f1	0.09439457
104	0xbd81283f	-0.063065045
105	0x3abec15e	0.0014553478
106	0xbd86f1d3	-0.06589093
107	0x3e0f37ce	0.13986132
108	0xbb07b87d	-0.0020709329
109	0xbdf2e516	-0.11860101
110	0xbd73964d	-0.05946951
111	0xbd93c40f	-0.072151296
112	0x3ae4d18d	0.001745747
113	0x3bf0c82e	0.007348082
114	0xbd765b91	-0.06014592
115	0x3ccedb52	0.025251064
116	0x3db5498c	0.088519186
117	0x3d8c09e8	0.06837827
118	0x3c33dfae	0.010978622
119	0x3d4886ac	0.048956558
120	0x3c097148	0.008388825
121	0xbdbee11f	-0.09320282
122	0xbdba8af6	-0.09108536
123	0xbd33a0d7	-0.04385456
124	0x3d4ceddd	0.05003153
125	0xbc47517f	-0.012165426
126	0x3d00a4f8	0.031407326
127	0x3cb17f2d	0.021667087
128	0x3cc1fe71	0.023680897
129	0xbdd0dbd1	-0.10198177
130	0xbd8e55ec	-0.06949982
131	0x3cfca404	0.030839927
132	0xbc26e935	-0.010187437
133	0x3e13b1e1	0.14423324
134	0xbcc01dfb	-0.023451796
135	0x3d8a8e77	0.06765454
136	0xbca9b15d	-0.020714456
137	0x3d09b89e	0.03362333
138	0x3df3ee6a	0.11910708
139	0x3d25a865	0.040443797
140	0xbcdff734	-0.027339555
141	0xbd7c66dc	-0.06162153
142	0x3d154620	0.03644383
143	0xbc79d3c9	-0.015248247
144	0xbd0e1ae9	-0.034693632
145	0xbc2554af	-0.010090991
146	0xbd644f92	-0.055739947
147	0x3d183f77	0.0371699
148	0xbdab4aa3	-0.08363845
149	0xbc63c845	-0.013902728
150	0xbe1554bf	-0.1458311
151	0xbdd7c169	-0.10534937
152	0xbd27783b	-0.040886145
153	0xbd497019	-0.04917917
154	0xbde2b300	-0.11069298
155	0xbc476d4c	-0.0121720545
156	0xbdc31259	-0.09524984
157	0xbcf21ff7	-0.029556258
158	0x3d5c26b1	0.053747837
159	0xbe197a88	-0.14988148
160	0xbc244c69	-0.010027983
161	0x3dc414dc	0.09574291
162	0xbd7d0275	-0.06176992
163	0xbd353a20	-0.044244885
164	0xbd7e4756	-0.06207975
165	0xbe273c93	-0.16331701
166	0xbd098cf2	-0.03358168
167	0xbd94e828	-0.07270843
168	0x3c6ffa32	0.014647054
169	0x3a875564	0.0010325131
170	0x3ced6814	0.028980292
171	0x3df335e5	0.11875514
172	0xbe153d30	-0.14574122
173	0x3ddc06b4	0.10743466
174	0xbcebf753	-0.028804457
175	0xbd703304	-0.058642402
176	0x3d1168ed	0.035500456
177	0x3dca085d	0.098648764
178	0x3d856581	0.06513501
179	0xbcf2cff8	-0.029640183
180	0x3d64beba	0.055845954
181	0x3d24630f	0.040133532
182	0x3d33addc	0.043866977
183	0xbc763e82	-0.015029551
184	0xbd0bd41e	-0.034137838
185	0x3d8f551f	0.069986574
186	0xbbdee960	-0.006802723
187	0x3aa4a903	0.0012562576
188	0x3d304e60	0.043043494
189	0x3e23fa57	0.16013466
190	0x3db31c5d	0.08745644
191	0xbc558482	-0.013032081
192	0xbc864dcf	-0.016394524
193	0x3db3bbb1	0.08776034
194	0x3d04e177	0.032441583
195	0xbc6c9d0a	-0.014441738
196	0x3c54dafc	0.012991663
197	0x3b957fcc	0.0045623537
198	0x3d9e5462	0.077309385
199	0xbd967ac6	-0.07347636
200	0xbd499194	-0.0492111
201	0x3c87173c	0.016490571
202	0x3d5148d6	0.051094852
203	0xbde58e5e	-0.11208795
204	0x3da01514	0.0781652
205	0xbdcf3eda	-0.1011941
206	0x3ca159d3	0.019696152
207	0xbd5c725e	-0.053820007
208	0xbda8c74d	-0.082411386
209	0xbbe0e5ba	-0.006863323
210	0x3d5757f2	0.052574106
211	0xbd98578b	-0.074385725
212	0x3d2aaf93	0.041671347
213	0xbb172a7a	-0.002306609
214	0xbdbf6ee5	-0.09347323
215	0x3d2f07a3	0.042731892
216	0x3db8e0b7	0.09027236
217	0xbcc904f9	-0.024538504
218	0xbd625787	-0.055259254
219	0x3db417cd	0.08793602
220	0xbbf8e7d7	-0.007595997
221	0x3d88b344	0.06674817
222	0x3c9e080e	0.01929095
223	0x3d4e1351	0.05031139
224	0xbd9704be	-0.073739514
225	0xbdd1dc18	-0.10247058
226	0x3d8189e9	0.063251324
227	0x3d241fa6	0.040069245
228	0xbda4de26	-0.08050184
229	0xbcf18bf9	-0.02948569
230	0x3c8b1617	0.016978307
231	0x3aaad59b	0.001303363
232	0x3d120f92	0.03565938
233	0x3c576f30	0.013149068
234	0xbd6bb288	-0.057543308
235	0xbd132a48	-0.035928994
236	0xbdeb69c8	-0.114947855
237	0x3d68a933	0.056801986
238	0x3d8bcd94	0.0682632
239	0x3daa927c	0.08328721
240	0x3dd74d57	0.10512798
241	0x3d88aecb	0.06673964
242	0xbc648655	-0.013948043
243	0xbce64a4e	-0.028111603
244	0xbd699458	-0.057026237
245	0xbdb65e07	-0.08904653
246	0xbbc8553c	-0.0061136764
247	0x3b4cd220	0.0031253174
248	0x3d3b4176	0.045716725
249	0x3d9f5f7b	0.07781883
250	0xbda3b052	-0.07992615
251	0x3bb50953	0.005524793
252	0x3bc59b02	0.0060304413
253	0xbd9f42ca	-0.07776411
254	0xbdab8d3a	-0.08376546
255	0x3dee89c2	0.11647369

network_body.visual_processors.0.conv_layers.0.bias f4 [16]
0	0xbd377474	-0.044788793
1	0xbd2ed54f	-0.042683896
2	0x3d3b101a	0.045669653
3	0xbd08e92c	-0.033425495
4	0x3d426367	0.04745808
5	0xbce4e38b	-0.027940532
6	0xbcc39cef	-0.023878543
7	0x3d228872	0.039680906
8	0x3d02ba11	0.031915728
9	0x3d5e420d	0.05426221
10	0x3d104be3	0.03522862
11	0x3d387ab0	0.04503888
12	0x3c800e74	0.015631892
13	0xbac2c90f	-0.0014860946
14	0x3c51717a	0.012783403
15	0x3adfffab	0.0017089745

network_body.visual_processors.0.conv_layers.0.weight f4 [16, 6, 8, 8]
0	0x3ca4a3e4	0.02009768
1	0x3b812e17	0.003942262
2	0xbd22870e	-0.03967958
3	0x3bba8611	0.0056922515
4	0x3cd3b08c	0.02584102
5	0x3c200730	0.009767339
6	0x3a1ee2bc	0.0006061008
7	0x3d557821	0.052116517
8	0x3cdef52f	0.027216522
9	0x3bf775a7	0.007551867
10	0xbd32fc72	-0.04369778
11	0x3bdd004b	0.0067444197
12	0xbc8b9299	-0.017037677
13	0xbd0fa4ed	-0.035069395
14	0xbc27604c	-0.01021583
15	0x3d8f4865	0.0699623
16	0xbc0d0e3e	-0.008609353
17	0x3cef9ae3	0.02924866
18	0x3c808d00	0.015692234
19	0xbc951b29	-0.018201428
20	0xbd036cd5	-0.032086212
21	0xbd3d8b8a	-0.046275653
22	0xbcdb29bd	-0.0267533
23	0x3c276338	0.010216527
24	0x3c62c787	0.013841516
25	0x3d8119a8	0.06303722
26	0xbcfca983	-0.030842548
27	0xbce32d79	-0.027731644
28	0xbcb3f3b9	-0.021966802
29	0x3cecbe30	0.028899282
30	0x3d3355a1	0.043782834
31	0xbbcb232f	-0.0061992626
32	0x3d06f5a8	0.03294912
33	0x3d25a71e	0.04044258
34	0x3d0b8285	0.03406002
35	0x3ca946fb	0.020663729
36	0x3ca20227	0.019776417
37	0x3ca75079	0.020424115
38	0xbd1d1889	-0.038353477
39	0x3b13808e	0.0022507044
40	0xbcfafba6	-0.030637573
41	0x3cfaff57	0.030639334
42	0x3d6642d1	0.056216065
43	0xbc9b2691	-0.018939288
44	0x3c10d842	0.008840622
45	0x3cdf9e12	0.027297053
46	0x3c4f68de	0.01265928
47	0xbd02b32c	-0.031909153
48	0xbce9aab4	-0.02852378
49	0x3cdf7ec1	0.02728212
50	0xbd71c1f6	-0.059022866
51	0xbd27de0d	-0.04098325
52	0x3923d778	0.0001562516
53	0xb9df110e	-0.0004254658
54	0xbd307a41	-0.04308534
55	0xbd59cfa2	-0.05317653
56	0xbc908047	-0.017639292
57	0xbd33f368	-0.043933302
58	0xbcdf3b12	-0.027249847
59	0xbd892ca2	-0.06697966
60	0x3c80bc58	0.01571481
61	0x3a93a67e	0.0011264828
62	0xbd03f324	-0.0322143
63	0x3afec742	0.0019438046
64	0xbde263f8	-0.11054224
65	0x3d5a46ff	0.053290363
66	0x3d2817e7	0.04103842
67	0x3dc787f6	0.09742729
68	0x3d940b5f	0.07228731
69	0x3c018eed	0.007907611
70	0x3c1c2c77	0.009532086
71	0x3d91d9e6	0.07121639
72	0xbd8b2053	-0.06793275
73	0xbd9556f3	-0.07291975
74	0xbc497a85	-0.012297277
75	0x3d4a1349	0.049334798
76	0x3c736902	0.014856579
77	0x3da5c37c	0.08093926
78	0x3d448603	0.047979366
79	0x3d21a99e	0.0394684
80	0xbd8d39c3	-0.06895783
81	0xbd9d2018	-0.07672137
82	0x3c140fc2	0.00903696
83	0xbc51004b	-0.0127564175
84	0x3da9ac33	0.082847975
85	0x3dbe5821	0.09294153
86	0x3ba2b5d6	0.004965524
87	0x3c4a8ab3	0.01236217
88	0xbcd96a7b	-0.026540032
89	0xbce25a94	-0.027631082
90	0x3d45c9c3	0.048288118
91	0xbd431cd9	-0.047634933
92	0xbc8c2e31	-0.01711187
93	0xbd9459d4	-0.07243696
94	0x3c989bb7	0.018628938
95	0x3ccbd450	0.024881512
96	0xbda3c43e	-0.079964146
97	0xbbe5ec58	-0.0070166998
98	0xbd683cd4	-0.056698635
99	0x3d72ad2b	0.059247177
100	0x3b637e0c	0.003471258
101	0xbcbad605	-0.02280713
102	0xbc44debd	-0.012015996
103	0xbcd92606	-0.026507389
104	0xbd827b2a	-0.06371148
105	0x3cec948f	0.028879432
106	0x3ab92591	0.0014125576
107	0x3b385f8d	0.0028133125
108	0x3ce98633	0.028506374
109	0xbcc0405a	-0.023468185
110	0x3cf791eb	0.030220946
111	0xbc245b8f	-0.010031595
112	0xbb922c82	-0.004460872
113	0x3c93c3ce	0.018037703
114	0xbc0b0cf0	-0.008486971
115	0x3b5446f2	0.003239092
116	0x3be70c5b	0.0070510334
117	0x3d56305f	0.052292224
118	0xbd1e3e62	-0.03863371
119	0xbd2a8959	-0.04163489
120	0x3c1cef24	0.0095785
121	0xbd31a622	-0.043371327
122	0xbd6256fc	-0.055258736
123	0x3b04c6e6	0.0020260154
124	0xbce533ae	-0.027978744
125	0x3ccf6c97	0.025320334
126	0xbcfbc16a	-0.030731875
127	0xbcf9e46b	-0.030504426
128	0x3cc2f6fb	0.02379941
129	0xbd063ec1	-0.03277469
130	0x3a91e5cc	0.0011131107
131	0xbca27082	-0.019829039
132	0xbcf7a655	-0.03023068
133	0xbc511a58	-0.0127626285
134	0xbd9e9981	-0.07744122
135	0xbc34c5b2	-0.011033462
136	0x3d58a722	0.052893765
137	0xbc705c73	-0.014670479
138	0x3da5a4b3	0.080880545
139	0x3dd1e044	0.102478534
140	0x3d17ff92	0.037108965
141	0x3d37dff4	0.044891313
142	0x3c614074	0.013748277
143	0xba988180	-0.0011635274
144	0xbcb34845	-0.021885047
145	0xbd32bcf1	-0.04363722
146	0x3d1579b9	0.036493037
147	0x3dba0097	0.09082144
148	0x3d15375a	0.03642974
149	0x3cae05fe	0.021243092
150	0x3c86acec	0.016439877
151	0x3d9e7ef7	0.0773906
152	0x3d844afa	0.06459613
153	0xbca46c40	-0.020071149
154	0xbc5b7fa1	-0.013397128
155	0x3cc36cda	0.023855615
156	0x3cb37c93	0.021909988
157	0xbcbc70bb	-0.023002973
158	0x3dd6674f	0.10468923
159	0x3cfacb49	0.030614512
160	0x3d464364	0.048404112
161	0x3ca49b68	0.020093635
162	0xbc2de88d	-0.010614526
163	0x3cd58d98	0.026068494
164	0x3c91d56e	0.017801967
165	0xbd5600dd	-0.052246917
166	0x39cc3f4d	0.00038957075
167	0x3b66af13	0.0035199567
168	0x3d81851b	0.06324216
169	0xbd0982c8	-0.03357199
170	0x3b54513d	0.0032397055
171	0x3d2d6480	0.042332172
172	0x3d2b9efe	0.041899674
173	0xbd81f0da	-0.06344767
174	0xbbc91729	-0.006136794
175	0x3ca1a620	0.019732535
176	0x3cd2c4ad	0.025728548
177	0x3d9062c3	0.07050087
178	0xbd77a337	-0.06045839
179	0x3b981cb3	0.004642093
180	0x3ac9a16f	0.0015383194
181	0xbd8fb7f8	-0.07017511
182	0x3cd7a3d1	0.026323231
183	0xbc9c1752	-0.019054089
184	0x3c830cd2	0.015997324
185	0x3cdcc3af	0.026948778
186	0x3c0b7213	0.008511084
187	0x3d32479f	0.043525334
188	0x3d9594f8	0.07303804
189	0xbc71102f	-0.014713331
190	0xbd6cdec5	-0.057829637
191	0xbd67d8e2	-0.05660332
192	0xbd5e5812	-0.05428321
193	0xbd45056d	-0.048100878
194	0xbdc52428	-0.09626037
195	0xbd336418	-0.04379663
196	0x3cbbfce1	0.02294773
197	0x3d5ac3a9	0.053409252
198	0xbbf9140b	-0.0076012663
199	0x3affd4e5	0.0019518404
200	0x3b117495	0.0022194732
201	0xbc3eb135	-0.011638929
202	0xbd4f4941	-0.05060697
203	0x3c9a2102	0.018814567
204	0xbd016772	-0.031592794
205	0x3cf89b75	0.030347565
206	0x3c422626	0.011849916
207	0x3b60e8e3	0.0034318499
208	0x3cd96286	0.026536237
209	0xbd790572	-0.06079621
210	0xbd7111ac	-0.058854744
211	0xbacd2da5	-0.0015653862
212	0x3ccd4c4c	0.025060795
213	0x3d4d47a7	0.05011716
214	0xbc98802b	-0.018615803
215	0xbb95b38e	-0.0045685237
216	0xbd3cad84	-0.046063915
217	0x3b976870	0.004620604
218	0xbd44e488	-0.048069507
219	0xbca02b0f	-0.019551782
220	0xbb362639	-0.0027793779
221	0x3d4434ac	0.047901794
222	0xbb8a2847	-0.004216227
223	0xbc47fb73	-0.012205946
224	0xbcc963f0	-0.024583787
225	0x3cb13773	0.021632886
226	0x3bbcec3d	0.0057654665
227	0x3cf24959	0.02957599
228	0xbd1b1605	-0.037862796
229	0x3ca5d450	0.02024284
230	0xbd280809	-0.041023288
231	0x3cafaa67	0.021443559
232	0x3d9ce48e	0.07660781
233	0xbcf2ea38	-0.0296527
234	0xbc590dcd	-0.013247919
235	0x3d935939	0.07194752
236	0x3cd265b0	0.025683254
237	0xbcc1578e	-0.02360132
238	0x3dafbbaa	0.08580716
239	0x3d974feb	0.0738829
240	0x3d77b3af	0.060474094
241	0x3c9037ac	0.017604671
242	0x3da0c6d5	0.07850424
243	0x3d930367	0.07178383
244	0x3cafb695	0.021449367
245	0x3d785cc6	0.06063535
246	0x3d25955d	0.040425647
247	0xbc9dbac6	-0.0192541
248	0xb9aa211a	-0.0003244959
249	0x3d08509a	0.033279993
250	0x3ca181fc	0.019715302
251	0x3d844a59	0.06459493
252	0x3cda7177	0.026665432
253	0x3bfdec58	0.0077491216
254	0xbb900ed7	-0.0043963003
255	0x3c52fe39	0.012877994

network_body.visual_processors.0.conv_layers.2.bias f4 [32]
0	0x3a8d222d	0.0010767631
1	0x3d915995	0.070971645
2	0x3c75b47a	0.014996642
3	0x3d6d8f4c	0.057997987
4	0xbd124f31	-0.035720054
5	0x3d636696	0.055517755
6	0xbc911724	-0.01771123
7	0xbcdf1bb4	-0.02723489
8	0x3d9f8818	0.0778963
9	0x3d7345c5	0.05939271
10	0xbce5088e	-0.02795818
11	0xbcf4ad9b	-0.029867938
12	0xbd4aae3c	-0.04948257
13	0x3d9d4a06	0.076801345
14	0x3c5a93bd	0.013340888
15	0x3d8468d8	0.0646531
16	0x3c910560	0.017702758
17	0x3d2829b2	0.04105539
18	0x3a06330c	0.0005119301
19	0xbd5ca792	-0.053870745
20	0xbcc3b493	-0.023889815
21	0xbcea2987	-0.028584255
22	0x3d135438	0.03596899
23	0x3cb0940c	0.02155497
24	0xbd74ae0e	-0.059736304
25	0xbc64c53a	-0.013963038
26	0xbc90565f	-0.01761931
27	0x3d885242	0.066563144
28	0xbc8c8c62	-0.017156783
29	0x3d5d6d75	0.054059464
30	0xbd699be4	-0.057033435
31	0x3b0aab43	0.002115921

network_body.visual_processors.0.conv_layers.2.weight f4 [32, 16, 4, 4]
0	0xbc6454b5	-0.013936211
1	0xbc157b3b	-0.009123619
2	0x3d7a1191	0.06105191
3	0xbd4c689f	-0.049904462
4	0x3c8e25fe	0.0173521
5	0x3df78758	0.12086362
6	0x3bc5489e	0.0060206195
7	0xbcde9092	-0.027168546
8	0x3d455825	0.048179764
9	0x3d490934	0.049081042
10	0xbc8693ec	-0.016427957
11	0xbdafcba4	-0.08583763
12	0x3d416c8e	0.047222666
13	0xbc6816d4	-0.014165599
14	0x3d2c2140	0.042023897
15	0x3d14137f	0.036151405
16	0xbc79c952	-0.015245752
17	0x3c83f086	0.016105901
18	0x3d03d262	0.03218306
19	0x3a780a6d	0.0009462003
20	0x3c142a79	0.009043329
21	0x3c6b3388	0.014355548
22	0x3d99bc74	0.07506648
23	0xbc590c34	-0.013247538
24	0x3d455dfe	0.04818534
25	0xbd243d1b	-0.040097337
26	0x3d12835e	0.035769813
27	0xbd73435f	-0.059390422
28	0xbc7710a0	-0.015079647
29	0xbd77480f	-0.060371455
30	0xbbcd3c7f	-0.006263315
31	0xbdb827e6	-0.08991985
32	0xbd4f80e0	-0.050660014
33	0xbd78d934	-0.060754016
34	0xbd1565f9	-0.0364742
35	0xbd98e05d	-0.07464669
36	0xbcf642e7	-0.030061198
37	0x3d1cd001	0.038284305
38	0xbcd45db2	-0.025923584
39	0xbd4f9052	-0.050674744
40	0xbd71e932	-0.059060283
41	0x3d506f51	0.05088741
42	0xbd4316c2	-0.047629125
43	0xbd909c0d	-0.07061014
44	0xbd15317e	-0.036424153
45	0x3da70ef0	0.08157146
46	0xbd279162	-0.040910132
47	0xbc94e8bc	-0.018177383
48	0xbbfbf800	-0.007689476
49	0xbcd5b92b	-0.026089272
50	0xbbbb6721	-0.005719081
51	0x3d5e2a31	0.054239456
52	0x3c24c8ab	0.010057609
53	0xbd4d9541	-0.050191168
54	0xbc3a7963	-0.01138148
55	0xbc99e416	-0.018785518
56	0xbcece5fc	-0.028918259
57	0x3c012ab1	0.007883714
58	0x3c7ee5a7	0.015557683
59	0xbcf37897	-0.029720588
60	0xbb66589e	-0.0035148035
61	0xbd5fce26	-0.054639958
62	0x3d1b3716	0.03789433
63	0x3da864a9	0.082223244
64	0x3d6f853c	0.05847667
65	0xbc23fc18	-0.010008834
66	0x3c3314cd	0.010930252
67	0x3d1a26d7	0.037634697
68	0x3d3c2f78	0.045943707
69	0x3c8cfe63	0.017211145
70	0x3d861235	0.065464415
71	0x3c548b03	0.012972596
72	0xba2c4b33	-0.0006572485
73	0xbccf5c5e	-0.025312599
74	0x3c284d6e	0.010272367
75	0x3b056822	0.0020356257
76	0x3d1b25af	0.037877735
77	0xbd7e103c	-0.0620272
78	0xbc7e12cc	-0.015507411
79	0xbc9526b3	-0.01820693
80	0x3c926bd2	0.017873678
81	0xbd2ff7e6	-0.042961024
82	0xbd2c7eaf	-0.042113002
83	0xbc73f6e1	-0.0148904035
84	0xbc7c9aa8	-0.015417732
85	0x3d07be26	0.033140324
86	0x3a96ec9c	0.0011514607
87	0x3d40570a	0.046958007
88	0x3d54bfd2	0.051940747
89	0x3c8ed042	0.01743329
90	0x3b0b5c95	0.00212649
91	0xbd81d068	-0.063385785
92	0x3d02417a	0.031800725
93	0xbc53ad77	-0.012919775
94	0xbb64d879	-0.0034919067
95	0xbd1d7d09	-0.03844932
96	0x3d9779f1	0.07396305
97	0x3d9b310b	0.075777136
98	0xbca73e33	-0.020415401
99	0xbd1e1fec	-0.03860466
100	0xbd4f1543	-0.050557386
101	0x3d80c7a2	0.06288077
102	0xbce4295a	-0.02785175
103	0xbd9a19c3	-0.07524445
104	0xbc97be77	-0.018523438
105	0xbc59dc19	-0.013297104
106	0x3b07bfc4	0.0020713666
107	0x3c0acfd2	0.0084724
108	0xbd573757	-0.05254301
109	0x3d68c954	0.056832626
110	0x3cec88ec	0.028873883
111	0xbcb7673d	-0.022388095
112	0x3d06b2bb	0.032885294
113	0x3d255f80	0.04037428
114	0x3d7fdff1	0.062469427
115	0xbd52dd96	-0.051480852
116	0xbc007c5f	-0.007842152
117	0xbb4a61bd	-0.003088101
118	0x37636ae9	1.3555146e-05
119	0xbc7a54f1	-0.015279041
120	0xbd9947db	-0.074844085
121	0x3db0c0d9	0.08630533
122	0x3cf2e11f	0.029648362
123	0xbdadf6c6	-0.08494334
124	0xbd9fe101	-0.07806588
125	0xbd75c6d9	-0.06000409
126	0xbcab3aa4	-0.020901985
127	0xbc36bc5d	-0.011153308
128	0x3d3e257b	0.046422463
129	0x3be53edc	0.006996019
130	0x3d69d580	0.057088375
131	0x3c482f43	0.012218299
132	0xbd580bba	-0.05274556
133	0xbce01ddb	-0.027357986
134	0xbc96db64	-0.01841516
135	0x3d97b348	0.07407242
136	0xbda3740b	-0.07981118
137	0x3da2e0da	0.07953043
138	0x3d848927	0.06471472
139	0xbc9b9fe8	-0.018997148
140	0xbcd00f60	-0.025397956
141	0x3d7c0371	0.06152672
142	0xb9c15d4b	-0.00036881337
143	0xbd44f1f9	-0.048082326
144	0xbb534e1a	-0.0032242597
145	0xbd8f24a8	-0.069894135
146	0xbbf452c3	-0.007456155
147	0xbc3da7bd	-0.011575636
148	0x3d477b2a	0.048701443
149	0x3b156b4b	0.0022799547
150	0x3bc3d6c3	0.0059765293
151	0xbcd3d324	-0.025857516
152	0xbce3a2a7	-0.02778752
153	0x3ca25e9d	0.019820506
154	0xbc8bbfb6	-0.017059188
155	0x3af9591c	0.0019023749
156	0xbc7b5f53	-0.015342551
157	0xbbe9b0b6	-0.0071316613
158	0x3d714740	0.05890584
159	0xbcdd47a2	-0.027011696
160	0xbc41fce2	-0.011840077
161	0xbbdb6716	-0.0066956384
162	0xbd6d154b	-0.057881635
163	0xbcafb611	-0.02144912
164	0xbcd058f8	-0.025433049
165	0x3d549753	0.051902127
166	0x3b68d945	0.0035529893
167	0xbd33006b	-0.04370157
168	0xbd2c1138	-0.04200861
169	0x3c9d9935	0.019238094
170	0xbcc11f82	-0.023574594
171	0xbd846e5e	-0.06466363
172	0x3cb491ae	0.022042122
173	0x3d77041e	0.06030666
174	0x3d0854fe	0.03328418
175	0x3d45e5b3	0.04831476
176	0x3cefa59d	0.029253775
177	0xbc6ff49d	-0.014645723
178	0xbcb54b38	-0.022130594
179	0x3d26435e	0.04059159
180	0xbc718e74	-0.014743436
181	0xbabce8bb	-0.0014412621
182	0xbd928604	-0.07154468
183	0x3d38ce37	0.045118537
184	0xbd1039a8	-0.035211235
185	0xbc648cc5	-0.013949578
186	0xbd3b0cbb	-0.045666438
187	0xbd42dded	-0.047574926
188	0x3d6cecdf	0.057843085
189	0xbdacb651	-0.084332116
190	0x3ccc9709	0.024974363
191	0x3d1da109	0.038483653
192	0x3d82bd1e	0.063837275
193	0x3cb70d77	0.022345288
194	0x3d883103	0.06649973
195	0x3cd23d0e	0.025663879
196	0xbc67109c	-0.014103081
197	0x3cf791de	0.030220922
198	0xbba0e32b	-0.004909893
199	0x3d7868d9	0.060646866
200	0xbd6baad2	-0.057535954
201	0xbcddd007	-0.027076734
202	0x3daf4c7b	0.08559509
203	0x3d2026c4	0.03909947
204	0x3c12b458	0.00895413
205	0x3dc96c65	0.09835128
206	0x3dbb70d3	0.09152379
207	0x3ca731c1	0.020409467
208	0x3d9645f8	0.07337564
209	0xbd33c489	-0.043888602
210	0x3c960601	0.01831341
211	0xbd593413	-0.053028177
212	0x3d0391c2	0.032121427
213	0xbc85e87a	-0.016346205
214	0x3d1c43f0	0.038150728
215	0xbb40572f	-0.002934884
216	0xbc88b225	-0.016686508
217	0xbd0e88d5	-0.034798462
218	0xbbe9a9ed	-0.0071308524
219	0xbd1c141f	-0.038105126
220	0x3d0df408	0.034656554
221	0x3af93966	0.0019014298
222	0xbcfc74fa	-0.030817498
223	0xbd6d17b8	-0.057883948
224	0xbce51052	-0.027961884
225	0xbd4a28ce	-0.04935532
226	0xbc5c9088	-0.013462193
227	0x3d55dc8b	0.05221228
228	0x3d91deaa	0.07122548
229	0x3c4dd3e8	0.012562729
230	0xb8fb69c2	-0.000119883116
231	0x3b94f09b	0.004545284
232	0xbd891c91	-0.06694902
233	0x3da64146	0.08117919
234	0xb96f0d2b	-0.00022797722
235	0x3c5540ae	0.013015909
236	0x3d0cf3cf	0.0344122
237	0x3d945f0f	0.072446935
238	0xbd6214e6	-0.05519571
239	0x3d781bfe	0.06057357
240	0x3b9e2fdb	0.004827482
241	0xbcddc136	-0.02706967
242	0x3ce7a7f7	0.028278334
243	0x3d665761	0.056235675
244	0xbcdb1a69	-0.026745992
245	0x3d20e63a	0.03928206
246	0x3d1f4919	0.03888807
247	0xbd8d5b28	-0.06902152
248	0xbbe00c62	-0.0068374136
249	0x3d39342f	0.04521578
250	0x3c4a54c7	0.012349314
251	0x3cfa62b7	0.030564649
252	0x3d69c8e7	0.05707636
253	0x3dafa384	0.0857611
254	0x3d9e772a	0.077375725
255	0xb9eacdc8	-0.00044785277

network_body.visual_processors.0.dense.0.bias f4 [256]
0	0x3ca744ac	0.020418487
1	0x3c2ea41a	0.010659242
2	0xbc1739ba	-0.009230072
3	0xbbc1d676	-0.0059154583
4	0xbbe2b58f	-0.006918616
5	0x3c0956f1	0.008382545
6	0x38056ca6	3.1810858e-05
7	0x3c5dc578	0.01353585
8	0x3c8b0c06	0.016973507
9	0x38bc03a0	8.965214e-05
10	0xbd0a828d	-0.03381591
11	0x3bd94616	0.0066306693
12	0xbb6a52c4	-0.0035754899
13	0xbbac146e	-0.005251459
14	0xbc19e0f1	-0.009392009
15	0xbca561a6	-0.020188164
16	0x3cac64b1	0.021044107
17	0xbb56f54f	-0.0032800024
18	0x3c216cae	0.009852571
19	0x3c51cf5d	0.012805787
20	0x3c434a7d	0.011919615
21	0x3d0165d9	0.03159127
22	0xbb353f65	-0.0027656194
23	0x3c3316cc	0.010930728
24	0x3ca0695f	0.019581495
25	0xbb575baf	-0.0032861044
26	0xbc53d91b	-0.01293018
27	0x3a62cc87	0.0008651693
28	0xbc07d03c	-0.008289393
29	0xbb816282	-0.0039485106
30	0x3ce324e9	0.027727561
31	0x3c4a4ec4	0.012347881
32	0x3cda6ff4	0.026664712
33	0x3c5df5a4	0.013547335
34	0xbb627a0c	-0.003455761
35	0x3c2d044b	0.010560106
36	0xbc91e09d	-0.0178073
37	0x3c07c024	0.008285556
38	0xb9d955d1	-0.00041453404
39	0xbc8401e5	-0.016114185
40	0x3a6f7c87	0.00091356825
41	0x3b6bef79	0.003600089
42	0x3c953464	0.018213458
43	0x3c2f7b98	0.010710619
44	0x3ca08983	0.01959682
45	0x3cb10505	0.021608839
46	0x3c8ab6eb	0.016932925
47	0x3cbb3788	0.022853628
48	0x3bf6a6b4	0.007527197
49	0x3c8ec65c	0.01742857
50	0x3ce9cbce	0.028539564
51	0xbcca6e74	-0.024710871
52	0x3cd64668	0.02615662
53	0x3be50515	0.006989131
54	0x3c92ef48	0.017936364
55	0x3b960d56	0.0045792265
56	0x38a123f4	7.683775e-05
57	0x3c9498dd	0.018139297
58	0xbc2feb1e	-0.010737209
59	0x3c33e23c	0.010979231
60	0x3bb96cbe	0.005658715
61	0x3ba2ed55	0.00497214
62	0xbbaf1d3f	-0.0053440626
63	0x3c81ab2b	0.01582869
64	0x3a9ab074	0.0011801855
65	0x3cb3deec	0.021956883
66	0x3bcb91f8	0.006212469
67	0x3ce4f6e4	0.027949758
68	0x3bcdb0aa	0.0062771635
69	0x3c19167b	0.009343739
70	0x3c54d4cf	0.012990191
71	0x3b77fbe7	0.0037839354
72	0x3c82ed97	0.015982432
73	0xbbffe91e	-0.007809772
74	0x3cc116ed	0.023570502
75	0x3cda9da1	0.026686491
76	0x3bdb7660	0.006697461
77	0x3bf0de7e	0.007350742
78	0xbcb99753	-0.022655165
79	0x3cd9a138	0.026566133
80	0x3c9277fb	0.017879477
81	0xbc2fd7d9	-0.010732614
82	0x3cc651f7	0.024209006
83	0x3b3dc23f	0.002895489
84	0x3c0979f0	0.008390889
85	0x3b25a25a	0.002527377
86	0xb9a037ac	-0.00030559057
87	0x3c2d5168	0.010578491
88	0x3cff806d	0.031189168
89	0x3cd46661	0.025927724
90	0x3a0d5891	0.00053919206
91	0xba6eec72	-0.00091142126
92	0x3ce8a3ad	0.02839836
93	0x3cc7647e	0.02433991
94	0xbb699637	-0.0035642514
95	0x3c98f84c	0.018673085
96	0x3c728118	0.014801286
97	0x3bb6098e	0.005555338
98	0xbc48ad4e	-0.01224835
99	0x3bef9bc1	0.0073122685
100	0x3c843f96	0.016143601
101	0xbc2e8ecf	-0.010654165
102	0x3ca67d89	0.020323532
103	0x3a4099c3	0.0007347131
104	0x3c6d906f	0.014499768
105	0xbc9db324	-0.01925046
106	0xbb97b284	-0.004629435
107	0x3c1c4e43	0.009540143
108	0xbbec1139	-0.0072042015
109	0x3cbfe587	0.023424877
110	0xbaac3612	-0.0013138673
111	0x3c90df0c	0.017684482
112	0x3cf5ef03	0.030021196
113	0xbba7cdee	-0.0051209843
114	0xbc65b6de	-0.01402065
115	0x3be1fc13	0.0068965047
116	0xbb1e2386	-0.002413006
117	0x38e9e88e	0.000111536225
118	0xbd02ab00	-0.03190136
119	0xbceb4c74	-0.02872298
120	0x3c139c5a	0.009009445
121	0xbc024d65	-0.007953023
122	0x3c99ae05	0.018759737
123	0x3c7f5021	0.015583069
124	0xbc127f0c	-0.008941423
125	0x3b992f92	0.0046748603
126	0x3be27a7d	0.0069115744
127	0xba94aacf	-0.0011342409
128	0x3c25aab8	0.010111503
129	0x3ce95020	0.02848059
130	0xbb3c76b8	-0.0028757285
131	0x3c11c601	0.0088973055
132	0xbc3ddc1f	-0.0115881255
133	0x3ce12636	0.02748404
134	0x3c99c1b2	0.018769119
135	0x384a9682	4.8300724e-05
136	0x3b9ddb86	0.004817429
137	0x3bd498e4	0.0064879525
138	0xbc6652d8	-0.014057837
139	0x3c5f044c	0.013611864
140	0x3c01c38a	0.007920155
141	0x3ca7ee14	0.020499267
142	0xbcd0f262	-0.025506202
143	0xbc0b297b	-0.008493776
144	0x3c9f8964	0.019474693
145	0x39eb51eb	0.00044883727
146	0xb9ae4126	-0.00033236406
147	0xbc971184	-0.01844097
148	0x3c60f14e	0.0137294065
149	0x3c974bfd	0.018468851
150	0xbb9a0339	-0.004700091
151	0xb9c72571	-0.00037984134
152	0x3ac93939	0.0015352137
153	0x3a9e4cd9	0.0012077346
154	0x3b96e928	0.004605431
155	0x3cc80c50	0.024419934
156	0xbb73cb72	-0.003720012
157	0xbafb69ee	-0.001918135
158	0xbbdce94f	-0.0067416797
159	0xbc037ad0	-0.008024886
160	0x3cc9e558	0.024645492
161	0x3c8077da	0.01568215
162	0x3cbb23c3	0.022844201
163	0x3c0aa8e2	0.008463116
164	0xbcb7a659	-0.022418188
165	0x3ca0b511	0.01961759
166	0x3a7d7aba	0.0009669472
167	0xbc106600	-0.008813381
168	0xbc8f4055	-0.01748673
169	0x3c939bcf	0.018018631
170	0xbcaca81c	-0.021076255
171	0x3c58bbf7	0.013228408
172	0xbbc07be3	-0.0058741434
173	0x3d069cb9	0.032864306
174	0x3ca86fe9	0.020561175
175	0x3c6747ed	0.01411627
176	0xbbbdb789	-0.0057897014
177	0xbd0725e4	-0.03299512
178	0x3c877e08	0.016539589
179	0x3d1e0bbc	0.03858541
180	0x3c04011f	0.008056908
181	0x3cc8ca56	0.024510544
182	0x3bf847bd	0.0075769112
183	0x3cb9b228	0.02266796
184	0x3c3991b4	0.011326242
185	0x3afe5fc3	0.0019407201
186	0x3c085c42	0.008322777
187	0x3bbeea47	0.005826268
188	0xbaf6d182	-0.0018830749
189	0xbca88854	-0.020572819
190	0xbca420bd	-0.020035142
191	0xba8f2936	-0.0010922316
192	0xbc1e3395	-0.009655853
193	0x3c84ccbe	0.01621091
194	0x3c061565	0.008183812
195	0xbbaea8c2	-0.005330176
196	0x3b48f7d9	0.0030665307
197	0xbc3eaf7d	-0.011638519
198	0x3c245b4a	0.010031531
199	0x3b36d1a0	0.0027895942
200	0x3ca98c26	0.02069671
201	0x3ba03c50	0.0048900023
202	0x3c998806	0.018741619
203	0x3cef592c	0.029217325
204	0x3c9d79a6	0.019223046
205	0x3cc5200f	0.024063138
206	0x3c03acf4	0.008036841
207	0xbb3f19b1	-0.00291596
208	0x3c9e0310	0.01928857
209	0x3b920330	0.0044559464
210	0x3c8b8cef	0.017034976
211	0x365c46f9	3.2823866e-06
212	0x3c8b3b63	0.016996091
213	0xbc2dd3f4	-0.010609616
214	0xbc58c355	-0.013230165
215	0xba16ef49	-0.0005757702
216	0x38ed3ea9	0.00011312712
217	0x3c79a443	0.015236917
218	0xbbf03bbb	-0.007331339
219	0x3c5fce08	0.0136599615
220	0xbc1eb021	-0.009685547
221	0x3c6fd7ce	0.014638854
222	0x3b8657cb	0.004099821
223	0x3b93ffc3	0.004516573
224	0x3c513c73	0.01277076
225	0x3ca00cca	0.019537348
226	0x3b2c7925	0.0026317325
227	0xbbd7e9a6	-0.0065891324
228	0x3c48dde2	0.012259932
229	0x3c18a384	0.009316329
230	0x3c4079a3	0.01174775
231	0x3ba27c02	0.0049586305
232	0x3bf19753	0.0073727756
233	0x3bebc75b	0.007195396
234	0xbbad069b	-0.0052803284
235	0x3c298ad3	0.01034804
236	0x3cae4175	0.021271447
237	0xbb992984	-0.0046741385
238	0x3c8317f5	0.016002635
239	0xbb045864	-0.0020194286
240	0xbb2c6de2	-0.0026310612
241	0xba8cc341	-0.0010739343
242	0x3c9789fd	0.018498415
243	0xba37dc1b	-0.0007013694
244	0xbc78edfd	-0.01519346
245	0x3c8b6ae1	0.017018737
246	0x3ce4cf4e	0.027930882
247	0x3c876247	0.016526354
248	0x3cf3ba2b	0.029751858
249	0xbb43a819	-0.0029854833
250	0x3ce87d22	0.02837998
251	0x3cdf6030	0.027267545
252	0xbcb5fb34	-0.02221451
253	0x3cca239d	0.024675185
254	0x3c6c2f5a	0.014415586
255	0x3c73c84b	0.0148792965
