Project/Assets/ML-Agents/Examples/FoodCollector/TFModels/FoodCollector.onnx (onnx, 99006 bytes, 9 tensors)

56 f4 [1, 3]
0	0xbde4b526	-0.11167364
1	0xbde2cd25	-0.110742845
2	0xbe13ea70	-0.144449

action_model._continuous_distribution.mu.bias f4 [3]
0	0x3c9971db	0.018731048
1	0x3c067c1a	0.008208299
2	0xbcd15c6c	-0.025556765

action_model._continuous_distribution.mu.weight f4 [3, 128]
0	0xbc46b3b8	-0.012127809
1	0x3ccdae1f	0.025107441
2	0xbcfc820d	-0.030823732
3	0xbd88b289	-0.06674678
4	0x3d436caf	0.04771107
5	0xbd0c2fce	-0.034225278
6	0x3d1e852c	0.03870122
7	0x3e048779	0.12942304
8	0xbd9ab3f0	-0.075538516
9	0x3c756b51	0.0149791995
10	0xbb630b47	-0.0034644173
11	0xbcee74bc	-0.029108398
12	0xbc77022c	-0.015076201
13	0x3cb975ce	0.022639181
14	0xbd471876	-0.048607312
15	0x3de1bfcb	0.1102291
16	0x3d1c4789	0.03815416
17	0x3ddf05ba	0.10889764
18	0x3a395bc4	0.0007070864
19	0xbd20f819	-0.039299104
20	0x3be90b2b	0.007111927
21	0xbb08bc85	-0.002086432
22	0x3d4f9d6f	0.05068725
23	0xbd60beb1	-0.054869357
24	0xbca0b103	-0.019615656
25	0xbe0315ae	-0.12801239
26	0xba9aba59	-0.0011804804
27	0xbd340b39	-0.043956015
28	0x3cbcd687	0.023051513
29	0x3cca8dde	0.02472585
30	0x3cdd8023	0.02703864
31	0xbbb1c26f	-0.0054247896
32	0x3dd670f4	0.10470763
33	0x3dbc4845	0.09193472
34	0xbd9801eb	-0.07422241
35	0xbc3b2254	-0.011421759
36	0xbaab7d6a	-0.0013083641
37	0x3d1751ea	0.036943354
38	0xbd7e706e	-0.06211894
39	0x3d83a4c6	0.064279124
40	0x3d940a95	0.07228581
41	0xbcfef39a	-0.031122018
42	0x3c0809bf	0.008303105
43	0x3caf272b	0.021380981
44	0x3d369276	0.04457327
45	0x3ba76b5a	0.005109233
46	0xbb460825	-0.0030217257
47	0x3d679b01	0.056544308
48	0xbcc5a7a5	-0.02412779
49	0x3cc66a25	0.024220536
50	0x3cb6694b	0.022267004
51	0x3cebc0c7	0.028778447
52	0x3c628c18	0.013827346
53	0x3d43827e	0.04773187
54	0x3d2e80a5	0.042603154
55	0xbd96bc71	-0.07360161
56	0x3c8dc1c1	0.017304303
57	0xbcdcb472	-0.026941512
58	0xbddb1290	-0.106969
59	0xbd449a88	-0.047998935
60	0xbd4406cc	-0.047858045
61	0x3cbde8df	0.02318233
62	0x3c8cc359	0.017182993
63	0xbd7e75e0	-0.062124133
64	0x3c4c8071	0.012481795
65	0xbae823fc	-0.001771092
66	0xbcea4573	-0.02859757
67	0xbd9027eb	-0.07038864
68	0xbd99440d	-0.07483683
69	0xbde34e30	-0.110988975
70	0x3d4811cd	0.0488451
71	0x3b3758e3	0.0027976565
72	0x3da70215	0.08154694
73	0x3d40d4fc	0.047078118
74	0x3d4ef821	0.050529603
75	0x3ca4052d	0.020022
76	0x3d44a7b7	0.048011508
77	0x3cedaaa4	0.029012032
78	0x3d9199c9	0.0710941
79	0xbda5617f	-0.080752365
80	0xbda2e0cf	-0.07953035
81	0x3d72a88b	0.059242766
82	0xbd530990	-0.05152279
83	0x3d24d003	0.040237438
84	0x3d13135d	0.03590714
85	0x3d81582d	0.06315646
86	0x3d332e71	0.04374546
87	0xbd39fe51	-0.04540855
88	0xbd5c1a61	-0.053736094
89	0xbe233e02	-0.15941623
90	0x3dc58858	0.09645146
91	0x3d8d0b84	0.06886962
92	0x3c4140fb	0.011795278
93	0x3d2eab76	0.042643987
94	0x3d764694	0.060125902
95	0x3c40d913	0.0117705045
96	0xbd1eea84	-0.03879787
97	0x3d8681b2	0.06567706
98	0x3c972eae	0.018454876
99	0x3d6834a1	0.056690816
100	0xbcf6561a	-0.030070353
101	0xbb841805	-0.0040311837
102	0x3ccaef42	0.02477229
103	0x3d2105fa	0.03931234
104	0xbc693e6a	-0.014236072
105	0xbcb095ae	-0.021555748
106	0x3c26b588	0.010175116
107	0x3c8059bf	0.015667794
108	0x3b225b50	0.0024773665
109	0xbddf858b	-0.10914143
110	0xbda6052c	-0.08106455
111	0x3d0b3c4c	0.03399305
112	0x3cfa86c5	0.030581841
113	0xbdbfb787	-0.09361177
114	0x3d861c62	0.06548382
115	0x3c1a2545	0.0094083
116	0xbd795c98	-0.06087932
117	0x3d032051	0.03201324
118	0xbd2f263c	-0.042761073
119	0xbd8b15c1	-0.067912586
120	0x3c508883	0.012727859
121	0xbb3bc737	-0.0028652677
122	0xbc3e15ba	-0.01160186
123	0xbd78617b	-0.06063984
124	0xbda0bf19	-0.07848949
125	0xbda51240	-0.080601215
126	0x3c66fa3f	0.014097749
127	0x3d3302ac	0.04370372
128	0x3d2a7792	0.041617937
129	0xbcbd27f9	-0.02309035
130	0x3d38ed16	0.045147978
131	0xbd9c9cc7	-0.076470904
132	0x3dba3dea	0.090938404
133	0xbd7420dd	-0.059601653
134	0x3d2c9ef8	0.042143792
135	0x3cfde3fa	0.030992497
136	0xbd28c8e8	-0.041207224
137	0x3d61918d	0.05507045
138	0x3d8a35ca	0.06748541
139	0xbc4d5264	-0.0125318505
140	0x3d2107dc	0.039314136
141	0xbd310b84	-0.043223873
142	0x3ca1736c	0.019708358
143	0xbdb0bb1c	-0.08629438
144	0x3d1c47df	0.03815448
145	0xbd8eadbd	-0.06966732
146	0x3bc63e7d	0.0060499297
147	0xbbd5763d	-0.0065143392
148	0x3cefd5b2	0.029276703
149	0x3c4bf4df	0.012448519
150	0x3d0d45e6	0.03449049
151	0x3cb5bbce	0.022184279
152	0xbc46be0c	-0.012130272
153	0x3bb5dd4e	0.005550063
154	0x3d8be41f	0.0683062
155	0x3d97b857	0.07408207
156	0x3a88652d	0.0010406129
157	0xbcbe50e5	-0.023231933
158	0xbd6c82ab	-0.057741802
159	0x3cd7b133	0.026329612
160	0x3d994514	0.07483879
161	0x3cfeb2b6	0.031091075
162	0x3d845381	0.064612396
163	0xbd0b7d84	-0.034055248
164	0xbd8b46b7	-0.06800597
165	0x3da32c26	0.07967405
166	0xbdc0504f	-0.09390318
167	0x3cd4e3e0	0.025987566
168	0xbb896b9d	-0.0041937367
169	0x3be5d71f	0.00701417
170	0x3d5b83b2	0.05359239
171	0xbd33526e	-0.043779783
172	0xbd47a67c	-0.048742756
173	0xbd3caaa4	-0.046061173
174	0xbda7c19d	-0.08191226
175	0x3db458a0	0.088059664
176	0x3c1046f2	0.008805977
177	0xbc4d0f59	-0.012515866
178	0x3d2a3f54	0.0415643
179	0xbc089842	-0.008337082
180	0xbdd00934	-0.10158005
181	0x3de22e73	0.11044016
182	0x3d2dd738	0.042441577
183	0xbc01e545	-0.007928197
184	0x3d6d0ff7	0.057876553
185	0x3c2be280	0.0104910135
186	0x3b1f11a8	0.0024271999
187	0x3d23c77b	0.03998516
188	0x3c4dbcde	0.0125572365
189	0xbd517a04	-0.051141754
190	0xbc6cfd58	-0.014464699
191	0x3c36d45b	0.011159028
192	0xbc768030	-0.015045211
193	0x3dbafd2f	0.09130322
194	0xbd2ba576	-0.041905843
195	0x3da0692d	0.07832561
196	0xbb4a4b5e	-0.0030867676
197	0x3bbb9919	0.005725038
198	0xbd154410	-0.036441863
199	0x3d68d6dc	0.05684553
200	0x3d69f182	0.057115085
201	0x3c55b964	0.013044689
202	0xbd3ce800	-0.04611969
203	0x3cf6e4d0	0.030138403
204	0xbd814192	-0.06311335
205	0xbd3106fc	-0.04321955
206	0x39d00c68	0.00039682095
207	0xbc1dff3e	-0.009643374
208	0x3bdf83db	0.0068211383
209	0xbdce40dc	-0.10070965
210	0x3da2b131	0.07943953
211	0x3db00bd4	0.08596006
212	0x3d39cbae	0.04536026
213	0x3da721e5	0.08160762
214	0xbd898583	-0.067149185
215	0xbe0a1f70	-0.13488555
216	0xbd8594d3	-0.065225266
217	0xbd6361b6	-0.055513106
218	0x3d9bae0a	0.07601555
219	0xbd8d509c	-0.06900141
220	0xbdc9dec3	-0.098569416
221	0xbd853c50	-0.06505644
222	0xbd9dba10	-0.07701504
223	0xbdb552a6	-0.088536546
224	0x3ac6b8f7	0.0015161325
225	0xbc1ebc2d	-0.009688419
226	0xbd4041f7	-0.04693791
227	0xbdaef6ac	-0.08543143
228	0xbd370087	-0.044678237
229	0x3d99284c	0.07478389
230	0xbd307575	-0.043080766
231	0x3debb055	0.11508242
232	0xbccf08ab	-0.025272688
233	0x3b739884	0.0037169764
234	0xbc0defb2	-0.008663105
235	0xbb55152c	-0.003251384
236	0xbbf6c7f8	-0.0075311624
237	0x3d142bac	0.03617446
238	0xbba7b150	-0.005117573
239	0xbdebfa39	-0.115223356
240	0xbd8c8ac5	-0.06862406
241	0xbdb0b207	-0.08627706
242	0xbd014bc4	-0.031566396
243	0xbcc9fe0f	-0.024657277
244	0x3bc9f43e	0.006163149
245	0x3da499a5	0.08037118
246	0xbcea984c	-0.028637074
247	0xbcae8d59	-0.021307634
248	0x3dba21e0	0.090884924
249	0x3d0d7a8b	0.034540694
250	0x3d30c8b8	0.04316017
251	0x3d895a5e	0.06706689
252	0x3d3be114	0.045868948
253	0xbcbfbfe5	-0.023406932
254	0x3e006006	0.1253663
255	0x3cbbaa07	0.022908224

action_model._discrete_distribution.branches.0.bias f4 [2]
0	0xbb4ecd1b	-0.0031555358
1	0x3b4ecd02	0.00315553

action_model._discrete_distribution.branches.0.weight f4 [2, 128]
0	0x3d0a9c6c	0.03384058
1	0x3caa20bd	0.020767564
2	0x3c595d1b	0.013266827
3	0xbcd08671	-0.025454732
4	0x3bef6edb	0.007306916
5	0xbbfebc40	-0.007773906
6	0x3c82995e	0.015942272
7	0xbc34ef9c	-0.011043455
8	0xba2993f6	-0.0006468886
9	0xbc60d533	-0.013722706
10	0xbcb95acb	-0.022626301
11	0x3bddbb26	0.0067666946
12	0x3d10e094	0.035370424
13	0x3c34b46c	0.011029344
14	0x3bad326c	0.005285552
15	0xbae801da	-0.0017700747
16	0xbc8fce1a	-0.017554332
17	0xbccf24a2	-0.025286023
18	0x3c302948	0.01075203
19	0x3c824e1a	0.015906382
20	0x3b2d2d4c	0.0026424704
21	0xbc21b0fe	-0.009868858
22	0xbc6c82c2	-0.014435472
23	0xbb103be3	-0.0022008352
24	0xbbefa864	-0.007313775
25	0xbc3a5541	-0.011372865
26	0x3c5ff98f	0.013670339
27	0x3c227a2a	0.0099168215
28	0x3cd2d758	0.02573745
29	0xba71a506	-0.0009218011
30	0x3c3bd587	0.011464483
31	0xbd161896	-0.03664454
32	0xbaf39ef2	-0.0018586798
33	0xbcace410	-0.021104842
34	0x3cedefdf	0.029045044
35	0x3cbfca30	0.02341184
36	0x3c39ac84	0.011332635
37	0xbc426a20	-0.0118661225
38	0xbbaa5d81	-0.005199135
39	0x3c06acdc	0.008219924
40	0xbb840757	-0.0040291953
41	0xbc346c33	-0.011012125
42	0x3c6f831d	0.014618662
43	0xbd0f1695	-0.034933645
44	0x39f245d4	0.00046209863
45	0x3ca2fa8b	0.019894859
46	0xbc3ec620	-0.011643916
47	0x3cbd480e	0.023105647
48	0x3ccc7076	0.02495597
49	0x3d371635	0.044698913
50	0xbabc1fa1	-0.0014352688
51	0x3c053959	0.0081313485
52	0xbaa15e28	-0.0012311386
53	0x3cc455bf	0.023966668
54	0x3cca0cc8	0.024664298
55	0xbb1d1f6b	-0.0023975025
56	0xbc8d94a0	-0.017282784
57	0xbd2c8c6a	-0.042126097
58	0xbba31006	-0.0049762754
59	0xbae03db0	-0.0017108228
60	0x3beb28db	0.007176501
61	0xbcab2cb9	-0.020895349
62	0x3b9c68cd	0.0047732354
63	0xbcee0bd0	-0.029058367
64	0x3cff73ad	0.031183088
65	0xbbb4b3b2	-0.0055145854
66	0xbc5f2a2a	-0.013620893
67	0x3bdee423	0.0068020984
68	0xbc30785f	-0.010770886
69	0xbc946c10	-0.018117934
70	0x3bd71dff	0.006564855
71	0x3c47e6b9	0.012201005
72	0x3c03baf1	0.008040176
73	0xbc59eb84	-0.01330078
74	0xba0191b9	-0.0004942674
75	0xbbd45a5d	-0.0064804987
76	0x3c8d8f8e	0.017280366
77	0xbcf18db4	-0.029486515
78	0xb84d5e95	-4.8963895e-05
79	0xbc24c687	-0.010057098
80	0x3c694e0a	0.014239797
81	0xbab5b2cc	-0.001386249
82	0x3d207325	0.03917231
83	0xbc60f93f	-0.0137313
84	0x3c5d8488	0.013520367
85	0xbbd57d11	-0.006515153
86	0xb827f5b5	-4.0044735e-05
87	0xbc3f8b7b	-0.01169097
88	0xbc87bb16	-0.016568702
89	0x3b4a1dda	0.0030840547
90	0xbaca20bf	-0.0015421136
91	0x3ccf3619	0.02529435
92	0x3c904b13	0.017613923
93	0xbc50c636	-0.01274257
94	0x3d1d7829	0.03844467
95	0xbc64d965	-0.0139678465
96	0x3cf7778b	0.03020837
97	0x3b594304	0.0033151517
98	0xbba1fa23	-0.0049431487
99	0xbc205503	-0.009785893
100	0xbc417d47	-0.011809654
101	0xbac1c6e0	-0.0014784001
102	0x3c8a8076	0.016906958
103	0xbc07210d	-0.008247626
104	0x3c688fa2	0.014194401
105	0xbd13eb59	-0.036113117
106	0x3c8d65c3	0.017260438
107	0xbce7e973	-0.02830956
108	0xbb29aec1	-0.0025891515
109	0xbd522cec	-0.051312372
110	0x3bd08db3	0.006364548
111	0xbc5d4139	-0.01350432
112	0x3c57dea1	0.013175637
113	0xbcf549a3	-0.02994234
114	0x3c090baf	0.008364602
115	0xbb794041	-0.0038032683
116	0xbc862ee8	-0.016379789
117	0x3cba55e1	0.022746028
118	0xba402eff	-0.0007331222
119	0x3c1fdfcc	0.009757947
120	0x3c27b681	0.010236383
121	0xbcb3e26e	-0.021958556
122	0xbc9f7184	-0.019463308
123	0xbba3947b	-0.0049920655
124	0xbcb0ae64	-0.02156753
125	0x3bc4a049	0.006000553
126	0x3c83b0ea	0.01607557
127	0xbd308492	-0.04309518
128	0xbc8a4b35	-0.016881565
129	0xbbfaf361	-0.0076584076
130	0xbaeff09e	-0.0018305962
131	0x3c0aefdd	0.008480039
132	0xbced3363	-0.028955167
133	0x3bc3aa1b	0.005971206
134	0x3c5eb0ed	0.013591987
135	0x3c5dc50b	0.013535748
136	0xbbdeb166	-0.00679605
137	0x3c5fcb1e	0.013659267
138	0x3ccdce21	0.025122704
139	0xbb7aa7d4	-0.0038247006
140	0xbcff7ea7	-0.031188322
141	0xbc085b41	-0.008322538
142	0xbc537cb0	-0.012908146
143	0x3b6e7710	0.0036386885
144	0x3c0d41ef	0.008621677
145	0x3cdc7a2c	0.026913725
146	0xbcc4a257	-0.02400319
147	0xbc88a96b	-0.016682347
148	0xbbfe72df	-0.0077651585
149	0x3c9ead70	0.01936981
150	0x3ca582cc	0.02020397
151	0xbbaa5a4f	-0.005198754
152	0xbc7b7088	-0.015346654
153	0x3ca94450	0.020662457
154	0xbb9cbcab	-0.004783233
155	0xbc59d124	-0.013294492
156	0xbc8a77d5	-0.016902843
157	0xbbf86fac	-0.0075816717
158	0xbc7a9b4d	-0.015295816
159	0x3d16d143	0.03682066
160	0xbc4a5514	-0.012349386
161	0x3cea8de1	0.028632106
162	0xbd42b9d7	-0.047540512
163	0xbc5a6ec1	-0.01333207
164	0xbbd832f2	-0.00659787
165	0xbcb666f1	-0.022265883
166	0xbac93c48	-0.0015353048
167	0xbc855ea9	-0.016280489
168	0x3ab30568	0.0013658227
169	0xbb98c9c9	-0.0046627265
170	0xbc36af46	-0.011150187
171	0x3d130b80	0.03589964
172	0xbbf23573	-0.0073916255
173	0xbca0e150	-0.019638687
174	0x3cf5504b	0.029945513
175	0xbc6b3cdd	-0.014357773
176	0xbcaef6a3	-0.02135784
177	0xbd1e244c	-0.038608834
178	0xbbd95545	-0.0066324794
179	0xbb16c6ac	-0.0023006601
180	0x3c3a0eb7	0.011356047
181	0xbcf61f28	-0.030044153
182	0xbd0d2c35	-0.034465987
183	0xbb84a5b9	-0.004048076
184	0x3c81c473	0.015840745
185	0x3d0bfc40	0.03417611
186	0x3bc0b05a	0.0058803977
187	0x3cd2b90b	0.025723001
188	0xba5c86f4	-0.00084124436
189	0x3b18dd31	0.00233252
190	0xbcc07ed4	-0.023497976
191	0x3ca52a26	0.0201617
192	0xbd2d0b9d	-0.042247403
193	0xbae1dacf	-0.0017231348
194	0xbb9535be	-0.0045535257
195	0x3b993612	0.004675635
196	0xbca0e68a	-0.01964118
197	0x3c9e6a4c	0.019337796
198	0xbc9df2ce	-0.019280817
199	0xbc11843c	-0.008881625
200	0xbc719a64	-0.014746282
201	0xbc83383d	-0.016018027
202	0x3c205b22	0.009787353
203	0xbc1ce602	-0.0095763225
204	0xbc606200	-0.01369524
205	0x3d48376b	0.048880976
206	0x3c304237	0.010757974
207	0x3c146c6b	0.009059052
208	0x3c84e1a9	0.016220884
209	0xbc33850f	-0.010957017
210	0xbcb66588	-0.02226521
211	0x39b68471	0.00034812422
212	0xbd05cf2f	-0.03266829
213	0x3bd7c73d	0.0065850304
214	0xbc34fafc	-0.011046167
215	0xbca70e9f	-0.020392714
216	0x3c7e9d8b	0.015540491
217	0x3c8600e9	0.016357856
218	0x39e7ae9c	0.00044189848
219	0xbc747f5e	-0.014922945
220	0xbba99e4c	-0.005176341
221	0x3c999a7b	0.01875042
222	0xbc8820ac	-0.016617142
223	0x3cb084e6	0.021547746
224	0xbcf24911	-0.029575856
225	0xbcfcc5fa	-0.030856121
226	0x3bee3427	0.0072694006
227	0xbc011543	-0.007878604
228	0x3cf17ef2	0.029479478
229	0xbc106f7c	-0.008815642
230	0xbc0ba66a	-0.008523563
231	0x3b9df46c	0.004820397
232	0x3c330687	0.010926849
233	0x3d1f6c08	0.038921386
234	0xbcc95920	-0.02457863
235	0x3d57d46f	0.052692827
236	0xbc73523d	-0.01485115
237	0x3d28e7ca	0.041236676
238	0xbc930a8e	-0.017949369
239	0x3c99b93d	0.018765086
240	0xbc86d286	-0.016457807
241	0x3cc2134f	0.023690848
242	0xbd0f085a	-0.034920074
243	0xbcb25730	-0.02177009
244	0x3ca54d20	0.020178378
245	0xbc52d2b8	-0.012867622
246	0x3b0c673d	0.002142384
247	0xbc84612e	-0.01615962
248	0xbb85b5b3	-0.004080498
249	0x3cd9750c	0.02654507
250	0x3c85f6fb	0.016353121
251	0x3cbb581a	0.022869159
252	0x3cd147cf	0.025546936
253	0xbc82e464	-0.015978046
254	0x3b81999f	0.0039550806
255	0x3c76a21e	0.0150533

network_body.linear_encoder.seq_layers.0.bias f4 [128]
0	0xbd1b7cc8	-0.037960798
1	0x3ce74140	0.028229356
2	0xbd6351aa	-0.055497803
3	0x3cdfee72	0.02733538
4	0x3d46a278	0.048494786
5	0xbd3d5632	-0.04622478
6	0xbc11e26b	-0.00890408
7	0x3d34d0ee	0.044144563
8	0x3cc4c275	0.024018506
9	0x3d841a0a	0.06450279
10	0xbd14c9c6	-0.03632524
11	0xba504666	-0.00079450605
12	0x3cabfa75	0.02099345
13	0x3cc39cf2	0.023878548
14	0xbd2e27e1	-0.0425185
15	0xbc59bcf3	-0.013289678
16	0x3dbd1f8d	0.092345335
17	0xbba03d47	-0.0048901173
18	0x3c936218	0.01799111
19	0x3c9c021c	0.019043975
20	0xbc57a64c	-0.013162207
21	0xbd29343a	-0.041309573
22	0xbd1d33f1	-0.038379613
23	0x3c5a66f7	0.013330213
24	0xbb5158c5	-0.003194378
25	0x3d6de2e5	0.05807771
26	0x3d628d3b	0.05531047
27	0x3d60f02c	0.054916546
28	0x3c7e2f63	0.015514228
29	0x3d379a54	0.044824913
30	0x3be6bdb7	0.0070416587
31	0xbcdb292d	-0.026753033
32	0x3d12ca40	0.035837412
33	0x3d8ee7c2	0.06977798
34	0xbcba17cd	-0.022716427
35	0x3c924082	0.017853025
36	0x3d3f49b9	0.046701167
37	0x3cff990b	0.031200906
38	0x3d8b26fd	0.06794546
39	0xbd0c397b	-0.034234505
40	0xbc0ca766	-0.008584833
41	0x3ceeedce	0.029166128
42	0x3d17ee4f	0.037092503
43	0x3d83b130	0.0643028
44	0x3d5fbcef	0.05462354
45	0xbb8106e0	-0.003937587
46	0x3d7a08a4	0.061043397
47	0x3d92f0d6	0.07174842
48	0xbd22a3ae	-0.03970688
49	0x3d9b0977	0.07570165
50	0x3c9f2bbe	0.019430038
51	0x3d63f6e7	0.055655386
52	0x3c2deab5	0.010615041
53	0x3d83b587	0.06431108
54	0x3d513e0d	0.051084567
55	0x3ca680b1	0.020325037
56	0x3c59435e	0.0132606905
57	0x3c80b66b	0.015711984
58	0x3c980f38	0.018561944
59	0x3bda51b3	0.0066625713
60	0x3d04c576	0.032414876
61	0x3d1873bc	0.037219748
62	0x3cff6dee	0.031180348
63	0x3d51f357	0.051257458
64	0x3cd943a2	0.026521508
65	0x3bd8e69e	0.0066192886
66	0x3da48563	0.08033254
67	0x3d55b800	0.05217743
68	0x3b63e32e	0.003477286
69	0x3d84b9dd	0.06480763
70	0x3d8c3692	0.06846346
71	0xbab30493	-0.001365798
72	0xbbcd7879	-0.006270465
73	0xbc1e4206	-0.009659296
74	0xbd28dd85	-0.041226882
75	0x3d85c286	0.06531243
76	0x3c53ca5c	0.012926664
77	0x3d01a45e	0.031650893
78	0x3d102b09	0.03519729
79	0x3d20e99a	0.03928528
80	0x3d39d3db	0.045368057
81	0x3d03b192	0.032151766
82	0x3d2f0c9a	0.042736627
83	0x3c156335	0.009117891
84	0x3b490aff	0.003067672
85	0x3d02b7ff	0.031913754
86	0x3c166567	0.00917945
87	0xbd39d2da	-0.0453671
88	0x3cd3a0b1	0.02583346
89	0xbcd81d93	-0.02638129
90	0x3c8bf4cb	0.0170845
91	0xbc914706	-0.017734062
92	0xbb5dc5aa	-0.003383974
93	0xbcc58704	-0.024112232
94	0x3d83a633	0.06428184
95	0xbd441152	-0.04786808
96	0xbcd2f22d	-0.025750244
97	0x3ca1d010	0.019752532
98	0x3d47ebb2	0.04880876
99	0xbd9368f3	-0.07197752
100	0x3d7febe1	0.06248081
101	0x3cc58307	0.02411033
102	0x3ca88012	0.020568881
103	0x3d3db777	0.046317544
104	0x3d403065	0.046921153
105	0x3cf1f37e	0.029535051
106	0x3c3e20a6	0.011604464
107	0x3ba9bebc	0.005180208
108	0xbc98d78b	-0.018657466
109	0xbc3b2aea	-0.011423806
110	0x3cfed3bf	0.031106828
111	0x3d9ce97d	0.07661722
112	0x3d9a0b2c	0.07521662
113	0x3c989a66	0.01862831
114	0xbb61d540	-0.0034459382
115	0x3d056797	0.032569494
116	0x3beded9e	0.007260992
117	0xbcb5ef35	-0.02220879
118	0x3d7d7ba6	0.0618855
119	0x3da060e1	0.07830978
120	0x3d09ef87	0.033675697
121	0x3b42e63a	0.0029739277
122	0x3c90a57f	0.01765704
123	0xbb5697a2	-0.0032744189
124	0x3c377794	0.011197943
125	0x3c8e87c8	0.01739873
126	0x3dbec729	0.093153305
127	0x3d869e60	0.065731764

network_body.linear_encoder.seq_layers.0.weight f4 [128, 53]
0	0x3d9c21b4	0.07623616
1	0x3dea891a	0.11451931
2	0xbd48f009	-0.04905704
3	0xbc993537	-0.018702133
4	0x3e1e2644	0.15444285
5	0xbeafa9fe	-0.3430938
6	0xbebb32f0	-0.365623
7	0xbe906c6f	-0.28207728
8	0xbd262700	-0.040564537
9	0xbe11b64e	-0.142297
10	0x3dbca5de	0.09211324
11	0x3d527452	0.051380463
12	0x3e1f33bf	0.15547083
13	0xbe22b37d	-0.15888782
14	0x3cc5b5c0	0.024134517
15	0xbc8429d5	-0.016133228
16	0xbe76ec2f	-0.24113534
17	0xbe1795a9	-0.14803185
18	0x3b99b641	0.004690916
19	0x3c2f022f	0.010681673
20	0xbda1551f	-0.07877564
21	0x3d48e6c5	0.049048204
22	0xbd87a6fa	-0.06623645
23	0xbe0f2912	-0.13980511
24	0x3e4052bb	0.18781559
25	0xbc9af334	-0.018914796
26	0xbcfaad7d	-0.030600304
27	0xbdef6d40	-0.1169076
28	0xbdf2c5f1	-0.118541606
29	0xbdfc14a5	-0.12308625
30	0xbd48493a	-0.04889796
31	0xbe21d167	-0.15802537
32	0x3db40342	0.08789684
33	0x3e20041c	0.15626568
34	0x3e08cc36	0.1335915
35	0x3c33b7dd	0.010969129
36	0xbd8aafa0	-0.06771779
37	0x3c14e43f	0.009087621
38	0xbe16ed9a	-0.14739075
39	0xbd1af244	-0.0378287
40	0x3da0c0b1	0.07849253
41	0x3e6ed837	0.23324667
42	0xbd882be8	-0.066489995
43	0x3e6a6456	0.22889838
44	0x3d9e07bc	0.07716319
45	0x3dae7cab	0.08519872
46	0xbe05ddea	-0.13072935
47	0x3e0e5210	0.13898492
48	0xbb51f031	-0.0032034034
49	0xbd891b6d	-0.06694684
50	0xbe1a0f76	-0.1504496
51	0x3d371a9b	0.044703107
52	0xbd8634c2	-0.065530315
53	0xbd8cb1e2	-0.06869866
54	0xbdb4faef	-0.08836924
55	0x3e88fa82	0.26753622
56	0x3e2bcbd9	0.1677698
57	0x3dcc1165	0.09964255
58	0x3d4c1268	0.04982224
59	0xbc7eeff6	-0.015560141
60	0x3ef5194e	0.47870868
61	0xbd982b62	-0.074301496
62	0xbdcbfd9c	-0.099604815
63	0xbc2d0d04	-0.010562185
64	0xbe0bba5e	-0.13645312
65	0xbd119a05	-0.035547275
66	0xbe256bfe	-0.16154477
67	0xbcb719d6	-0.022351187
68	0xbde4ed79	-0.11178107
69	0x3d901805	0.07035831
70	0xbdbb6f5c	-0.091520995
71	0x3e03a08d	0.12854214
72	0x3e0f766e	0.14010021
73	0x3db6fdb6	0.0893511
74	0x3eec2c63	0.46127614
75	0x3d3c1c53	0.04592545
76	0xbdffc0e8	-0.12487966
77	0xbe7239d4	-0.23654872
78	0xbca4c36f	-0.020112721
79	0x3e512101	0.20422746
80	0x3d8875ab	0.066630684
81	0xbe3ada8e	-0.18247434
82	0xbe395818	-0.18100011
83	0x3d2989a0	0.041391015
84	0x3e1fba56	0.15598425
85	0x3e7827e6	0.2423397
86	0xbdea1fc6	-0.114318416
87	0x3e053031	0.13006665
88	0x3e21cee9	0.15801586
89	0x3c7f4ea2	0.015582712
90	0x3e3363cb	0.17518537
91	0xbbb926bd	-0.00565037
92	0x3ded5a2d	0.11589465
93	0x3e0f3dea	0.13988462
94	0x3d8f59bf	0.069995396
95	0xbded369d	-0.11582682
96	0x3e11a7a5	0.14224108
97	0x3e109dc9	0.1412269
98	0xbe007475	-0.12544425
99	0x3e02bdf1	0.1276777
100	0x3dd4f2cd	0.10397873
101	0x3e19b12b	0.1500899
102	0xbcc12bfa	-0.02358054
103	0x3e8c1279	0.27357844
104	0xbb96eb18	-0.004605662
105	0xbcf775c3	-0.03020752
106	0xbcee536c	-0.029092513
107	0xbdad94e6	-0.08475666
108	0x3dd8522a	0.105625466
109	0x3d9ce204	0.076602966
110	0xbeb01e22	-0.3439799
111	0xbc3bac14	-0.011454601
112	0x3ca3f22d	0.02001294
113	0xbe91132d	-0.28334942
114	0xbd6922ad	-0.056917835
115	0x3da22157	0.07916515
116	0xbd3ae925	-0.0456325
117	0x3e51fdbb	0.20506947
118	0xbe2b87d1	-0.16751029
119	0xbd78d40f	-0.06074911
120	0x3da55aa2	0.080739275
121	0xbe08fd80	-0.13377953
122	0xbca5e159	-0.020249056
123	0x3df0bf3c	0.11755225
124	0x3e51d5a1	0.20491649
125	0xbe35cd72	-0.17754152
126	0xbda30b96	-0.07961194
127	0x3bce34ae	0.006292901
128	0xbe177292	-0.14789799
129	0xbe0676c3	-0.13131242
130	0x3dea5b10	0.1144315
131	0x3d5ab221	0.053392533
132	0x3deac236	0.11462824
133	0x3c28d6c0	0.010305107
134	0xbebda571	-0.37040284
135	0xbd7d0dc6	-0.061780713
136	0x3dae5434	0.08512154
137	0xbc7eccb8	-0.015551738
138	0xbd8f91bb	-0.07010218
139	0xbe0ed8c8	-0.13949883
140	0xbe30a2f6	-0.17249665
141	0x3ca3ad8f	0.01998022
142	0x3e160eab	0.14654033
143	0xbe2ed391	-0.17072894
144	0x3dde20fc	0.10846135
145	0xbd45fd6a	-0.048337378
146	0x3eb9b9db	0.3627461
147	0xbd53328a	-0.05156187
148	0x3c190f6b	0.009342055
149	0x3e04c008	0.12963879
150	0x3e46169c	0.19344562
151	0x3cef0d18	0.029181048
152	0xbd547006	-0.051864646
153	0xbd771e48	-0.060331613
154	0xbe13a38d	-0.14417858
155	0x3e80e657	0.25175735
156	0x3b9974d9	0.004683119
157	0xbcb25550	-0.021769196
158	0x3e5d437a	0.21607772
159	0x3d6063e4	0.054782763
160	0x3e48ca37	0.19608389
161	0x3cd35ec1	0.025802018
162	0xbc776372	-0.015099393
163	0x3badc23d	0.005302696
164	0xbdfd102b	-0.123565994
165	0xbd052d1e	-0.03251373
166	0x3eaabe7a	0.33348447
167	0x3dff0645	0.12452368
168	0xbe204446	-0.15651044
169	0xbe1d6a67	-0.1537262
170	0xbe046a6f	-0.12931226
171	0x3e8226ea	0.25420314
172	0xbd73d758	-0.05953154
173	0xbf089d03	-0.5336458
174	0xbc655217	-0.0139966225
175	0xbd5d97b0	-0.05409974
176	0x3db91d8a	0.09038837
177	0x3e941b55	0.28927103
178	0x3db68bb1	0.08913363
179	0xbc88db2d	-0.016706074
180	0x3dc8cf61	0.098051794
181	0xbe063eb5	-0.13109858
182	0xbdaf4b18	-0.08559245
183	0xbd13955f	-0.036031123
184	0xbd0ea293	-0.03482301
185	0xbd1a0f2d	-0.03761213
186	0xbdf940eb	-0.12170585
187	0xbb62347b	-0.0034516144
188	0x3eb2ee7d	0.34947577
189	0xbd52aae4	-0.051432505
190	0x3cca1f5c	0.024673156
191	0xbe18b070	-0.14911056
192	0xbd950418	-0.072761714
193	0xbc2f3db5	-0.010695864
194	0x3e043636	0.12911305
195	0x3e02f15b	0.12787382
196	0xbe42500c	-0.18975848
197	0xbe70a35f	-0.23499821
198	0xbd99309f	-0.07479977
199	0xbcbdeb87	-0.023183597
200	0x3d45e0c0	0.04831004
201	0xbe76a504	-0.24086386
202	0x3cbcedc5	0.023062596
203	0xbe0e0b63	-0.13871531
204	0x3d04173d	0.032248724
205	0x3d589727	0.052878525
206	0x3d9ec939	0.07753224
207	0xbdca1e49	-0.09869058
208	0xbe5f4208	-0.21802533
209	0x3e1ff351	0.15620162
210	0xbb95f2cb	-0.0045760623
211	0x3ddcd983	0.107836746
212	0xbcb52ded	-0.022116626
213	0x3be04a27	0.006844777
214	0x3e16d55c	0.14729828
215	0xbc8f909d	-0.017525012
216	0xbdbd9db5	-0.09258596
217	0x3dd58b78	0.10426992
218	0x3d5ac833	0.05341358
219	0x3d798378	0.060916394
220	0x3e80c9be	0.25153917
221	0x3e87bcd9	0.26511267
222	0x3df061b6	0.11737387
223	0x3e72bd82	0.23705104
224	0x3e0e204d	0.1387951
225	0x3c177ab3	0.009245562
226	0xbe17c784	-0.14822203
227	0xbdbe3c6b	-0.092888676
228	0x3d0ed37d	0.03486966
229	0xbdf4ac92	-0.11946978
230	0x3d950591	0.07276452
231	0x3e77b390	0.24189591
232	0xbd42b5ff	-0.047536846
233	0x3de1d5b7	0.11027091
234	0xbe23e9bf	-0.16007136
235	0x3d7850c4	0.0606239
236	0xbd95070b	-0.07276734
237	0xbd3aff9c	-0.045653924
238	0x3c3a7191	0.011379615
239	0xbddab3db	-0.10678836
240	0xbe86bdeb	-0.2631677
241	0x3dafc8c7	0.08583217
242	0x3ece862e	0.40336746
243	0x3d9842e8	0.07434636
244	0x3ef8a654	0.48564398
245	0xbcc1f531	-0.023676487
246	0x3e0d2414	0.13783294
247	0x3ebad53b	0.36490807
248	0x3daeeb00	0.085409164
249	0x3d24dde6	0.04025068
250	0xbe96ed0f	-0.29477736
251	0xbe43c042	-0.1911631
252	0xbe330c00	-0.17485046
253	0x3d070381	0.032962326
254	0xbdc1d3d2	-0.0946423
255	0xbe411d40	-0.18858814

network_body.linear_encoder.seq_layers.2.bias f4 [128]
0	0x3cba5827	0.022747112
1	0xbc416df2	-0.011805998
2	0xbb309d9c	-0.0026949411
3	0x3cb91c02	0.022596363
4	0x3d73ea22	0.05954946
5	0xbacbc81c	-0.0015547308
6	0x3d1c1b84	0.03811218
7	0x3d85cc2f	0.065330856
8	0x3d72d452	0.059284516
9	0x3d695392	0.056964464
10	0x3d84ac1f	0.06478142
11	0x3a496993	0.0007683273
12	0xba758c8c	-0.00093669514
13	0x3d1416ee	0.03615468
14	0xbc2afbc3	-0.010436001
15	0x3d82a1ae	0.06378494
16	0x3cae4123	0.021271294
17	0x3d8fca8d	0.07021055
18	0xba814a39	-0.0009864039
19	0xbceb4bef	-0.028722731
20	0x3d673270	0.056444585
21	0x3c310527	0.010804451
22	0x3d318ccd	0.04334717
23	0x3cea6fca	0.028617758
24	0xbcf78b39	-0.030217754
25	0x3c9343c3	0.017976647
26	0x3d1dd47f	0.03853273
27	0x3d1d9009	0.03846744
28	0x3cb4a840	0.022052884
29	0x3c5570ce	0.013027383
30	0x3d0d6a46	0.03452518
31	0x3d03bf0b	0.032164615
32	0x3d770539	0.060307715
33	0x3d6cae0b	0.057783168
34	0x3c1e0967	0.009645796
35	0xbcda7202	-0.026665691
36	0x3bf94997	0.0076076495
37	0x3cd4f1d4	0.025994219
38	0x3d0d72b4	0.034533218
39	0x3d06dea5	0.032927174
40	0x3d4be998	0.04978332
41	0xbbe0aeb4	-0.0068567637
42	0x3c609cd9	0.01370927
43	0x3d0eecb8	0.03489372
44	0x3cd214e3	0.025644725
45	0xbc56e08a	-0.013115058
46	0x3cc9eb35	0.024648288
47	0x3d1e4421	0.03863919
48	0xbcac7e27	-0.021056248
49	0xbc47711d	-0.012172964
50	0x3d237f99	0.03991661
51	0x3aa22667	0.0012371064
52	0x3c6b1209	0.014347562
53	0x3d4bd202	0.049760826
54	0x3c84ac6b	0.016195497
55	0x3b7cef65	0.0038594839
56	0x3d033f84	0.032042995
57	0x3cbeffa3	0.023315256
58	0x3d9b96da	0.07597132
59	0x3cae2fff	0.02126312
60	0xbbf83f05	-0.007575872
61	0x3b0b8c88	0.002129348
62	0xbc85770e	-0.016292121
63	0x3baa010f	0.0051881145
64	0xbc93d121	-0.018044056
65	0x3c953cd5	0.018217484
66	0x3acf3570	0.0015808772
67	0x3cce3534	0.025171854
68	0x3b4cb9f0	0.0031238757
69	0x3cdc447a	0.02688812
70	0x3c328763	0.0108965365
71	0x3d2140d2	0.039368458
72	0x3cea92e8	0.028634503
73	0x3c54db2f	0.012991711
74	0x3c9372c8	0.017999068
75	0x3d3e8ced	0.046521116
76	0x3cc48f68	0.023994163
77	0x3cffd3fa	0.031229008
78	0x3ce52e54	0.027976193
79	0x3c606437	0.013695768
80	0x3cc116a0	0.023570359
81	0x3d0160e2	0.031586535
82	0x3d0c215e	0.03421151
83	0x3d5e6c10	0.054302275
84	0x3ba4a027	0.0050239745
85	0x3d54e0a6	0.051972054
86	0x3cc502df	0.02404922
87	0x3cc6cfcc	0.024269007
88	0x3c89aa08	0.01680471
89	0x3d1adbdb	0.037807327
90	0x3d823e4c	0.063595384
91	0x3d7f741e	0.062366597
92	0x3d5f564a	0.05452565
93	0x3d0f7022	0.035019048
94	0x3d027c9e	0.031857125
95	0x3d0ccdbb	0.034375887
96	0xbbeabdd8	-0.0071637444
97	0x3ceb3793	0.028713023
98	0x39d1b4c9	0.00039998282
99	0x3d04e791	0.0324474
100	0xbb97e61e	-0.0046355864
101	0x3bb45aa7	0.0055039707
102	0xbc52dd89	-0.012870201
103	0x3d66b2f5	0.05632301
104	0xbcabe050	-0.020980984
105	0xbbfb8563	-0.007675813
106	0xbd000854	-0.031257942
107	0x3c55236a	0.013008932
108	0xbc18d75b	-0.0093286885
109	0x3bc66e96	0.0060556633
110	0x3ca7d251	0.020486029
111	0x3d60e8dc	0.054909572
112	0x3cbb571c	0.022868685
113	0x3d12d374	0.03584619
114	0x3d065e08	0.03280452
115	0xbc3608c2	-0.011110486
116	0x3cf0c6d3	0.029391682
117	0x3d0d48bc	0.034493193
118	0xbafba00d	-0.0019197479
119	0xbc527f81	-0.012847782
120	0x3d751b70	0.05984062
121	0x3d092fd8	0.033492893
122	0xbbc571ce	-0.0060255295
123	0x3d6e81a8	0.05822912
124	0x3dae5d8a	0.08513935
125	0x3c8f2792	0.017474923
126	0x3d5eb223	0.054369103
127	0x3ce18fbb	0.027534356

network_body.linear_encoder.seq_layers.2.weight f4 [128, 128]
0	0xbe279d30	-0.16368556
1	0x3e383627	0.17989407
2	0xbb0d31f6	-0.0021544672
3	0x3d874e44	0.06606725
4	0xbdab5594	-0.08365932
5	0xbe0cb833	-0.13742141
6	0xbce2cf9a	-0.027686883
7	0x3d655844	0.05599238
8	0xbd718ca3	-0.058972012
9	0x3d5e0da0	0.054212213
10	0x3da2b1ca	0.07944067
11	0x3d255b9c	0.04037057
12	0xbc390750	-0.011293247
13	0xbc9e11ac	-0.019295536
14	0x3ba2ab7e	0.004964291
15	0x3e0ef872	0.13961962
16	0x3daa5823	0.08317592
17	0x3dcd4af6	0.10024063
18	0xbcae3d0e	-0.021269348
19	0xbd6a3184	-0.057176128
20	0xbd2304c3	-0.039799463
21	0xbdada578	-0.08478826
22	0x3e584b7f	0.2112255
23	0xbe1a4b3c	-0.15067762
24	0xbd5df3db	-0.054187637
25	0x3d4c3c12	0.049861975
26	0x3dea12d9	0.11429376
27	0x3ba82e67	0.0051324847
28	0x3b9a1bcc	0.0047030207
29	0xbb9f79dd	-0.004866822
30	0x3e1588fa	0.14603034
31	0x3cb791a6	0.022408318
32	0x3e460b5a	0.19340268
33	0xbc92d957	-0.017925901
34	0xbd082b0b	-0.033244174
35	0x3e1ee2ee	0.15516254
36	0x3de654ee	0.11246668
37	0xbcb6f746	-0.022334706
38	0x3b9cb1b9	0.0047819284
39	0x3d28959c	0.041158304
40	0xbd95ae9f	-0.07308697
41	0xbd8602ea	-0.065435246
42	0x3d480487	0.048832443
43	0x3d26ae17	0.04069337
44	0x3e30439d	0.17213292
45	0xbde7fa4c	-0.11327037
46	0x3e05bc6d	0.1306016
47	0x3e0f37e9	0.13986172
48	0x3d9f34d1	0.07773746
49	0x3d7e20f0	0.06204313
50	0xbc9f07f9	-0.019412981
51	0x3d5a57a9	0.053306255
52	0x3ddc8cad	0.10769019
53	0xbc401fce	-0.011726333
54	0xbabc4ca1	-0.0014366099
55	0xbc4d31cf	-0.012524082
56	0x3d442322	0.047885068
57	0xbe394782	-0.18093684
58	0x3e72b6ba	0.23702517
59	0xbe47eecf	-0.19524692
60	0xbc9f3022	-0.019432131
61	0xbda08fbb	-0.078399144
62	0x3d9672d2	0.07346119
63	0xbe6b2dc5	-0.22966678
64	0xbe22cde9	-0.15898861
65	0x3e421283	0.18952374
66	0xbdd253e8	-0.1026991
67	0xbbc1d5ea	-0.005915393
68	0xbe0245c7	-0.1272193
69	0x3d1fe37f	0.039035317
70	0xbe142d16	-0.14470324
71	0xbd622108	-0.055207282
72	0xbe9590ac	-0.29211938
73	0xbcf5ea72	-0.030019019
74	0x3dae5e46	0.08514075
75	0x3e2237dc	0.15841621
76	0xbd22a214	-0.03970535
77	0xbb80c7d1	-0.00393007
78	0xbe374ae5	-0.17899664
79	0x3e1864cc	0.14882201
80	0xbd93a96a	-0.072100475
81	0x3dbf5283	0.0934191
82	0x3da607a0	0.08106923
83	0xbc5e5759	-0.01357063
84	0xbdb6e184	-0.089297324
85	0x3e50598c	0.2034666
86	0x3df5198d	0.11967764
87	0x3e289f44	0.16467005
88	0xbdb1ebea	-0.08687575
89	0xbd9107aa	-0.0708154
90	0x3e34f9e5	0.17673452
91	0xbd7b04c2	-0.061283834
92	0x3decb383	0.11557677
93	0x3c51f9a4	0.012815867
94	0xbda70d6c	-0.08156857
95	0xbd54a28d	-0.051912833
96	0xbd937e8f	-0.072018735
97	0xbd4dae87	-0.05021527
98	0x3e092ca5	0.13395937
99	0x3dd85b59	0.10564298
100	0xbd8663c6	-0.06561999
101	0xbcb09562	-0.021555606
102	0xbdb2a613	-0.087230824
103	0x3d4c7c28	0.049923092
104	0xbda65201	-0.0812111
105	0x3c06c665	0.008226012
106	0x3d2c341f	0.042041894
107	0x3d151bb7	0.036403384
108	0xbc4a47b2	-0.012346195
109	0xbda1f241	-0.079075344
110	0xbe893e76	-0.26805466
111	0xbe2e9729	-0.1704985
112	0x3d87288d	0.06599531
113	0x3d06229d	0.032747854
114	0xbe947493	-0.2899519
115	0xbdc64c74	-0.09682551
116	0xbdb24f87	-0.08706575
117	0xbcc88974	-0.024479605
118	0x3e24f1ee	0.16107914
119	0x3d242754	0.04007657
120	0x3e59d55d	0.21272798
121	0xbdf2aeef	-0.11849772
122	0xbe4fe346	-0.20301542
123	0x3e447394	0.19184715
124	0x3d5aa21c	0.053377256
125	0xbdb4365c	-0.08799431
126	0x3d6a95df	0.057271834
127	0x3e15e169	0.14636768
128	0xbe52de5d	-0.20592637
129	0xbcb81299	-0.022469806
130	0xbe0f22a5	-0.1397806
131	0xbda7282b	-0.08161958
132	0x3d2242ab	0.03961436
133	0x3dc37251	0.095432885
134	0xbcd02687	-0.025408996
135	0xbe357e24	-0.177239
136	0x3e4de496	0.2010673
137	0xbd58ddf1	-0.052946035
138	0x3c550d5c	0.013003673
139	0x3e27389f	0.16330193
140	0x3d949e2e	0.07256733
141	0xbdb0cb42	-0.08632518
142	0xbd5af74d	-0.0534585
143	0x3b31b37e	0.0027115042
144	0xbe112fb9	-0.14178361
145	0x3dc53858	0.09629887
146	0xbc8917cf	-0.016734986
147	0xbd8913c2	-0.06693222
148	0xbe12b2a5	-0.1432596
149	0xbd163223	-0.036668908
150	0x3ca07fa4	0.019592114
151	0xbc9b385d	-0.018947775
152	0x3e2ac12f	0.16675256
153	0xbd49501f	-0.049148675
154	0xbdbd9e87	-0.09258752
155	0xbc50f51b	-0.01275375
156	0x3cf89272	0.030343268
157	0x3df7cc0f	0.12099468
158	0x3e573b51	0.21018721
159	0xbd69f3c0	-0.057117224
160	0xbd7fbc80	-0.062435627
161	0xbe5d437a	-0.21607772
162	0xbdfbdde5	-0.122981824
163	0x3d717e3c	0.058958277
164	0x3de20cdb	0.11037608
165	0xbe31b60a	-0.17354599
166	0x3d3a9a7f	0.045557495
167	0x3e388a7d	0.18021579
168	0xbe337e06	-0.17528543
169	0x3df529fa	0.11970897
170	0x3d920e5f	0.07131647
171	0x3d1ea911	0.038735453
172	0x3e07b1f8	0.13251483
173	0x3c18a0b8	0.009315662
174	0x3dd04ae4	0.10170534
175	0xbcfc73ea	-0.03081699
176	0x3c017d48	0.0079034045
177	0x3c316a4c	0.010828566
178	0xbe144676	-0.14480004
179	0xbdb80ed2	-0.08987202
180	0x3df1d9d9	0.11809129
181	0xbd711759	-0.058860157
182	0x3d454d18	0.048169225
183	0xbcd27f7a	-0.025695551
184	0xbd71e814	-0.059059218
185	0x3d42171c	0.04738532
186	0x3d1083b4	0.035281852
187	0x3daf9677	0.08573621
188	0xbc94e337	-0.01817475
189	0xbd6a00e0	-0.05712974
190	0xbde05a6c	-0.109547466
191	0x3de68c4b	0.112572275
192	0x3da7e08a	0.08197124
193	0x3b878c1d	0.004136576
194	0x3c283d90	0.010268584
195	0x3d7c899b	0.06165467
196	0xbda7b381	-0.081885345
197	0x3aab73c0	0.0013080761
198	0x3df6aae6	0.12044315
199	0xbcff41b9	-0.031159269
200	0x3c85ff01	0.016356947
201	0xbd87a327	-0.06622916
202	0xbd00d112	-0.031449385
203	0x3c892e01	0.01674557
204	0xbe1932ee	-0.14960834
205	0xbddcdf45	-0.10784773
206	0x3d17f572	0.03709931
207	0xbd49d168	-0.04927197
208	0x3d52c5ba	0.051458098
209	0x3d07924e	0.03309851
210	0x3d107194	0.035264567
211	0x3dae86b4	0.08521786
212	0x3c72f331	0.014828489
213	0xbd8b8d20	-0.06814027
214	0x3e21be0f	0.15795158
215	0xbd4ec739	-0.050482962
216	0xbe037d26	-0.12840709
217	0x3ddd3cc0	0.10802603
218	0xbc56af73	-0.013103354
219	0x3db59b9a	0.08867569
220	0x3c5b32ff	0.013378858
221	0xbc89ec41	-0.016836287
222	0x3bf8ff13	0.0075987666
223	0xbc8513dc	-0.016244821
224	0x3e065f45	0.1312228
225	0x3dab8a78	0.0837602
226	0xbd4e43db	-0.05035768
227	0x3d91ba75	0.07115642
228	0x3d938f37	0.072050504
229	0x3c8880e0	0.016663015
230	0x3db0ba6f	0.086293094
231	0x3cff58f3	0.031170344
232	0x3dd43237	0.1036114
233	0x3e0dfd6b	0.13866203
234	0x3d9f070f	0.07765018
235	0xbdfcd8c6	-0.12346034
236	0xbd453564	-0.04814662
237	0x3c82fd01	0.015989782
238	0xbe2f85ee	-0.17140934
239	0xbd527b61	-0.051387195
240	0x3d9166e0	0.070997
241	0xbd929be5	-0.07158641
242	0xbd1103bf	-0.035403963
243	0x3e192fe9	0.14959683
244	0x3d8ab159	0.06772108
245	0xbd3c0945	-0.045907278
246	0xbcee244a	-0.029070038
247	0x3de9eab4	0.11421719
248	0xbe0e1fef	-0.13879369
249	0x3cb354b4	0.021890976
250	0x3a167770	0.00057398435
251	0x3e00d5ef	0.12581609
252	0xbdb81628	-0.08988601
253	0xbe457dba	-0.19286242
254	0x3c1a9d53	0.009436923
255	0x3d3b4bc9	0.04572657
