Project/Assets/ML-Agents/Examples/FoodCollector/TFModels/FoodCollector.onnx (onnx, 99006 bytes, 9 tensors)

56 f4 [1, 3]
000000 58 f9 b5 bd f5 63 c3 bd 09 22 d0 bd
       -0.08885449 -0.0954055 -0.10162742

action_model._continuous_distribution.mu.bias f4 [3]
000000 33 06 17 3d d7 90 47 ba 85 0e 08 bd
       0.036871146 -0.00076128304 -0.033216972

action_model._continuous_distribution.mu.weight f4 [3, 128]
000000 7f 58 00 be 11 56 3a 3d 21 0c 9f bd c0 f3 87 3b
       -0.12533759 0.045492236 -0.07765985 0.0041489303
000010 40 0f 44 bd e2 77 7b 3d f3 6d 20 bd b2 46 9b bd
       -0.047866106 0.061393626 -0.039167356 -0.075818434
000020 c3 79 e1 bb 51 bb c1 bd 88 07 64 3d 93 a1 1a bd
       -0.00688097 -0.09459556 0.055671245 -0.037751745
000030 e8 ad 4d 3c e2 46 2c 3d 61 17 8c bc ec 24 fb ba
       0.0125536695 0.042059787 -0.017100992 -0.0019160784
000040 96 71 bc bc e6 0e 5d bd c9 d5 97 3c 40 95 f3 3d
       -0.02300338 -0.053969286 0.018534558 0.118937016
000050 bf bd 99 bc f7 d6 82 bc 3c af 7a 3d 15 0c b0 3c
       -0.018767236 -0.015971644 0.061202273 0.021490136
000060 16 51 24 3d 80 24 6a 3c 47 45 81 bd 45 c4 d6 3d
       0.040116392 0.014290929 -0.06312042 0.10486654
000070 1e 11 77 bd 82 85 77 3d 8f cb 34 3d d8 0e 69 3c
       -0.06031906 0.060430057 0.04413944 0.01422473
000080 7e 10 06 39 46 64 d1 3d 0f 6f 04 3c 9a 1c 3b bd
       0.0001278538 0.10224204 0.008083119 -0.045681573
000090 5d 35 03 3d 3f c0 db 3d 1d c0 d9 3c 5f 59 1b bd
       0.032033313 0.107300274 0.026580865 -0.037927028
0000a0 33 e0 50 3d 9d 1a e6 bb 9a b9 ef 3c f3 48 c8 3c
       0.050995063 -0.0070222155 0.029263306 0.024448847
0000b0 eb 58 97 3d 1a 0d ba b8 01 c0 36 be e4 b3 e1 bc
       0.07390007 -8.8716115e-05 -0.17846681 -0.027551599
0000c0 df f8 2d bd 2b f5 2e 3d 51 18 80 bd 80 e5 66 bd
       -0.04247367 0.04271428 -0.06254638 -0.056371212
0000d0 0a 5b cb bc ce 34 62 bd 4d 39 68 bd ab e8 c6 bb
       -0.024823684 -0.05522614 -0.05669527 -0.0060702167
0000e0 52 aa a1 bb e2 39 b1 3c 48 98 3c bd 1d d6 39 bc
       -0.004933634 0.021634046 -0.046043664 -0.0113425525
0000f0 34 a3 99 bd 1b 40 9d 3b 11 83 60 bd 6e b2 a1 3d
       -0.07501832 0.0047989017 -0.054812495 0.07895361
000100 40 55 1c bd 43 d4 64 bd e4 e1 f8 bd 56 e3 d1 bd
       -0.03816724 -0.05586649 -0.1215246 -0.10248439
000110 ca 3f 20 3d ff 74 41 3d b8 71 91 3d 54 23 87 bd
       0.039123334 0.047230717 0.07101768 -0.06598535
000120 4d b9 87 bd b1 43 67 bd a8 55 9b 3d 41 f6 23 3d
       -0.0662714 -0.05646104 0.07584697 0.040029768
000130 28 cf 6c bd cf 70 39 3c aa d4 6b 3d 8c 25 ad 3c
       -0.057814747 0.0113184 0.05757586 0.021136068
000140 e9 25 89 3d d3 f7 67 bd 7b e7 47 bd 63 0b 98 bc
       0.06696684 -0.056632828 -0.04880474 -0.018560117
000150 86 c1 54 bd 03 9a 4c bd 3f 10 8c 3c 4e a3 02 bc
       -0.05194237 -0.049951565 0.01709759 -0.007973505
000160 9f 82 26 38 bd 32 c4 bd 57 f4 89 3d 65 23 c4 bd
       3.9699135e-05 -0.0957999 0.06736057 -0.095770635
000170 fe 4d 4b bd e7 81 97 bd 63 2c b2 bc 53 f8 94 bd
       -0.049634926 -0.07397824 -0.02174968 -0.072739266
000180 31 6f 5d bd 44 8a 0e 3d 26 49 ce bd e9 8d 1c bd
       -0.05406112 0.03479983 -0.10072546 -0.038221274
000190 2d 4a a2 bd 62 2f 6b 3b 07 a9 7d bd 96 09 53 3d
       -0.07924304 0.0035886397 -0.061928775 0.051522814
0001a0 16 f8 a1 3d b7 69 8e 3b 44 73 f8 3c 99 87 34 bd
       0.07908647 0.0043460983 0.0303284 -0.04407463
0001b0 6a 1d 22 bd d4 cd 93 bc 44 00 46 3d 54 b3 bf bd
       -0.039578833 -0.018042482 0.048340097 -0.09360376
0001c0 c8 5d bb 3c 2b ba c5 3c e4 47 2d 3c 59 04 03 bd
       0.022871867 0.024136623 0.010576222 -0.031986568
0001d0 6e ae 58 3d 02 35 ac bb 66 70 0f 3d c5 e9 6b bd
       0.052900724 -0.0052553425 0.0350193 -0.057595987
0001e0 f7 37 b2 3c 71 59 ed bd fb 1d 0e 3c 95 4d 45 bc
       0.021755202 -0.11589325 0.00867414 -0.012042423
0001f0 65 dd 31 bd 2a 92 62 3d 3f 88 12 bc c2 b1 cf bd
       -0.04342403 0.055315174 -0.008943616 -0.101413265
000200 5a 3f a4 3c 85 da 89 bb 86 32 92 3d 0c 7c f2 3d
       0.02004974 -0.0042069578 0.07138543 0.11840066
000210 81 95 48 bd 66 7d 42 3d 61 a6 c6 bd fe a2 41 3c
       -0.048970703 0.04748287 -0.09699703 0.0118186455
000220 44 94 2a bd 2a 61 eb 3d 5d 18 9a bd ab ad 8d 3c
       -0.041645303 0.11493142 -0.07524178 0.017294725
000230 78 8d f3 bc d1 40 a2 bb 4e fc 80 3d e7 cb 2f bc
       -0.029730543 -0.0049515744 0.06298123 -0.010729766
000240 cf e3 57 bd 07 1f d1 3c 9b d9 91 bd d9 8c 2d bb
       -0.05270749 0.02552749 -0.07121583 -0.0026481657
000250 f4 c0 2c bd dd 8c 6c bd a0 5b e4 3c c2 a6 5c 3d
       -0.042176202 -0.057751525 0.027875721 0.05386997
000260 92 fe 11 bb c9 21 95 bd 6b b1 e1 b9 ac d6 21 3c
       -0.002227698 -0.07281835 -0.0004304753 0.009877842
000270 8e 22 62 3c ff e7 a4 3c d0 c9 14 bd b1 cf 63 bd
       0.013802184 0.020130156 -0.036325276 -0.05561799
000280 5f cd 02 bd 00 11 df bb 8b 1d fc 3d ee 79 dc bc
       -0.03193414 -0.0068074465 0.123103224 -0.02691361
000290 43 6e 84 bd c5 0e 45 bc 68 e0 a0 bd b2 f9 1b 3d
       -0.06466343 -0.012027447 -0.07855302 0.038079925
0002a0 38 22 cb 3c f0 1c 96 bc e5 7c ba 3d 3b 6c 8c 3d
       0.02479659 -0.018324345 0.09105853 0.06856581
0002b0 4c d6 c5 bc 14 1d 99 bd 62 42 de bc a2 05 01 3d
       -0.024150036 -0.07476249 -0.027131263 0.031499512
0002c0 b7 e1 81 bc 89 ce 5b bd b1 2a 2f bc cb 95 a5 bc
       -0.0158547 -0.053663764 -0.010691331 -0.020213028
0002d0 4d 50 20 bd 6c 84 96 bd 13 d6 d8 39 7d c2 e6 bc
       -0.03913908 -0.07349476 0.00041358228 -0.028168911
0002e0 ef 8b c2 bd 08 5f 8c bc 01 c0 4c 3d 9a d5 6a 3d
       -0.094993465 -0.017135158 0.049987797 0.057332613
0002f0 ae 6c 99 bd 5f 8b 7c 3d 88 53 0e bd a5 9d 93 bd
       -0.07491432 0.061656352 -0.03474763 -0.07207803
000300 11 95 57 bd 1e 1b d6 3d eb 71 9f bd b4 ef 10 bc
       -0.052632395 0.10454391 -0.077854 -0.008846212
000310 8c 18 d9 bc e7 c8 80 3d 4c 48 6f bc 6c 35 52 bc
       -0.026500963 0.06288319 -0.014604639 -0.01283012
000320 9b 21 cb bc 9f 76 8b 3b d3 e6 d2 bd bb 06 c3 bc
       -0.024796298 0.004256084 -0.102979325 -0.02380692
000330 e6 a1 34 3d f3 43 ae 3d 40 02 87 bd 1f 0b b6 3d
       0.04409971 0.08509054 -0.06592226 0.0888884
000340 08 24 52 3d 54 30 c9 3b c5 60 a5 bd 91 f5 4d 3d
       0.051303893 0.0061397944 -0.08075098 0.05028302
000350 f6 e8 14 3c 2b cf 51 bc 1c 3d 84 bc 42 49 8f bc
       0.009088745 -0.01280574 -0.01614242 -0.017490987
000360 13 15 2f bc 36 35 55 3d ef 3d 06 bc 83 6f 07 3d
       -0.010686177 0.0520527 -0.008193477 0.03306533
000370 e7 28 b2 bd 0f 53 5f 3c 9f af 31 bd 45 49 72 bd
       -0.08699208 0.013630643 -0.043380376 -0.059151907
000380 6c c7 b6 bc cc a3 70 bc 92 69 0d 3c c3 33 bd bd
       -0.022311889 -0.01468749 0.008631127 -0.092383884
000390 95 fd 0f 3d e4 ab 9c 3d 21 56 b4 3b d5 0c 46 bd
       0.035153944 0.07649973 0.0055034314 -0.04835208
0003a0 c9 9e 9e 3d 07 5b 73 bd 66 81 81 bd 1c 51 86 bb
       0.077451296 -0.059412982 -0.06323509 -0.0040990245
0003b0 05 62 9e 3b 9c e3 33 bb 55 fa 29 3d 2c 93 c5 3b
       0.004833462 -0.0027448898 0.0414985 0.006029507
0003c0 11 b4 d9 3c 1d d8 8b 3d 12 b9 f8 3c 3b 3b 1a 3d
       0.02657512 0.0682833 0.030361686 0.037654143
0003d0 74 93 97 bc 18 25 89 bd f9 7c 46 3d d3 57 ab 3d
       -0.018502928 -0.06696528 0.048459027 0.083663605
0003e0 b6 73 f0 3d a5 02 a6 bd 62 cc 65 bd e8 d8 ad bb
       0.1174082 -0.08105973 -0.056103118 -0.0053053983
0003f0 e0 e2 29 bb d9 ae 25 3d 5e 81 99 bd 0a 02 4d 3d
       -0.0025922582 0.04044995 -0.07495378 0.050050773

action_model._discrete_distribution.branches.0.bias f4 [2]
000000 a0 f0 cb bb a9 f0 cb 3b
       -0.006223753 0.0062237573

action_model._discrete_distribution.branches.0.weight f4 [2, 128]
000000 05 b2 7f bd a9 34 7f 3d f6 11 89 bd 4c f1 0f bd
       -0.062425632 0.06230608 -0.06692879 -0.035142228
000010 82 0a 01 bc 89 20 98 3b b8 94 d2 bc 7b ec 95 bd
       -0.00787604 0.0046425504 -0.02570568 -0.07320496
000020 3e 49 69 bc 56 d6 82 bd 4d 66 35 3d a8 cd e5 b5
       -0.014238654 -0.063885376 0.044287015 -1.7121683e-06
000030 25 fd d4 3c d0 da ba 3c c9 82 26 bc 2c 2b de b8
       0.025999615 0.022809416 -0.010163018 -0.00010593826
000040 01 38 9b 3c b6 2d 62 3a ee 0d 0b 3d 13 e2 23 3d
       0.018947603 0.0008628027 0.03394883 0.040010523
000050 66 62 3e 3c e7 1a 25 3d 70 11 2e 3d 7e bd b4 3c
       0.01162014 0.04030886 0.0424971 0.022063013
000060 3f 1e 97 3d 91 c7 8e 3b f2 58 90 3c 79 9b d5 3b
       0.07378816 0.0043572863 0.017620537 0.006518778
000070 00 fd 78 3c 08 ba 24 3d 38 20 e3 3c 0b 9e 93 3d
       0.015197039 0.040216476 0.027725324 0.07207879
000080 dd 2b 14 3d 54 f2 8e 3d d8 96 71 bc 4e 7a 11 3d
       0.036174644 0.06979814 -0.014745437 0.03551703
000090 1e ce fe 3c 59 e8 37 3d f0 4b 1b 3d ee 7f 5e bc
       0.031104144 0.04489932 0.037914217 -0.0135803055
0000a0 4d a3 43 3d 6b fa 09 bc ad 86 5e bd b1 e5 9a 3c
       0.047763158 -0.008421521 -0.054327656 0.018908354
0000b0 26 de 34 3d b1 58 a2 3c 8b 99 4b bd 02 5b e6 bc
       0.04415717 0.019817682 -0.049706977 -0.028119568
0000c0 09 7a de bc f3 1b 44 3d 3f 94 54 bc 00 2b 84 3c
       -0.0271578 0.047878217 -0.012974798 0.016133785
0000d0 50 ae a2 bc 6a 62 bb 3c cc ff 09 3d 4f 60 60 3c
       -0.01985851 0.022874076 0.033691213 0.013694837
0000e0 09 6a 48 bc 1e a7 98 bc 05 0a ac bb e1 18 27 bd
       -0.012232312 -0.018634375 -0.005250218 -0.04079521
0000f0 f7 6d 52 3b 2f b0 ef 3b 3f f7 0b bc 5a 4f 90 3d
       0.0032109001 0.007314704 -0.008542835 0.07046385
000100 c3 08 d3 3b 24 13 6c bd 72 89 ba bd 8a c7 6c bd
       0.0064402535 -0.05763544 -0.09108247 -0.057807483
000110 21 3b 5b 3d ed b9 34 3d 03 1e 06 3d ed ee ec 3c
       0.053523187 0.044122625 0.032743465 0.028922522
000120 54 89 40 bd 33 3b f5 3b b5 32 4e 3d 9c a9 22 3d
       -0.047005966 0.0074838637 0.050341327 0.039712533
000130 9c 41 1e bd ba 2e ce bc 9c 47 12 3d ee 2a db bc
       -0.03863679 -0.025168765 0.035712823 -0.026753869
000140 60 e3 2a 3d f5 07 98 bc 90 58 04 bd fe a4 d5 ba
       0.041720748 -0.018558482 -0.032311022 -0.0016299782
000150 e5 1e 09 3d 94 70 39 bc cf f6 89 3c d7 d1 38 bc
       0.03347673 -0.011318345 0.01684132 -0.0112804985
000160 f3 fb 3a 3d 9d 6d 7f bd 8d c2 cc 3c e2 03 eb bd
       0.045650434 -0.062360395 0.024995113 -0.1147535
000170 47 74 23 bd 13 7a 0f 3c 2f 9e 87 3c 0b 76 c6 3b
       -0.039905813 0.008757132 0.01655492 0.0060565523
000180 28 c6 5f 3b 8e 18 90 3c 39 d0 52 bd 6e 16 79 bd
       0.003414521 0.017589834 -0.051468108 -0.060812406
000190 50 e5 c5 3c db 6e ba bc 4e 59 4c 3c 76 cc c6 3c
       0.024157196 -0.022757938 0.012472464 0.024267416
0001a0 4a 34 f6 3c 74 6a 14 3d 82 1e 9c bc 0a e8 33 3d
       0.03005423 0.036234334 -0.019057516 0.04392246
0001b0 31 5e f2 bb 62 c8 ea bb b9 a4 9d 3c 1d 5e 7e 3c
       -0.0073964824 -0.007165001 0.019243585 0.015525368
0001c0 e8 db 01 3d 53 b1 b0 3c 5e fb b0 3b 53 4b 9e bc
       0.03170386 0.02156893 0.005401059 -0.019323027
0001d0 ce f4 ee 3b 8b 75 77 bc e6 14 15 bc 97 f5 4a bd
       0.0072923666 -0.015103708 -0.009099221 -0.04955062
0001e0 21 b7 17 bc fd f8 33 bd a4 71 a8 3c e1 2d 4f 3d
       -0.00925997 -0.043938626 0.020562 0.050580863
0001f0 65 97 47 3d 7b d2 07 bd 56 99 33 3d 14 9a 07 3d
       0.048728365 -0.033159714 0.043847404 0.033105925
000200 34 72 8d 3d f4 9e 59 bd 3b 66 94 3d 12 a5 f9 3c
       0.06906548 -0.053130105 0.072460614 0.03047422
000210 27 31 b0 3c af 10 7c bc 31 e7 b5 3c 32 3f 7c 3d
       0.021507813 -0.015384837 0.022204967 0.061583705
000220 ae cf 1b 3b 3c de 5d 3d e5 9e 40 bd 4f 53 51 bc
       0.002377491 0.054167017 -0.047026534 -0.01277621
000230 b1 ee d0 bc 36 08 9c bb 2e 17 ea 3b 7e af 99 3b
       -0.025504442 -0.004761721 0.0071438765 0.0046901098
000240 55 05 5c bc 21 e0 50 bb be 14 0b bd 3a 90 a7 bc
       -0.013429006 -0.0031871872 -0.03395533 -0.020454515
000250 e2 15 bd bc 96 a4 b9 bc c5 af 28 bd dc 72 ea bc
       -0.023081724 -0.022661489 -0.041183252 -0.028619222
000260 56 1f 8e bd 9e 87 82 bc ab 4b 37 bc a2 79 04 3b
       -0.069395706 -0.015933808 -0.011187474 0.00202141
000270 ee be 0a bc b8 47 c1 bc c0 30 36 bd 4e e6 fb bc
       -0.008468373 -0.023593768 -0.044480085 -0.030749466
000280 c2 b1 d2 bc bd 87 47 bd 90 f0 3b 3c 80 2b 20 bd
       -0.025719527 -0.048713434 0.011470929 -0.039103985
000290 76 0f 45 bd d3 19 61 bd 06 92 39 bd 42 68 74 3c
       -0.048110448 -0.05495627 -0.045305274 0.014917435
0002a0 7b 65 29 bd 89 04 89 3c 67 d6 6f 3d 25 e2 20 bb
       -0.041356545 0.016725795 0.05855408 -0.0024548855
0002b0 34 ed 25 bd 26 20 a4 bc ae c9 0b 3d e1 51 02 3d
       -0.040509418 -0.02003486 0.034127884 0.031816367
0002c0 83 bc dc 3c 25 ba 01 bd 76 16 50 bb f0 30 9f 3b
       0.026945358 -0.031671662 -0.003175167 0.0048581287
0002d0 c8 29 34 3c 82 7b 40 bc 43 7c 49 bd c5 f9 25 bc
       0.01099629 -0.011748197 -0.04919077 -0.0101303505
0002e0 49 52 60 bc c5 2f 7f 3b e5 91 11 3c ab af 00 3d
       -0.013691493 0.0038938385 0.008884882 0.03141753
0002f0 e0 9d bc 3a b9 fd 14 3c 67 c8 59 3c bf 3e 8a bd
       0.0014390312 0.009093695 0.013292409 -0.06750249
000300 64 a6 b3 bb a6 24 6f 3d 87 bd 90 3d 13 d8 31 3d
       -0.005482482 0.05838456 0.070673995 0.043418955
000310 37 d5 a8 bc ac 86 08 bd c1 57 c1 bc ad d6 a6 bc
       -0.020609481 -0.033331558 -0.023601415 -0.020366037
000320 b8 ee a1 3c 4f fd f4 3a 79 47 38 bd 59 0a 28 bd
       0.01976715 0.0018691214 -0.044990037 -0.041025493
000330 1d 87 5a 3d 73 51 12 3d cb a4 18 bd 2b 6b 6a 3c
       0.05335151 0.035722207 -0.037266534 0.014307777
000340 28 75 1e bd 91 a0 84 3c 83 05 0a 3d ff 47 f7 b9
       -0.038685948 0.016189845 0.033696663 -0.00047165153
000350 de 70 f6 bc 2c 05 fa 3a e9 af 10 bd f2 ff 06 3a
       -0.030083116 0.0019075028 -0.03532401 0.0005149833
000360 a1 bb 25 bd 0a 8b 87 3d 75 79 22 bd 5a a6 e2 3d
       -0.04046214 0.066183165 -0.03966661 0.11066885
000370 2d a4 7b 3d 5a 68 45 bc e4 53 a8 bc cd 85 64 3b
       0.061435867 -0.012048805 -0.020547815 0.003486979
000380 64 be 2b bc c6 61 2a bd 21 06 74 3d c7 f6 94 3d
       -0.010482404 -0.04159715 0.059576157 0.072736315
000390 37 10 11 bd f7 ed 90 3c 26 71 54 bc 9c d9 17 bd
       -0.035415854 0.017691595 -0.01296643 -0.037072763
0003a0 6a a8 2a bd d7 46 e0 bc a1 f8 ab 3c 6f e4 2a bd
       -0.04166452 -0.02737753 0.020992579 -0.041721758
0003b0 ec 22 99 3c 1e 47 47 3b cd 10 46 bd f5 97 d2 bb
       0.01869341 0.003040738 -0.048355866 -0.006426806
0003c0 3e 21 62 bd cb 1e 47 ba ba c6 bf bc 4a 4e eb 3c
       -0.055207483 -0.0007595836 -0.02341019 0.028723855
0003d0 9f ca 8c 39 6e 23 aa 3b 2c 0b 9c 3c c2 85 4c 3d
       0.00026853845 0.005192212 0.019048296 0.04993225
0003e0 94 2a eb 3b 2e 8d 55 3d fe 6f f7 bc 66 0c 31 bd
       0.0071767066 0.052136593 -0.03020477 -0.043224715
0003f0 ed bb 8e bd 22 9f 7f 3c 18 71 07 bd bf 86 e0 3b
       -0.06969438 0.015601905 -0.03306684 0.0068520005

network_body.linear_encoder.seq_layers.0.bias f4 [128]
000000 37 4a 37 3c 8f f2 34 3d 11 78 97 3d a8 9c a8 3c
       0.011187128 0.044176634 0.07395948 0.020582512
000010 fc 91 5d 3d 4e 23 21 3d 92 93 55 3d a0 44 a5 3d
       0.0540943 0.03934031 0.052142687 0.0806973
000020 e7 a1 92 3c 49 cf 8c 3d 21 5b a3 3d 81 e7 89 3d
       0.017899467 0.06875474 0.07976366 0.06733609
000030 03 12 49 3d 0c 2b a7 bb 7f 68 a0 3c 66 17 26 3c
       0.049089443 -0.005101567 0.019581078 0.010137415
000040 fb 2f 70 3d 69 5c 8e 3d 06 63 77 3d b4 69 0b 3d
       0.058639508 0.069512196 0.06039717 0.034036353
000050 4b bc f1 bb fc 67 c0 3c eb 91 57 3d b6 24 8f 3b
       -0.0073771826 0.023487084 0.052629393 0.00436839
000060 2f c8 0a bd ec 1e 26 3c f1 bb 28 bd f1 bd 73 bd
       -0.033882316 0.010139208 -0.04119486 -0.059507314
000070 63 d2 47 3d 2d 13 33 3d 8e 38 4f 3c 71 d7 80 bd
       0.048784625 0.04371946 0.012647761 -0.06291092
000080 40 3d 97 3d ca 0b 6d bb 8b 3b 3f bc 8d 07 05 3d
       0.073847294 -0.0036170357 -0.011671911 0.032477904
000090 85 d3 1b bc 57 99 41 3d 56 04 b1 3d f2 3b 93 3d
       -0.009510879 0.047265377 0.08643405 0.07189168
0000a0 40 18 9d 37 f3 cd 0f 3d 48 1f a1 3c 26 69 46 3d
       1.872715e-05 0.035108518 0.019668236 0.04844012
0000b0 90 b7 2d bd cc 67 9b bc 98 a7 94 3b 54 6f d6 3b
       -0.042411387 -0.018970393 0.0045365803 0.006544033
0000c0 38 81 52 bb ea b0 a3 3d 67 dc 20 3d 29 64 31 3d
       -0.0032120477 0.07992728 0.039272692 0.04330841
0000d0 40 fc b2 3d 89 40 3c 3d 9b ee 2e 3c 0a 00 e7 bc
       0.08739519 0.045959983 0.010677005 -0.02819826
0000e0 b6 ab d4 3c 20 13 56 3b c2 31 97 3d 09 4d 02 bd
       0.025960784 0.0032665208 0.073825374 -0.031811748
0000f0 0a 30 6c b9 60 46 f5 bb 8c f9 6c 3d ea a4 ab 3d
       -0.0002252461 -0.007485196 0.057855174 0.08381064
000100 ba c8 78 bd aa 45 0d 3d 87 25 26 bd c7 80 a9 bb
       -0.060738303 0.034490265 -0.040563133 -0.005172822
000110 15 4c a4 3c 08 95 25 bb 6b b7 8a 3d d5 20 a7 3d
       0.02005581 -0.0025265832 0.067732655 0.08160559
000120 c7 38 04 bc 3f 7b 8d 3d 33 c9 af 3c 3e dc a4 3d
       -0.008070177 0.06908273 0.021458244 0.0804982
000130 7f a4 81 3d 0f 12 8e 3d 32 7c 37 3c d0 02 83 b9
       0.06330203 0.06937038 0.011199044 -0.00024988363
000140 c5 60 d2 bb ea 55 aa 3d 2f 4e a5 3c e7 dc 82 3c
       -0.0064202272 0.08317168 0.020178882 0.015974475
000150 f8 bc 28 bd 6f e0 07 bb 50 4f 89 3d 47 ea 19 bc
       -0.04119584 -0.0020733138 0.06704581 -0.009394235
000160 54 13 d9 3c e1 38 25 bd cd 79 87 3d 81 79 e4 bc
       0.026498474 -0.040337447 0.066150285 -0.027889969
000170 f5 f9 fe 3c 11 e8 92 bd 48 34 67 3c 0d ec aa bc
       0.031125048 -0.071731694 0.014111586 -0.02086451
000180 4e 38 bc bc d0 d7 46 3d b7 d9 69 3d 1f f2 c9 3d
       -0.022976067 0.04854566 0.057092395 0.09860634
000190 c6 83 1a bc 3e 40 3d 3d 58 14 53 3d 49 16 0b bd
       -0.009430831 0.046203844 0.051533073 -0.0339568
0001a0 85 32 0d bd e0 6d 07 3d 6f 75 c7 3c a0 f4 74 bd
       -0.034472007 0.03306377 0.024347989 -0.059803605
0001b0 7e d9 ae 3b b8 37 4a 3d 92 ee d3 bc f2 4e aa 3d
       0.0053359857 0.049369544 -0.025870595 0.08315839
0001c0 04 25 30 3d fe 46 92 bc ca 08 83 3c 84 46 65 3d
       0.04300405 -0.017856117 0.015995402 0.055975452
0001d0 96 25 1b 3c a0 0d ec bc 7d e9 78 3d 42 85 1a 3d
       0.00946941 -0.02881509 0.060769547 0.03772474
0001e0 b6 2f bf bc cc 47 75 3c 18 49 53 3c db ea 71 bc
       -0.02333818 0.014970731 0.012895845 -0.014765467
0001f0 85 50 8f 3d 6c 87 4f 3c d2 fe 91 3d 63 1d 8a 3d
       0.0699778 0.012666564 0.07128681 0.06743886

network_body.linear_encoder.seq_layers.0.weight f4 [128, 53]
000000 53 9e b2 bd 15 a1 2c be 0b 5e a4 bd 6c 4d 4a be
       -0.08721604 -0.16858323 -0.0802575 -0.19756097
000010 bc 4f 62 be 98 20 24 3e 04 45 72 bd 40 ef 84 3e
       -0.22100729 0.16028059 -0.05914785 0.25963783
000020 fa ce 6e bd 1a 5c 22 be a4 aa 94 bd 9b 8a 20 3c
       -0.058302857 -0.15855446 -0.072591096 0.009798671
000030 13 aa 99 bd 1e ec 0b be 48 1e 66 bc bc 3b df 3c
       -0.07503142 -0.1366429 -0.014045306 0.027250163
000040 bc c4 5d be 17 28 ee bd 73 f6 aa 3d bd 0f 81 3e
       -0.2165708 -0.1162874 0.08347788 0.2520732
000050 64 7f 88 3e 5f 54 ee 3c 18 0f 0b 3e c0 33 0f 3e
       0.2665969 0.029092966 0.13579977 0.13984585
000060 4f 73 34 bc 6e 26 51 bd 7d 85 07 bd 9e b4 86 3d
       -0.01101382 -0.05106204 -0.03308629 0.06577419
000070 2e c0 7b bd 56 01 db 3a 03 3b 2d bd 16 6f 1e 3e
       -0.061462574 0.0016708772 -0.042292606 0.15472063
000080 51 81 07 3d 85 b3 a0 3e c3 6b 09 3d 91 9e 56 3e
       0.03308231 0.31386963 0.033550035 0.20958926
000090 39 b5 ad bd 05 cf 02 3d 0a af 75 3e f3 6e 21 3e
       -0.08481831 0.03193571 0.23992553 0.1576498
0000a0 2d 7f 8b 3e 32 e1 05 be c6 f0 25 3e 50 68 98 bd
       0.27245465 -0.13074186 0.16205129 -0.07441771
0000b0 be 87 06 be 47 ff 32 3e c4 66 22 3e 58 77 0c 3e
       -0.13137719 0.17480193 0.15859514 0.13717401
0000c0 c5 6f db 3d 37 d3 50 bb 67 02 56 be 44 76 42 be
       0.10714678 -0.0031864175 -0.20899354 -0.18990427
0000d0 c2 0a 34 3e 56 c5 36 be 99 ff 9b 3c 28 99 06 bd
       0.17582229 -0.17848715 0.019042777 -0.032860905
0000e0 cf be 9d 3d dc c3 4e 3e 9d db 83 3b e2 83 a9 3d
       0.077024095 0.20191902 0.0040239827 0.08277108
0000f0 c0 96 4c 3d d5 19 92 bd f0 73 ad bc 76 5a d8 bd
       0.049948454 -0.07133833 -0.021173447 -0.10564129
000100 38 ca a1 bc df c8 c1 3e 84 a2 69 3e ed 7a 2f be
       -0.019749746 0.37848565 0.22815901 -0.17136736
000110 e0 67 fe 3d 15 bd 9a 3e 3a 59 25 3e 14 83 4f be
       0.12422156 0.30222383 0.16147318 -0.20264846
000120 71 ae 8a bd fe 82 41 bd 80 c6 ab 3e af 3f 21 3e
       -0.06771553 -0.047244065 0.3354988 0.1574695
000130 23 97 af 3d 52 02 ca 3d 72 80 aa bd 51 b3 46 be
       0.08573749 0.09863724 -0.0832528 -0.19404341
000140 3e 50 52 3e 9d 5f cf bd 4c dc e4 3d d4 5f b6 3d
       0.20538422 -0.10125659 0.11174831 0.089049965
000150 3e f1 8c 3d ef a0 00 bd f9 d6 22 3d 0c 10 68 be
       0.06881951 -0.03140348 0.039755795 -0.22662371
000160 5d 28 13 3e a1 99 9a bd 52 a8 ba be 54 37 43 be
       0.14370866 -0.07548834 -0.36456543 -0.19064075
000170 3d f9 9f 3d b6 04 6a be 3e dc 1f be a8 a6 c2 3c
       0.0781121 -0.2285336 -0.1561136 0.023761109
000180 05 3e e2 3d 7e a7 07 3e 8e 10 6c 3e 97 45 40 3e
       0.110469855 0.13247487 0.2305319 0.18776546
000190 8a f0 94 bc 8c 48 d4 bc cb d4 e3 3e f2 51 26 be
       -0.018181104 -0.0259135 0.44498286 -0.16242197
0001a0 d0 ce 6f 3e a5 d9 9d 3e 72 8b 1d 3e bb 44 17 3e
       0.23418736 0.30830112 0.15385225 0.14772312
0001b0 2a c2 5b be 56 f7 9d bd 77 1f 32 3e 65 cb 36 3c
       -0.21460786 -0.07713191 0.17394815 0.0111568915
0001c0 98 c3 71 bc da 7c 72 bd 9a 7f fc bd b4 82 48 3b
       -0.014756106 -0.0592011 -0.123290256 0.0030595483
0001d0 ef 08 ef 3d 9d 2d 40 3e d6 2e 80 3e 6e 03 e1 3d
       0.11671626 0.187674 0.25035733 0.10986982
0001e0 38 a7 92 3d 8b 3b 53 be 3e c2 cc bc eb c7 13 be
       0.07160801 -0.20628183 -0.024994966 -0.14431731
0001f0 e5 18 29 bd e8 7a fb bd 94 cc ab bd 1c 26 68 3a
       -0.041283507 -0.12279302 -0.083886296 0.00088557764
000200 d3 aa a0 bd 7a 07 6a 3d bd 3a f3 3d 0a 41 29 3e
       -0.07845082 0.057136036 0.11876438 0.16528717
000210 bd 62 34 3b 84 58 93 3e cd da 9a 3e 97 ab bd bb
       0.0027524673 0.2877847 0.30245057 -0.0057882774
000220 08 87 84 3d f3 0b 19 be 8d c9 b8 3d 87 04 94 bd
       0.06471068 -0.14945965 0.09022818 -0.07227426
000230 ba 7f bd be cf bc 54 be 40 dc 07 3e 05 17 29 3e
       -0.3701151 -0.2077515 0.13267612 0.16512688
000240 97 9a 8a 3e f6 15 82 bd 86 ee 8e bd 45 e2 a5 bd
       0.27071068 -0.06351845 -0.069790885 -0.08099798
000250 fe ff 05 3e 83 6f 7f be 9f c4 96 be 7e 1d 64 3d
       0.13085935 -0.24944882 -0.29446885 0.05569219
000260 bb 13 c8 3c 05 17 6b be 24 87 6b 3c e7 6c ac bd
       0.02442347 -0.22958 0.014375482 -0.08419209
000270 9a 55 72 3e b0 0b a0 bc c8 7a bf bd 8f 89 5d 3e
       0.23665467 -0.019536823 -0.093495905 0.21634506
000280 e4 fd 68 be ff 7d 4b 3e 6d ea 5b 3d ee c5 76 3d
       -0.22753102 0.19872282 0.053690363 0.060247354
000290 8e be aa 3e 5e 72 29 3e bd c3 0f 3c 16 df d4 3d
       0.33348507 0.16547534 0.008774695 0.10394113
0002a0 7d 0f eb bd 86 46 75 bc 9e c2 26 3e 0f 10 18 3e
       -0.114775635 -0.014970427 0.16285178 0.14849876
0002b0 04 73 8d bd 73 23 fb bd f3 32 2d be 91 65 3c 3d
       -0.06906703 -0.12262621 -0.16913967 0.0459953
0002c0 1a 45 07 3e 0b 04 95 bd b3 be 1c be 80 9c 80 3d
       0.13209954 -0.07276162 -0.15307121 0.0627985
0002d0 da 5e 9e bd b4 ba 23 be 4f 69 87 3e c2 92 27 be
       -0.07732935 -0.1598919 0.26447532 -0.16364577
0002e0 ba 9c f1 bd fa 78 de 3c f7 26 8f 3e 94 f6 00 3d
       -0.11797471 0.027157295 0.27959415 0.031485155
0002f0 97 3f ee bc 8d 2e 76 3e 6f 80 c6 3e ce 24 71 3c
       -0.029083056 0.24041195 0.38769862 0.014718248
000300 88 67 2b be f1 75 f1 bd 58 8c d5 3b 18 f8 35 bd
       -0.16738713 -0.11790074 0.0065169744 -0.044426054
000310 3f 17 07 be e7 fb ae be 96 6a 1a be 3c 9d bc bc
       -0.13192461 -0.3417656 -0.15079722 -0.023024194
000320 60 5f 83 bd c4 b4 80 be 8b 94 66 3d 5c 56 8f bd
       -0.06414676 -0.25137913 0.056294005 -0.069988936
000330 62 2a 22 bd 34 42 f4 bc ec 4c 08 3c 99 ff 49 be
       -0.0395912 -0.029816724 0.008319121 -0.19726409
000340 c5 73 c8 3b b9 65 0d be 70 3a 29 be e8 1c 43 3d
       0.0061173164 -0.13808335 -0.16526198 0.04763499
000350 21 de 65 be da 6a 2d bc a1 a7 34 3e 67 66 36 3e
       -0.22448017 -0.010584557 0.1764207 0.17812501
000360 2c 33 56 3d 59 a4 ea bd 73 40 bf 3b 22 e3 06 3d
       0.052294895 -0.11457128 0.0058365404 0.032931454
000370 83 22 43 3c fd 4c 8c 3c b5 23 74 be 05 63 42 3e
       0.011910084 0.017126555 -0.23841746 0.18983085
000380 b0 40 95 be ab cc 88 bc 77 98 95 be e8 e0 bc bd
       -0.29150915 -0.016699156 -0.29217884 -0.09222585
000390 ea fe f9 3d fc 2d 9d 3e 3d ff a2 3e 59 12 69 3e
       0.12206824 0.30699146 0.31835356 0.22760905
0003a0 1e 33 c4 3d 92 1d 8b 3e db 93 2a be 53 41 e1 3d
       0.09580062 0.27170998 -0.16657965 0.10998788
0003b0 81 ae e7 bc 1c e5 48 be c4 2f 06 3e 89 b9 e4 bd
       -0.028281452 -0.19618648 0.13104159 -0.111682005
0003c0 78 38 84 be 6c b1 17 3c 65 12 bc 3e 1a 97 e8 3d
       -0.25824332 0.009258609 0.36732784 0.11356945
0003d0 ff 29 df 3c db 07 60 3e 1e e1 05 3e 71 0b ab 3d
       0.027241705 0.21877997 0.13074157 0.08351792
0003e0 a0 72 0f be 81 3b 93 3d 2f f1 87 3e a0 d5 63 be
       -0.1400857 0.07189084 0.26551196 -0.2224946
0003f0 e3 3c 5f 3e c0 55 a8 3d 8d 17 b5 be 67 7d 88 3e
       0.2180057 0.082194805 -0.3536953 0.26658174

network_body.linear_encoder.seq_layers.2.bias f4 [128]
000000 03 13 a2 3c 67 1a 41 3d c0 a1 5c 3a 8a af 2b 3d
       0.019784456 0.04714432 0.00084164366 0.041915454
000010 3d 30 77 bb f4 23 42 3d f0 c3 97 3b 8f f4 13 3c
       -0.0037717961 0.04739757 0.004631512 0.009030475
000020 ac 43 87 3b f8 19 cc 3c 01 70 15 3d 51 ff 9c bc
       0.00412794 0.024914727 0.03648377 -0.019164713
000030 37 c1 c7 bb 5c 04 33 3d 01 40 3b 3d 9e c5 64 bc
       -0.006096031 0.04370533 0.045715336 -0.013963131
000040 99 7c 7c bc 53 27 d7 bc 62 97 c7 3c 3c 86 a0 3d
       -0.015410566 -0.026263868 0.024364177 0.07838103
000050 eb 3c 9b bb b3 ca d5 3c c9 50 89 3d 90 97 50 3c
       -0.0047374866 0.026097631 0.06704862 0.012731448
000060 4c c1 55 3c 73 8b e0 3c e2 ac 05 bd fa 43 90 3d
       0.013046574 0.027410245 -0.032635577 0.070442155
000070 bc c4 f8 bb af 80 de 3c 68 3b 46 3d d5 4c e3 3c
       -0.007591812 0.02716097 0.048396498 0.027746597
000080 b1 00 b5 3c 13 c0 68 3d f7 7c 2e 3d 66 46 3c bd
       0.022095056 0.0568238 0.042599645 -0.045965575
000090 fc 8e a9 3c 76 6d 3e 3d e6 89 3d 3d 8e 2a 9e 3c
       0.020698063 0.04649111 0.04627409 0.019307401
0000a0 98 ba 30 3d b4 98 53 bc 3f 00 73 3d 6b 81 0c 3d
       0.0431467 -0.012914825 0.059326407 0.03430311
0000b0 4f 97 60 3d 06 39 49 3c bb e3 26 3d 0e 7e 5a bc
       0.0548318 0.012281662 0.040744524 -0.013335718
0000c0 5d 7d 0a bc 27 0c 43 3d ad 63 8e bc 76 9a e0 bc
       -0.0084527405 0.04761901 -0.017381513 -0.027417403
0000d0 f9 25 1f bc bb 54 33 bc bb 4b 03 bd ad 9a b3 bb
       -0.009713643 -0.010945494 -0.032054644 -0.0054810853
0000e0 45 68 02 3d 4d 94 89 3a 2f a4 5b bb ce c5 26 3d
       0.03183772 0.0010496468 -0.003351461 0.040715985
0000f0 24 90 08 3c 14 ea 36 3d 6f ad 48 bc 66 42 a5 3d
       0.008335147 0.044656828 -0.012248381 0.08069305
000100 ff 29 a3 3a 39 68 af 3c 95 81 38 3c 52 4f fc 3a
       0.0012448429 0.021412002 0.0112613635 0.0019249714
000110 eb 7c 3b 3d 6f c1 41 3d 0a 61 3c 3d f3 2f ad bc
       0.045773428 0.047303613 0.04599098 -0.021141028
000120 7e a3 60 bc a1 42 91 bb 27 70 82 3d 87 76 f2 3c
       -0.013710855 -0.0044329916 0.063690476 0.029597534
000130 84 3b 37 bc b1 35 e9 3c e3 8c 3d 3d 90 fc 36 3d
       -0.011183623 0.028467985 0.04627694 0.044674456
000140 0f 8b 96 3d bf 16 58 bc 18 6f fb 3c fb 86 69 3c
       0.07350742 -0.013189017 0.030692622 0.014253373
000150 84 df a2 3b b6 ab e9 bc 5b 9e 2f 3c 90 eb 0c 3c
       0.004970493 -0.028524261 0.010718907 0.008601084
000160 2b a2 d2 3b 39 36 83 3c 15 70 6f 3d 8b 77 c9 3b
       0.0064280233 0.016017066 0.0584565 0.006148284
000170 52 7c 0e 3d 39 61 00 bd 05 c3 3e bb 4e 5a 83 bc
       0.03478653 -0.03134272 -0.002910794 -0.016034272
000180 01 7b 70 bc 53 d1 3e 3d ec ca 5a 3d 1c e2 fd 3c
       -0.014677764 0.046586346 0.053416178 0.030991606
000190 40 0f c1 bc d1 fa 67 3d 1a dd f6 bc 07 5c 6d 3d
       -0.023566842 0.05663568 -0.030134726 0.057949092
0001a0 d8 46 90 3d c5 51 97 3c 19 12 42 3d 7c 6d db bc
       0.070447624 0.018471608 0.04738054 -0.026785605
0001b0 a0 88 9f 3b 81 c2 d7 bc 0f 94 0b 3d f6 a7 d1 3c
       0.004868582 -0.026337864 0.034076747 0.025592785
0001c0 b1 fa c1 3c 06 38 79 3d db 70 e3 3c d2 fa 4e bc
       0.02367911 0.060844444 0.027763775 -0.012633042
0001d0 68 c5 90 3d d7 7b aa 3c 2d cb 64 3d bd d4 ad 3c
       0.07068902 0.020811005 0.055857826 0.021219606
0001e0 11 70 78 3d f2 a5 87 3b 83 93 8a 3c e1 7e 02 bd
       0.06065375 0.0041396553 0.016916042 -0.031859282
0001f0 84 f1 14 bd 9b 9b 1d 3d c3 10 08 3d 1a ec 6f 3c
       -0.03636314 0.038478475 0.03321911 0.014643693

network_body.linear_encoder.seq_layers.2.weight f4 [128, 128]
000000 f5 10 39 be eb 25 41 3d 30 32 88 3c f5 8b 87 3d
       -0.18072875 0.047155302 0.016625494 0.066184916
000010 13 43 d8 3d 29 12 32 3d c2 8d 17 bd 49 7f 5e be
       0.105596684 0.04347435 -0.037000425 -0.21728243
000020 0b c9 9f 3d 8b 02 1a be 70 9e 8d 3d db 09 9d 3d
       0.07802018 -0.15040033 0.06914985 0.076678954
000030 69 36 86 be da 5c 24 be 77 2e 3a bd 05 f6 2f bd
       -0.26213387 -0.16051045 -0.04545447 -0.042959232
000040 15 92 9b 3e 8e 8c b8 3d 43 27 f7 bd 4f 82 b2 3d
       0.3038489 0.09011184 -0.120680355 0.08716261
000050 63 e6 7d 3d df dc d9 3d 38 ae 89 3d 00 65 d7 3d
       0.061987292 0.10637831 0.06722683 0.10517311
000060 9d 84 73 3e 77 ee 44 3e 92 92 aa bb 98 74 86 bd
       0.23781057 0.19231592 -0.005205461 -0.06565207
000070 df a2 97 bd d5 56 ad 3d 32 b0 cd 3d d0 e7 1a 3e
       -0.07404112 0.084638275 0.10043372 0.15127492
000080 cc ca 12 3d 01 cf bb bc e1 d1 2b 3e 24 d3 09 bd
       0.035837933 -0.022925856 0.16779281 -0.033648625
000090 d4 e8 37 3e 4e 51 3d be de 9a 77 3d f5 49 af 3d
       0.1795991 -0.18488047 0.060450427 0.08559028
0000a0 1d c8 b6 3d 67 61 a5 3d 69 9c 19 3d 42 b8 41 3d
       0.08924887 0.08075219 0.03750268 0.047294863
0000b0 7b bd ec 3b e0 85 ef bc ca e3 f4 bb a6 b2 80 3c
       0.0072247363 -0.029238641 -0.0074734436 0.015710186
0000c0 8d 38 b9 3d bc dc 12 be 8a a6 c7 bd b7 54 d1 bd
       0.09043989 -0.14342016 -0.09748562 -0.10221236
0000d0 10 d2 32 3e bd 7b 30 3c 20 e0 61 bd 79 9c 38 be
       0.17462945 0.010771689 -0.055145383 -0.1802844
0000e0 5c 8a 34 bd 7b d0 15 be c7 cb 76 3c a9 33 ae bd
       -0.044077262 -0.1463031 0.015063233 -0.08505947
0000f0 ac 5b d7 3c c3 24 9d 3c 97 b8 36 be 87 2c 97 bd
       0.02628883 0.019182568 -0.17843853 -0.0738154
000100 1c 04 62 3d b8 22 f8 bc 94 98 84 bd ab 4f b5 3d
       0.0551797 -0.030289993 -0.064744145 0.08853086
000110 56 a7 15 3e 76 9d 3e 3e 78 b0 b3 bd 02 38 12 3e
       0.14614615 0.18614754 -0.08773893 0.14279178
000120 6b 59 01 3e bb 51 da 3c 1d 75 d1 3d 35 c6 04 be
       0.12631766 0.0266503 0.10227416 -0.12966235
000130 28 43 51 be bd 2f 57 3d 0b 08 86 bd 58 dc d7 3d
       -0.20435774 0.05253576 -0.06544503 0.10540074
000140 2f 3c c4 bc b5 70 71 3c 55 92 3a 3a 8a 1e 1a 3e
       -0.023954479 0.014736344 0.0007117142 0.15050712
000150 f3 b8 3c bd 31 dd 16 bd aa 2a 8b bd 7a 8d 3d 3d
       -0.04607482 -0.03683204 -0.06795247 0.0462775
000160 77 2f 90 bd c5 54 79 3d b7 af 67 bd a6 a4 1e 3e
       -0.07040303 0.06087186 -0.05656406 0.15492496
000170 c8 21 f6 bb f1 a8 a2 bd c7 78 13 3e ae 40 78 3d
       -0.0075113513 -0.07942379 0.14401542 0.06060856
000180 e3 f9 17 3e c5 65 bb bd b1 34 80 bb 3c c8 3b 3c
       0.14841418 -0.091502704 -0.0039125313 0.011461314
000190 a7 25 31 3c 8d 25 f7 bd 11 d6 56 bd 18 5b b3 bd
       0.0108122 -0.12067709 -0.052450243 -0.08757609
0001a0 00 dc 3e 3e 5d 27 78 3d c3 cd 80 3c 2c 4c 8e bd
       0.18638611 0.060584415 0.015723115 -0.069481224
0001b0 9c 9a ae 3c be aa c4 bd fe e1 d0 3d 7d 3f 82 be
       0.021313958 -0.09602879 0.101993546 -0.25439063
0001c0 47 66 36 bd c1 e3 85 3d 91 2e 97 3d ce 1f 04 3d
       -0.044531133 0.06537581 0.07381929 0.032256894
0001d0 1f 62 94 3d f0 64 6f bc 4e e9 cb 3d 08 aa 04 3e
       0.072452776 -0.014611468 0.09956609 0.12955487
0001e0 6b 5f 92 3d 06 b9 92 3c 91 8e 2c 3d 38 5f 01 be
       0.07147106 0.017910492 0.04212815 -0.1263398
0001f0 9e 21 9c bd 35 17 51 3e 07 a0 4f bd d8 a6 05 bd
       -0.076235995 0.20419009 -0.050689723 -0.032629818
000200 0a a0 1b bd 87 a7 6a 3e 6e 5a cf bd ab 0b 30 be
       -0.037994422 0.22915469 -0.1012467 -0.17191951
000210 26 db 07 3e 94 ac 61 3e 1f 25 b1 bc fc aa 93 3d
       0.13267192 0.2203849 -0.021624146 0.07210347
000220 f8 b3 0a be 68 ea 52 3d 7f 49 fa 3d 70 91 98 bd
       -0.13545215 0.05149308 0.122210495 -0.07449615
000230 40 78 03 bd 67 6c 99 bd d5 93 c0 bc de 57 20 3e
       -0.0320971 -0.07491379 -0.023507992 0.15658519
000240 11 5c 0f 3c d3 e1 b5 bc 71 ef 2b bd 66 c9 49 3e
       0.008749978 -0.022202408 -0.041976396 0.19705734
000250 7f 3e 03 be b6 0b b1 bd 4f ee 72 3d e9 7c 1c bd
       -0.12816809 -0.08644812 0.0593093 -0.03820506
000260 c6 80 43 be f1 ed 96 bd 70 ee ff bd 58 ba 70 3b
       -0.19092092 -0.073696025 -0.1249665 0.0036732163
000270 76 2d 9c 3d 5a 66 29 bd 7f 6d 80 bd d4 05 fe 3c
       0.076258585 -0.041357376 -0.06270885 0.031008638
000280 0d 04 63 bd 0a 8d 42 bd a0 a4 bc 3d 6e a3 19 3c
       -0.055423785 -0.047497787 0.09211087 0.009377344
000290 82 43 c7 bd a1 d1 20 3d 6e e0 32 bc 38 59 52 bd
       -0.09729673 0.039262418 -0.010917766 -0.051354617
0002a0 9a 2b fc bb 82 e2 10 be 15 82 5d be ca 29 23 3e
       -0.0076956274 -0.14148906 -0.21631654 0.1593391
0002b0 4c 07 19 3e 48 40 88 3d bf 51 2f 3d d9 86 e8 3d
       0.1494419 0.06652886 0.04280257 0.11353845
0002c0 8c c8 88 bd 12 e5 d1 3c 77 95 e1 3c 77 9d b1 3c
       -0.06678876 0.025621925 0.02753709 0.02168153
0002d0 92 8c 5c 3c 02 56 76 3e 49 54 83 bd 6d 67 70 bd
       0.013461249 0.24056247 -0.064125605 -0.058692385
0002e0 ed cc 83 be 11 c8 5d bd e0 e6 d9 3c 9c 02 f3 3c
       -0.25742283 -0.054145876 0.026599348 0.02966433
0002f0 ff 20 b2 bd 1d 86 bb bd 96 4e 2b bc 54 89 17 3e
       -0.086977 -0.091564395 -0.010455748 0.1479848
000300 51 28 b5 3b e4 bf 3f 3d c2 02 e4 3d 90 44 0a 3e
       0.0055284877 0.04681386 0.111333385 0.13502717
000310 24 36 21 bd 24 48 70 3d d0 ad b1 3c 08 10 0f be
       -0.039358273 0.05866255 0.021689326 -0.13970959
000320 e2 f4 9d 3d 21 da 70 3d f1 2f cc bd ef 41 9e 3d
       0.07712723 0.058801774 -0.099700816 0.077274196
000330 9b 2d ff bc d1 d1 da 3d 4e e2 4d bc 63 db 82 be
       -0.031149676 0.106845506 -0.012566162 -0.25558004
000340 f4 e2 bf 3d 5e 53 f6 bd 49 53 bd 3d d4 02 32 be
       0.0936946 -0.1202762 0.09244401 -0.17383891
000350 80 f2 29 be 7b 15 6a 3d 44 21 f9 3b ba 0c b5 bd
       -0.16596413 0.05714939 0.0076028425 -0.08840318
000360 fd ff 49 bd 2e 1f 7e 3c 16 59 7f 3d 43 4f 4c 3d
       -0.049316395 0.0155103635 0.06234082 0.049880277
000370 93 34 c0 3c 3f f1 ed bb fe e1 3e 3d 1c 0d 48 3d
       0.02346257 -0.007261425 0.04660224 0.048840627
000380 95 8c 99 bd 6c 87 31 bd d0 9c 5e 3d 55 6c 34 bd
       -0.07497517 -0.04334204 0.054348767 -0.044048626
000390 4c 8e e6 bc fd 7c 45 3c 2e 52 08 bd c9 55 90 bd
       -0.028144024 0.012053725 -0.033281498 -0.07047612
0003a0 3b 68 1e 3e a9 ab 9e bd 4b fa be bd 03 bb 4a 3d
       0.15469448 -0.07747585 -0.09325083 0.049494755
0003b0 7b 07 22 3d a9 96 0c 3d be 40 f3 bd 40 0e d8 bb
       0.039557915 0.03432337 -0.11877583 -0.0065934956
0003c0 16 38 8d 3d fe 85 40 be 07 d2 82 3d 01 35 3d 3c
       0.06895463 -0.18801114 0.06387716 0.011548282
0003d0 7f 8f 20 3c 5d 8d 8d 3d d1 ce 30 3e e0 73 b7 3c
       0.009799837 0.069117285 0.17266394 0.02239412
0003e0 6c d0 ce bd 6e fd 62 be 19 43 ca bd 8c bf 83 bd
       -0.10098347 -0.22166988 -0.09876079 -0.06433019
0003f0 63 f9 a1 3d 02 93 34 3c 70 67 98 bd f7 4a f3 3d
       0.07908895 0.0110213775 -0.07441604 0.11879533
