Project/Assets/ML-Agents/Examples/FoodCollector/TFModels/GridFoodCollector.onnx (onnx, 621416 bytes, 13 tensors)

action_model._continuous_distribution.log_sigma f4 [1, 3]
0	0xbe30129b	-0.17194597
1	0xbe10159f	-0.14070748
2	0xbe0f06ef	-0.13967489

action_model._continuous_distribution.mu.bias f4 [3]
0	0x3bf3b082	0.007436813
1	0x3c41fc2a	0.011839906
2	0x3a92e87f	0.0011208205

action_model._continuous_distribution.mu.weight f4 [3, 256]
0	0xbd0d3c6b	-0.034481447
1	0x3b19ab93	0.0023448213
2	0xbd8348dc	-0.06410381
3	0xbd09ab6d	-0.03361075
4	0xbd6471a7	-0.05577245
5	0xbca564ac	-0.020189606
6	0x3d9009c5	0.070331134
7	0xbdb9aa63	-0.09065702
8	0xbb920380	-0.0044559836
9	0xbc9716c7	-0.018443478
10	0x3bfcad08	0.0077110566
11	0xbd846adf	-0.064656965
12	0xbd92f157	-0.07174938
13	0x3cf25302	0.029580597
14	0xbd22f747	-0.039786603
15	0xbc099d9b	-0.0083993925
16	0xbcea9161	-0.028633775
17	0x3d0b30a5	0.033981938
18	0xbd30b7e7	-0.043144133
19	0x3cdf6180	0.027268171
20	0x3d778245	0.06042697
21	0x3d437bb4	0.047725394
22	0xbd76c4e4	-0.060246363
23	0x3d799081	0.060928825
24	0x3d8ca8fd	0.068681695
25	0x3d571632	0.0525114
26	0xbd9eebf8	-0.07759851
27	0x3d445c5c	0.047939643
28	0xbcfb60e0	-0.030685842
29	0x3b32b564	0.0027268762
30	0xbd34b709	-0.04411987
31	0xbd6e981b	-0.058250528
32	0xbdaf233b	-0.085516416
33	0x3d850d59	0.064966865
34	0xbd9dfda6	-0.07714395
35	0x3d8fdf77	0.070250444
36	0x3d8f006a	0.06982501
37	0xbd8256fb	-0.063642465
38	0x3d59b99a	0.05315552
39	0xbdd46a79	-0.103718705
40	0x3ca98b93	0.020696437
41	0xbd9e8d71	-0.077418216
42	0x3da415e9	0.080119915
43	0x3d9a71db	0.075412475
44	0x3d66bbcb	0.056331437
45	0xbd741317	-0.059588518
46	0xbd7a25fa	-0.061071374
47	0x3b2dde80	0.0026530325
48	0x3d9e9180	0.07742596
49	0xbcfa8c91	-0.030584605
50	0xbc224bf5	-0.009905805
51	0x3d2cd6b3	0.04219694
52	0xbb602cba	-0.0034206347
53	0x3b4030c9	0.0029325953
54	0xbb440f45	-0.0029916328
55	0xbd3c66dc	-0.04599653
56	0xbd93328b	-0.07187375
57	0x3d41a67d	0.047277916
58	0xbd2019c3	-0.03908707
59	0x3cd7982d	0.02631768
60	0x3d18fc71	0.037350122
61	0x3d3bdb1c	0.045863256
62	0x3d7359d3	0.059411835
63	0xbcf2a495	-0.029619494
64	0x3b582402	0.0032980447
65	0xbd2cd946	-0.042199396
66	0xbdb08c5b	-0.08620521
67	0x3d7496f7	0.059714284
68	0x3d8fefb0	0.07028139
69	0xbd9520d1	-0.0728165
70	0x3bb5466b	0.005532076
71	0x3d162bd1	0.03666288
72	0xbd740690	-0.05957657
73	0xbda346fa	-0.07972522
74	0x3d33f8a0	0.04393828
75	0xbd08d693	-0.03340776
76	0x3ce5f617	0.028071446
77	0xbd058499	-0.032597158
78	0xbcfb0fe5	-0.030647228
79	0x3c62c89c	0.013841774
80	0x3d213655	0.039358456
81	0x3cce6f69	0.025199609
82	0xbca11d48	-0.019667283
83	0xbc77d804	-0.015127186
84	0x3d40e244	0.047090784
85	0x3a9277a9	0.0011174578
86	0x3d7779c0	0.060418844
87	0xbd91851f	-0.07105469
88	0x3cde98dc	0.027172498
89	0x3c52fc47	0.01287753
90	0x3da1136d	0.07865033
91	0x3ce5cf7b	0.028053036
92	0x3d05e649	0.03269032
93	0xbd5531b9	-0.052049372
94	0x3c4d18ed	0.01251815
95	0x3d96fc5f	0.07372355
96	0x3d70daed	0.058802534
97	0xbc85e628	-0.016345099
98	0xbcde89bb	-0.027165284
99	0xbd494524	-0.049138203
100	0x3d8887c7	0.066665225
101	0xbc7e74a2	-0.015530737
102	0xbd484395	-0.048892576
103	0xbd180cb9	-0.03712151
104	0x3d72156d	0.059102464
105	0x3d23b56c	0.03996794
106	0x3d0c9b53	0.034327816
107	0x3cde4d45	0.027136454
108	0x3c139c0b	0.0090093715
109	0xbd9fdba8	-0.07805568
110	0x3b26722f	0.0025397649
111	0xbd9e2342	-0.07721569
112	0x3cd32e2c	0.025778852
113	0xbd7b34db	-0.061329704
114	0x3d5b6715	0.053565104
115	0x3c1a3409	0.00941182
116	0x3c7aaabf	0.015299498
117	0xbd89fc14	-0.06737533
118	0x3d9f89c6	0.0778995
119	0xbdc5a48a	-0.09650524
120	0xbdb08a17	-0.086200885
121	0xbdd4868d	-0.10377226
122	0x3da4c24a	0.0804487
123	0xbd553b43	-0.05205847
124	0xbd0c477f	-0.03424787
125	0xbcfe3785	-0.031032333
126	0x3cb008d0	0.021488577
127	0xbc79b530	-0.015240952
128	0xbd063105	-0.032761592
129	0x3d37a650	0.044836342
130	0x3d0a8bae	0.033824615
131	0xbbe928c1	-0.007115454
132	0xbadfe5b0	-0.0017082002
133	0x3d929e68	0.0715912
134	0x3cfe8211	0.03106788
135	0x3d45591c	0.048180684
136	0x3cd6d6ac	0.02622541
137	0x3d899a57	0.06718891
138	0xbd3ec958	-0.046578735
139	0x3da8c186	0.08240037
140	0xbd14f640	-0.036367655
141	0x3d2a0cac	0.04151599
142	0xbd421906	-0.047387145
143	0x3d275b36	0.04085847
144	0xbccd23e7	-0.025041534
145	0x3d80a044	0.06280568
146	0xbd21fc0a	-0.039547004
147	0xbdc36129	-0.09540016
148	0xbc148036	-0.009063771
149	0x3c7bebbe	0.01537603
150	0x3d5405a4	0.05176319
151	0x3d222eaa	0.039595284
152	0xbce69e2f	-0.0281516
153	0x3d678f45	0.056533117
154	0xbd601272	-0.05470509
155	0x3cd5886e	0.026066031
156	0xbc27c6c8	-0.010240264
157	0xbd288676	-0.041143857
158	0xbc2f829d	-0.010712293
159	0x3d879216	0.066196606
160	0xbcde8a30	-0.027165502
161	0x3c2f0ea3	0.010684642
162	0x3c22ba83	0.009932163
163	0xbceb7a42	-0.02874482
164	0xbcc66c83	-0.024221664
165	0x3d51b981	0.0512023
166	0xbd5db496	-0.0541273
167	0x3d1934c6	0.037403844
168	0xbc7b67e9	-0.015344598
169	0xbd251520	-0.04030335
170	0x3d8ac51f	0.06775879
171	0x3da151c9	0.078769274
172	0x3d818f33	0.06326141
173	0x3d15b5a3	0.036550175
174	0xbd2282ba	-0.03967545
175	0xbb090aa4	-0.0020910883
176	0x3d855c10	0.065117
177	0xbd852d8d	-0.06502829
178	0x3d2b4265	0.041811366
179	0x3d5f49ed	0.05451386
180	0xbd58d344	-0.052935854
181	0x38937880	7.031951e-05
182	0xbd09d2d7	-0.03364834
183	0x38b52faa	8.639631e-05
184	0xbc2fd632	-0.0107322205
185	0x3d4d494c	0.05011873
186	0xbd561e25	-0.05227484
187	0x3d9b9c6c	0.075981945
188	0x3ca5c092	0.020233426
189	0x3d3b212d	0.045685936
190	0x3d55b128	0.052170902
191	0xbc478970	-0.012178764
192	0x3d419192	0.047257967
193	0x399b84a2	0.00029662723
194	0xbd5f6425	-0.054538865
195	0xbd8eaada	-0.06966181
196	0xbda50a8e	-0.08058654
197	0x3d8cbd3f	0.06872033
198	0xbd91cec1	-0.07119513
199	0xbcedfbe4	-0.029050775
200	0x3b83ede1	0.00402616
201	0xbd160996	-0.036630236
202	0x3d66fc56	0.05639299
203	0xbcb6a6b6	-0.02229629
204	0xbd54d306	-0.05195906
205	0xbc4f169d	-0.012639669
206	0xbd4fddc9	-0.05074862
207	0xbd9cace7	-0.07650166
208	0xbd9e3e30	-0.07726705
209	0xbd2b62af	-0.04184216
210	0x3cf06480	0.029344797
211	0xbd5f867c	-0.054571614
212	0x3d24cd21	0.04023469
213	0x3c5a0728	0.01330737
214	0x3d8e9e88	0.06963831
215	0x3d8e096d	0.069353916
216	0x3cb6c379	0.022310006
217	0xbca8465b	-0.02054136
218	0xbcd5663c	-0.026049726
219	0x3d3e3ea8	0.046446472
220	0xbd014f1d	-0.03156959
221	0xbd23d227	-0.03999534
222	0x3dadb013	0.08480849
223	0x3cf152c2	0.029458407
224	0x3da85073	0.082184695
225	0x3da92d5c	0.08260605
226	0xbd35dfa1	-0.044402722
227	0x3c3936cd	0.011304569
228	0x3d5dccca	0.05415038
229	0xbc1e6690	-0.0096680075
230	0x3c81a12b	0.015823921
231	0x3cefcd42	0.02927268
232	0x3db8ddba	0.09026666
233	0x3d8db4a7	0.06919222
234	0x3d0f6778	0.035010785
235	0x3d85c793	0.065322064
236	0x3d901ef6	0.07037155
237	0xbcc3d239	-0.023903953
238	0xbd04174c	-0.03224878
239	0xbc82b226	-0.015954088
240	0x3d63a486	0.055576824
241	0xbd6b6af0	-0.05747503
242	0x3d5d568b	0.054037612
243	0x39e22836	0.0004313604
244	0xbd01f9b5	-0.03173228
245	0xbd17723f	-0.036974188
246	0xbd835d5e	-0.06414293
247	0xbd584969	-0.052804384
248	0xbd92554f	-0.071451776
249	0x3cd88cfd	0.026434416
250	0x3d3e45f3	0.046453428
251	0x3be2dad4	0.006923059
252	0xbd7c0810	-0.061531126
253	0x3d370a0a	0.04468731
254	0x3d3c79f5	0.046014745
255	0xbd883fe6	-0.06652813

action_model._discrete_distribution.branches.0.bias f4 [2]
0	0x3c82a80a	0.015949268
1	0xbc82a80d	-0.015949273

action_model._discrete_distribution.branches.0.weight f4 [2, 256]
0	0x3c51d043	0.012806001
1	0x3cb899a1	0.022534193
2	0xbd033d29	-0.03204075
3	0x3ced38dd	0.028957779
4	0xbd3dd4b1	-0.046345416
5	0xbd0c8d73	-0.034314584
6	0x3d0f703c	0.035019144
7	0xbcfb98f7	-0.030712588
8	0xbb579aed	-0.003289874
9	0x3cffc0e4	0.031219907
10	0x3cfa63ae	0.03056511
11	0xbcb98929	-0.02264841
12	0x3b6c5f57	0.003606757
13	0x3d372484	0.04471256
14	0xbd607c9a	-0.05480633
15	0x3d09f23a	0.03367827
16	0xbd47057e	-0.048589222
17	0x3d485bfc	0.048915848
18	0x3d3563b6	0.044284545
19	0x3cfe1f61	0.031020822
20	0x3cdb33d3	0.02675811
21	0xbc868483	-0.016420608
22	0xbd75d0a4	-0.06001343
23	0x3d020768	0.031745344
24	0x3bb22bf7	0.00543737
25	0x3d33d396	0.043902956
26	0xbcdb7119	-0.026787328
27	0x3b6ecf37	0.0036439428
28	0x3cf11a26	0.029431414
29	0x3cbc4566	0.02298231
30	0x3bc2498e	0.0059291786
31	0xbbbcabf1	-0.0057578017
32	0x3c33515e	0.010944692
33	0x3d5e6557	0.054295864
34	0xbcf94a53	-0.030430948
35	0xbc24da52	-0.010061817
36	0x3d029200	0.031877518
37	0xbd8c484b	-0.06849726
38	0x3cbefa00	0.023312569
39	0x3cd83674	0.026393153
40	0x3d28758a	0.04112772
41	0xbb1c576a	-0.0023855814
42	0x3c83f883	0.01610971
43	0x3d1300ce	0.03588944
44	0x3caee083	0.02134729
45	0x3af4dfd2	0.0018682426
46	0x3b94a218	0.0045359246
47	0xbbc28938	-0.005936768
48	0x3c0cf10d	0.008602393
49	0xbd153c53	-0.036434483
50	0xbd8062a4	-0.06268814
51	0x3cdbd857	0.026836557
52	0x3c9b1435	0.018930534
53	0x3d524c0c	0.051342055
54	0x3d73bf7e	0.059508793
55	0x3c8d201d	0.017227227
56	0xbd3b3ea7	-0.045714047
57	0x3cb398c5	0.021923432
58	0xbb7ab33f	-0.0038253812
59	0x3ce9e9dc	0.028553896
60	0x3d4e6801	0.050392155
61	0xbc94e447	-0.018175257
62	0x3d2bee4a	0.041975297
63	0xbd2f7f05	-0.042845745
64	0xbc90a466	-0.017656516
65	0x3cedc050	0.029022366
66	0xbcc13672	-0.023585532
67	0x3d1596ac	0.036520645
68	0x3ceed54d	0.029154444
69	0xbd05d340	-0.032672167
70	0x3d1161d1	0.035493676
71	0xbc1d48d0	-0.009599879
72	0xbd695089	-0.05696157
73	0x3c2786ec	0.010225039
74	0x3d7e619c	0.062104806
75	0xbd1428b9	-0.03617165
76	0xbd0e265e	-0.03470456
77	0xbd0ba8c3	-0.03409649
78	0xbd43a190	-0.0477615
79	0x3d3e80f1	0.046509687
80	0x3d33decf	0.04391366
81	0x3c340544	0.010987584
82	0x3ce72077	0.028213723
83	0xbc89a26d	-0.016801083
84	0x3d0d4de8	0.034498125
85	0xbd3c45d2	-0.045965023
86	0x3cf067c1	0.029346349
87	0xbd55b5ae	-0.052175216
88	0x3d4e6e88	0.05039838
89	0x3c8737cc	0.016506098
90	0x3ca9f374	0.02074597
91	0x3c687125	0.014187132
92	0x3d05a5a1	0.03262866
93	0xba8414ab	-0.001007696
94	0xbb8e8a46	-0.0043499796
95	0x3cccd77c	0.025005095
96	0x3c34fc59	0.0110464925
97	0xbc9846ee	-0.01858851
98	0x3c3f42ab	0.01167361
99	0xbcfca0aa	-0.03083833
100	0x3ba79b22	0.005114929
101	0x3c8b0d1a	0.01697402
102	0xbd4b0ad8	-0.04957089
103	0x3c93fa06	0.018063556
104	0x3c84242f	0.016130535
105	0xbbbb9d48	-0.0057255365
106	0xba0f0b4c	-0.00054567005
107	0xbcbebe4e	-0.023284104
108	0x3d1bec1e	0.038066976
109	0x3c17f155	0.009273847
110	0x3d320c52	0.04346878
111	0xbcf31d38	-0.029677019
112	0x3ce49692	0.027903829
113	0xbc30df7e	-0.010795472
114	0x3c5c2e44	0.013438765
115	0xbc18d295	-0.00932755
116	0x3d2872da	0.041125156
117	0xbb9e11d6	-0.0048239036
118	0x3cf44d82	0.029822115
119	0xbd5e1543	-0.054219496
120	0xbb387693	-0.0028146848
121	0xbccc53ae	-0.024942245
122	0x3d58e5f6	0.052953683
123	0x3cdfd49e	0.027323063
124	0xbbf346a6	-0.0074241934
125	0xbd0cc39d	-0.03436624
126	0x3d1f635f	0.038913127
127	0xbd06cf11	-0.032912318
128	0xbc27459b	-0.010209466
129	0x3d1ac791	0.037787978
130	0x3d4770ae	0.048691444
131	0x3c9266ca	0.01787128
132	0xbd05133b	-0.032489043
133	0x3c48a24c	0.012245726
134	0x3d0094db	0.03139196
135	0x3d0ab14a	0.033860482
136	0x3cebb30c	0.0287719
137	0x3c19c673	0.009385693
138	0x3c442353	0.011971313
139	0x3d517e32	0.05114574
140	0x3cae2918	0.02125983
141	0xbcadda0c	-0.021222137
142	0x3b1ff03b	0.0024404663
143	0x3a4043fe	0.00073343504
144	0x3d283b6e	0.0410723
145	0x3d703b40	0.058650255
146	0xbceb2bb8	-0.02870737
147	0xbcb6c896	-0.022312444
148	0xbd2f3702	-0.04277707
149	0x3cf33c44	0.029691823
150	0x3cea97c1	0.028636815
151	0x3bb55357	0.0055336165
152	0x3cc6e822	0.024280611
153	0xbc3e5535	-0.011616995
154	0x3cd919d3	0.026501572
155	0x3c9ba111	0.0189977
156	0xbcafd0f0	-0.021461934
157	0x3ce035bd	0.027369374
158	0x3d1fd196	0.039018236
159	0x3d349ad0	0.044092953
160	0x3cf88721	0.030337872
161	0x3d2dad86	0.042401813
162	0x3d21c8e7	0.039498236
163	0x3c4fba0c	0.012678634
164	0x3d19f76f	0.037589487
165	0x3c963ad6	0.018338602
166	0x3c5e6365	0.013573502
167	0x3befa031	0.0073127975
168	0xbd41cbc7	-0.047313478
169	0xbd124b93	-0.035716604
170	0x3ce4e26c	0.027939998
171	0x3cd19e8f	0.025588302
172	0xbc140c2e	-0.009036107
173	0x3d641296	0.055681787
174	0xbd56e30f	-0.052462634
175	0x3d05b86c	0.03264658
176	0x3c836a7e	0.01604199
177	0xbcc808fc	-0.024418347
178	0x3cd22e61	0.02565688
179	0x3d87d1e3	0.066318296
180	0xbd27a7ca	-0.0409315
181	0x3d390385	0.045169372
182	0xbd373b02	-0.04473401
183	0xbd6046fc	-0.054755196
184	0xbcf055ef	-0.029337851
185	0x3d1b93ad	0.03798263
186	0xbd14a810	-0.03629309
187	0x3c927f22	0.017882887
188	0xbd2affe1	-0.04174793
189	0x3d5965c2	0.05307556
190	0x3d7df207	0.061998393
191	0xbced8f17	-0.028998895
192	0x3d4fe09f	0.050751325
193	0x3c0ede99	0.008720064
194	0xbbf899e5	-0.007586705
195	0xbc92ec64	-0.017934985
196	0xbcf2d5d7	-0.029642982
197	0x3d71427f	0.058901306
198	0x3bad4d60	0.005288765
199	0xbd1ad236	-0.03779813
200	0x3cf27123	0.029594963
201	0xbce50545	-0.027956614
202	0x3d223c79	0.039608452
203	0x3d058f0d	0.032607127
204	0x3d26bd20	0.040707707
205	0x3d830b25	0.0639861
206	0x3cc88eaf	0.0244821
207	0xbcb0241f	-0.021501599
208	0x3c50ecc2	0.01275176
209	0xbc173809	-0.009229668
210	0xbd578469	-0.05261651
211	0xbd303a54	-0.043024376
212	0x3cbe5d39	0.023237811
213	0xbcf93a81	-0.030423405
214	0x3c9fb6f0	0.019496411
215	0x3d2f030b	0.04272751
216	0x3ca28283	0.019837623
217	0xbd3bb70c	-0.045828864
218	0xbb37dcc1	-0.0028055164
219	0x3cfbe500	0.030748844
220	0xbd19464b	-0.037420552
221	0xbd1db603	-0.038503658
222	0x3cfdb5a5	0.030970404
223	0xbcef35b1	-0.029200407
224	0x3d00c43b	0.03143714
225	0x3d0c4bd7	0.034252014
226	0xbcfa05f7	-0.030520422
227	0x3d0b645f	0.03403127
228	0x3d5a67af	0.053321537
229	0xbd0df14d	-0.03465395
230	0x3bc889bf	0.0061199362
231	0xbcb978c1	-0.022640588
232	0x3d5ff8a7	0.054680493
233	0x3d43d62d	0.047811676
234	0x3c2284a3	0.009919318
235	0x3c4e3586	0.012586003
236	0x3d39b4c6	0.045338415
237	0xbbfa6fdc	-0.007642729
238	0x3d035c64	0.032070532
239	0xbc100482	-0.008790137
240	0x3d4c41a6	0.049867295
241	0xbc710abf	-0.014712035
242	0xbbc6ff36	-0.006072904
243	0x3d4a5718	0.049399465
244	0x3d3bd525	0.045857567
245	0x3a8ddedb	0.0010823862
246	0xbc50f282	-0.012753131
247	0xbb8ae637	-0.0042388695
248	0xbcffc40d	-0.031221414
249	0x3c982ceb	0.018576106
250	0x3d22fc72	0.03979153
251	0x3ca1b6cc	0.019740485
252	0xbcea4267	-0.028596116
253	0x3d865ee9	0.065610714
254	0x3d45f977	0.04833361
255	0x3cd70b75	0.02625058

network_body.linear_encoder.seq_layers.0.bias f4 [256]
0	0x3c0819c4	0.008306924
1	0x3c062aeb	0.008188943
2	0xbc1b0091	-0.009460584
3	0x3ae75cda	0.0017651573
4	0xbb369610	-0.002786044
5	0x3c12dbd2	0.008963542
6	0x3ca63914	0.020290889
7	0xb9506a11	-0.00019875939
8	0x3d004210	0.031313002
9	0xbba3c13b	-0.0049974
10	0x3cda0cd7	0.02661745
11	0x3b8249e9	0.003976096
12	0x3b69a024	0.003564843
13	0x3ccffd17	0.025389237
14	0xbbd985fe	-0.0066382876
15	0x3ca698e6	0.02033658
16	0xbbeeb7f2	-0.0072851116
17	0x3cf5b551	0.029993685
18	0x3c7f382b	0.015577356
19	0x3c824c57	0.015905542
20	0x3c3e0f72	0.011600362
21	0x3c28151e	0.010258941
22	0xbbe8c2c1	-0.0071032946
23	0x3bf3b42c	0.0074372496
24	0x3c8d8800	0.017276764
25	0x3c202177	0.009773604
26	0xbba8e68e	-0.0051544374
27	0x3b3e56a0	0.0029043332
28	0x3c7139a5	0.014723216
29	0x3b9c4c8c	0.0047698673
30	0x3c4c59c3	0.012472573
31	0x3c9230bb	0.017845502
32	0xbb5e8f38	-0.0033959877
33	0x3cffea84	0.031239755
34	0x3accc319	0.0015622108
35	0x3b0a4eae	0.0021104026
36	0x3cc0ecfa	0.0235505
37	0xbbec8313	-0.0072177737
38	0x3ce5e05f	0.02806109
39	0x3c0fbf04	0.008773569
40	0x3cc04d0b	0.023474237
41	0x3a9c147c	0.001190796
42	0x3c9ec997	0.019383235
43	0x3c29bbb0	0.01035969
44	0x3bad4b06	0.0052884845
45	0xbb884518	-0.0041586272
46	0x3b493c6e	0.0030706185
47	0x3c335fc5	0.010948126
48	0x3bd1c47b	0.006401596
49	0x3bea320a	0.0071470784
50	0xbc79a632	-0.015237378
51	0x3c4e5b07	0.012594945
52	0xb9dd3669	-0.00042192944
53	0x3bc2acfa	0.0059410306
54	0x3ccc6e2e	0.024954882
55	0x3c986760	0.01860398
56	0xba8176ac	-0.0009877286
57	0x3b43ee90	0.0029896833
58	0x3b856d67	0.0040718797
59	0x3cd33f11	0.025786908
60	0x3cf77238	0.030205831
61	0x3c90be93	0.017668998
62	0x3ce5039d	0.027955825
63	0x3b8aab25	0.004231828
64	0xbb8ce6cc	-0.004299974
65	0x3b8f0103	0.0043641343
66	0x3b006dbe	0.0019596661
67	0x3cc06561	0.023485841
68	0x3c190210	0.009338871
69	0x3b647025	0.0034856882
70	0x3cc79e27	0.024367405
71	0x3c3f1bd5	0.0116643505
72	0xbb194307	-0.0023385899
73	0x3a9e18a7	0.001206179
74	0x3d0a237f	0.033725258
75	0x3b499ac0	0.0030762404
76	0xb87523c7	-5.8445872e-05
77	0xbc26e4b7	-0.010186366
78	0x3b3d8917	0.0028920823
79	0x3c420e73	0.011844265
80	0x3c6b3a45	0.014357154
81	0x3b3e5d5b	0.0029047343
82	0x3a904c3c	0.0011009048
83	0x3b4da49f	0.003137864
84	0x3cf694e6	0.030100297
85	0xbbb5415a	-0.005531472
86	0x3c8c9953	0.017162954
87	0xbb897723	-0.0041951104
88	0x3c13feb7	0.009032897
89	0x3c070191	0.00824012
90	0x3cd70af3	0.026250338
91	0xbb8ace82	-0.0042360434
92	0x3cb3440a	0.02188303
93	0x3b92ecd7	0.0044838
94	0x3b9f9bc8	0.0048708655
95	0x3cdeb75a	0.027187038
96	0x3cd422d8	0.025895521
97	0x3af6a071	0.0018816126
98	0x3aff3687	0.0019471206
99	0xbc79e10a	-0.015251407
100	0x3c03c90b	0.008043538
101	0x3bdad967	0.0066787484
102	0x3c58edc5	0.013240282
103	0x3c029f3a	0.007972533
104	0x3c539695	0.0129143195
105	0xbb31726b	-0.0027076255
106	0x3ca65de5	0.020308444
107	0x3c9d77bb	0.019222131
108	0x3c4cc74f	0.012498691
109	0x3bd81b63	0.0065950616
110	0x3d03ca60	0.03217542
111	0xbb8e5acf	-0.0043443213
112	0x3b803436	0.003912474
113	0x3b6b7d6e	0.0035932916
114	0x3ca0bfc6	0.019622695
115	0x3c27f0c6	0.010250276
116	0x3cf72359	0.030168222
117	0xbb08bb91	-0.0020863751
118	0x3c946da8	0.018118694
119	0xbb984740	-0.0046471655
120	0x3a6ade60	0.0008959528
121	0xbbacb053	-0.005270043
122	0x3cce262d	0.025164688
123	0x3aa7fed8	0.0012817038
124	0x3cdb457a	0.026766527
125	0x3ce58b93	0.028020656
126	0x3cdacefa	0.026710022
127	0x3c88db87	0.016706241
128	0xbbcd4877	-0.006264742
129	0x3c687adf	0.014189451
130	0x3c390964	0.011293743
131	0x3cbc34a4	0.02297432
132	0xbb1e354d	-0.0024140656
133	0x3ca8297f	0.0205276
134	0x3c87b050	0.016563565
135	0x3c90668e	0.017627027
136	0x3cb567ae	0.022144165
137	0x3cb71426	0.022348475
138	0xbb4c6fc7	-0.0031194554
139	0x3cce1f71	0.025161477
140	0xbb175d94	-0.0023096548
141	0x3c843442	0.0161382
142	0xbc369bb5	-0.011145522
143	0x3c4a558a	0.012349496
144	0x3c5deb17	0.013544819
145	0x3cc3b4f1	0.02388999
146	0x3c1038f8	0.008802645
147	0x3b61dc33	0.0034463524
148	0xbc281d9e	-0.010260968
149	0x3b9103d8	0.004425507
150	0x3cd067ed	0.02544018
151	0x3cf2fe8f	0.029662399
152	0x3c8b0daa	0.016974289
153	0x3c6aef10	0.0143392235
154	0x3b601897	0.0034194344
155	0x3ccdb611	0.02511123
156	0x3c082fe7	0.008312202
157	0x3c93dc32	0.018049333
158	0x3cd8d04d	0.026466513
159	0x3cdae595	0.026720801
160	0x3c80683e	0.015674707
161	0x3c8c4e13	0.017127072
162	0x3c2a65ab	0.010400216
163	0x3c434330	0.011917874
164	0x3cc0bec7	0.02352847
165	0x3cc76767	0.024341298
166	0x3c7901f6	0.015198221
167	0x3cc97894	0.024593629
168	0xbac190a0	-0.0014767833
169	0x3c549c41	0.012976707
170	0x3c5697be	0.013097702
171	0x3ca944e0	0.020662725
172	0x3ca6ee00	0.02037716
173	0x3cac48fd	0.021030897
174	0xbb75a042	-0.0037479554
175	0x3b7e1a8b	0.0038773145
176	0x3c043e0b	0.008071433
177	0xba7585f5	-0.00093659695
178	0x3cbff854	0.023433842
179	0x3c788335	0.015168001
180	0x3bcf4a08	0.006325964
181	0x3bd1e699	0.006405663
182	0xbc3a7e92	-0.011382716
183	0xbc350bdf	-0.011050194
184	0x3b2c87eb	0.002632613
185	0x3c914374	0.01773236
186	0xbb353072	-0.0027647284
187	0x3c98b797	0.01864223
188	0x3c754aaa	0.014971415
189	0x3cc00997	0.023442073
190	0x3ce50588	0.027956739
191	0x3c1297e7	0.008947349
192	0x3cc335fd	0.023829455
193	0x3b22318f	0.0024748778
194	0xbba2a572	-0.0049635703
195	0xb9b64a27	-0.00034768993
196	0x3b5709b8	0.003281219
197	0x3cc1b97d	0.023648018
198	0x3ad8aca4	0.0016530943
199	0x39a072b2	0.00030603033
200	0x3ced1014	0.02893833
201	0x3c0159a7	0.00789491
202	0x3ca57a29	0.020199852
203	0x3c8bea94	0.017079629
204	0x3c5d0c25	0.013491665
205	0x3d0902a5	0.033449788
206	0x3b6ebd7b	0.0036428857
207	0xbb0dcddf	-0.0021637601
208	0xbb57978d	-0.0032896728
209	0xbac6b8bd	-0.0015161257
210	0x3c67f78b	0.01415814
211	0xbbbfdb06	-0.005854967
212	0x3c8f44c5	0.017488847
213	0x3cac83ae	0.021058884
214	0x3cc7c84e	0.024387505
215	0x3cf5fed7	0.030028744
216	0x3bda56d2	0.006663182
217	0xbbdeb08a	-0.0067959474
218	0x3bee2a1a	0.0072682025
219	0x3ce49e81	0.027907612
220	0x3c2e4056	0.010635456
221	0xbc0892ab	-0.00833575
222	0x3c8f5bb9	0.017499791
223	0xb9821ea1	-0.00024818353
224	0x3c774aba	0.0150935
225	0x3c25009b	0.010070945
226	0x3b11edc0	0.0022266954
227	0x3b9246d0	0.004464008
228	0x3c84750d	0.016169095
229	0x3bea6e65	0.0071542733
230	0x3c258db1	0.010104583
231	0x3cc2d70f	0.023784189
232	0x3ca0ea49	0.019642966
233	0x3c9636bc	0.018336646
234	0x3cc6644e	0.02421775
235	0x3cbe18cf	0.023205189
236	0x3c92b3cd	0.017908001
237	0x3b12d4bd	0.0022404634
238	0x3c9f865e	0.019473251
239	0x3cff4d6e	0.031164851
240	0x3cd167fd	0.02556228
241	0xbc1c7ac8	-0.009550758
242	0x3cdc1a98	0.02686815
243	0x3bfd5708	0.007731322
244	0x3c5e57d9	0.013570749
245	0x3c81da36	0.015851121
246	0x3b3698dc	0.0027862107
247	0x3cbce29f	0.02305728
248	0x3afc139e	0.0019231921
249	0x3c225f09	0.009910353
250	0x3c9e87e5	0.019351909
251	0xbb149224	-0.0022670114
252	0x3a041373	0.00050382986
253	0x3cdd5edc	0.027022772
254	0x3cba2d03	0.022726541
255	0x3c139cb1	0.009009526

network_body.linear_encoder.seq_layers.0.weight f4 [256, 256]
0	0xbdb9f6b5	-0.09080259
1	0xbda05241	-0.07828189
2	0xbe0a9175	-0.1353205
3	0xbd59d544	-0.0531819
4	0x3e4e026c	0.20118111
5	0xbd9f2168	-0.077700436
6	0x3d9f6918	0.07783717
7	0xbd3d89b7	-0.046273913
8	0xbd40355b	-0.046925884
9	0x3d3fb519	0.046803568
10	0x3da84bba	0.08217569
11	0x3c98be56	0.018645447
12	0x3db4dc18	0.08831042
13	0xbd44c420	-0.048038602
14	0x3d16bd83	0.036801826
15	0x3dd98139	0.106203504
16	0x3e211815	0.15731843
17	0xbd0a048f	-0.033695754
18	0x3dade637	0.084911756
19	0x3dc0bc7c	0.094109505
20	0x3d767094	0.060165957
21	0x3d94a5ac	0.07258162
22	0xbc9358e6	-0.017986726
23	0xbdddc522	-0.10828616
24	0x3c1317dd	0.008977857
25	0x3dac426c	0.084111065
26	0xbda9f9c1	-0.0829959
27	0xbdda3527	-0.10654669
28	0xbd66741e	-0.05626308
29	0x3ca3d539	0.019999133
30	0xbc9303f2	-0.017946217
31	0x3d6dc90a	0.058053054
32	0xbdbd8580	-0.09253979
33	0x3e156378	0.14588726
34	0xbd6fb7de	-0.05852496
35	0x3c4458fc	0.011984106
36	0x3dad3192	0.084567204
37	0xba411442	-0.00073653844
38	0x3d0480db	0.03234945
39	0x3db98dcd	0.090602495
40	0xbd5b9fa2	-0.053619035
41	0x3de57dd8	0.112056434
42	0xbd482cd7	-0.048870888
43	0xbdaf7176	-0.08566563
44	0x3d98c9d8	0.07460374
45	0x3d069d81	0.03286505
46	0xb9b94c1b	-0.00035342653
47	0xbd0b2351	-0.033969227
48	0x3d4d145e	0.05006825
49	0x3ba21880	0.0049467683
50	0x3c980b07	0.018559946
51	0x3de41f1c	0.11138746
52	0xbd192950	-0.037392914
53	0xbd77e20c	-0.06051831
54	0x3c8fb737	0.017543418
55	0x3db33c2f	0.087517135
56	0xbd560877	-0.052254166
57	0x3dccd8b0	0.10002267
58	0x3e4b9b5c	0.19883484
59	0x3d77c0fc	0.06048678
60	0x3c32f353	0.010922271
61	0x3e00d142	0.12579826
62	0x3ce84b14	0.028356113
63	0x3da775a7	0.08176737
64	0xbd02d01a	-0.031936742
65	0x3de8a4a6	0.11359529
66	0x3d9d3caf	0.0767759
67	0xbc02ccca	-0.007983396
68	0xbcc37200	-0.02385807
69	0x3c802c87	0.015646232
70	0x3d00cdc6	0.03144624
71	0xbdb7b8cc	-0.08970794
72	0xbde6a2d0	-0.11261523
73	0x3d0a5343	0.03377081
74	0xbdf48ed4	-0.11941305
75	0x3a0b1714	0.0005305868
76	0x3e1aaeb6	0.1510571
77	0x3cc1942a	0.02363022
78	0xbc9e8802	-0.019351963
79	0x3d9a5681	0.075360306
80	0x3d18fd9a	0.03735123
81	0x3d7db09c	0.061936006
82	0x3dc369c3	0.09541657
83	0xbdd0de5d	-0.101986624
84	0x3d3d8d00	0.046277046
85	0x3db9c5bd	0.09070919
86	0xbe3ced6b	-0.18449943
87	0xbcbe117a	-0.023201693
88	0xbe0a61fd	-0.13513942
89	0x3d53a795	0.05167349
90	0x3d966243	0.07342961
91	0xbc48ffa6	-0.012267983
92	0x3d649077	0.055801835
93	0x3d852675	0.06501476
94	0x3d3c4137	0.04596063
95	0x3ba9c4d2	0.0051809335
96	0xbd0e8e9c	-0.03480397
97	0x3d105d12	0.03524501
98	0xbce1f208	-0.02758123
99	0x3cf85891	0.03031567
100	0xbbd78971	-0.0065776636
101	0xbd30ce43	-0.043165457
102	0x3e2766fb	0.16347878
103	0x3c8d55ac	0.017252766
104	0x3cd9776f	0.026546208
105	0xbb39c481	-0.0028345885
106	0xbca27daa	-0.019835312
107	0x3d179b25	0.03701319
108	0xbcfd499d	-0.03091889
109	0xbdc5e2aa	-0.09662373
110	0x3d376004	0.044769302
111	0x3db902ab	0.09033712
112	0x3c7f829b	0.015595104
113	0x3e1d2dba	0.15349475
114	0x3c96b95b	0.018398931
115	0x3c37fd54	0.011229832
116	0x3d279074	0.040909246
117	0x3da1cc3e	0.07900284
118	0x3d5e7c58	0.054317802
119	0x3d39bfad	0.045348812
120	0x3c33df6e	0.010978563
121	0x3d992fb8	0.07479805
122	0xba03a6c2	-0.0005022102
123	0xbc885602	-0.016642574
124	0xbce13bd8	-0.027494356
125	0x3cf95ff9	0.030441271
126	0x3d3de339	0.046359275
127	0x3d804ce8	0.06264669
128	0x3d07ae27	0.03312507
129	0xbcfb7df1	-0.030699702
130	0x3d6b98d3	0.05751879
131	0xbd74ce38	-0.059766978
132	0xbb8456ff	-0.004038691
133	0xbcb4b61e	-0.022059496
134	0x3c988938	0.018620118
135	0xbd558960	-0.052132964
136	0xbe2cda7b	-0.16880219
137	0xbd325b24	-0.04354395
138	0xbd3585a2	-0.044316895
139	0xbd96b2be	-0.07358311
140	0xbd16c404	-0.03680803
141	0x3ca0d7b8	0.019634113
142	0xbd5efe41	-0.054441694
143	0xbd73ee97	-0.05955371
144	0xbe676610	-0.22597528
145	0x3b5aac8a	0.0033367001
146	0xbe971898	-0.2951095
147	0x3da2ca1b	0.07948705
148	0x3d906ba1	0.070517786
149	0x3dddae5b	0.10824271
150	0x3d605c79	0.05477569
151	0xbcb97c03	-0.022642141
152	0x3d65391f	0.055962678
153	0xbd32524b	-0.043535512
154	0xbc16ac80	-0.009196401
155	0xbd6f3869	-0.058403406
156	0xbd874e7f	-0.06606769
157	0xbe013bfb	-0.12620537
158	0xbdb9392a	-0.09044106
159	0x3d780fd2	0.060561962
160	0xbc821a9d	-0.01588183
161	0xbcbdccd7	-0.023168964
162	0x3d808df4	0.062770754
163	0xbd23fbac	-0.040034935
164	0xbd1d2959	-0.03836951
165	0xbdaf8342	-0.08569957
166	0xbd07709e	-0.033066384
167	0xbdd21b97	-0.102591686
168	0xbd316ad7	-0.04331478
169	0x3da8a9e4	0.08235529
170	0x3d5061bf	0.050874468
171	0xbd907c68	-0.070549786
172	0x3db64ab6	0.08900969
173	0xbc68428d	-0.014176023
174	0x3d311768	0.043235213
175	0xbca4f469	-0.020136075
176	0x3ca651eb	0.020302733
177	0xbce5c713	-0.028049028
178	0x3d5a3a68	0.053278357
179	0xbc8bddaf	-0.01707348
180	0x3bc5d606	0.0060374765
181	0x3d6d72c0	0.057970762
182	0x3d1806ea	0.03711597
183	0xbd15075b	-0.036383968
184	0x3db5d8fb	0.08879276
185	0xbe2bb1c9	-0.16767038
186	0x3d2dda92	0.042444773
187	0xbdd8f1fc	-0.1059303
188	0x3d1170c5	0.035507936
189	0x3d2518c4	0.04030682
190	0x3d173531	0.03691596
191	0xbd2db552	-0.04240925
192	0xbdafe657	-0.08588856
193	0xbd0c95d6	-0.034322582
194	0xbd190230	-0.0373556
195	0x3d2ceb1a	0.042216398
196	0xbe1f94c1	-0.15584089
197	0x3d5e62e0	0.054293513
198	0x3dcfcbec	0.10146317
199	0xbd5b55ff	-0.05354881
200	0x3d58481a	0.052803136
201	0x3d83dd83	0.064387344
202	0x3d528b4d	0.05140238
203	0x3dcd609a	0.10028191
204	0xbd07701a	-0.033065893
205	0x3e0cf8e6	0.13766822
206	0x3d8e6629	0.06953079
207	0x3dacca49	0.0843702
208	0x3d5b1201	0.053483967
209	0x3c940a1b	0.018071225
210	0x3c645e09	0.013938435
211	0xbc512ed9	-0.012767517
212	0x3d93ee40	0.07223177
213	0x3c270a97	0.010195396
214	0x3bcece19	0.00631119
215	0x3ce5a4b8	0.028032646
216	0x3d0cc2b8	0.034365386
217	0x3d17bd62	0.037045844
218	0xbe099d3c	-0.13438886
219	0xbd8590ee	-0.06521784
220	0xbad587c6	-0.0016291074
221	0xbd8ad7fa	-0.067794755
222	0xbbadfc5e	-0.0053096255
223	0x3d478ab7	0.048716273
224	0xbcb2707e	-0.021782156
225	0xbd91f51b	-0.07126828
226	0xbc9c9a16	-0.019116443
227	0xbdc0e2f6	-0.09418289
228	0x3c7485fa	0.014924521
229	0xbd0737d0	-0.03301221
230	0xbd60bb14	-0.05486591
231	0xbdd0c160	-0.10193133
232	0xbd81909d	-0.06326411
233	0xbe036244	-0.12830454
234	0xbd9eed3c	-0.077600926
235	0xbcd12224	-0.025528975
236	0xbd2b7be8	-0.041866213
237	0xbd047dde	-0.0323466
238	0xbd3d6829	-0.046241913
239	0xbc02d9fe	-0.007986544
240	0x3d4035d8	0.04692635
241	0x3d15f0ae	0.036606483
242	0x3cb92342	0.02259982
243	0x3d22e655	0.039770443
244	0xbc5391a4	-0.012913141
245	0x3d82a713	0.06379523
246	0x3d0833e5	0.033252615
247	0x3c846ed8	0.016166136
248	0x3d95f281	0.073216446
249	0xbd55bd02	-0.052182205
250	0x3c5fc978	0.013658874
251	0xbbca3f30	-0.0061720833
252	0x3c6b93bc	0.014378484
253	0xbce360e3	-0.02775616
254	0xbe274336	-0.16334233
255	0x3d2319aa	0.039819397

network_body.processors.0.conv_layers.0.bias f4 [16]
0	0x3d47c522	0.048771985
1	0x3c865e53	0.0164024
2	0x3c4ca3f4	0.012490261
3	0x3da5f9e2	0.08104302
4	0x3cb14a8f	0.021641998
5	0x3abec64e	0.0014554949
6	0x3d8dc222	0.069217935
7	0x3babae46	0.005239281
8	0xbc968a75	-0.018376568
9	0x3c40f3ff	0.011776923
10	0x3c08cf7a	0.0083502475
11	0x3ab373d2	0.0013691133
12	0x3d3505c0	0.044194937
13	0x3d150de6	0.036390208
14	0x3ceaa613	0.028643643
15	0x3cd8f356	0.02648322

network_body.processors.0.conv_layers.0.weight f4 [16, 5, 8, 8]
0	0x3d3a5d49	0.04549912
1	0x3b01efc7	0.0019826756
2	0x3cfd3f82	0.030914072
3	0x3d5462d0	0.051852047
4	0x3d2a6843	0.041603338
5	0xbcb449be	-0.02200782
6	0xbc65211a	-0.013984943
7	0xbc8596ad	-0.0163072
8	0x3c3a17d1	0.011358217
9	0x3d24f76a	0.040275015
10	0xbc4f6830	-0.012659118
11	0x3cd8c1c7	0.026459588
12	0x3c0cdadc	0.008597102
13	0x3c33192d	0.010931295
14	0x3d0909c0	0.033456564
15	0xbd096190	-0.03354031
16	0x3b0eb0df	0.0021772904
17	0xbc8daece	-0.017295267
18	0xbbe9f5e5	-0.0071399086
19	0xba80519f	-0.000978995
20	0x3c8c1cf1	0.017103644
21	0xbd40d092	-0.04707391
22	0xbcc686fd	-0.02423429
23	0x3cea63a5	0.028611967
24	0x3cf5b4a2	0.029993359
25	0xbd6db7b2	-0.058036514
26	0x3d01ee18	0.031721205
27	0x3ba15743	0.0049237325
28	0xbdb9244f	-0.090401284
29	0xbde604e8	-0.112314045
30	0xbd509fa7	-0.050933506
31	0xbb487618	-0.0030587967
32	0x3d4a8187	0.049439933
33	0x3c814f37	0.015784843
34	0x3d8be20b	0.06830224
35	0x3d0b08d9	0.033943985
36	0xbd9a3d21	-0.07531191
37	0xbd2b8076	-0.041870557
38	0xbd20196a	-0.039086737
39	0xbd949775	-0.07255451
40	0xbc925ce1	-0.017866554
41	0x3d551427	0.052021172
42	0xbcd65b82	-0.026166681
43	0x3d047f76	0.03234812
44	0x3c2a2ad9	0.010386192
45	0xbd3140d0	-0.0432747
46	0xbce0ca3e	-0.027440187
47	0xbd031807	-0.032005336
48	0xba1fd113	-0.0006096523
49	0xbd597d92	-0.05309827
50	0xbd5e53f4	-0.054279283
51	0xbd0e4b69	-0.034739885
52	0xbc039208	-0.008030422
53	0xbcc842d5	-0.02444593
54	0xbc2cc550	-0.01054509
55	0xbd53e1e5	-0.0517291
56	0xbce46b40	-0.027883172
57	0xbcda8be0	-0.026678026
58	0x3d101b6c	0.0351824
59	0x3bf54d3c	0.0074860137
60	0xbc7e48ca	-0.015520284
61	0xbd1eac1c	-0.038738355
62	0xbdc32bd7	-0.09529846
63	0xbc572568	-0.013131477
64	0x3d42c299	0.047548864
65	0x3d913469	0.070900746
66	0x3c8c9991	0.01716307
67	0xbcb905d9	-0.022585796
68	0x3d2256ba	0.03963349
69	0x3d20bda0	0.03924334
70	0xbc25179b	-0.010076429
71	0x3d89faf7	0.06737321
72	0xbd9b8b25	-0.07594899
73	0xbd1ac0d0	-0.037781537
74	0x3d42e52d	0.04758184
75	0xbd86fe37	-0.065914564
76	0xbd121cab	-0.03567187
77	0x3d459c9d	0.04824506
78	0xbd16a94e	-0.036782555
79	0x3d3aada5	0.045575757
80	0xbd9d776d	-0.07688794
81	0xbd88bb30	-0.06676328
82	0xbc02efbf	-0.00799173
83	0xbd88e041	-0.06683398
84	0x3dc2611e	0.0949118
85	0x3e03d5a3	0.12874465
86	0x3cc2d282	0.023782019
87	0xbdb18271	-0.08667458
88	0xbd33ec88	-0.043926746
89	0xbd1283b0	-0.03577012
90	0xbd5ae51b	-0.05344115
91	0xbd76878b	-0.060187858
92	0x3cece91f	0.028919755
93	0xbced4b58	-0.02896659
94	0x3b530323	0.0032197915
95	0x3cb5360f	0.022120504
96	0xbcea37dd	-0.02859109
97	0xbcb4c3bf	-0.022065995
98	0xbcf681cb	-0.030091187
99	0xbbf636d0	-0.0075138584
100	0xbceca755	-0.028888384
101	0x3d381ce5	0.04494943
102	0x3d5aa4f6	0.053379975
103	0x3c194798	0.009355448
104	0x3c4b0e61	0.012393565
105	0x3da83920	0.08214021
106	0x3d32ef95	0.043685514
107	0x3d0f02fe	0.034914963
108	0xbbafb142	-0.005361707
109	0x3d36d34b	0.0446351
110	0xbc1019a9	-0.00879518
111	0xbd9a31b6	-0.07529013
112	0x3c4bee27	0.012446917
113	0x3dbc2b1d	0.09187911
114	0x3d7a5b65	0.061122317
115	0xbc431325	-0.01190642
116	0x3cf0eb68	0.029409125
117	0x3b4c2361	0.0031149017
118	0xbba1e135	-0.004940177
119	0xbabeaabf	-0.0014546736
120	0x3db9cf4b	0.09072741
121	0x3c60c5e1	0.013719053
122	0x3d3c03c9	0.045902047
123	0x3bfcbb97	0.007712792
124	0x3cbe8451	0.023256453
125	0x3d095621	0.033529405
126	0x3c30f6e7	0.010801054
127	0xbcc71001	-0.024299623
128	0x3cb27a1b	0.02178674
129	0xbce4f758	-0.027949974
130	0xbd81c6fb	-0.06336781
131	0xbcd515a0	-0.026011288
132	0xbcbb8287	-0.022889389
133	0xbd901a29	-0.0703624
134	0xbb930d70	-0.004487686
135	0xbd9c9a72	-0.076466456
136	0x3d173ef5	0.036925275
137	0xbd9e1c89	-0.077202864
138	0x3cc34784	0.023837812
139	0x3d394530	0.045231998
140	0x3cea380d	0.02859118
141	0xbd2d1b2f	-0.042262252
142	0xbc8f4322	-0.017488066
143	0x3c841f5b	0.016128233
144	0xbd127776	-0.035758458
145	0xbde0c262	-0.109745756
146	0xbd8c4aa3	-0.06850173
147	0xbbf95558	-0.0076090507
148	0xbcd0e271	-0.0254986
149	0xbce71ff2	-0.028213475
150	0x3be0ff2d	0.006866357
151	0xbc950f9a	-0.018195916
152	0xbbe5e1ab	-0.007015427
153	0xbdb24f98	-0.087065876
154	0x3cc06f43	0.023490554
155	0x3c353728	0.011060514
156	0xbdabbb9b	-0.08385392
157	0xbd0d89d3	-0.034555268
158	0xbd86b99a	-0.065783694
159	0x3c3b3268	0.011425592
160	0xbcdeb03e	-0.027183648
161	0xbc8c3d23	-0.017118996
162	0xbcfc76e7	-0.030818416
163	0x3ce86613	0.028368985
164	0xbd767d82	-0.060178287
165	0x3c88eff8	0.016715989
166	0xbd518c7e	-0.051159374
167	0xbcf0eca7	-0.02940972
168	0xbd0a58bf	-0.03377604
169	0xbd0d784c	-0.034538552
170	0x3c5bc912	0.013414638
171	0x3cb01827	0.021495892
172	0xbd92f56c	-0.07175717
173	0xbdb6567a	-0.08903213
174	0x3b6d2095	0.003618275
175	0x3d126014	0.03573616
176	0xbbf0e5cd	-0.007351613
177	0x3d15a074	0.036529973
178	0xbd658574	-0.056035474
179	0xbd858165	-0.06518821
180	0xbd837834	-0.06419411
181	0x3bf60d1e	0.007508888
182	0x3d4acfad	0.04951446
183	0xbce9ddc0	-0.028548121
184	0x3ca273c6	0.019830596
185	0xbd5cf77e	-0.053946964
186	0x39f3c7c6	0.00046497415
187	0x3b8b8b7f	0.0042585726
188	0x3b85b437	0.004080321
189	0xbbd12801	-0.0063829427
190	0xbc99fcda	-0.018797327
191	0x3d92d74e	0.07169972
192	0xbb2dbb07	-0.0026509182
193	0xbd679616	-0.056539617
194	0xbd029c06	-0.031887077
195	0x3c067522	0.008206638
196	0x3d02d158	0.031937927
197	0x3ca973c3	0.020685082
198	0x3d4a93b6	0.049457274
199	0x3cc98fa1	0.02460462
200	0x3d5eb7d8	0.054374546
201	0x3d0162c3	0.031588327
202	0xbbf7bccc	-0.007560348
203	0xbc1b65ac	-0.00948469
204	0xbc9a5d4b	-0.018843314
205	0xbd8766aa	-0.066113785
206	0x3c187519	0.009305262
207	0x3da90c0d	0.08254252
208	0xbba728fb	-0.005101321
209	0xbd063bf9	-0.032772038
210	0xbd6c4b56	-0.057689033
211	0x3c905da6	0.01762278
212	0x3db08200	0.086185455
213	0x3d9c3c7e	0.076287255
214	0x3db43ed8	0.08801049
215	0x3d83f426	0.06443052
216	0x3d133962	0.035943396
217	0xbcabbcdc	-0.020964079
218	0x3d98250d	0.07428942
219	0x3d801e50	0.06255782
220	0x3d09756d	0.03355925
221	0x3d4c1a22	0.04982961
222	0x3d8e15aa	0.06937726
223	0x3db033d2	0.08603634
224	0xbcecce80	-0.02890706
225	0xbce999b2	-0.02851567
226	0x3ce4ffc1	0.027953984
227	0xbc9235c1	-0.017847897
228	0xbd3d0b90	-0.046153605
229	0x3d625ff5	0.055267293
230	0xbcdf0e3e	-0.02722847
231	0x3c34f2f2	0.011044251
232	0xbcd39e60	-0.025832355
233	0xbbdf07ab	-0.006806334
234	0xbd0b8106	-0.034058593
235	0x3bdf384e	0.006812132
236	0xbd85b74b	-0.06529101
237	0xbcce8214	-0.02520851
238	0x3b9242c7	0.004463527
239	0x3c286560	0.010278076
240	0x3dbc991e	0.09208892
241	0x3d32c6d2	0.04364664
242	0x3b777376	0.003775803
243	0x3d39dc9f	0.045376416
244	0x3d473f2a	0.048644222
245	0xba26d0d0	-0.0006363513
246	0x3c575f1d	0.013145235
247	0x3bcf34cd	0.006323433
248	0xbbbddc40	-0.005794078
249	0x3d8e87e9	0.069595166
250	0x3d0b7747	0.0340493
251	0xbd42ff6e	-0.047606878
252	0xbc26511a	-0.010151172
253	0xbda4bd8b	-0.08043965
254	0xbd5919e9	-0.053003225
255	0xbd21af1b	-0.039473634

network_body.processors.0.conv_layers.2.bias f4 [32]
0	0x3d722543	0.059117567
1	0x3d801973	0.06254854
2	0x3d24360c	0.040090606
3	0xbce1a5b8	-0.027544841
4	0x3d3140c2	0.04327465
5	0xbcae4f16	-0.021277945
6	0xbb9329f0	-0.0044910833
7	0x39e5a808	0.00043803477
8	0x3d57d26c	0.05269091
9	0x3af629ca	0.0018780765
10	0x3d95a222	0.07306315
11	0xbcba2bd3	-0.022725975
12	0x3d50b894	0.050957277
13	0xbcdaf8a7	-0.026729895
14	0xbcda5fc7	-0.026656998
15	0x3c884582	0.016634706
16	0x3b558410	0.0032579936
17	0xbabd1d71	-0.001442833
18	0x3ceff997	0.029293818
19	0x3da9a47e	0.082833275
20	0xbcaabbea	-0.020841558
21	0x3d5b9226	0.053606175
22	0x3d920495	0.0712978
23	0xbd64fb4b	-0.055903714
24	0x3d5cf3a1	0.05394328
25	0xbc705583	-0.014668825
26	0xbc717a29	-0.014738598
27	0x3c248029	0.010040321
28	0x3d1b9dc1	0.037992243
29	0xbc1b762b	-0.009488623
30	0xbd4c6d50	-0.049908936
31	0xbcd2b0e9	-0.025719123

network_body.processors.0.conv_layers.2.weight f4 [32, 16, 4, 4]
0	0xbcd77150	-0.026299149
1	0xbd84ef65	-0.064909734
2	0xb96768b2	-0.00022068879
3	0x3cb77eb6	0.022399288
4	0xbd8046f5	-0.06263534
5	0x3c947979	0.018124329
6	0x3d34e229	0.044160996
7	0xbd69db1b	-0.05709372
8	0x3d13ad9f	0.03605425
9	0xbb5d88fc	-0.0033803573
10	0xbd88b437	-0.06674998
11	0x3c1376fe	0.009000538
12	0x3bf1802a	0.0073700147
13	0xbc438266	-0.011932945
14	0x3cea07cc	0.028568171
15	0xbc2a9742	-0.010412039
16	0x3c3e70c5	0.011623566
17	0x3de78d82	0.11306287
18	0x3cf23632	0.029566858
19	0xbda33544	-0.07969144
20	0xbbd812e5	-0.0065940493
21	0xbd513cd8	-0.051083416
22	0x3caa4738	0.020785913
23	0x3c781802	0.015142443
24	0x3d9f2ea9	0.077725716
25	0xbcdf9ed9	-0.027297424
26	0xbd9bacbf	-0.07601308
27	0x3d8365f7	0.064159326
28	0x3df414f3	0.11918058
29	0xbcd686c9	-0.026187317
30	0x3d4c4725	0.049872536
31	0x3da11242	0.078648105
32	0xbc428d9e	-0.0118745845
33	0xbca72355	-0.02040259
34	0x3cbc3de0	0.022978723
35	0x3d79ffe8	0.061035067
36	0xbd412ce6	-0.04716196
37	0xbc32b031	-0.010906265
38	0x3d142aaa	0.0361735
39	0x3c268316	0.010163089
40	0xbd128626	-0.035772465
41	0xbc1756b6	-0.009236982
42	0x3d919a67	0.07109528
43	0x3a74c6a9	0.0009337464
44	0x3cdbcd20	0.02683121
45	0x3cdd00b4	0.026977874
46	0x3d30b54e	0.043141656
47	0xbc09c195	-0.00840797
48	0x3ca41f13	0.020034349
49	0x3bcfc81b	0.006340993
50	0x3d714c86	0.05891087
51	0xbc64a06d	-0.013954264
52	0xbbd3fac6	-0.0064691035
53	0x3d0417cf	0.03224927
54	0x3cafbd8d	0.02145269
55	0xbc234369	-0.009964802
56	0x3bf7d0b3	0.0075627207
57	0x3d5af6bc	0.05345796
58	0xbd921d06	-0.07134442
59	0xbcdd1e94	-0.02699212
60	0xbd1bb4c3	-0.038014185
61	0x3c930b8e	0.017949846
62	0x3d29d7a7	0.041465428
63	0x3d19dbae	0.03756302
64	0xbd7203c5	-0.059085626
65	0xbd442a81	-0.047892097
66	0x3e0656b4	0.13119012
67	0xba85110f	-0.0010152179
68	0x3d278d5d	0.0409063
69	0xbc9778d7	-0.018490238
70	0x3d0cc208	0.03436473
71	0xbc9005d6	-0.017580908
72	0x3c234751	0.009965734
73	0xbc95bcd3	-0.018278515
74	0x3d34baab	0.044123333
75	0xbca5bef3	-0.020232653
76	0x3dd01d26	0.101618096
77	0x3cdef7f0	0.027217835
78	0xbd322468	-0.04349175
79	0x3c7dfbe0	0.015501946
80	0xbc13e75d	-0.009027329
81	0xbb11e129	-0.002225945
82	0xbcbaf2fe	-0.022820946
83	0xbd1df804	-0.038566604
84	0xbd8d784f	-0.06907713
85	0x3d99537d	0.07486627
86	0x3dc4a08d	0.09600935
87	0xbd2c7f4e	-0.042113595
88	0x3d54ed1f	0.05198395
89	0xbc6f4b6c	-0.014605384
90	0xbd9ddd3a	-0.07708211
91	0x3cbdc9e1	0.023167552
92	0x3d5d0617	0.053960886
93	0xbba1d943	-0.0049392297
94	0xbd9b0fa5	-0.07571343
95	0x3c38b398	0.011273287
96	0xbc471aa0	-0.012152344
97	0xbd99ad84	-0.075037986
98	0xbc8b6927	-0.017017914
99	0x3d57446d	0.05255549
100	0xbdaa006e	-0.08300863
101	0xbd2d0939	-0.042245124
102	0x3b865d15	0.0041004517
103	0x3db7c2bb	0.08972689
104	0xbd1f0c37	-0.03883001
105	0x3dce5778	0.10075277
106	0xbc7ca9a1	-0.015421302
107	0xbcc6d0f3	-0.024269557
108	0x3c2328be	0.009958444
109	0x3cc2c977	0.023777707
110	0x3cb1a1fd	0.021683687
111	0x3c3a0e70	0.011355981
112	0xbd15bd30	-0.036557376
113	0x3d3c2ea7	0.04594293
114	0x3d08e679	0.03342292
115	0xbda3dbc8	-0.08000904
116	0x3cffbc58	0.031217739
117	0x3b0b9d0b	0.0021303322
118	0xbd8267cb	-0.06367453
119	0x3c3c20a0	0.011482388
120	0x3c8ba3ef	0.017045943
121	0x3bcaca87	0.006188694
122	0xbc9404d4	-0.018068708
123	0x3cf932dd	0.030419761
124	0xbb8e4f2e	-0.004342935
125	0x3c11cd3d	0.00889903
126	0x3d2bf400	0.041980743
127	0xbd05f809	-0.032707248
128	0xbc5235a5	-0.012830173
129	0x3cef0d06	0.029181015
130	0xbd8a024d	-0.0673872
131	0xbb295faa	-0.0025844374
132	0x3d20c002	0.039245613
133	0xbd73ca1d	-0.059518922
134	0x3d0c9be7	0.034328368
135	0xbd29cfb9	-0.041457865
136	0xbd1d7ec5	-0.038450975
137	0xbd371b47	-0.044703748
138	0x3d1373a2	0.035998948
139	0x3d81da1d	0.0634043
140	0x3cc5e586	0.024157297
141	0x3c3330a1	0.010936887
142	0x3d14e80c	0.03635411
143	0xbd0fea78	-0.035135716
144	0x3c8f5471	0.01749632
145	0x3d6c379d	0.057670224
146	0x3d8149a3	0.06312873
147	0xbd45cb78	-0.048289746
148	0xbca9e6a2	-0.020739857
149	0xbbb5444f	-0.0055318247
150	0x3ce16b94	0.027517118
151	0x3da29b30	0.07939756
152	0x3d714578	0.05890414
153	0xba9fd889	-0.001219527
154	0x3c1ff7df	0.009763687
155	0xbbb09e1f	-0.0053899433
156	0x3cfd09c3	0.030888444
157	0xbaf18007	-0.0018424996
158	0xbb89e8ec	-0.0042086747
159	0xbd6c89cc	-0.0577486
160	0x3d2f87d4	0.042854145
161	0xbc83c8eb	-0.016087016
162	0xbd1dbbbc	-0.038509116
163	0x3b82b4a0	0.0039888173
164	0xbc1596f6	-0.00913023
165	0xbdcd7e3c	-0.10033843
166	0xbc314d6d	-0.010821682
167	0x3d605023	0.054763924
168	0xbd62c331	-0.05536193
169	0xbd904637	-0.070446424
170	0x3cf2f33d	0.029657
171	0x3d8307a2	0.0639794
172	0x3d45564f	0.048178013
173	0x3d3b35b9	0.04570553
174	0xbd166a28	-0.036722332
175	0x3dba12f4	0.09085646
176	0x3d886528	0.06659919
177	0xbda14d4f	-0.078760736
178	0xbc477f7f	-0.0121763935
179	0x3ae6d1e9	0.0017610166
180	0xbce84e0c	-0.028357528
181	0x3d0f13d8	0.034931034
182	0x3cb8b90e	0.022549178
183	0x3d7682c2	0.060183294
184	0xbd6c18f7	-0.057640996
185	0x3d59c1cc	0.053163335
186	0xbcb07d2b	-0.02154406
187	0xbc314035	-0.010818531
188	0x3d287827	0.04113021
189	0xbd1effca	-0.03881816
190	0x3d3e86c8	0.046515256
191	0x3d97d089	0.07412822
192	0xbd07ef4c	-0.033187196
193	0x3d7b1b01	0.06130505
194	0xbd91137a	-0.07083793
195	0xbc9d8435	-0.01922808
196	0xbd3d5c28	-0.046230465
197	0xbcda3991	-0.026638778
198	0x3b515e42	0.0031947051
199	0x3d894f83	0.06704619
200	0x3d243586	0.040090106
201	0x3c5f5c9e	0.0136329215
202	0xb9e452fd	-0.0004354938
203	0xbc63e5c1	-0.013909758
204	0x3c3f95d7	0.011693439
205	0x3d6b54b8	0.05745384
206	0x3be8ebe2	0.0071081975
207	0x3daba70b	0.0838147
208	0x3c1d0edc	0.009586062
209	0x3ba2e2ba	0.0049708756
210	0xbb2f17dd	-0.0026717104
211	0xbcee1956	-0.029064815
212	0xbd3df35c	-0.046374664
213	0x3d9d636a	0.07684977
214	0x3d5503c2	0.052005537
215	0xbc6691ad	-0.014072818
216	0xbd4a8423	-0.04944242
217	0xbd4253ed	-0.04744332
218	0x3d317166	0.043321036
219	0xbc9310dc	-0.017952375
220	0x3cf6972e	0.030101385
221	0xb9af498c	-0.00033433398
222	0xbcdc4284	-0.026887186
223	0x3b873401	0.0041260724
224	0xbb968240	-0.0045931637
225	0xbbdb2af9	-0.0066884723
226	0x3d48e8fa	0.04905031
227	0x3d3fa466	0.046787642
228	0xbc06dbd6	-0.008231124
229	0x3b50a536	0.0031836755
230	0xbca63b17	-0.020291848
231	0xbd36f2e3	-0.04466523
232	0x3d4a40d6	0.04937824
233	0x3dcc1ef4	0.09966841
234	0x3d99e72b	0.07514795
235	0xbd22940c	-0.03969197
236	0xbc82323f	-0.0158931
237	0x3d91e3ab	0.07123502
238	0x3d5cc5ec	0.05389969
239	0xbd488555	-0.04895528
240	0x3ce1d771	0.02756855
241	0xbd71b3b2	-0.05900926
242	0x3de2529e	0.11050914
243	0x3df474f0	0.119363666
244	0x3b9c771d	0.0047749416
245	0x3d91e705	0.071241416
246	0x3d6bbd2f	0.057553466
247	0xbc84af81	-0.016196968
248	0xbbb5bd1b	-0.005546225
249	0x3b298696	0.0025867573
250	0xbd8033b0	-0.062598586
251	0xbd7d5ef9	-0.06185815
252	0xbce5cc7d	-0.02805161
253	0x3be510b0	0.0069905147
254	0x3c5a4e30	0.013324305
255	0x3d90dd84	0.07073501

network_body.processors.0.dense.0.bias f4 [256]
0	0x3c38c588	0.011277564
1	0x3ca50e04	0.020148285
2	0x3ca5c3e4	0.02023501
3	0x3cb4be82	0.022063497
4	0xbb3d586b	-0.0028891813
5	0x3c953f0e	0.018218543
6	0x3cd7fa04	0.026364334
7	0x3cb63ccc	0.022245787
8	0xbbe80894	-0.0070811007
9	0x3c17edce	0.009273006
10	0x3cbaed27	0.022818161
11	0x3c158e2a	0.009128133
12	0xbbf7a5cc	-0.0075576063
13	0x3cb08092	0.021545682
14	0x3c8762a1	0.016526522
15	0x3c97b567	0.018519117
16	0xbae414aa	-0.0017401178
17	0x3ccb76fe	0.024837013
18	0xbb9f31ae	-0.004858217
19	0x3c6f6ce9	0.014613369
20	0x3cd3ec31	0.02586946
21	0xbc134298	-0.008988045
22	0x3cc523fb	0.024065008
23	0x3d004aa3	0.03132118
24	0x3b813e65	0.0039442056
25	0x3d1f5a94	0.03890474
26	0x3b8b999f	0.0042602564
27	0x3c131e93	0.008979457
28	0xbb0729b3	-0.002062422
29	0xbc1c6002	-0.009544374
30	0x3d05de29	0.03268257
31	0xbc141eb5	-0.009040524
32	0x3a288d2e	0.0006429729
33	0xbb138ac3	-0.0022513128
34	0x3cf08db3	0.029364442
35	0xbb84f7e5	-0.0040578716
36	0x3c86a48b	0.016435882
37	0x3cbf2698	0.023333833
38	0x3d1a396f	0.03765243
39	0x3d170c3b	0.0368769
40	0x3c9d4a3b	0.019200435
41	0x3c215a4b	0.009848188
42	0x3c996076	0.018722754
43	0x3c908344	0.017640717
44	0xbce6db50	-0.028180748
45	0xbb4dbe75	-0.0031394039
46	0xbb9bdd99	-0.004756641
47	0x3cf860b9	0.030319558
48	0xbc96b1db	-0.018395355
49	0xbb258883	-0.002525837
50	0x3c945f03	0.018111711
51	0xba2238ef	-0.00061882933
52	0x3c4eadc0	0.012614667
53	0x3c6ff6c8	0.01464624
54	0x39984610	0.000290439
55	0x3cc1d831	0.023662658
56	0x3ceb0053	0.028686678
57	0xbb8d91ab	-0.0043203435
58	0x3c1ee6a0	0.00969854
59	0xbbe5c702	-0.007012249
60	0x3a5077d4	0.0007952426
61	0xbc076894	-0.008264679
62	0x3d019f0d	0.031645823
63	0x3cd43abe	0.025906917
64	0x3d0e43c4	0.034732595
65	0x3cb292ea	0.02179857
66	0xbc729b52	-0.014807539
67	0x3c64437c	0.013932105
68	0x3bafbc22	0.0053630034
69	0xbb9b717e	-0.004743754
70	0x3cc87762	0.024470989
71	0xbb3fbccc	-0.0029256819
72	0xb9d6c3e8	-0.00040963222
73	0xb889d5d5	-6.5724984e-05
74	0x3ca129fc	0.01967334
75	0x3a5bdf4a	0.00083874597
76	0x3c5286e8	0.012849547
77	0x3caa0e88	0.020758882
78	0x3a8aaff3	0.0010581001
79	0x3ba41413	0.005007276
80	0x3d1b9491	0.03798348
81	0x3c604c2d	0.013690037
82	0xbc0b0876	-0.008485904
83	0x3c935975	0.017986992
84	0x3c3d6b7b	0.01156127
85	0xb8afe829	-8.3878935e-05
86	0x3c63eefd	0.01391196
87	0x3d038797	0.03211173
88	0x3c290f49	0.010318586
89	0x3cca98f7	0.024731142
90	0xbbe7426b	-0.007057478
91	0x3c9a19b0	0.018811077
92	0xbbf57e1e	-0.007491841
93	0x3b548a14	0.0032430934
94	0xbc76801c	-0.015045192
95	0xbb8987fb	-0.0041971183
96	0x3a9e063d	0.0012056303
97	0x3cce537e	0.025186297
98	0x3cbcb4cc	0.02303543
99	0xbc560aa4	-0.01306406
100	0xbbfff52f	-0.0078112106
101	0x3ab13d0a	0.0013522219
102	0xbb2b9391	-0.0026180486
103	0xbaad3945	-0.001321592
104	0x3b17cb1f	0.002316184
105	0x3ccaa06b	0.024734696
106	0x3d077047	0.03306606
107	0xbb101095	-0.002198254
108	0xbc0b1768	-0.008489467
109	0x3cdbb843	0.026821261
110	0x3c134088	0.008987553
111	0x3cd35acb	0.02580013
112	0x3cfe91dc	0.03107541
113	0x3c879be7	0.016553832
114	0xbc357615	-0.011075516
115	0xbbf12042	-0.0073585818
116	0x3c71038e	0.01471032
117	0xbc8e4bd8	-0.01737015
118	0x3cbab675	0.02279208
119	0x3cf2d9bb	0.029644838
120	0xbb8a89f6	-0.004227872
121	0xbc508579	-0.012727135
122	0x3c89f8f7	0.016842349
123	0x3c8033a6	0.015649628
124	0x3ca5fe18	0.020262763
125	0x3c951529	0.018198567
126	0xba20db49	-0.00061361917
127	0x3bbe10fe	0.0058003655
128	0x3c078491	0.008271352
129	0x3c4811a5	0.012211238
130	0x3c0ead1a	0.008708263
131	0x3ad5d4dd	0.0016314049
132	0x3c89a0da	0.016800333
133	0x3b03ee3d	0.0020131015
134	0xb97f0c17	-0.00024323199
135	0x3c9d28aa	0.01918443
136	0x3ce4dc95	0.027937213
137	0x3ccd0d73	0.025030827
138	0x3ccddf78	0.025130972
139	0x3c98aaec	0.01863619
140	0xbcc0adf0	-0.02352044
141	0x3b10f3a6	0.0022117882
142	0x3b38e96c	0.0028215302
143	0xbc7b568f	-0.015340461
144	0x3bdfbc00	0.0068278313
145	0xbc66cffb	-0.014087672
146	0x3bd735da	0.006567699
147	0xbb00248b	-0.0019553031
148	0x3c324df3	0.010882842
149	0x3c1a2731	0.009408758
150	0x38f6816f	0.00011754303
151	0x3d026221	0.031831864
152	0x3c45b4d3	0.012067038
153	0x3d304159	0.04303107
154	0x3bd2ebb4	0.0064367894
155	0x3c87e724	0.016589709
156	0x3c8d12eb	0.017220935
157	0xbca49355	-0.020089785
158	0x3a828eb9	0.0009960748
159	0x3ba4b0d5	0.005025963
160	0x3c96b75c	0.01839798
161	0x3c91248e	0.017717626
162	0xbc4a0c2f	-0.012332006
163	0x3c6bb559	0.014386498
164	0x3bc1a5f9	0.005909678
165	0x3cbb4921	0.022862019
166	0x399e51d1	0.00030197066
167	0xbc750951	-0.0149558345
168	0xba3ddaf8	-0.0007242407
169	0x3c9f8cde	0.01947635
170	0xbc55eea1	-0.013057382
171	0x3cc1abb9	0.023641454
172	0xbbd9acf3	-0.0066429316
173	0xbab1c052	-0.0013561344
174	0x3ba8aefb	0.0051478124
175	0x3c66cfec	0.014087658
176	0x3ba58a9a	0.005051923
177	0x3b040b1d	0.0020148226
178	0x3c7e4bc5	0.015520995
179	0xbc677127	-0.014126099
180	0x3d1357db	0.035972457
181	0x3c130271	0.00897275
182	0x3bdd1893	0.0067473142
183	0x3b848fdf	0.004045471
184	0x3c03414f	0.008011176
185	0x3cb66947	0.022266997
186	0x3cf85192	0.030312333
187	0x3bb09e73	0.0053899824
188	0x3d1b14ed	0.037861753
189	0x3b3a70f1	0.0028448666
190	0xbb882768	-0.004155088
191	0x3c42898a	0.011873612
192	0xba947d4d	-0.0011328846
193	0x3c74d9cc	0.014944505
194	0x3bf8dcfb	0.0075947023
195	0xbc17b90e	-0.009260429
196	0x3c0db2e5	0.008648609
197	0xbc005437	-0.007832578
198	0x3cf18b1d	0.02948528
199	0x3d06a23d	0.032869566
200	0xbb1f220e	-0.0024281773
201	0x3c827d6d	0.015928948
202	0xbb922c25	-0.004460829
203	0xbb834b43	-0.0040067746
204	0xbbb16a57	-0.005414288
205	0x3cb61b81	0.022229912
206	0x3d1b633e	0.03793644
207	0xb9d1cb35	-0.00040014987
208	0x3ba219af	0.0049469094
209	0x3ca2ec59	0.01988809
210	0xbbfa7d8b	-0.0076443604
211	0x3baa7e80	0.0052030683
212	0x3c86cbe7	0.01645465
213	0x3ca8a148	0.020584717
214	0x3c217ba7	0.009856141
215	0x3c9102a9	0.017701464
216	0xbc711949	-0.014715501
217	0x3c29a863	0.010355088
218	0x3c969e5a	0.018386055
219	0x3c9bef91	0.019035133
220	0x3c417d48	0.0118096545
221	0x3cf22548	0.029558793
222	0xbb1c6347	-0.0023862885
223	0x3c06fb70	0.008238658
224	0x3bb066d6	0.0053833527
225	0x3cd12d1f	0.02553421
226	0xbae36cd6	-0.0017351161
227	0x3b3ffff9	0.0029296859
228	0xbc30dc59	-0.0107947225
229	0x3c0e723c	0.008694228
230	0x3a710dac	0.00091954577
231	0x3c9f4857	0.019443674
232	0x3ce94a65	0.028477857
233	0xbb6492d5	-0.0034877558
234	0xbba7e4f2	-0.005123728
235	0x3cd5cc8c	0.026098512
236	0xbc317379	-0.0108307535
237	0x3cf8206d	0.0302889
238	0xbc309167	-0.010776854
239	0x3caa2650	0.020770222
240	0x3cf8277c	0.030292265
241	0x3cda331b	0.026635697
242	0x3c66ee7e	0.014094947
243	0x3ca170ce	0.01970711
244	0x3a50efde	0.00079703133
245	0xbc120b48	-0.0089138225
246	0xbc0b75de	-0.008511988
247	0xbc33d0cf	-0.010975077
248	0x3b85fcd3	0.004088977
249	0x3c918d76	0.01776765
250	0x3c942de0	0.018088281
251	0xba562c25	-0.000817003
252	0x3bf91258	0.0076010637
253	0xbb614431	-0.003437292
254	0x3d0c88d8	0.034310192
255	0x3c9d2570	0.01918289
