Project/Assets/ML-Agents/Examples/WallJump/TFModels/BigWallJump.onnx (onnx, 736785 bytes, 13 tensors)

discrete_act_size_vector f4 [1, 4]
000000 00 00 40 40 00 00 40 40 00 00 40 40 00 00 00 40
       3.0 3.0 3.0 2.0

network_body._body_endoder.seq_layers.0.weight f4 [256, 444]
000000 96 f9 b1 be 19 17 b2 3d a6 e3 ed 3c 78 45 ce 3d
       -0.3476073 0.08695812 0.029039215 0.10071844
000010 a3 99 d0 3c fb 21 10 be 5c fc a6 3b eb ed d5 bb
       0.025463885 -0.14075463 0.0050960016 -0.006528606
000020 e7 89 05 3d 39 f4 88 3c 19 30 53 be 4e be b8 3e
       0.032602217 0.016718017 -0.20623817 0.3608269
000030 8f 3b b8 bd e8 95 e4 bc 46 33 9a 3d 69 f6 ae be
       -0.08995735 -0.027903512 0.07529311 -0.3417237
000040 ba 62 46 3c b2 40 73 bb cf b5 dd 3d 2a 43 98 3d
       0.012108499 -0.0037117419 0.10825693 0.074346855
000050 b9 5f 8e bd 52 17 35 3d 30 ad 25 bd c6 19 ac 3c
       -0.069518514 0.044211693 -0.040448368 0.021008383
000060 d1 e1 e8 3d d6 61 8a be 0e be 32 bd b7 11 8c bc
       0.11371196 -0.27027768 -0.04363828 -0.01709829
000070 ad 37 a1 3d 24 40 5e bc 95 c9 2f be 6a a4 29 3e
       0.078719474 -0.013565097 -0.17166741 0.16566625
000080 79 cd a4 3c 49 f8 a4 bd e0 b0 7a 3d f4 7e c7 bc
       0.020117508 -0.08055169 0.061203837 -0.024352528
000090 10 43 20 be c5 70 e4 3d 7f d9 20 bd 29 95 4c 3d
       -0.15650582 0.111543216 -0.03926992 0.049946938
0000a0 90 3e 29 3e 0e cd 20 3d f9 b4 15 bd 7f d3 c0 bd
       0.16527772 0.039258055 -0.036549542 -0.0941534
0000b0 e5 9b 90 bc 26 dc 3e 3e 93 09 7f 3c 6f 2c a2 3d
       -0.017652461 0.18638667 0.0155662475 0.07918631
0000c0 4b 16 85 3c 09 c1 a2 bd ec 71 4e 3e c9 e9 31 bd
       0.016245982 -0.07946975 0.20160645 -0.043435846
0000d0 63 4e 07 3c 59 32 14 bd 6d 52 b2 3d 4d 9a 32 3d
       0.008258435 -0.036180828 0.08707128 0.043604184
0000e0 a5 9d d2 bd 1a 5c 1a bc ec 51 68 bc d4 45 4b bd
       -0.102839746 -0.009421373 -0.014179688 -0.04962714
0000f0 62 ff 54 be 8b 31 1e be 6c f0 5c bd b7 64 32 3d
       -0.20800546 -0.15448587 -0.05394022 0.04355308
000100 41 ce 4e 3d 0a 09 58 bd bc 46 aa bd df 4e 91 bd
       0.050489668 -0.052742995 -0.08314273 -0.070951216
000110 54 9d 92 3d 7f 7f 9b 3c f7 a2 90 bc d6 6c 41 bc
       0.07158914 0.018981693 -0.017655833 -0.011805734
000120 95 ec 04 bd 92 07 2b 3e c2 4c 5f 3d e3 8f 6d 3c
       -0.032452185 0.16702107 0.05451656 0.014499637
000130 ba 47 99 bd f9 49 1f bd 87 66 a9 3d cf c5 da 3d
       -0.07484384 -0.038888905 0.08271509 0.1068226
000140 bf a9 f9 bd a7 47 49 be bc 8b 57 bd ed 3e 5c 3e
       -0.121905796 -0.1965624 -0.052623495 0.2150838
000150 17 f9 31 3d 72 42 68 bc e9 89 35 3d e9 75 23 3d
       0.04345044 -0.014175998 0.044320974 0.03990737
000160 84 4e 52 3d 50 f6 9e 3b 3a 56 dd bd 1a f3 f7 3d
       0.05134441 0.00485114 -0.10807462 0.12106915
000170 5f 83 e7 3b 67 fa b7 3d 89 5d cc 3d 64 2e 12 be
       0.007065221 0.08983307 0.09978778 -0.14275509
000180 27 77 27 3e 09 3d de bc 10 89 e3 bc a0 52 e5 3d
       0.16354047 -0.027128713 -0.027775317 0.111974
000190 ce b3 3d be 51 00 12 3e e9 c5 51 bc 4d 85 2f 3d
       -0.18525621 0.14257933 -0.012803533 0.042851735
0001a0 14 70 01 3e ee 35 1d 3e dd ad 57 3e 2e 42 f8 bd
       0.1264041 0.15352604 0.21062417 -0.12121998
0001b0 1f b0 99 bd d2 5a 29 bd d7 91 df 3e 88 20 03 be
       -0.075042956 -0.04134638 0.43665954 -0.12805378
0001c0 c8 a0 f2 3d c7 a2 56 be 0d af 05 be 9a 16 6e 3e
       0.11847073 -0.20960532 -0.13055058 0.2325081
0001d0 cf 4c 7b 3c 15 26 26 3d 2b d4 9b 3b fc 20 aa 3d
       0.015338137 0.04056366 0.004755517 0.083070725
0001e0 42 e5 e3 3e 26 85 86 3e 8e d6 62 3d 74 38 e9 be
       0.44510847 0.2627346 0.055380397 -0.45550883
0001f0 33 45 83 be 37 b5 fa bb 6b 2c 00 be 7e 03 4a 3d
       -0.25638732 -0.007650997 -0.12516944 0.049319737
000200 78 2e 66 3d 73 aa ef 3d e5 f6 6d 3e 8b 51 ee bc
       0.05619666 0.117024325 0.23238714 -0.029091617
000210 4c e7 86 bd d4 6e 09 bd e5 6c ac bd 42 e7 92 be
       -0.06587085 -0.03355296 -0.084192075 -0.2869206
000220 aa 96 78 be 03 60 5f bd 3a 77 5e 3e fc eb c0 3d
       -0.24276224 -0.054534923 0.21725169 0.094200104
000230 3b 09 36 3e 85 55 14 3d b1 14 58 bb cb 22 2b be
       0.17776959 0.03621437 -0.0032971317 -0.16712491
000240 7d e6 08 bd a6 de 9b 3d a4 34 c4 bb dc 07 b6 3c
       -0.033422936 0.07610826 -0.0059877206 0.022220545
000250 1e c6 cd bd 2b 1d 0c bd 3b e0 45 bc 2d 83 3f 3e
       -0.100475535 -0.034207504 -0.0120773865 0.18702383
000260 b1 93 cd bc 61 37 59 bd 48 c5 a5 bd f0 96 87 3e
       -0.025094839 -0.05303133 -0.08094269 0.26482344
000270 0e 18 9a bc a9 16 81 3d 1f bb 64 be 18 34 f5 bd
       -0.018810298 0.0630315 -0.22337006 -0.11972827
000280 ce e2 26 bd 49 18 58 bd 4d b6 66 3c 01 76 b7 3d
       -0.04074364 -0.052757535 0.01408155 0.08958054
000290 df e6 28 bc fa eb cd 3e 3b 81 bd bd 5b 86 1d 3c
       -0.01030895 0.40219098 -0.092531644 0.009614552
0002a0 a6 d8 04 be 1a 1f d9 bd 85 1d ff 3d 77 9c c8 bd
       -0.1297327 -0.10601635 0.12456802 -0.09795468
0002b0 7e 9d e7 3d c2 ab 56 3c b8 ed e9 3c 29 4e 54 be
       0.11309336 0.013102474 0.028555736 -0.2073294
0002c0 de c0 0c bd ce c3 6c bc 25 01 c9 3d ca b3 91 3d
       -0.03436362 -0.01445098 0.098146714 0.0711437
0002d0 77 5b 8c be 2f 5f 3c 3e 98 bd b4 bc 54 57 20 bc
       -0.27413532 0.18395685 -0.022063062 -0.009786446
0002e0 7d 68 42 3d 28 26 c2 be 01 82 1f 3e 31 fc 69 bb
       0.04746293 -0.37919736 0.15576936 -0.0035703296
0002f0 17 b5 d2 3b 2d c2 72 3d 53 33 ea bd 35 7b 78 be
       0.006430279 0.05926721 -0.114355706 -0.2426575
000300 8b 02 f1 bc 04 74 42 bc cc 78 48 3d d2 da 55 be
       -0.029420158 -0.011868481 0.048943326 -0.20884255
000310 3d 07 9f 3e 19 8f 1e bd ee 45 09 3e d7 b3 d0 3d
       0.3106021 -0.038710687 0.13405582 0.10190552
000320 8c 95 0e be 2b 77 d2 be 29 07 6b bd e3 20 42 3d
       -0.13924235 -0.41106543 -0.057379875 0.047394644
000330 25 e2 fc bc b9 06 e5 be a5 ba 24 3d e7 10 1f 3d
       -0.030869553 -0.4473169 0.04021706 0.03883448
000340 21 f6 b5 3c 4e 7e 9e 3d 3a 2d 01 3e bd e7 6a 3a
       0.02221209 0.077389345 0.12614909 0.00089609233
000350 21 b8 73 be ca 10 94 bd 0d 2b 72 3d 0d 1d 37 3e
       -0.23800708 -0.07229765 0.059123088 0.17882176
000360 48 53 09 be b3 18 02 bf f0 e7 b1 3d dd 53 b3 3d
       -0.13410676 -0.5081894 0.08686817 0.0875623
000370 71 9c e0 3c d6 52 12 3d 69 2f c2 bd b4 c5 0c bd
       0.027418347 0.03572353 -0.09481699 -0.034368232
000380 95 41 77 bc 02 70 00 3e 63 61 22 bd 55 07 c4 3c
       -0.01509132 0.12542728 -0.039643656 0.023929277
000390 d5 36 3c be 7b 09 14 be 57 ca 52 3c 7d 8f 63 bc
       -0.18380292 -0.14456742 0.012865624 -0.013889191
0003a0 ec fa 60 be ce 8f bd bd b1 1b e6 bc fc e4 c9 3c
       -0.21970719 -0.09255944 -0.028089376 0.024645321
0003b0 34 ef 00 3e 05 af 74 3e c6 4a ba be 0d 9e 8e be
       0.12591249 0.2389489 -0.36385173 -0.27854958
0003c0 10 69 22 be 37 5a 07 3e aa 04 04 be 1e 6d ee bc
       -0.1586039 0.13218008 -0.12892404 -0.029104766
0003d0 f9 02 8e bd fa 3c aa 3d 14 c0 da 3c 6a 5c 94 be
       -0.06934161 0.083124116 0.026702918 -0.28976756
0003e0 3a ad 33 bd 77 e3 d2 bd f0 2d 20 3e c7 a9 d3 bd
       -0.043866374 -0.10297292 0.15642524 -0.10335117
0003f0 ad 2b 86 be ed 6e 11 be 35 ee cb bd 46 f2 9a bd
       -0.26205197 -0.14202471 -0.09957544 -0.07565741

network_body._body_endoder.seq_layers.0.bias f4 [256]
000000 92 97 29 bc c4 4c d5 bc d5 72 59 bd 37 37 1d be
       -0.010351079 -0.026037581 -0.053088028 -0.15353094
000010 9a d5 e2 38 cd 4b 58 3d 86 78 49 3c 1c e3 89 3c
       0.00010816306 0.052806664 0.012296801 0.016831927
000020 66 c8 6d 3d 39 05 18 3d 12 c7 38 bc cc b6 1f bd
       0.058052443 0.037114356 -0.011277931 -0.038992688
000030 e0 d1 96 3c ee 8d c2 ba 99 a3 32 bd 22 87 33 bd
       0.018410623 -0.0014843324 -0.04361305 -0.043830045
000040 2c 68 dc bc 5f b6 9d bd 93 fa 83 bd 76 1a c7 bc
       -0.026905142 -0.077008 -0.064442776 -0.02430461
000050 41 34 86 bb 07 1d 73 3d 51 73 29 bd 79 39 7a bc
       -0.0040955846 0.059353855 -0.04136974 -0.015272492
000060 24 08 c5 bc cc 14 85 3c 8e af 5a 3d 4f e3 d9 bd
       -0.024051733 0.016245268 0.05339008 -0.10639059
000070 d4 01 c7 bd 05 77 32 3d 05 b6 56 bc c7 76 d5 3c
       -0.097171456 0.043570537 -0.01310492 0.026057614
000080 22 e4 cd bd 55 05 3c bd 46 0b 61 bc 71 d2 fb 3c
       -0.100532785 -0.045903523 -0.013735598 0.030739995
000090 b5 db 69 bd 28 7e 9b 3c 2b c3 bc 3c ed 64 7b bd
       -0.057094295 0.018981054 0.023042282 -0.061375547
0000a0 b9 33 23 3d c5 68 27 3d 44 27 28 bd c9 e0 95 bd
       0.03984425 0.0408714 -0.04105307 -0.07318265
0000b0 1a 07 3d 3d d5 cc 47 3d 7c de 07 bd 79 95 d3 bc
       0.04614935 0.048779327 -0.033171162 -0.02582811
0000c0 a0 b8 f6 bd 78 43 03 be ad 06 26 3d 95 a0 21 3d
       -0.12046933 -0.12818706 0.04053371 0.039459784
0000d0 ee 8b bf 3b 85 33 a4 3c e9 53 84 bc 0f bd e5 b9
       0.0058455383 0.020044098 -0.016153293 -0.00043819143
0000e0 0d 7c a8 bc 59 1d 13 bd 04 b3 17 3b b5 72 ed 3c
       -0.020566965 -0.03591666 0.0023147473 0.02898536
0000f0 cf ec 5b 3b 1f d8 89 3d 72 80 84 3b d1 c9 c8 3c
       0.0033557897 0.06730675 0.004043632 0.024510296
000100 cb 6c c3 3d 5e ad 64 3c 47 53 0e bd 19 49 07 3d
       0.09542235 0.01395735 -0.03474739 0.033028696
000110 b4 f6 ac 3a 29 d8 18 3d b9 60 53 bc 5d f0 d6 ba
       0.0013196082 0.03731552 -0.012901478 -0.0016398538
000120 ea d6 c3 bb 40 31 92 ba d8 38 88 bd d8 2c 3c 3d
       -0.0059765475 -0.0011153594 -0.06651467 0.045941204
000130 a0 0b 59 bd 80 3a 99 bc 4d 16 54 3b f0 9a f7 3b
       -0.052989602 -0.018704653 0.0032361925 0.007556312
000140 77 f0 4d 3d 06 22 3b 3d 84 6a 14 bd f7 da 62 bd
       0.050278153 0.045686744 -0.036234394 -0.055384602
000150 90 95 7a bd b5 aa f8 3c 52 bb 2e 3b c3 f4 1c 3c
       -0.06117779 0.030354837 0.0026661945 0.00957984
000160 19 60 c5 3c e6 99 4d bb a9 9c 10 bd d0 5d 76 bd
       0.024093674 -0.0031372248 -0.035305653 -0.06014806
000170 9e 28 ad ba 02 cc 35 3d 07 78 16 3d 01 0b a4 bd
       -0.0013210957 0.04438401 0.03673556 -0.08009911
000180 fb 1a 15 bc 99 e1 4d bd 47 27 2a 3d cf ac b5 bc
       -0.009100671 -0.050263975 0.041541364 -0.022177128
000190 f5 12 1e bd 9a 99 1e 3b 2d 99 0a 3c 3d 57 ef bc
       -0.038592298 0.002420044 0.0084593715 -0.029216403
0001a0 a2 95 53 3d 99 15 32 ba 38 ca 6e bd 65 49 44 bc
       0.051656373 -0.00067933794 -0.05829832 -0.011980389
0001b0 ed 99 f3 3c db 51 36 bc 2e 02 62 bd 78 5f 4a bc
       0.029736483 -0.011127914 -0.05517786 -0.012351863
0001c0 33 63 74 3d 5d 91 b1 bc 29 86 66 3a 75 0a aa bd
       0.059664916 -0.02167576 0.0008793795 -0.08302776
0001d0 48 3e 33 bc 0a 62 1a 3d 35 a3 e1 bc 02 3d 81 3d
       -0.010940142 0.037691154 -0.027543643 0.063104644
0001e0 ce bc 97 3c dd 9f 8c 3c ec ac 10 be 56 d5 4e bd
       0.018522646 0.017166073 -0.14128464 -0.05049642
0001f0 aa fa ed 3c c7 93 f7 bc 2a ce fe 3c 56 3c 09 be
       0.02905019 -0.030221833 0.031104166 -0.13401923
000200 ed 8f 87 bd 31 73 e3 bc 75 24 1a bc e9 cf 29 3d
       -0.066192485 -0.027764888 -0.009408106 0.041458044
000210 0b 47 91 bc 16 8f d5 3d b1 f3 2d 3c 77 a2 fd 3c
       -0.017734071 0.10427682 0.010617183 0.030961258
000220 ba 01 bb bb 0a 91 55 3d 81 66 af bb 51 23 36 3d
       -0.005706993 0.052140273 -0.0053527956 0.044467274
000230 52 e5 bc 3c f5 d5 fc 3b 06 bc 9b bc b6 9b e7 3c
       0.023058567 0.0077159354 -0.019010555 0.028272491
000240 51 dd a9 3c b6 62 e8 3c 82 9d de bc 05 a4 9d bd
       0.020735415 0.028367382 -0.027174715 -0.076973
000250 68 7d 49 bd c8 7a 64 3d 37 4f 25 3d 17 01 d9 bb
       -0.049191862 0.055781156 0.04035875 -0.0066224444
000260 4b 9c 83 3b 50 d4 bc bd 52 c1 81 bd 5b b5 26 bc
       0.0040164343 -0.09220183 -0.06335701 -0.010175074
000270 49 c7 71 3d 21 d5 4d bc 75 fe c7 3c 39 a1 8c 3c
       0.059027944 -0.012563021 0.024413327 0.01716672
000280 78 80 0b bc e8 d8 5d bd d7 30 9d 3d 1d b4 17 bd
       -0.008514516 -0.054161936 0.07675331 -0.037037004
000290 f2 7e 39 bd 89 5c ec 3c ba 48 70 3c 3e 35 e2 3c
       -0.04528708 0.028852718 0.014665777 0.027613278
0002a0 da 04 35 3b ee eb 45 3c a1 62 50 3d cd c6 63 3c
       0.00276213 0.012080176 0.05087531 0.013902378
0002b0 ae d9 b1 bc d2 09 f5 bb b8 55 84 bb 5f c6 9b bd
       -0.021710243 -0.0074779773 -0.004038539 -0.07606196
0002c0 fb 52 c0 bc aa 28 0b 3d 54 f1 95 bc 60 29 e5 3c
       -0.023477068 0.033974327 -0.01830355 0.02797383
0002d0 bf e3 7c 3c 9d b9 a7 bc 8a a8 93 3c 13 08 70 3d
       0.015435158 -0.02047425 0.018024702 0.05860145
0002e0 85 a7 b7 bc 03 d4 14 be a2 6f 37 bd 90 96 c9 3b
       -0.022418747 -0.14534001 -0.044784196 0.0061519817
0002f0 b5 f2 3e bd 14 5e 07 be a0 bd 96 3c 17 d6 38 3d
       -0.046618182 -0.13219482 0.018400967 0.045126047
000300 db b4 36 bd 24 f2 65 3d 8a 44 46 3d dd b8 e1 3c
       -0.04460607 0.056139126 0.048405208 0.02755397
000310 3d a2 2c 3d a6 1f 54 3d f1 e5 98 3c cb 52 ca bd
       0.04214691 0.051787995 0.018664332 -0.09879073
000320 01 43 c2 3c cd b2 88 3d b9 b5 b7 ba e1 74 93 3c
       0.02371359 0.066747285 -0.001401595 0.018000068
000330 26 03 01 be a7 9e 27 3d 81 31 51 bd ec a6 f3 3b
       -0.12598857 0.040922787 -0.0510726 0.00743567
000340 e5 30 00 3b de c8 2a bc 8c 76 e0 bc 67 fc cd 3b
       0.0019560393 -0.010423867 -0.027400278 0.006286192
000350 48 09 34 bb ae c9 ff bd 89 f6 9e 3b 1f b2 a9 bb
       -0.0027471352 -0.12489639 0.0048511666 -0.0051787044
000360 06 91 51 bb 1b 70 64 3c e9 fe 9d bb e5 ff 84 bc
       -0.003197731 0.013942744 -0.0048216474 -0.016235301
000370 0a d5 d8 bd f4 2f 2d bc 2b 99 6a 3c 54 2c 27 3c
       -0.10587509 -0.010570515 0.014318745 0.01020344
000380 fd ab 25 3d 7a 69 d4 bc 87 51 0b 3d 53 32 0b bd
       0.040447224 -0.025929201 0.034013297 -0.03398354
000390 ef 1a ae bd 6b e0 82 3b 88 b6 33 3d 65 66 25 3d
       -0.08501231 0.003994038 0.043875247 0.040380854
0003a0 6a d2 85 bd df a0 3a 3b 77 4b a5 bd a6 9c 14 bd
       -0.06534274 0.0028477234 -0.080710344 -0.036282204
0003b0 3a f2 8d 3c 76 06 18 bc b0 87 cf bc b8 43 ba bd
       0.017327417 -0.009278884 -0.025333256 -0.090949476
0003c0 ce ce 79 b8 76 08 d9 3c 4c 9c 08 be 07 12 49 3c
       -5.9558828e-05 0.026493292 -0.13340873 0.012272364
0003d0 61 de 6e 3b e2 3f d6 3c 0c 9b 9e bc d2 d2 0d bd
       0.0036448466 0.026153509 -0.019361041 -0.034624882
0003e0 6d 78 dd bc 66 d5 fc bb 03 07 2f 3b c6 b5 b3 3c
       -0.027034963 -0.0077158688 0.002670706 0.021937262
0003f0 1e dc 40 bd 08 0b 38 3d 6c 08 6b 3b 5b 9a 04 bd
       -0.04708492 0.044932395 0.0035863174 -0.032373767

network_body._body_endoder.seq_layers.2.weight f4 [256, 256]
000000 9c 63 7b 3d 3c 54 18 3d 4b 5c 15 3e c5 88 99 3d
       0.06137429 0.037189707 0.14585988 0.0749679
000010 a3 eb ae 3c 89 f2 cf bd a7 d8 a3 be 2a fa 40 be
       0.021352595 -0.10153682 -0.3200123 -0.1884543
000020 d8 4e 23 3d 26 4a dc be db 50 35 3e 40 39 49 3d
       0.039870113 -0.4302532 0.17706625 0.049126863
000030 72 89 bc 3d d9 75 b8 3d 34 8c 63 3e c0 d2 9e be
       0.09205903 0.09006853 0.22221452 -0.31020164
000040 65 a3 0c bc e6 ef 41 be b9 b8 29 be 85 7e 84 3e
       -0.008583878 -0.1893917 -0.16574372 0.25877777
000050 91 b6 54 be e3 5c c7 3d ca 36 07 be bd 2a 71 bd
       -0.20772769 0.097345136 -0.13204494 -0.05887865
000060 e5 3c 60 bd 6e 0a 8d be 35 7b 17 3d 53 72 d2 3c
       -0.054745574 -0.2754702 0.036982734 0.02568928
000070 a0 46 96 be c7 16 82 be c6 a1 aa be f9 3e 06 3e
       -0.29350758 -0.25408003 -0.33326548 0.1310996
000080 e6 75 ea bd a5 6b b4 3c b8 87 25 3e 0f 36 cd 3d
       -0.114482686 0.022023985 0.16165054 0.100200765
000090 62 6d 90 3d 9c 0b 87 be 63 5b b4 3a 27 83 74 3e
       0.07052113 -0.26376045 0.0013760146 0.23878156
0000a0 20 7f d5 3d 69 10 13 3d c9 6c 12 3d 8d ed 1e 3e
       0.10424638 0.03590432 0.035748277 0.15520306
0000b0 cc 10 d1 bc 5c da 23 3d 63 c8 d6 3d 10 c5 55 be
       -0.025520705 0.040003166 0.104874395 -0.20875955
0000c0 82 da fb 3d bc 4c 79 bd d8 4b b0 3d 0a f3 8b be
       0.122975364 -0.060864195 0.08608216 -0.27333862
0000d0 9c ed 03 be 2e 3f 0c 3e e5 ac 90 bd 09 25 c0 bd
       -0.1288361 0.13695976 -0.07064227 -0.09382064
0000e0 71 5b 44 be e7 64 09 3c 15 57 f0 bc 40 75 ce 3d
       -0.19175507 0.008385873 -0.029338399 0.100809574
0000f0 c7 5e 1f bd db 5c 9d bd 23 4a 25 be 2e 85 8f be
       -0.038908746 -0.076837264 -0.16141562 -0.28031296
000100 fe eb a7 bd f2 89 be 3d bf 8a 4f be 6d b4 08 be
       -0.08199309 0.09303655 -0.20267771 -0.13350077
000110 e6 4b 1c 3e 4e 39 47 3e d3 44 31 3d 2b 28 2c be
       0.15263328 0.19455454 0.043278527 -0.16812198
000120 be e1 b2 bd 97 e7 23 be 83 b2 bd 3d 63 eb 48 3d
       -0.08734463 -0.16006313 0.09262564 0.049052607
000130 63 0a 60 be e7 bf 8e bd 20 04 58 be 79 fc 5e be
       -0.21878962 -0.06970196 -0.21095324 -0.21775998
000140 1a 34 91 be 5b bf 33 3d 3c 52 2a be 7f 38 e4 3b
       -0.28360063 0.043883663 -0.16632932 0.0069647427
000150 72 e8 0b be e0 74 5d be 6e e4 6a be 01 da 46 bd
       -0.1366289 -0.21626616 -0.22938702 -0.04854775
000160 aa ac 24 be cb db df bc ea 1e cb be f6 05 f6 be
       -0.16081491 -0.027326485 -0.39672023 -0.48051423
000170 ca fb ab 3d 03 db a5 bc 08 4e c5 be b2 f4 cb bb
       0.08397634 -0.020246034 -0.38536096 -0.0062242383
000180 36 07 83 3d f6 37 41 3d 91 4b 77 3e 58 71 97 bd
       0.0639786 0.04717251 0.2414992 -0.073946655
000190 14 0b 98 be c9 4c 12 3e 19 d6 09 be 30 f5 b9 bc
       -0.29695952 0.14287104 -0.13460578 -0.022699922
0001a0 9c df d1 3c f8 41 37 3e f2 dd fb 3b 77 d3 27 3c
       0.02561932 0.17896259 0.00768637 0.010243288
0001b0 9d 9f da 3d 70 e2 82 3e 30 9c 24 bd 78 50 13 bd
       0.10674975 0.25563383 -0.040188015 -0.035965413
0001c0 c9 54 c6 bd bf 93 cc bd 3c ff ab bd 7e 49 ab be
       -0.0968414 -0.09989118 -0.083982915 -0.33454508
0001d0 35 36 3c be 61 da 2c ba eb 73 b8 bd 39 86 a3 3c
       -0.18380053 -0.000659382 -0.090064846 0.019961463
0001e0 24 4d 0a 3e fa 59 47 3d 34 dd a5 bc cf 46 a4 bd
       0.1350599 0.048669793 -0.02024708 -0.08021318
0001f0 b4 2a d8 3d d8 d9 16 3d 91 f1 72 3c 70 0a 9b be
       0.1055502 0.036828846 0.014828102 -0.302814
000200 28 2d 3c bd 23 a0 1f be cd 3d 7c bd ba 24 bf 3c
       -0.0459415 -0.15588431 -0.061582375 0.023332942
000210 7f 2d 49 be 36 3a 36 bc e6 11 0d be e8 d4 6a be
       -0.19646262 -0.011122277 -0.13776359 -0.2293278
000220 4d 63 d7 bc 8e ed 37 bd 77 aa d5 bd 0d 98 cf 3d
       -0.026292467 -0.044904284 -0.10432904 0.10136423
000230 2b 33 0f be b1 33 cf bd 57 59 3d 3e dd f9 88 be
       -0.13984363 -0.10117281 0.18491112 -0.2675313
000240 c6 8b a5 be c1 c1 10 be 84 af 01 3e ff 6e 70 be
       -0.323332 -0.14136411 0.1266461 -0.23479842
000250 ed 16 af be cf a9 41 be 78 aa d7 bc 3d b4 4c ba
       -0.34197178 -0.18912433 -0.026326403 -0.000780884
000260 af 3e 84 3d 64 2b 5e 3d 41 04 fd 3d eb 47 5a 3e
       0.064572684 0.0542406 0.12354327 0.21316497
000270 32 b3 a7 be 1e bd 6e 3d d3 1a aa 3d ac ad e6 3d
       -0.32753903 0.058285825 0.083058976 0.11263594
000280 5f 10 13 be bb f9 de bd 45 a0 4e be b3 8d 90 bd
       -0.14361714 -0.10887476 -0.20178325 -0.07058277
000290 a5 69 e0 3d f4 dc 5f bd de 46 eb 3d c3 c3 11 bd
       0.1095765 -0.054654077 0.11488126 -0.035587084
0002a0 54 f8 0b be 01 ea 06 be 4e b0 5d bc 0a 1c 9e be
       -0.13668948 -0.13175203 -0.013530804 -0.30880767
0002b0 34 9a 89 bc bc 41 12 3d f7 cc 78 be 5b 56 75 3e
       -0.016797163 0.03570722 -0.24296938 0.23958723
0002c0 70 86 0b 3d 72 97 97 bd c4 39 92 bc 1b 6d b6 3d
       0.034063756 -0.07401933 -0.01784981 0.08907529
0002d0 1d 63 1b be 18 78 87 bd ed b6 8e be 74 55 67 be
       -0.15174527 -0.06614703 -0.27873936 -0.22591192
0002e0 55 77 60 bd 59 fe 1f be da b6 8f bd 97 0e 0c be
       -0.054801304 -0.1562437 -0.07017298 -0.1367744
0002f0 65 68 2e bd df 5b 5b 3d 23 87 83 be f0 0d 99 be
       -0.042580027 0.053554412 -0.2568904 -0.29893446
000300 48 00 89 3d 78 0a 25 bd 24 4e 66 3c ec 14 20 3e
       0.06689507 -0.040293187 0.014056716 0.15632981
000310 1b 39 27 be 2a a4 67 bd 23 6f 75 3e 3b 1d c4 3d
       -0.16330378 -0.056553043 0.23968177 0.09575888
000320 92 ec 8e 3d b1 f0 cd bc f6 65 1c 3e 8b 6c be bc
       0.06978716 -0.025139185 0.1527327 -0.023245117
000330 a5 43 53 be eb 04 c8 3d b0 40 df bd 42 78 ea bd
       -0.20631273 0.09766563 -0.1090101 -0.114487186
000340 62 19 4a 3c f8 52 87 3d ba 61 9c 3d 98 2d 02 3e
       0.012335153 0.06607622 0.07635827 0.12712705
000350 5e 41 d5 bd b6 02 aa be 7f a4 36 be 7f b2 24 3e
       -0.104128584 -0.33205193 -0.17836188 0.16083716
000360 63 2b df 3d 15 44 03 be 00 ed 88 bd 44 0b 95 bd
       0.10896947 -0.1281894 -0.06685829 -0.07277539
000370 6f af a5 3d c2 85 94 3d f3 0a 66 3c 5a 6d 86 be
       0.08090102 0.07252075 0.014040696 -0.26255304
000380 e4 35 f8 3d 9e ae 0c 3e a6 08 f1 bd 69 cd 8c 3e
       0.12119654 0.13738486 -0.11769228 0.27500466
000390 aa 03 8c 3e 2b 65 42 3e d9 23 a6 3d 03 d6 43 be
       0.27346545 0.18983905 0.08112306 -0.19124608
0003a0 75 c1 20 be 0e bb 98 3e b4 41 49 bd 02 e7 8f be
       -0.15698798 0.2983021 -0.049134925 -0.28105932
0003b0 4b 4a dc 3d 08 9d 22 bd bc f4 b7 3d 16 9e 59 bc
       0.10756358 -0.039700538 0.08982226 -0.0132823195
0003c0 02 d4 5f 3e b0 d3 87 be 37 a6 63 3d 44 b5 b4 bd
       0.21858218 -0.26528692 0.055578437 -0.08823636
0003d0 de 75 b4 bd 24 fe f1 bc 30 e8 b9 be d1 20 0d 3b
       -0.08811544 -0.029540129 -0.36309958 0.0021534453
0003e0 dd 5a 88 3d ab 71 f1 3b 03 23 46 3d 7b 1a 7d be
       0.06657956 0.0073682866 0.048373234 -0.24717133
0003f0 d2 cb 2c be f0 3a ae bd b7 c5 89 3d 67 d7 6e be
       -0.16874626 -0.08507335 0.06727164 -0.23324357

network_body._body_endoder.seq_layers.2.bias f4 [256]
000000 f7 c5 b4 3c 82 40 c7 bc 32 11 c3 3b 8e 4f 9b bd
       0.022067053 -0.024322752 0.0059529776 -0.07583533
000010 ff 3b a0 bd ea 0d e1 3b c7 ac 06 bd 28 0e 89 bd
       -0.07823943 0.0068681138 -0.032879617 -0.06692153
000020 6b 3b aa bd a1 0b d6 3a c5 16 d9 bb bd 52 e5 bc
       -0.08312114 0.001633037 -0.006625029 -0.027993554
000030 6a eb 2f be c3 a7 70 bd 94 7f 17 bd b3 b3 1b be
       -0.17179647 -0.05875374 -0.036986902 -0.15205269
000040 de 8b 68 bd 8f b4 8d bd c7 60 3b bd bc 57 27 3d
       -0.056774013 -0.069192044 -0.04574659 0.040855154
000050 be b7 ce bd 8d cd fe bd 38 4f 13 be 8a 69 cc bd
       -0.1009364 -0.124415495 -0.14385688 -0.099810675
000060 e6 6e 04 bc e9 18 a8 3a 85 62 14 bd e8 8a 9f bc
       -0.008083081 0.0012824807 -0.036226768 -0.019475415
000070 d2 f0 62 bd 1e f7 96 3d d7 da 15 be ca 95 41 bd
       -0.055405445 0.073713526 -0.14634262 -0.04726199
000080 1c 12 50 be 5e 25 c3 bd 66 55 07 bd ee 97 32 bd
       -0.20319408 -0.095286116 -0.033040427 -0.043601923
000090 4f ee 41 bd 75 e6 5a be 19 a8 8d bd bf 06 8d bd
       -0.04734641 -0.21376975 -0.06916828 -0.06886052
0000a0 41 29 b1 bd 7b 50 8c bc be 0b 51 3c 6e bb 56 b8
       -0.08650447 -0.01712822 0.012759147 -5.1196133e-05
0000b0 e3 51 8c bd b8 f9 13 bd de 85 a6 3b c9 aa 43 bd
       -0.06851556 -0.036126822 0.005081876 -0.047770295
0000c0 67 62 03 be 70 47 e6 bc 4d ce ae bd 95 d9 71 bd
       -0.12830506 -0.028110236 -0.085354425 -0.059045393
0000d0 49 86 5f bd 91 e4 70 bd a6 76 a2 bc 2a 4c 84 bc
       -0.054571424 -0.058811728 -0.019831967 -0.0161496
0000e0 bb 23 d1 ba 89 e4 8a bc 06 75 66 3c cc ef ae 3c
       -0.0015956083 -0.016954677 0.0140659865 0.021354578
0000f0 38 61 8e bc 0f 08 13 be 09 79 a3 bd 93 c3 5a be
       -0.017380342 -0.14358543 -0.0798207 -0.21363668
000100 48 a2 36 bd 40 73 81 3a 4e eb 00 be 30 12 93 bc
       -0.044588357 0.0009876266 -0.12589762 -0.017953008
000110 91 b6 39 bc fb 9c 01 be 48 54 72 bd 30 9e d2 bc
       -0.011335031 -0.1265754 -0.059162408 -0.025710195
000120 af 88 cc bd ea 61 0a be 31 73 d2 bb 33 db 98 bd
       -0.09987008 -0.13513914 -0.0064224233 -0.07463684
000130 8a 73 5f bd e2 fd ff bc 98 e4 0a bc c0 16 0c 3d
       -0.054553546 -0.03124899 -0.008477353 0.034201384
000140 6f 64 cb bd 03 c4 a4 bd 86 3c 88 bd 1c 66 a9 bc
       -0.099312656 -0.08045199 -0.06652169 -0.020678572
000150 fd fc 02 bd b8 0a 97 bd 20 27 aa bd 06 c4 10 ba
       -0.03197955 -0.07375091 -0.08308244 -0.0005522374
000160 a1 db ff bb 09 e6 42 bc b1 97 61 bd 25 8e 21 bd
       -0.007808164 -0.011895665 -0.055076305 -0.0394422
000170 79 d0 29 bd a6 e9 c9 bd 7d 85 5f bd 1e e4 e9 bd
       -0.04145858 -0.09859018 -0.054570664 -0.11420463
000180 e7 a2 12 be c4 09 24 bc 3f 4a 00 bd f0 f4 f8 bd
       -0.14319955 -0.010012094 -0.031320807 -0.12156093
000190 56 f3 65 bb 6d eb af 3c a2 d3 c4 bc f6 d7 3f 3d
       -0.0035087666 0.021474564 -0.024026696 0.046836816
0001a0 6c 7b c2 3c 02 1c dd bd 3c 19 95 bd 37 99 06 ba
       0.023740493 -0.10796358 -0.07280204 -0.0005134525
0001b0 f3 6d 44 bd bd dd c7 bd f0 79 a9 bd 5f 61 05 be
       -0.04795642 -0.0975909 -0.08275211 -0.13025425
0001c0 02 10 b9 bd c6 c8 08 bd b5 16 4f bd 22 f1 46 3c
       -0.090362564 -0.033394597 -0.050558764 0.0121424515
0001d0 2d d4 00 be 67 89 69 bd 28 7a f2 bd c6 7c 2d be
       -0.12580939 -0.057015803 -0.11839706 -0.16942129
0001e0 cc 50 10 be 00 a1 8e bd da e6 29 be f2 cb b1 bd
       -0.14093322 -0.06964302 -0.16591969 -0.086814776
0001f0 d4 fc 79 bd c9 16 1d bd f6 df 4f bd ad 49 e9 bd
       -0.06103213 -0.038351808 -0.050750695 -0.11391006
000200 a6 44 a5 bd bc 89 ae bd 3a 7e 9a bd 94 bb ff bc
       -0.08069734 -0.085223645 -0.07543607 -0.031217374
000210 cb ef 76 bd 98 b2 1f bc e3 ca c5 bd b3 f3 06 be
       -0.06028728 -0.00974717 -0.09657838 -0.13178901
000220 25 bb df bd b5 b4 50 3c e9 16 bd bd b9 a5 ca bd
       -0.10924367 0.012738396 -0.092328854 -0.0989489
000230 7f 19 b8 bd d3 0e 5f 3c 24 3b 64 3d d6 e7 d2 3b
       -0.08989238 0.013614374 0.055720463 0.0064363284
000240 13 a8 8d bd d9 7e cf bd d8 9d 55 be 7e 8a 23 bd
       -0.06916823 -0.10131616 -0.20860994 -0.039927
000250 48 be 1a bc 66 b5 83 bd c5 1f 0c 3c 67 90 0a be
       -0.009444781 -0.064310834 0.008552496 -0.13531648
000260 8c 52 33 be 05 38 aa bd a7 ce 85 bc 39 e6 ed 3c
       -0.17511958 -0.08311466 -0.016333891 0.029040443
000270 24 ea c7 bd ce be a0 bd c7 09 33 bc 3d b6 ab bd
       -0.09761456 -0.07848893 -0.010927624 -0.083843686
000280 63 aa 02 bc 35 e8 1c be 76 45 6e bc ce e8 31 bd
       -0.007975194 -0.15322955 -0.014542928 -0.04343491
000290 cf 2e 79 bd 4e b4 2e bd 00 86 38 3d 7c 67 2e be
       -0.060835656 -0.04265242 0.045049667 -0.17031664
0002a0 6f d2 9e bd 8f 83 93 bc dd c6 c0 bd 7e dd 0f bd
       -0.07754981 -0.018007068 -0.0941293 -0.03512334
0002b0 ef f6 af bd 88 f0 9a 3c ff 04 94 3c f5 14 f8 bd
       -0.08592021 0.018913522 0.018068789 -0.12113372
0002c0 ec 76 ad 3d 2a ad 4e 3c ce 24 84 be e3 10 f4 bd
       0.08469948 0.012614528 -0.2580933 -0.119172834
0002d0 28 fa 12 be 62 25 45 bd f3 f8 f0 bc 5b 3c 50 bd
       -0.1435324 -0.048131354 -0.029415583 -0.05083881
0002e0 2e 01 02 3d 62 5d 83 bd f9 3d 81 bd 7e da 8f bd
       0.031739406 -0.06414296 -0.063106485 -0.07024096
0002f0 3f 88 58 3d 7a 18 12 be 12 46 d4 bc b1 02 c0 bd
       0.05286431 -0.1426715 -0.025912318 -0.09375513
000300 5f 34 5a be 3a 28 b0 bc 87 b0 61 3c 4d b2 4e 3b
       -0.2130904 -0.021503557 0.013774998 0.003153938
000310 fa c4 93 bd a9 4c 66 bd 60 2d 04 be 37 de fb bd
       -0.07215305 -0.056225453 -0.12907934 -0.122982435
000320 cb c4 a2 bc c7 de a0 bb 8e a9 3c bc 25 bb 13 3c
       -0.019869229 -0.0049093696 -0.011515034 0.009016787
000330 cd a7 f0 bc d2 7e 18 be 57 90 c0 bd a9 9e 0d bd
       -0.029376889 -0.14892128 -0.09402531 -0.03457514
000340 f5 cc 7c 3c 7d 02 a3 bd 23 a4 b7 bd 97 c8 a1 bd
       0.015429725 -0.07959459 -0.089668535 -0.078995876
000350 77 30 e1 bb d2 41 3c bd ac 6e 6f bd 5a 39 23 bd
       -0.0068722325 -0.04596121 -0.058455154 -0.039849617
000360 28 be dc bc 1a 49 b3 bd 27 b7 f3 bd 4b 80 c6 bd
       -0.026946142 -0.087541774 -0.11900168 -0.09692439
000370 f1 1b 7a bd 73 07 9e bd f4 da 24 3d 56 e2 cc bd
       -0.061061803 -0.077162646 0.040247872 -0.10004108
000380 04 e0 03 be 9f 51 ba 3d eb 38 a6 bd 5a fa d7 bd
       -0.12878424 0.09097599 -0.08116325 -0.10545798
000390 cd d8 3b bd 94 24 ac bd c1 fd 44 bd 1d 7b bc bc
       -0.045861054 -0.08405414 -0.04809356 -0.023007924
0003a0 7d af 02 be ae cb 31 bc 6f 43 29 3d 4b de 90 ba
       -0.12762256 -0.010851784 0.041324075 -0.0011052577
0003b0 25 b4 93 bd 51 be 4c bd 40 a3 61 bd 7c 86 0c bd
       -0.07212094 -0.049986187 -0.055087328 -0.03430794
0003c0 cb 8f b6 bd cb 77 ab 3d 4e 17 a2 bd 3d b2 b6 bc
       -0.08914145 0.08372458 -0.07914601 -0.022301788
0003d0 4c cd 27 bd 6c 77 3f 3c d3 fe 5d 3d ca 81 f1 bd
       -0.04096727 0.011686187 0.054198097 -0.117923334
0003e0 70 88 c0 3a ba ac 48 bd ea 02 e7 bc 38 b7 ff bd
       0.0014689099 -0.04899285 -0.028199632 -0.12486118
0003f0 56 3d e0 bd 55 b0 ab bd 1e 40 33 bc 41 b8 c8 bd
       -0.10949199 -0.08383242 -0.01094058 -0.09800769

action_model._discrete_distribution.branches.0.weight f4 [3, 256]
000000 b3 fd 53 bd 3e 84 27 3d 0a 24 98 3c 4d 93 72 3c
       -0.05175562 0.0408976 0.018571872 0.014805627
000010 b0 9d a7 bd 74 d9 c9 bc 54 58 00 3d d5 df 8a 3d
       -0.081843734 -0.024639823 0.031334236 0.06780974
000020 e0 60 a0 3d fd 79 01 bc d8 49 17 bc b3 fd 08 be
       0.078309774 -0.007902619 -0.009233914 -0.13378029
000030 64 7c 82 be d2 54 98 bd 83 ae 17 3d f3 fe 7f 3d
       -0.25485528 -0.07438053 0.03703166 0.062498998
000040 de 14 45 3d 11 20 b0 3d 14 b8 36 3e ce 34 0f 3e
       0.048115604 0.08599866 0.17843658 0.13984987
000050 2a 86 34 3d 82 f4 15 3e e3 e9 33 be a9 39 0d 3e
       0.04407326 0.14644054 -0.1756969 0.13791527
000060 6a 21 e0 bb 8a 1b 8b bc 81 8f 02 3e 86 84 2a 3c
       -0.0068399208 -0.016980905 0.12750055 0.010407573
000070 a0 eb 07 3d a8 0b f1 3c d8 a2 02 be 18 8f 80 3d
       0.033183694 0.029424503 -0.12757432 0.06277293
000080 d0 30 bd 3d e5 e2 b8 3d 7f 6e 9c 3d 53 26 8b 3d
       0.09237826 0.09027652 0.07638263 0.06794419
000090 3c 31 f0 3c 43 33 06 3d 97 f9 de bd 70 de ff 3d
       0.029320352 0.03276373 -0.10887449 0.124935985
0000a0 7a f1 73 be c8 76 a0 bc 77 f4 be 3c 3d 25 5a 3d
       -0.23822585 -0.01958789 0.02330993 0.05325817
0000b0 e8 6c d8 3d 60 ba 55 be 80 e2 e7 bd 94 a8 9a bd
       0.10567647 -0.20871878 -0.11322498 -0.07551685
0000c0 74 c9 2f be 49 00 aa 3c 7f 26 b0 bc 4b b2 99 bd
       -0.17166692 0.02075209 -0.021502731 -0.0750471
0000d0 fe 1c 95 bd 69 e3 a7 3d c0 59 5c bd bb 1c 1b 3b
       -0.072809204 0.08197672 -0.05379653 0.0023668248
0000e0 57 b4 22 3d db 3c 5d 3d 59 c7 91 3d cb 40 93 3d
       0.039722767 0.054013114 0.07118101 0.07190093
0000f0 7d 8d 9b 3c 2e 76 3f be 31 b7 36 3d 8c c0 23 3d
       0.018988365 -0.18697426 0.0446083 0.03997855
000100 d9 0b bc bc f7 c2 21 3e d4 d4 82 bd 17 0c 3e bd
       -0.022954868 0.1579703 -0.0638825 -0.04639825
000110 71 af de 3c 01 02 3f be 67 76 50 3d 43 02 d8 3c
       0.027183266 -0.18653108 0.050894167 0.026368266
000120 ff e6 65 be 30 b6 8b 3c a6 f3 d4 3d 3e 47 bd 3c
       -0.224514 0.017054647 0.10398035 0.02310526
000130 a5 19 af ba 3b 64 16 3d 26 cc fb 3c e8 ac b0 3d
       -0.0013359083 0.03671668 0.030736994 0.08626729
000140 16 1e 55 3d 6e 4b a7 bd bb 37 55 3e 29 b2 87 bd
       0.052030645 -0.08168684 0.2082204 -0.06625778
000150 2d 3d 01 be 02 c0 5e 3e b9 71 37 be 1e 2f ac 3d
       -0.12620993 0.21752933 -0.17914476 0.084074244
000160 ed d0 39 3e 9c d5 54 bd 35 06 39 3b fb cb 64 bd
       0.18146105 -0.051961526 0.002823246 -0.055858593
000170 3f 66 28 bd e0 2f eb 3d 44 55 2f 3d 5d 83 4b 3d
       -0.041113134 0.11483741 0.042805925 0.049685825
000180 20 7f c5 bd 85 f5 42 3d 96 77 0c 3d 00 7c ee bd
       -0.09643388 0.047597427 0.034293734 -0.11644745
000190 c2 15 c7 3d 95 1a 2d 3c b0 ef b8 bd 2f b0 66 3e
       0.09720947 0.01056542 -0.09030092 0.22528146
0001a0 ad 76 05 3d 6f 82 17 3e 39 30 90 3d 4d 64 9a bc
       0.03258388 0.1479585 0.07040448 -0.018846655
0001b0 df 39 91 3d 6f d8 4a be 24 5e 6e 3d b6 a5 ea 3c
       0.07091116 -0.19809125 0.05819525 0.02864347
0001c0 ad 94 b3 bc 46 a6 b4 3c ec fe ed 3c 66 01 ac 3d
       -0.02192148 0.022051942 0.02905222 0.08398704
0001d0 ee 1e 8c 3d 2e d1 68 bd cb db 55 3d 43 0c 06 3e
       0.06841837 -0.056840114 0.052211564 0.13090615
0001e0 d3 f3 31 3e a8 c7 93 bd b7 2c fb 3d 62 08 e5 3d
       0.17378168 -0.07215816 0.12264388 0.111832395
0001f0 01 67 f5 bc b8 cd 6b bc 41 68 3f 3d 20 36 b5 3c
       -0.029956343 -0.014392309 0.046730284 0.022120535
000200 58 0e aa 3b 2b b0 16 3e 6a 02 b7 bd 5c 19 c0 3d
       0.005189698 0.1471564 -0.08936007 0.09379837
000210 c1 62 0b 3c 7d 28 ac 3c da 57 11 be 95 21 45 bd
       0.0085074315 0.0210154 -0.14193669 -0.04812773
000220 35 9d 9e bc ff ca a6 3d ea ed 01 bd 87 81 af bb
       -0.019362072 0.08144187 -0.031721033 -0.005356017
000230 68 4a 5a bd 2d e1 a9 3c f2 7a c7 bc 31 58 1b be
       -0.053293616 0.020737255 -0.024350617 -0.15170361
000240 f5 21 98 bc 9f 39 09 3d 92 1f 59 be db 57 47 3d
       -0.01857088 0.033502217 -0.2120345 0.04866777
000250 89 c2 35 3e ad c6 35 bc 2c db d5 3d 58 85 b1 3d
       0.1774999 -0.011094731 0.10442194 0.086680114
000260 87 a8 27 3e 93 66 ce 3b 65 6d 5c 3d 5d 74 a1 3d
       0.16372882 0.006298849 0.053815264 0.07883523
000270 fa de 9a 3d b0 86 89 3b 45 61 1d 3e bb 1c ca 3d
       0.07562061 0.004196964 0.15369137 0.09868761
000280 33 0d ea bd 0c d7 c8 bc ff ab bf 3d a5 97 c9 3d
       -0.11428299 -0.024516605 0.093589775 0.09843377
000290 88 03 fd 3c 3e 18 a9 bc 42 e4 9a 3d e1 a9 93 be
       0.030885473 -0.020641442 0.07563068 -0.28840545
0002a0 2d 72 23 3d d9 87 a7 bc ce 9d 2e 3e 9a 19 8f bc
       0.03990381 -0.02045052 0.17052385 -0.017468262
0002b0 b1 15 81 3d 9a f9 df bc 0f 30 9d bc 92 84 d0 bc
       0.063029654 -0.027340699 -0.019187955 -0.02545384
0002c0 07 52 72 bd dc bb ee 3d 37 6b 87 bc d5 03 ac bc
       -0.05916026 0.11656925 -0.016530616 -0.020997921
0002d0 ad b0 93 3d 30 dc 16 3d 25 da 46 3e 66 f8 c4 bd
       0.072114326 0.03683108 0.19419153 -0.09617691
0002e0 df 5a a5 3d 69 ef 81 3d e2 62 c2 3d cb ee bf bd
       0.08073973 0.06344492 0.09491517 -0.09371718
0002f0 4d 2c 02 3e 36 23 a0 3d 4d fe 2f bd 2b 66 21 be
       0.12712212 0.07819216 -0.04296713 -0.1576163
000300 0b 61 26 3e 58 01 bf bd 6c b8 0c 3e 4b bc 2c bd
       0.16247956 -0.09326428 0.13742226 -0.042171758
000310 ef 5d 45 3d 2b 2b 1b 3e fb 3f 88 3c 5b e6 57 bc
       0.048185285 0.15153186 0.01663207 -0.01317748
000320 da 64 0b 3c bb 40 e2 3c 1b b9 2c 3d 5a 81 2d 3c
       0.008507932 0.027618757 0.042168718 0.010589922
000330 bf 55 74 3d e7 b9 65 3c 30 27 38 be ec 0b 55 bc
       0.059652086 0.014021373 -0.17983699 -0.013003331
000340 08 49 93 3d 79 0d 94 bd d9 40 c4 3c c2 14 cd bb
       0.07191664 -0.07229132 0.023956703 -0.006258578
000350 37 f9 7b bd d7 34 34 3a 51 2f 39 3e b8 7f bb 3c
       -0.061516967 0.0006874329 0.18084456 0.02288805
000360 1d d6 6c bc 49 43 ab 3c d8 14 f1 bd e7 1c 3c be
       -0.014455345 0.020906108 -0.11771554 -0.183704
000370 20 c2 7c ba b2 22 99 3e 4a 13 7c bd d5 31 9f 3c
       -0.0009641964 0.29909283 -0.061541833 0.019432941
000380 4e 58 12 3d d3 51 aa 3d b6 c2 27 3c 92 b4 a0 bd
       0.035728745 0.08316388 0.010239294 -0.07846941
000390 d4 47 49 bc d4 1c 98 bd aa a3 0f 3d c3 25 91 bd
       -0.012285192 -0.074273735 0.03506819 -0.070872806
0003a0 50 d1 a0 bd 3c 8e ad 3c 97 74 13 3e c0 9d 85 be
       -0.07852423 0.021185987 0.14399944 -0.26096916
0003b0 d7 c0 13 3e 35 b6 0a 3d 9c 1d 45 3e bf 94 5a bd
       0.14429031 0.033865172 0.19249576 -0.05336451
0003c0 aa 50 58 3d 17 5a 01 3d e4 1a 98 3d 7c ed 41 3d
       0.052811302 0.031580057 0.07427004 0.047345623
0003d0 3f a9 21 3c 72 95 a7 3c 38 93 5c 3d e5 90 ef 3d
       0.009867012 0.020457003 0.053851336 0.11697558
0003e0 9d 2e b0 3d 8f 61 af bd 20 79 b6 3d 35 59 ed 3d
       0.08602641 -0.0856353 0.089098215 0.115892805
0003f0 7b c6 18 be 7e 11 64 3e 5f ed 08 3e c8 5e 0f be
       -0.14919464 0.22272298 0.133718 -0.14001

action_model._discrete_distribution.branches.0.bias f4 [3]
000000 43 39 91 3d 62 72 31 3c 9a ca 87 bd
       0.07091 0.010830494 -0.0663044

action_model._discrete_distribution.branches.1.weight f4 [3, 256]
000000 71 36 86 3d 73 f2 2f bc bc 7b d7 3c ab b4 0e be
       0.065533526 -0.010738957 0.026304118 -0.13936107
000010 0b 46 96 3d a6 cd 7a 3e 0e 8b 2a be 84 56 d4 3d
       0.073375784 0.24492511 -0.16654608 0.10368064
000020 5e d8 ff 3c 39 8c 16 3e ae 2a fa 3b 68 8f a9 bc
       0.031231102 0.14701928 0.0076344823 -0.020698264
000030 fa fe 75 bb f1 5f d4 3d ab 97 8e be 4e e3 02 be
       -0.003753601 0.10369862 -0.27850088 -0.12782022
000040 74 8c 9a 3d 13 bf 56 3e 4a db 00 3e 57 d5 ef bd
       0.075463206 0.20971327 0.12583652 -0.11710613
000050 cc 30 32 be e9 7d 9c bb 0b 24 71 3d 25 86 97 3d
       -0.17401427 -0.004775752 0.058872264 0.07398633
000060 68 c4 89 3c 83 bd 46 3e dc 3d b2 bd b0 87 d3 3c
       0.016817287 0.1940823 -0.08703205 0.025821537
000070 d5 5c 00 bd d8 a0 7c 3d b7 52 82 3e a3 75 f5 bd
       -0.03133853 0.06167683 0.2545373 -0.11985328
000080 f9 dd f4 3c 4e b2 d6 bc b1 d5 69 bd 89 4c 83 bd
       0.029891001 -0.02620807 -0.057088558 -0.06411082
000090 f5 07 07 3d 06 24 00 bd a5 60 b9 3d 76 32 73 3e
       0.032966573 -0.031284355 0.090516366 0.23749718
0000a0 17 bb 80 3c 2e 02 98 3d 77 67 7c 3c d7 9f 91 3b
       0.015714211 0.07422291 0.015405527 0.004444103
0000b0 a2 55 5f be c2 d2 10 3d a0 7b 9e bd 40 ca da bd
       -0.2181001 0.035357244 -0.07738423 -0.106831074
0000c0 70 cd a4 bd 80 5a 9f 3d a7 2d ac 3d fd b8 38 3b
       -0.080469966 0.077809334 0.08407145 0.0028186433
0000d0 01 d2 da bd c0 ac e5 bd 58 a2 ed 3d 3b 94 a4 3d
       -0.10684586 -0.1121459 0.1160323 0.08036085
0000e0 de 13 d6 bc 17 22 10 be 25 4d 0c 3c 34 dd 29 3c
       -0.02613252 -0.14075504 0.008563315 0.01036768
0000f0 f8 d0 99 bc 61 03 01 3e 21 ae db bd 7f b0 67 be
       -0.018776402 0.12598945 -0.10726572 -0.22625922
000100 d9 20 85 3e 48 42 37 3d 33 f7 15 be bb d9 68 3e
       0.26001623 0.044740945 -0.1464508 0.22739308
000110 af d6 24 3e 4f 91 ed 3c 03 08 27 bb a1 09 91 bd
       0.1609752 0.028999953 -0.0025486953 -0.07081915
000120 3d ec 3a bd 11 14 d8 3d 39 83 5d bd e8 61 36 be
       -0.04563545 0.10550702 -0.05408022 -0.17810786
000130 eb 6e f7 bc 47 6f 9f 3d af 3d a7 bd bf c8 07 3e
       -0.030204257 0.07784896 -0.08166062 0.13260172
000140 0f 15 a5 bd 57 23 ca bd 37 20 11 3d ae e9 b8 3d
       -0.08060657 -0.09870022 0.035431113 0.09028946
000150 91 6e 9f bc ad 39 c4 3b 09 12 43 bd f8 be f0 3d
       -0.019461902 0.005988321 -0.04762462 0.117551744
000160 46 1e 2c bd cd 36 cf bc 2a 16 18 bd 00 89 b9 bd
       -0.04202106 -0.025294686 -0.037130512 -0.09059334
000170 3a b8 20 3e 9f 4f 80 3d bf ae 38 3d ec b2 8c bb
       0.15695277 0.062651865 0.045088526 -0.00429379
000180 ab 01 38 3e bb 88 17 be 71 de 1d be 84 b9 53 3b
       0.17969386 -0.14798252 -0.15416886 0.003230662
000190 16 ca 5a 3e d7 bd 3c bd 7c 24 04 be 57 2d 4d be
       0.21366152 -0.046079483 -0.12904543 -0.20036827
0001a0 c6 53 03 3d 80 2c 21 3e 3c c2 18 3e ec de 0b be
       0.032062314 0.15739632 0.14917845 -0.13659257
0001b0 f4 82 44 bb 17 8f b4 bd 72 b1 a0 bc ac 91 8c 3d
       -0.002998528 -0.08816355 -0.019615863 0.06863722
0001c0 72 b9 66 bb b6 67 95 3d a5 0b 3c be ae 30 8f 3d
       -0.003520575 0.07295172 -0.18363817 0.06991707
0001d0 ab 84 af bd 45 4e 95 bd 6b 54 92 3d 94 4c 78 bd
       -0.08570226 -0.07290319 0.07145008 -0.060619906
0001e0 d1 4a c8 bd ac 0d 0f be 25 e4 ba 3b 5f 2c 6b be
       -0.09779895 -0.13970059 0.0057034665 -0.22966145
0001f0 8a 15 d1 bc ce b2 b5 bd d8 34 29 3d 45 10 09 bd
       -0.025522966 -0.08871995 0.04131016 -0.03346278
000200 3b a2 47 3c 87 11 61 3d 9c 30 9e bc 44 50 d7 bd
       0.012184675 0.054948356 -0.019310288 -0.10513356
000210 c7 10 a2 3d 68 05 70 3d ba ae 7e bc 8f 3f 04 be
       0.07913356 0.058598906 -0.015544588 -0.1291487
000220 48 d1 aa bc 26 70 95 bd 68 24 c4 bd 87 5b e9 3b
       -0.020851746 -0.07296781 -0.095772564 0.0071215066
000230 db 81 0b 3e 0a f6 44 3d 5c 50 de 3c 62 94 3e be
       0.13623755 0.048086204 0.027137928 -0.18611291
000240 36 2d 6f 3d 99 93 dd ba a3 b3 7e 3d 02 4a 1b bd
       0.058392726 -0.001690495 0.062183034 -0.037912376
000250 d9 9c 77 bd 9e ce 6f 3d 9d 2c 23 3e 28 32 a6 bc
       -0.060452316 0.058546655 0.15934987 -0.020287588
000260 ff d0 94 3d 72 04 ba 3d 8d 28 cd 3b 13 cd dc bb
       0.07266425 0.09082879 0.0062609375 -0.006738314
000270 6f 80 6c bc a6 8a ea bb 78 1b eb bd d9 88 26 3d
       -0.014434918 -0.0071576415 -0.114798486 0.04065785
000280 3a 50 ba 3d 56 6e 9d 3d bf a8 be 3d 46 5d d4 bd
       0.09097333 0.076870605 0.093095295 -0.10369353
000290 5e 03 9a 3d 6e b9 59 3d 7d 24 b0 3d 95 42 27 be
       0.075201735 0.053155355 0.086007096 -0.16333993
0002a0 1d e4 45 3e b2 f4 dc 3d 68 28 29 3d f9 c3 ca 3b
       0.193253 0.107888594 0.0412983 0.0061879125
0002b0 41 96 90 bd 35 58 30 bd ec 8b 83 3c c0 76 2e 3d
       -0.07059909 -0.04305287 0.01605793 0.042593718
0002c0 b7 63 40 3e 50 f6 3f 3c 4a 2d 38 bd aa 27 b5 bd
       0.18788038 0.01171644 -0.044965066 -0.08845456
0002d0 77 72 20 be a5 d1 a7 bd 35 27 91 bd a9 74 0e be
       -0.15668665 -0.081942834 -0.07087556 -0.1391169
0002e0 d1 ac 3b bd 51 ec 26 bd fa 02 ad 3c d8 07 a6 bd
       -0.045819107 -0.040752713 0.021119583 -0.08106965
0002f0 dd df 48 3e 75 b2 b3 3c 22 30 0e 3d d6 6b a8 bd
       0.19616647 0.02193568 0.03471387 -0.08223693
000300 fd ff 75 3d b8 ed 9c bd c0 17 50 3e 50 c7 d1 3d
       0.060058583 -0.07662529 0.2032156 0.10243094
000310 af 28 9c bc 5c b4 7e be 34 c9 2b 3e bf d6 37 3c
       -0.019062368 -0.24873489 0.16775972 0.011220633
000320 9d bf 6e 3d e6 a0 04 3d 3c 91 ee 3c 88 a5 b9 3c
       0.058288205 0.032380007 0.029121988 0.02266194
000330 8a a1 12 3e 2b 82 f1 bd a7 0f 13 3e 7b 41 13 be
       0.14319435 -0.11792406 0.1436144 -0.14380448
000340 26 76 e7 3b d3 d6 36 bc 79 64 d8 bc 42 59 6b 3d
       0.007063645 -0.0111596165 -0.026415097 0.05745817
000350 1e c2 e9 bd 4a 96 c5 bd 99 a4 17 bd bc 9b 35 be
       -0.11413978 -0.09647806 -0.037022207 -0.17735189
000360 c9 fa 9e bc 07 21 58 3d 98 a0 a1 bc b7 6c 3c 3d
       -0.019406693 0.052765872 -0.019729897 0.046002116
000370 1c b4 44 bd 6e 98 9a 3d 5b 76 d0 bd 86 43 52 3d
       -0.04802333 0.07548605 -0.101788245 0.051333927
000380 5b 1f b6 bd 3d 07 d0 bd 50 01 8f bc cf a6 cb 3d
       -0.08892699 -0.101576306 -0.01745668 0.099439256
000390 c6 16 24 bd 54 66 c8 bd 04 d6 19 3e c9 10 6e 3c
       -0.04006078 -0.097851425 0.15023047 0.014530369
0003a0 60 d5 50 3e 64 cd 07 3e 49 df 0b be b6 e8 07 bd
       0.20393896 0.13261944 -0.13659395 -0.033180915
0003b0 dc 2b 94 bd e6 7b ad 3d 0a 12 0b be d9 2c a7 3d
       -0.07234928 0.084708974 -0.135811 0.08162851
0003c0 8e 17 16 be ce c6 2c 3d 85 32 7a be 50 b0 1e 3c
       -0.14657423 0.042181782 -0.24433334 0.009685591
0003d0 d3 b2 44 bd 11 17 90 3d 80 f3 09 3e dd e7 25 be
       -0.048022103 0.070356496 0.13471794 -0.1620173
0003e0 7f 0d 9b bd 9e 2f 45 3d 94 02 aa bd 48 4e e5 3d
       -0.075709336 0.048141114 -0.08301273 0.111965716
0003f0 fd bc 04 3d c9 2e fb bb f3 40 d4 bc 19 8a 9d bd
       0.032406796 -0.0076654893 -0.025909876 -0.07692356

action_model._discrete_distribution.branches.1.bias f4 [3]
000000 70 71 8d 3d 8c 10 82 bb 1f 7d 91 bd
       0.06906402 -0.0039692577 -0.07103943

action_model._discrete_distribution.branches.2.weight f4 [3, 256]
000000 d2 8f 9c 3e bf 7a 88 bc 08 59 24 be ac 18 9e bd
       0.30578476 -0.016660092 -0.16049588 -0.077195495
000010 ef fa 10 bd a4 5e 90 3e f2 36 8f bd 33 66 dd bd
       -0.03539556 0.28197205 -0.06992902 -0.108105086
000020 35 b4 ce 3d 70 c7 fe 3d 43 c0 97 3d b9 01 5c 3e
       0.100929655 0.124403834 0.07409718 0.21485032
000030 ca 7d c4 bd b2 83 16 3d 27 33 dd 3d 40 61 a5 3d
       -0.09594305 0.03674669 0.10800772 0.080751896
000040 0a c6 d5 3c 63 92 a1 bd 1c b8 88 3d 6d ca f3 bd
       0.026095409 -0.07889249 0.06675741 -0.11903844
000050 52 34 ad 3e 08 6a 06 3e d8 46 1d 3e c4 d0 ba bd
       0.3382898 0.13126385 0.15359056 -0.0912185
000060 9e 55 65 bd a3 0a 34 be 0b 62 fe 3d 85 2c 8a 3d
       -0.055989854 -0.17582183 0.12421044 0.06746773
000070 40 f2 8c bc ec 24 a3 bd 4b e7 9c 3d 16 3e 99 bd
       -0.017205358 -0.07966027 0.07661303 -0.07482545
000080 79 77 fe bc 00 1d b2 bd 7e e8 e7 bd bc 88 50 be
       -0.031062828 -0.086969376 -0.11323641 -0.2036466
000090 ab 51 88 bc b4 21 2d 3e e3 29 0c be 14 be 9a bb
       -0.016640505 0.16907388 -0.13687854 -0.004722366
0000a0 11 b1 83 3d 99 a6 31 bd ec d6 46 3e 8e 24 95 3c
       0.06430257 -0.04337177 0.19417924 0.018205907
0000b0 ec dc 04 be 6b 87 d8 bd e6 55 00 be 25 af 07 be
       -0.129749 -0.10572704 -0.12532768 -0.13250406
0000c0 b8 1a 79 be 86 35 b4 bd 70 c1 28 3d 35 87 9c 3d
       -0.24326599 -0.08799271 0.0412001 0.07642976
0000d0 42 8d 31 3e c4 fd f6 3d 9e ef 08 3e f4 94 96 3d
       0.17339042 0.12060121 0.13372657 0.07352629
0000e0 cf 10 17 be 4e 4f 83 3d a9 a3 01 be 3a ca e8 bc
       -0.14752506 0.064116105 -0.12660088 -0.028416742
0000f0 55 76 54 bd 38 4e 2e 3e 6f 8c b7 3d e8 d3 db bd
       -0.051870663 0.17022026 0.089623325 -0.10733777
000100 a5 96 2a 3e 36 15 5b be da 2e 46 3c 65 60 32 3e
       0.16659029 -0.2139481 0.012096131 0.17419584
000110 ff fa 49 be 1a da 37 be 88 21 23 3d 89 3c 05 be
       -0.19724654 -0.17954293 0.0398269 -0.13011374
000120 b7 cd 45 3d fc b2 a9 bd 44 79 8e 3d 7d c6 52 3d
       0.048291888 -0.08286092 0.06956723 0.051458824
000130 f7 15 a1 3d 72 af 85 3c b0 c5 70 3e 2b c8 5a be
       0.078655176 0.01631901 0.23512912 -0.2136542
000140 6a 63 2a be fe 2e 88 bc 19 02 04 be 88 24 c2 3d
       -0.16639486 -0.01662397 -0.12891425 0.09479624
000150 d7 04 d0 3d 08 63 5f 3e 42 03 af 3d 27 b2 5e 3d
       0.10157173 0.21815121 0.08545543 0.054369118
000160 54 d8 93 3d b9 10 18 bd e3 b5 2e 3d 00 fa a7 3e
       0.07218996 -0.037125323 0.04265393 0.32807922
000170 18 14 70 3e 8e 9f f1 3b 53 e4 47 be 4d 80 53 3e
       0.23445165 0.0073737567 -0.19520693 0.20654412
000180 0d 0e c0 bd 08 f0 92 3d 63 25 ee bb 47 2a 7e 3e
       -0.0937768 0.071746886 -0.0072676404 0.24820815
000190 f5 23 1d be 4e 07 7f bd 26 f2 a1 3d 48 bd 19 bc
       -0.15345748 -0.062262826 0.07907514 -0.009383507
0001a0 b3 b2 b7 3a 16 28 f0 bc e5 96 bc bd b6 aa 9b 3d
       0.0014015049 -0.02931599 -0.09208468 0.0760092
0001b0 0e 55 1e be c4 3a 42 3e 00 b1 52 3b 1d 01 73 bd
       -0.15462133 0.1896773 0.0032148957 -0.059327234
0001c0 56 e5 26 3e f9 19 98 be fa 78 10 3d 4f 98 6a bd
       0.16298422 -0.29707316 0.035271622 -0.05727416
0001d0 5a 31 95 bd c0 45 45 3e 58 e4 4d be 9b e6 06 bd
       -0.07284804 0.19264889 -0.20106637 -0.032934766
0001e0 ca 8e a0 3c e8 f9 be 3d 3e 41 61 bb bd e4 48 3e
       0.019599337 0.093250096 -0.0034371163 0.19618507
0001f0 ea b4 bb bd d8 18 f3 3b f4 40 8c 3e c7 2e 50 3e
       -0.09165366 0.007418733 0.27393305 0.20330344
000200 3c b1 d1 3d ed e1 af 3d 4d 1e 50 3e 78 5f ef 3d
       0.10238883 0.08588014 0.20324059 0.11688131
000210 eb 80 dd bc 7e ae 25 3e 7b 4a 4b 3e f9 38 20 be
       -0.027039012 0.16179845 0.19852631 -0.15646733
000220 b0 b5 59 bd f4 0e 73 3e 18 3c 60 3d e2 c1 67 bd
       -0.053151786 0.23736173 0.05474481 -0.056581385
000230 44 a6 cd bc 4e cd 3d bd 65 be 6a be dd 95 ae bb
       -0.025103696 -0.046338372 -0.22924192 -0.0053279237
000240 bf 11 f3 3d 82 55 04 be 54 c8 ea 3d 22 6a 9e 3d
       0.11868619 -0.12923244 0.11463991 0.07735087
000250 7c e6 8f 3d d0 a5 60 3e 9e 76 24 be 7b a2 80 3c
       0.07026383 0.21938252 -0.16060874 0.015702477
000260 06 51 82 bd 1c d0 32 3e 7b 11 9a 3d 13 e8 8d 3d
       -0.0636311 0.174622 0.075228654 0.0692903
000270 e2 c0 b2 3e d5 3a 50 3d eb f3 3b bb 90 ee 73 3e
       0.34912783 0.050837357 -0.0028679322 0.23821473
000280 a8 bb ea 3d ec 2b 4e bc 3a 22 0a 3e 92 78 73 bd
       0.11461574 -0.012583714 0.13489619 -0.059441157
000290 16 71 21 3e 95 96 da 3d 37 ba 9b bc b1 fc b2 3d
       0.15765795 0.106732525 -0.019009693 0.08739603
0002a0 77 b2 08 3e da f2 3c be a1 5b 81 3d 4e f9 83 be
       0.13349329 -0.18452016 0.06316305 -0.25776142
0002b0 ce 53 50 bd 73 09 1f bd c5 05 4e be ec c9 e9 bb
       -0.050861172 -0.03882737 -0.20119388 -0.0071346667
0002c0 40 d6 25 be 04 3f 43 bc 22 30 cc 3d a6 c4 2e 3e
       -0.16195011 -0.01191688 0.09970118 0.17067203
0002d0 d2 95 f0 bc 6d 8a 31 3d 0a 07 2c 3e 09 80 12 3e
       -0.029368315 0.043344904 0.1679956 0.14306654
0002e0 69 f9 13 be 29 ab 61 3e a0 33 77 3d 70 ed 9d 3d
       -0.14450611 0.22037949 0.060351968 0.07711303
0002f0 b4 fa c0 bb 71 67 b5 3d 95 54 1b 3e 48 c7 83 3c
       -0.005889261 0.088576205 0.15168984 0.016086236
000300 24 11 89 3d bc 1b 22 bd 7b f9 2f be 4f b6 cc bd
       0.066927224 -0.03957723 -0.17185013 -0.0999571
000310 a0 c1 0f 3e 91 fa 3c 3c 68 71 e6 bd 3b b1 10 bc
       0.14038706 0.011534349 -0.11252099 -0.008831318
000320 95 cf c0 3d be 0c ee bb 62 ac 4f be 18 b9 73 3c
       0.09414593 -0.0072647026 -0.20280603 0.014875673
000330 c5 c3 e0 3d 4d 2d 75 3e b8 74 3b 3d ed 1f 8f 3c
       0.1097484 0.23943062 0.04576561 0.017471278
000340 3b 67 04 3c 6f 3f ff 3d 4d 46 d1 3d cf 31 35 3b
       0.008081253 0.12463271 0.10218487 0.0027648096
000350 df 1e ee 3d 35 85 6b 3d 81 81 a8 3d c6 e0 4a 3d
       0.11626982 0.057500083 0.08227826 0.049530767
000360 0e de 82 bc 8e ae b2 3e 8d e2 25 39 ba f3 85 3e
       -0.015975025 0.348988 0.00015820023 0.2616251
000370 7d 05 3d 3e d8 be a6 3d 48 02 5b 3d 35 e6 86 bb
       0.18459125 0.08141869 0.053468972 -0.0041167983
000380 35 ac 35 3e 44 9f d1 3b 26 88 25 bd 33 a6 94 3e
       0.17741473 0.00639716 -0.040413044 0.2903305
000390 1c b7 47 bd 7d 15 37 3d 42 d5 d9 3d 6a 39 f2 bd
       -0.04875861 0.044698227 0.10636379 -0.11827357
0003a0 44 b9 67 3d 57 d1 9d bd 92 b8 a2 3c 70 08 97 3d
       0.056573167 -0.07705944 0.0198634 0.07374656
0003b0 7b e9 ae ba fa 1f 48 bd fb 20 08 3e 4a 4f e2 3d
       -0.0013344729 -0.04885862 0.13293831 0.110502794
0003c0 48 54 eb bc ad e1 a5 3d e4 0f 08 be b2 53 a3 bd
       -0.028726712 0.08099685 -0.13287312 -0.07974948
0003d0 5c 8f 55 3e b9 f8 30 be f1 a4 89 bc 48 62 a2 3e
       0.20855469 -0.1728238 -0.016802283 0.31715608
0003e0 eb 7c e0 bd 34 7c 8a 3c 54 3d 4b be a5 f1 83 bd
       -0.10961326 0.016904928 -0.19847614 -0.064425744
0003f0 b3 42 b5 bd 50 78 bb bd 3e 9a 0c 3e 34 b3 8e 3d
       -0.088506125 -0.09153807 0.13730714 0.06967774

action_model._discrete_distribution.branches.2.bias f4 [3]
000000 4a 1e c0 bd 42 b3 e1 bc 76 fb 00 3e
       -0.09380777 -0.027551297 0.12595925
