Project/Assets/ML-Agents/Examples/WallJump/TFModels/SmallWallJump.onnx (onnx, 736785 bytes, 13 tensors)

discrete_act_size_vector f4 [1, 4]
3.0 3.0 3.0 2.0
00000000: 0000 4040 0000 4040 0000 4040 0000 0040

network_body._body_endoder.seq_layers.0.weight f4 [256, 444]
0.076481074 0.04553323 -0.01695004 -0.11649235 -0.02078132 -0.05577364 -0.053210568 -0.010935014
0.08281173 0.009115893 -0.025623312 -0.089502774 0.025169874 0.0107004745 0.048634797 0.022755923
-0.0044747633 -0.05298346 0.010724085 -0.089138985 0.091366336 -0.13571246 -0.02902626 -0.07063354
-0.013440184 -0.015013897 -0.0182293 0.05448606 0.06022095 -0.073686644 -0.009500424 -0.06256235
0.010259118 -0.11344909 -0.013964194 -0.002593866 -0.20996436 0.012893368 -0.02002078 -0.039980162
0.011250418 -0.1341727 0.03465547 -0.029982125 0.018988432 -0.036870573 0.053474102 0.024279078
-0.015795948 0.06341884 -0.019977888 -0.047264654 -0.10232607 0.047161106 0.05251187 -0.033451535
-0.060321517 -0.0016275692 0.024031544 -0.036567815 0.012707043 0.14803948 -0.016931398 -0.01201276
0.023223896 -0.042138424 -0.18569832 -0.06467347 0.08156026 0.020146588 -0.084431395 -0.086308725
0.029085184 0.030029893 0.030897683 0.018029697 -0.04022301 0.02662802 0.048608672 0.046913035
-0.055085655 -0.04298638 -0.058467135 -0.07136965 0.010703106 0.023718985 0.15662089 0.012619592
-0.058055837 0.08950903 0.07832899 -0.09126813 0.044013977 0.06099019 0.03420115 0.05089671
0.07756374 0.0011888574 -0.07568734 -0.012469969 0.01762521 -0.10227271 0.004181228 0.034448735
0.03368888 0.065501295 0.02368412 -0.03591933 0.069676235 7.302315e-06 0.056816433 -0.053016815
-0.0069190413 -0.06840714 -0.05870312 0.06887203 0.05160131 0.029389119 -0.05989499 -0.010790963
0.03606643 0.009998427 -0.0573857 0.004217168 -0.07202683 -0.062182672 -0.005878486 0.0776966
0.002882207 0.047125883 -0.08881829 -0.10092905 -0.16781376 -0.035812717 -0.028859133 0.07444254
-0.18610595 -0.036669936 0.025312519 -0.0138909975 -0.038824502 0.028786736 -0.094675295 -0.048015576
-0.047772646 -0.05840561 0.1498083 -0.04215292 -0.05209009 -0.013914223 -0.04076409 0.007066798
-0.01294888 0.0050994284 0.05903124 0.06027428 -0.005360795 0.006109026 -0.05341245 0.039675433
0.0708798 0.13100624 -0.010198423 -0.019570915 0.050658442 -0.020982167 -0.14864182 0.0047791842
0.07825379 -0.008322751 -0.00035026143 -0.14095943 -0.097867206 -0.009260506 -0.02125882 -0.022452679
-0.055087607 -0.034448884 -0.083510935 0.11874513 -0.0065130307 -0.2170704 -0.051759876 0.06898729
0.051323332 0.06698308 0.1274387 -0.024721233 -0.0018598572 0.03159695 -0.024729377 -0.041933198
-0.039054256 0.08749969 -0.006782393 0.0046458095 -0.3071209 -0.02253209 0.102141134 0.0066776574
-0.046303064 0.026174372 0.052184444 -0.081826106 0.015489436 -0.03727783 -0.02223812 -0.007132636
-0.01949646 0.016520597 0.1524309 0.13669993 -0.019748386 0.0025245768 0.04047106 0.038927373
-0.10394349 -0.021982968 -0.08071821 0.02867158 0.08381828 -0.13997328 -0.024707299 0.07407466
-0.03977461 -0.08234156 0.096267425 0.010540765 -0.0453648 0.05357083 0.012690927 -0.088568546
-0.03482867 -0.0012162161 0.065875016 -0.1343681 0.108904265 0.07164355 -0.02614445 -0.08451054
0.04564976 -0.106401704 -0.026184164 0.108757734 -0.056982804 -0.022888374 -0.116710186 -0.21859245
0.073839374 -0.014281028 -0.055191975 0.08863448 -0.1808509 0.023035891 0.02463598 -0.0944317
00000000: 1ca2 9c3d 0d81 3a3d cfda 8abc 8b93 eebd
00000010: 963d aabc e672 64bd 53f3 59bd c628 33bc
00000020: 3299 a93d d45a 153c fbe7 d1bc 3b4d b7bd
00000030: 0d31 ce3c 0b51 2f3c 4835 473d a16a ba3c
00000040: 09a1 92bb 2f05 59bd 13b4 2f3c 808e b6bd
00000050: 461e bb3d 35f8 0abe 7bc8 edbc 51a8 90bd
00000060: 3834 5cbc d9fc 75bc 9d55 95bc c62c 5f3d
00000070: 3eaa 763d 06e9 96bd aba7 1bbc b020 80bd
00000080: dc15 283c ff57 e8bd 13ca 64bc dafd 29bb
00000090: e600 57be b43e 533c 9e02 a4bc 3dc2 23bd
000000a0: ac53 383c 9164 09be e5f2 0d3d 139d f5bc
000000b0: a18d 9b3c 9905 17bd a907 5b3d ebe4 c63c
000000c0: 8166 81bc bde1 813d aba8 a3bc 9598 41bd
000000d0: 5590 d1bd 012c 413d b016 573d 7a04 09bd
000000e0: b213 77bd 2954 d5ba cddd c43c 22c8 15bd
000000f0: 3431 503c a997 173e b7b3 8abc 2bd1 44bc
00000100: 0a40 be3c 5799 2cbd b327 3ebe 8673 84bd
00000110: 1109 a73d 750a a53c 5eea acbd a1c2 b0bd
00000120: 0d44 ee3c 4001 f63c 231d fd3c 04b3 933c
00000130: e2c0 24bd 0123 da3c e319 473d e227 403d
00000140: 7fa1 61bd 7d12 30bd 3c7b 6fbd 402a 92bd
00000150: 155c 2f3c 514e c23c 3a61 203e 68c2 4e3c
00000160: f5cb 6dbd 8350 b73d f36a a03d c9ea babd
00000170: 0048 343d d9d0 793d 8116 0c3d 1279 503d
00000180: bdd9 9e3d 6fd3 9b3a f701 9bbd d74e 4cbc
00000190: bf62 903c 5b74 d1bd af02 893b 1e1a 0d3d
000001a0: 5afd 093d 8b25 863d 3305 c23c 2620 13bd
000001b0: 6ab2 8e3d 6906 f536 59b8 683d 2928 59bd
000001c0: 20b9 e2bb 0b19 8cbd af72 70bd c70c 8d3d
000001d0: e55b 533d 73c1 f03c 7354 75bd 94cc 30bc
000001e0: 65ba 133d 71d0 233c 450d 6bbd 2b30 8a3b
000001f0: cd82 93bd 42b3 7ebd 51a0 c0bb 651f 9f3d
00000200: 69e3 3c3b 1207 413d 5de6 b5bd e4b3 cebd
00000210: 5fd7 2bbe 5bb0 12bd fd69 ecbc 5575 983d
00000220: 8f92 3ebe 3733 16bd 335c cf3c 1197 63bc
00000230: 7106 1fbd 29d2 eb3c 1fe5 c1bd fbab 44bd
00000240: 40ad 43bd b93a 6fbd 5967 193e 8aa8 2cbd
00000250: 6b5c 55bd 7bf8 63bc 3ff8 26bd 9990 e73b
00000260: 8a27 54bc 1b19 a73b beca 713d 2ae2 763d
00000270: 9ca9 afbb 392e c83b 03c7 5abd b582 223d
00000280: 6e29 913d 8026 063e 4917 27bc 2f53 a0bc
00000290: 3a7f 4f3d cbe2 abbc 9035 18be b49a 9c3b
000002a0: 8643 a03d 265c 08bc 4ba3 b7b9 ab57 10be
000002b0: 9a6e c8bd 61b9 17bc fa26 aebc aeee b7bc
000002c0: 8ba3 61bd 461a 0dbd c807 abbd a630 f33d
000002d0: 436b d5bb b447 5ebe 2a02 54bd 3549 8d3d
000002e0: 6a38 523d 6d2e 893d 4a7f 023e 2f84 cabc
000002f0: 74c6 f3ba ce6b 013d 4395 cabc 25c2 2bbd
00000300: 5bf7 1fbd 0a33 b33d d63e debb e03b 983b
00000310: f33e 9dbe 3895 b8bc 5f2f d13d 40d0 da3b
00000320: 48a8 3dbd a36b d63c 5bbf 553d 7294 a7bd
00000330: 67c7 7d3c a3b0 18bd b82c b6bc e3b8 e9bb
00000340: 0ab7 9fbc 3456 873c d916 1c3e 11fb 0b3e
00000350: 5ec7 a1bc 5f73 253b fbc4 253d 4f72 1f3d
00000360: 53e0 d4bd a015 b4bc 974f a5bd a9e0 ea3c
00000370: eba8 ab3d 2855 0fbe f666 cabc 75b4 973d
00000380: b4ea 22bd b1a2 a8bd db27 c53d 2cb3 2c3c
00000390: 71d0 39bd 166d 5b3d 9bed 4f3c 6d63 b5bd
000003a0: 82a8 0ebd 7169 9fba 7be9 863d cb97 09be
000003b0: 3309 df3d dbb9 923d e32c d6bc dd13 adbd
000003c0: 3efb 3a3d 23e9 d9bd 2c80 d6bc 60bc de3d
000003d0: cd66 69bd 6680 bbbc c005 efbd b3d6 5fbe
000003e0: 1939 973d f9fa 69bc fb10 62bd ff85 b53d
000003f0: fa30 39be c4b5 bc3c 65d1 c93c 6865 c1bd

network_body._body_endoder.seq_layers.0.bias f4 [256]
0.0096932035 -0.01591621 0.017105274 -0.003756689 -0.001079909 0.025835617 -0.014951821 0.018340217
-0.0019330076 0.012655504 0.012054957 -0.0011696403 0.027569398 0.012436958 -0.014316406 -0.00499739
-0.0899823 -0.004711367 0.010287558 0.022212822 -0.093149476 -0.019309364 -0.019077968 -0.00066941004
0.00034765314 -0.020461727 0.023555636 0.004068395 -0.0047709327 0.0073075555 0.03637264 0.04286639
0.029374817 0.011404475 0.008673665 0.037196215 -0.006147932 -0.08004892 0.0027876447 -0.013988107
0.014706457 0.02275839 0.042610876 0.018933624 0.0039801113 0.028303636 0.0100062005 -0.013719715
0.017704267 0.036194675 0.02439404 -0.0036618356 -0.019733712 0.0048099225 -0.005686343 0.03317321
-0.01807275 0.018909335 -0.007708495 -0.09801637 0.0063511166 0.020725816 -9.007637e-05 -0.0029860474
-0.0028039613 0.003500058 0.009705398 -0.0034264028 -0.020052196 0.0017314444 0.018144313 -0.019957334
0.009533287 0.025120022 0.01766916 0.0040978217 -0.029457496 0.022087943 -0.02822059 -0.005820096
-0.036447078 0.010405891 0.010035963 0.011159047 0.008057398 -0.009599285 0.037444703 0.012652632
0.03111751 0.0471882 0.023538485 -0.099720865 -0.0025924433 -0.0062881345 0.034384783 0.0008405385
0.0096000135 0.029990952 0.024210094 0.0011487843 0.029494062 -0.016247628 -0.001264203 -0.016663367
0.01428692 -0.08007038 0.018033797 -0.009675974 -0.0007846759 0.010433623 0.00087731384 -0.020226808
0.009652408 -0.0015487558 0.009457252 -0.020362018 0.010423962 0.016512452 0.016563438 -0.008593689
-0.0063345716 0.0012883276 -0.006045899 -0.001640397 0.0027770805 0.031700373 -0.0025263557 -0.09576972
0.03840248 0.028722614 -0.0016251026 0.008600692 0.029668763 0.008994813 0.0463778 0.05140483
-0.002343077 0.003858352 0.019251956 -0.0013504269 -0.010152336 -0.004407089 0.012789729 0.013586887
-0.031753838 0.014887317 0.021281486 -0.003226291 0.011390812 0.026022984 0.024397468 0.03046251
-0.015696144 -0.012588975 -0.011738243 0.03882179 0.01664852 -0.007740315 -0.0064233183 -0.076934494
0.0040235743 -0.010522585 -0.0065023205 0.020169359 -0.003353509 0.019574022 -0.015770447 0.038309354
0.022489576 -0.012268473 -0.014628066 0.023357052 0.018180994 0.02686137 0.016321432 -0.0018562007
-0.008472979 -0.0042230505 0.024375657 -0.0106472075 0.003976489 0.017645936 0.011981062 0.027354019
-0.019881196 0.033055753 0.002028102 0.0064754523 -0.0007444627 0.0131644895 0.009270115 -0.0072599323
-0.0013277553 0.0055753696 0.010653154 0.0009041476 -0.0032195402 0.014238176 0.017517453 0.004310756
0.010867608 0.009519129 0.007592972 0.04787217 0.020249495 -0.009804832 -0.007088025 0.030809557
0.033152595 -0.004255557 0.013983174 0.004504753 0.0044454066 0.029054783 0.024893576 0.031227365
-0.0022724343 -0.029153923 -0.0018333757 -0.005686115 0.003930028 0.038296644 -0.014800413 -0.010286588
0.026271762 0.016984025 -0.016782427 0.028131729 -0.00021927211 0.0133729065 -0.0048936754 -0.005441686
0.011175123 -0.010590066 0.02660799 0.009772475 -0.009383273 0.018902428 0.022652779 -0.012653565
-0.023713239 0.012323089 -0.015168187 -0.0056608366 0.024150666 -0.010328029 -0.059041217 0.014519654
0.02066058 0.035515264 -0.021068208 -0.07099986 -0.010690859 -0.0022012484 0.02573296 -0.003211482
00000000: 3ed0 1e3c b662 82bc 5c20 8c3c c832 76bb
00000010: bc8b 8dba 37a5 d33c 7cf8 74bc 393e 963c
00000020: f95c fdba 0859 4f3c 2882 453c 9e4e 99ba
00000030: 38d9 e13c 62c4 4b3c 5c8f 6abc 25c1 a3bb
00000040: a448 b8bd d061 9abb 258d 283c aaf7 b53c
00000050: 27c5 bebd ac2e 9ebc 6649 9cbc 597b 2fba
00000060: 3745 b639 5a9f a7bc c0f7 c03c 2c50 853b
00000070: 7c55 9cbb 3874 ef3b 7afb 143d ab94 2f3d
00000080: 75a3 f03c d6d9 3a3c fd1b 0e3c 0f5b 183d
00000090: 9774 c9bb b0f0 a3bd ebb0 363b 602e 65bc
000000a0: 5af3 703c ce6f ba3c be88 2e3d b01a 9b3c
000000b0: 986b 823b 07dd e73c 0cf1 233c a8c8 60bc
000000c0: 8a08 913c de40 143d 03d6 c73c 68fb 6fbb
000000d0: 98a8 a1bc 8e9c 9d3b 8154 babb a2e0 073d
000000e0: 4e0d 94bc c0e7 9a3c 8b97 fcbb cebc c8bd
000000f0: 071d d03b 30c9 a93c 62e7 bcb8 90b1 43bb
00000100: aac2 37bb 3b61 653b 6403 1f3c 808d 60bb
00000110: 8144 a4bc a2f1 e23a 62a3 943c 907d a3bc
00000120: 8131 1c3c 81c8 cd3c eabe 903c 0547 863b
00000130: d950 f1bc c6f1 b43c de2e e7bc 81b6 bebb
00000140: 8849 15bd 787d 2a3c e16d 243c 6fd4 363c
00000150: 2d03 043c 5246 1dbc 9e5f 193d fc4c 4f3c
00000160: 26ea fe3c 6a48 413d c8d3 c03c 743a ccbd
00000170: fbe5 29bb b20c cebb 0fd7 0c3d 9557 5c3a
00000180: 6049 1d3c 96af f53c 3f54 c63c ce92 963a
00000190: 889d f13c bf19 85bc 9db3 a5ba 9d81 88bc
000001a0: b013 6a3c f0fb a3bd 9dbb 933c fa87 1ebc
000001b0: b5b2 4dba c9f1 2a3c 89fb 653a b1b2 a5bc
000001c0: 2225 1e3c 9fff caba 97f2 1a3c 3fce a6bc
000001d0: 44c9 2a3c 1f45 873c 0cb0 873c 8bcc 0cbc
000001e0: 3d92 cfbb 1add a83a ad1c c6bb 9702 d7ba
000001f0: aeff 353b 40d8 013d 3791 25bb ea22 c4bd
00000200: eb4b 1d3d b04b eb3c 6501 d5ba ebe9 0c3c
00000210: e80b f33c fb5e 133c a6f6 3d3d df8d 523d
00000220: 4f8e 19bb 68dc 7c3b 47b6 9d3c cf00 b1ba
00000230: fc55 26bc 5869 90bb 038c 513c 899b 5e3c
00000240: 5010 02bd efe9 733c 8356 ae3c 2e70 53bb
00000250: 87a0 3a3c 272e d53c 33dd c73c 848c f93c
00000260: 3395 80bc fd41 4ebc c251 40bc 9903 1f3d
00000270: 7a62 883c 78a2 fdbb b37a d2bb d58f 9dbd
00000280: 30d8 833b ec66 2cbc 6b11 d5bb 363a a53c
00000290: 8bc6 5bbb b359 a03c 0631 81bc 45ea 1c3d
000002a0: 0f3c b83c b501 49bc 8eaa 6fbc 4a57 bf3c
000002b0: 4ff0 943c 600c dc3c 86b4 853c c34b f3ba
000002c0: 40d2 0abc 8461 8abb 75af c73c a071 2ebc
000002d0: 354d 823b 368e 903c 374c 443c 8915 e03c
000002e0: e4dd a2bc 7865 073d e8e9 043b 0830 d43b
000002f0: 0c28 43ba dfaf 573c aee1 173c bae4 edbb
00000300: 1308 aeba 97b1 b63b 918a 2e3c 5104 6d3a
00000310: ecfe 52bb 3d47 693c c380 8f3c 3e41 8d3b
00000320: 0d0e 323c 1ff6 1b3c 77ce f83b 9c15 443d
00000330: 45e2 a53c 72a4 20bc aa42 e8bb 5364 fc3c
00000340: 04cb 073d 3372 8bbb af19 653c 9b9c 933b
00000350: c6aa 913b 4c04 ee3c 9ded cb3c 88d0 ff3c
00000360: 1fed 14bb 35d4 eebc e14d f0ba 9752 babb
00000370: 77c7 803b f1dc 1c3d 6e7d 72bc 1489 28bc
00000380: e137 d73c 1522 8b3c 4d7b 89bc 8374 e63c
00000390: 69ec 65b9 091a 5b3c 205b a0bb 2c50 b2bb
000003a0: dd17 373c f581 2dbc 00f9 d93c bb1c 203c
000003b0: 4dbc 19bc 44d9 9a3c 5292 b93c e650 4fbc
000003c0: 4442 c2bc c8e6 493c fd83 78bc 8a7e b9bb
000003d0: 9ed7 c53c e536 29bc 34d5 71bd d8e3 6d3c
000003e0: 6040 a93c 7478 113d 3c97 acbc 6068 91bd
000003f0: b628 2fbc d242 10bb eecd d23c ba77 52bb

network_body._body_endoder.seq_layers.2.weight f4 [256, 256]
0.050173055 0.027329128 -0.0007947019 -0.017646134 0.0129724275 0.01827435 0.10244062 -0.060113173
0.10912018 0.0143565545 -0.061188422 -0.018340109 -0.07463647 0.035870288 -0.14262863 0.08130507
0.041500505 -0.074426435 0.10663011 -0.048775606 -0.063050225 0.12040369 -0.021175262 0.051673893
0.09418768 0.29975608 0.07971449 -0.020700503 0.16259615 -0.10063428 -0.005756992 -0.06723552
0.056109745 -0.080048 -0.004543911 -0.008874687 0.019587241 -0.025007488 0.0023455669 0.02679766
-0.10089024 -0.14950794 0.06242331 -0.015362844 -0.011296435 0.05337266 -0.112062186 0.12354225
0.07807075 -0.14252105 -0.042439695 0.08662661 -0.0077315536 -0.18783578 -0.039157145 0.047256254
0.062624395 0.117134355 -0.046465416 -0.07354334 -0.04504074 0.014009076 0.1642025 0.052644532
-0.11044557 -0.009446013 0.015781088 -0.11430253 0.033494983 0.032671176 0.016579363 0.029488206
-0.017278818 0.059707206 -0.051262487 -0.0018303399 -0.019635508 -0.08351509 0.059320055 -0.008896038
-0.044142652 -0.0047347303 0.033278234 0.082409754 -0.022750363 0.028764147 0.0900826 -0.03167058
0.039731856 -0.11057406 0.09318933 0.016775327 -0.08244949 0.08668592 0.024830375 -0.11465729
0.14308839 0.07412683 -0.039550133 0.09788484 -0.019489853 0.13810953 0.04775042 0.06988855
0.23956831 0.05048545 0.04563601 0.013891884 0.004845996 -0.1005967 0.10943186 0.00990824
0.0054236175 0.008329711 -0.17534764 0.07138532 0.017958727 -0.1149501 0.03523036 0.09196259
-0.089667596 0.15218525 0.15616299 0.04332789 -0.10279188 0.061105933 -0.064221114 -0.042009167
0.12158485 -0.14534128 0.08646422 0.08253822 0.05164532 -0.021531079 -0.001595452 -0.022601709
-0.12557906 0.014544493 0.20079593 -0.14492097 0.14050685 -0.09604853 0.11620706 0.14843442
-0.1201356 -0.049340025 -0.11187159 0.16999374 0.12888485 0.038485438 -0.056828417 -0.041413672
0.14727706 0.026000133 0.17467025 -0.05636091 0.12138917 -0.03683852 0.05271612 -0.16546272
0.08630594 0.06264128 0.05387567 -0.122446105 -0.069223605 0.19694708 0.055422317 -0.08806144
0.034971386 0.0133462595 0.10015387 0.037608773 -0.08706211 0.08485795 -0.0482266 0.037584253
-0.17704022 -0.15260565 -0.15480588 -0.19564326 0.16269033 0.12857251 -0.11485837 -0.11486906
0.014507641 0.015081541 -0.15290843 0.20015681 -0.079580426 0.19956931 0.039121773 0.053475037
-0.047155146 0.06654774 0.10478239 0.10829719 0.009150218 0.11555787 0.008321334 -0.039655853
-0.05249445 0.08237842 -0.1361182 -0.009514113 0.008125639 0.0035111646 0.06038987 0.14097288
0.26062417 -0.20024212 0.09203142 -0.03459746 -0.14409468 0.02794095 -0.0055703805 0.15511319
-0.020869806 0.18613483 0.1321405 -0.06161862 -0.11914388 -0.08216401 0.009402307 0.05468618
-0.048003294 -0.08259332 -0.027508458 0.05657232 0.02102642 0.016528059 -0.05679053 -0.09674777
0.060655035 -0.0011664613 -0.0032342607 0.025627838 0.04897245 0.017646782 -0.022666987 0.0716197
0.15733732 0.06671246 0.06522412 0.03528477 -0.10515595 -0.09127833 -0.16961586 -0.10426337
0.019311504 0.06968811 -0.007931425 0.0046242015 -0.06849645 -0.03616114 -0.020759873 -0.14732926
00000000: 4382 4d3d 56e1 df3c 8b53 50ba a08e 90bc
00000010: 4e8a 543c 17b4 953c 63cc d13d 3b39 76bd
00000020: 677a df3d c137 6b3c b6a0 7abd ff3d 96bc
00000030: 01db 98bd b9ec 123d 3d0d 12be 4683 a63d
00000040: 6ffc 293d e36c 98bd e360 da3d eec8 47bd
00000050: 7a20 81bd 3696 f63d be77 adbc 01a8 533d
00000060: 78e5 c03d a179 993e 5a41 a33d 1a94 a9bc
00000070: 9b7f 263e 5819 cebd 26a5 bcbb c7b2 89bd
00000080: 55d3 653d 35f0 a3bd 17e5 94bb 2367 11bc
00000090: 6c75 a03c 81dc ccbc 15b8 193b c486 db3c
000000a0: 8b9f cebd 9c18 19be 96af 7f3d 70b4 7bbc
000000b0: af14 39bc 4a9d 5a3d dc80 e5bd b803 fd3d
000000c0: 8fe3 9f3d 0af1 11be 3fd5 2dbd 4b69 b13d
000000d0: f958 fdbb 0658 40be 3e63 20bd c68f 413d
000000e0: 3841 803d 23e4 ef3d 8552 3ebd e49d 96bd
000000f0: a47c 38bd 5386 653c b324 283e cba1 573d
00000100: 4931 e2bd 73c3 1abc 5747 813c 7217 eabd
00000110: 0932 093d 36d2 053d 72d1 873c 4091 f13c
00000120: 4f8c 8dbc 8b8f 743d 9df8 51bd 04e8 efba
00000130: a5da a0bc f609 abbd 96f9 723d b0c0 11bc
00000140: edce 34bd cc25 9bbb c24e 083d 72c6 a83d
00000150: f85e babc caa2 eb3c 3a7d b83d 03b9 01bd
00000160: dfbd 223d a774 e2bd 0cda be3d 696c 893c
00000170: 47db a8bd 6388 b13d 1269 cb3c 71d1 eabd
00000180: c385 123e cfcf 973d 52ff 21bd d977 c83d
00000190: 2fa9 9fbc 966c 0d3e f295 433d ba21 8f3d
000001a0: 6551 753e d5c9 4e3d d3ec 3a3d c99a 633c
000001b0: 29cb 9e3b a505 cebd d01d e03d 2c56 223c
000001c0: 9ab8 b13b 5779 083c 558e 33be 7732 923d
000001d0: 2e1e 933c f56a ebbd b64d 103d e256 bc3d
000001e0: a5a3 b7bd 73d6 1b3e 31e9 1f3e 9678 313d
000001f0: 8d84 d2bd 374a 7a3d 5c86 83bd ce11 2cbd
00000200: 7a01 f93d 58d4 14be 2714 b13d cc09 a93d
00000210: 0b8a 533d f261 b0bc 7c1e d1ba 3827 b9bc
00000220: cc97 00be 064c 6e3c 739d 4d3e 2a66 14be
00000230: 07e1 0f3e 17b5 c4bd f8fd ed3d 31ff 173e
00000240: a709 f6bd c418 4abd ef1c e5bd d712 2e3e
00000250: 64fa 033e e8a2 1d3d eac4 68bd 62a1 29bd
00000260: cccf 163e 3bfe d43c c2dc 323e b3da 66bd
00000270: e39a f83d fde3 16bd dcec 573d 0f6f 29be
00000280: 2bc1 b03d 124a 803d bcac 5c3d 06c5 fabd
00000290: 1bc5 8dbd 7fac 493e 8302 633d 8e59 b4bd
000002a0: 283e 0f3d 45aa 5a3c 791d cd3d a80b 1a3d
000002b0: 9f4d b2bd 01ca ad3d 4189 45bd f2f1 193d
000002c0: 084a 35be a844 1cbe 6f85 1ebe b556 48be
000002d0: 4b98 263e 83a8 033e dd3a ebbd 7840 ebbd
000002e0: 75b1 6d3c 9118 773c 0794 1cbe e8f5 4c3e
000002f0: 10fb a2bd e65b 4c3e 273e 203d a408 5b3d
00000300: c125 41bd 2e4a 883d 2698 d63d ebca dd3d
00000310: ccea 153c 9ba9 ec3d 3456 083c 2d6e 22bd
00000320: 6c04 57bd 04b6 a83d 9262 0bbe 15e1 1bbc
00000330: 6621 053c 911b 663b 5e5b 773d 325b 103e
00000340: 8870 853e 450c 4dbe f87a bc3d 11b6 0dbd
00000350: 8e8d 13be 6be4 e43c bd87 b6bb fed5 1e3e
00000360: 28f7 aabc 219a 3e3e d74f 073e ce63 7cbd
00000370: b501 f4bd 9b45 a8bd 220c 1a3c 9efe 5f3d
00000380: 1a9f 44bd b026 a9bd 6b59 e1bc 61b8 673d
00000390: 993f ac3c da65 873c 309d 68bd b223 c6bd
000003a0: 6a71 783d f2e3 98ba e4f5 53bb 79f1 d13c
000003b0: 5697 483d fc8f 903c 1eb0 b9bc 59ad 923d
000003c0: 091d 213e 8ba0 883d 3994 853d c386 103d
000003d0: 015c d7bd 22f0 babd c8af 2dbe 0988 d5bd
000003e0: 2933 9e3c a4b8 8e3d cff2 01bc 9d86 973b
000003f0: de47 8cbd b41d 14bd 9c10 aabc 7bdd 16be

network_body._body_endoder.seq_layers.2.bias f4 [256]
0.014879721 0.027164353 0.012564505 -0.0022534868 -0.03420039 0.01021997 0.010599593 -0.03754313
0.037801757 -0.021388747 -0.002381633 0.010412098 0.0030154707 0.027166355 0.042216275 -0.053918898
-0.06880926 0.0115950825 -0.032315884 -0.0012345932 -0.028529782 0.052647512 0.0028057843 -0.0068885596
0.014261548 0.018512597 -0.011772297 -0.0071571963 -0.09914964 -0.00023339315 -0.028908765 0.012747639
0.026894601 -0.01963827 -0.019120643 -0.02011466 -0.008776637 -0.084561005 -0.034900554 -0.014598215
-0.03539657 0.023510227 -0.0134135755 -0.022405174 0.01632876 0.020857558 0.0055369576 -0.03035839
-0.042366743 -0.009078745 -0.026173882 -0.05989631 -0.013733515 -0.03660983 -0.015006864 -0.036432955
-0.019091703 -0.01616939 0.008800949 0.028634325 0.049195997 0.030752555 0.0020734265 0.0031023591
0.00025772993 -0.024893658 0.012667009 0.025556298 -0.07031962 0.04377812 0.0063773477 0.018668978
0.006972553 -0.036860015 0.012464655 -0.053155396 -0.02453351 -0.029649032 -0.028244872 0.039731428
0.032260768 -0.08533375 0.0038477501 -0.02241602 0.005303708 0.018998275 -0.002144651 -0.011075322
-0.0933096 0.0077031343 -0.021301378 0.02505341 -0.06430047 0.005456034 -0.021509891 0.031604502
-0.020942451 -0.019472122 -0.007716511 -0.020242486 0.003388301 -0.0104656555 0.015774282 0.066747
0.005188447 -0.07631898 -0.04298541 -0.04779331 0.023287907 0.03871546 0.004999561 -0.004377512
0.01778684 -0.0423879 0.009030685 0.037202388 0.0057735015 -0.040011343 0.00022821629 0.0013896233
-0.016196236 0.0027476938 0.049999665 -0.026935678 0.020507257 -0.0006958914 0.014410671 0.008016322
0.05508325 -0.027966078 -0.03781438 -0.008984137 -0.031650037 -0.05974025 -0.021295238 0.016741097
0.012657262 0.011063884 0.004017058 -0.010977566 -0.03250094 0.011607306 -0.027606139 0.00033552633
-0.012056145 0.015257917 -0.01118674 0.026128387 -0.023414973 -0.016867071 -0.020092262 -0.0033061292
0.019250834 -0.0072514066 -0.02865555 -0.04299361 -0.058055285 -0.0127972495 0.008456511 0.013224652
0.007662075 -0.028368145 0.010938177 0.008664134 0.053291753 0.0010116303 -0.044483587 0.007436416
-0.07281953 -0.083372526 -0.013911278 0.0090964455 -0.010260304 -0.010489527 -0.004469345 0.0057306313
0.007870549 -0.009490563 0.026085015 -0.004533276 0.039827693 0.032061767 0.011378995 -0.034077857
0.030111438 -0.006190222 -0.019653438 -0.006435654 0.013371605 -0.013254058 -0.018598713 0.0035689936
-0.023129959 0.013884658 -0.013632831 -0.007089906 0.024495624 -0.00093733467 -0.0142629165 0.0129199065
-0.04087013 -0.004347606 -0.008159561 0.022881443 0.008451242 -0.0016757086 0.01900562 0.023766357
0.04140974 -0.067897774 0.023573142 0.040406663 -0.05780568 -0.0014579598 -0.07235552 -0.027228167
0.04505672 0.030055495 0.0015735619 -0.025915712 -0.07855444 -0.036427137 0.024207955 0.030350294
-0.036150824 0.038160093 -0.025988668 -0.07105116 -0.014325462 -0.013335886 -0.035047587 -0.011309552
0.0028438943 -0.05065664 0.008518022 0.025042284 -0.04781695 0.014347784 0.038168408 -0.014008347
0.011921517 -0.0009227026 -0.008550327 -0.053655207 0.015044148 -0.03878732 0.023950905 -0.0072785495
0.028258214 0.004814056 -0.034116957 -0.053846326 -0.0307077 -0.012620985 -0.03374217 -0.052604258
00000000: 13ca 733c c787 de3c 5bdb 4d3c 3caf 13bb
00000010: b515 0cbd a971 273c eaa9 2d3c d3c6 19bd
00000020: 04d6 1a3d 7437 afbc 2c15 1cbb 8197 2a3c
00000030: 349f 453b fa8b de3c f9ea 2c3d 10da 5cbd
00000040: dfeb 8cbd 4df9 3d3c a95d 04bd 13d2 a1ba
00000050: 4ab7 e9bc eba4 573d 40e1 373b 6db9 e1bb
00000060: 45a9 693c bba7 973c 98e0 40bc ea86 eabb
00000070: f70e cbbd ffba 74b9 13d2 ecbc 79db 503c
00000080: 1152 dc3c 70e0 a0bc e5a2 9cbc 80c7 a4bc
00000090: e2cb 0fbc 522e adbd e2f3 0ebd 5a2d 6fbc
000000a0: fefb 10bd 8598 c03c 9dc4 5bbc 0e8b b7bc
000000b0: e4c3 853c 78dd aa3c 5e6f b53b 29b2 f8bc
000000c0: c088 2dbd 04bf 14bc 9c6a d6bc d555 75bd
000000d0: 8902 61bc 30f4 15bd 5adf 75bc b93a 15bd
000000e0: 3466 9cbc ab75 84bc db31 103c 8892 ea3c
000000f0: be81 493d c8ec fb3c 53e2 073b f350 4b3b
00000100: ed1f 8739 c9ed cbbc 4989 4f3c 715b d13c
00000110: bc03 90bd b050 333d 12f9 d03b afef 983c
00000120: 047a e43b 87fa 16bd 8d38 4c3c 79b9 59bd
00000130: 80fa c8bc 87e2 f2bc ca61 e7bc 6cbd 223d
00000140: de23 043d 76c3 aebd 892a 7c3b cda1 b7bc
00000150: baca ad3b 45a2 9b3c 468d 0cbb 4475 35bc
00000160: 1b19 bfbd 936a fc3b 3a80 aebc cf3c cd3c
00000170: f7af 83bd 88c8 b23b 8335 b0bc b973 013d
00000180: 818f abbc 0084 9fbc c9da fcbb 92d3 a5bc
00000190: 420e 5e3b 2478 2bbc 1139 813c a7b2 883d
000001a0: d903 aa3b 204d 9cbd 7811 30bd ebc2 43bd
000001b0: 48c6 be3c 1a94 1e3d 5bd3 a33b 3b71 8fbb
000001c0: b5b5 913c ef9e 2dbd 70f5 133c 8861 183d
000001d0: a42f bd3b efe2 23bd 584d 6f39 0524 b63a
000001e0: f8ad 84bc a712 343b 73cc 4c3d 36a8 dcbc
000001f0: d6fe a73c 7b6c 36ba bc1a 6c3c e456 033c
00000200: f99e 613d 1e19 e5bc 40e3 1abd 3432 13bc
00000210: 78a3 01bd 31b2 74bd 5a73 aebc a024 893c
00000220: 6860 4f3c 4b45 353c 86a1 833b 40db 33bc
00000230: b51f 05bd 922c 3e3c 4526 e2bc 95e9 af39
00000240: 2387 45bc 58fc 793c 9748 37bc 330b d63c
00000250: c2d0 bfbc d02c 8abc 8798 a4bc a5ab 58bb
00000260: edb3 9d3c 359d edbb 0bbf eabc 111a 30bd
00000270: 61cb 6dbd 8eab 51bc 2e8d 0a3c 36ac 583c
00000280: 2512 fb3b 5064 e8bc 0a36 333c 03f4 0d3c
00000290: 7448 5a3d ae98 843a 6c34 36bd 2ead f33b
000002a0: 6822 95bd 37bf aabd 21ec 63bc 4209 153c
000002b0: d61a 28bc 44dc 2bbc 9573 92bb 05c8 bb3b
000002c0: 7af3 003c 4e7e 1bbc 3eb0 d53c e08b 94bb
000002d0: 5d22 233d 3353 033d f76e 3a3c 3995 0bbd
000002e0: 43ac f63c 59d7 cabb 3f00 a1bc 2ee2 d2bb
000002f0: 9414 5b3c 8c27 59bc 545c 98bc c7e5 693b
00000300: 0a7b bdbc 7a7c 633c 3d5c 5fbc 7152 e8bb
00000310: 0cab c83c 77b7 75ba 02af 69bc 04ae 533c
00000320: 7067 27bd 5d76 8ebb aeaf 05bc dd71 bb3c
00000330: 1477 0a3c 73a3 dbba adb1 9b3c aab1 c23c
00000340: 429d 293d fd0d 8bbd 761c c13c 7581 253d
00000350: a6c5 6cbd 0319 bfba 222f 94bd 9b0d dfbc
00000360: 658d 383d f136 f63c fa3f ce3a 304d d4bc
00000370: 26e1 a0bd 9f34 15bd c34f c63c 2ea1 f83c
00000380: e312 14bd c24d 1c3d 30e6 d4bc 4583 91bd
00000390: 58b5 6abc c37e 5abc 0f8e 0fbd b34b 39bc
000003a0: a160 3a3b 567d 4fbd 2c8f 0b3c 7a25 cd3c
000003b0: b5db 43bd f812 6b3c 7a56 1c3d 4483 65bc
000003c0: 7752 433c 86e1 71ba ac16 0cbc 90c5 5bbd
000003d0: bb7b 763c 74df 1ebd b034 c43c e680 eebb
000003e0: c57d e73c 3bbf 9d3b 39be 0bbd f78d 5cbd
000003f0: b78e fbbc 3fc8 4ebc 3b35 0abd 9077 57bd

action_model._discrete_distribution.branches.0.weight f4 [3, 256]
0.019254355 0.010886305 0.020561289 0.020281821 0.033828992 0.042883784 -0.015233412 -0.1143595
0.0016723406 -0.00987242 0.06169947 0.03025557 0.00671483 0.052518245 0.031027207 0.019349255
0.013323188 -0.009455372 0.0026448164 0.011066474 0.041300956 -0.053639177 0.056154076 0.043192286
-0.04083353 0.011052044 -0.0073588956 0.04708516 -0.054286066 0.029851275 0.059623323 -0.035585996
-0.03192762 -0.0005473833 0.025618449 -0.05904883 0.016907204 -0.009103802 -0.0603634 0.019826876
0.0034353184 0.057685472 -0.07695469 0.007964597 0.025932457 0.08594984 0.021630736 -0.07405472
0.00837241 0.062346675 -0.07245384 0.009464021 5.661285e-05 -0.032098148 -0.03520443 -0.046980996
-0.025662366 -0.07010565 0.021086466 0.013557665 0.03152979 0.0012639054 0.03377473 -0.080597945
-0.020020032 -0.03614913 0.03807736 -0.02066309 0.0046298453 0.025101185 -0.031744186 -0.008873727
-0.025674375 -0.012790264 0.037725028 0.013874624 0.046022527 0.022805307 0.03282163 0.028718913
-0.059010606 -0.044148274 -0.044683315 0.009595874 -0.030123714 0.05997739 -0.014963764 0.050656576
0.001949518 -0.010341464 -0.007482262 0.032012817 0.051294565 -0.031285174 -0.052032776 -0.073301226
-0.06038617 0.015695928 -0.06338269 0.03462281 0.045435593 -0.01117534 0.03577892 0.07063712
0.003947843 -0.0047412394 0.014856583 0.022800462 0.021877963 -0.025040371 -0.0352318 0.101125285
0.060258966 -0.010588902 0.047913205 0.023039205 -0.08516761 0.08214016 0.0069560194 -0.0015002833
-0.028353032 -0.029307235 -0.015590199 0.074100934 0.065901905 -0.026124131 0.03929525 0.016522042
-0.041258927 -0.05022609 -0.007598691 0.012202135 0.0017520483 0.014099547 0.06800701 0.011327924
-0.017506076 -0.0027911759 -0.007673417 0.04633125 0.018845124 -0.027164275 -0.0019372504 -0.040762916
0.026635671 0.063858695 -0.11468359 0.040009234 0.0008510985 0.05235915 -0.020619426 0.020770885
-0.055888087 0.030425034 0.061448902 0.02437631 -0.06751887 -0.014539254 -0.016503247 -0.038737368
-0.055918347 -0.012316562 -0.00999165 0.021350203 0.0585953 -0.020987527 -0.06264328 0.0141137
-0.020015847 -0.0067402613 -0.0152872605 -0.0074413503 -0.04840759 -0.015746575 0.074141644 -0.013880394
-0.008802975 -0.03105895 0.02916456 0.028777195 0.04746813 0.003217007 0.005823838 0.003806975
0.084462024 -0.018900694 0.044296104 0.037451413 0.02330996 -0.017314147 -0.06519013 8.254763e-05
-0.029545497 0.019446772 -0.08984879 0.05860573 -0.053433325 -0.012153881 0.058879927 -0.029502433
-0.07002924 0.02164901 0.049997423 -0.008809027 -0.030441206 0.04696528 0.00572123 0.055332676
0.004833848 -0.03655264 0.04079392 -0.01663129 -0.05565738 -0.018099358 -0.043444205 -0.09580823
0.03205757 0.03140052 -0.023939835 -0.008926884 -0.029907584 -0.01199087 0.041396335 0.064417735
-0.014928555 0.018558325 0.040422674 -0.02746862 0.03840483 0.04371791 -0.029000761 -0.020243082
0.10118312 -0.008148039 -0.051042654 -0.05715303 -0.060281895 -0.052180797 0.04297707 0.0026423952
-0.08688014 0.04320645 -0.019925991 0.04972679 0.0052029267 -0.06518369 0.050790694 0.0018535223
-0.0037949653 0.058460355 0.03368894 -0.0048494865 0.041047435 -0.048998088 0.022412186 0.008682656
00000000: 4fbb 9d3c 795c 323c 2670 a83c 1026 a63c
00000010: 4590 0a3d e8a6 2f3d 9095 79bc 5035 eabd
00000020: 7032 db3a eebf 21bc 95b8 7c3d 87da f73c
00000030: 1408 dc3b 5f1d 573d c52c fe3c 5482 9e3c
00000040: 8049 5a3c b4ea 1abc a854 2d3b 2850 353c
00000050: 312b 293d c1b4 5bbd d101 663d 65ea 303d
00000060: 0f41 27bd a213 353c e422 f1bb 5edc 403d
00000070: 115b 5ebd a98a f43c 9637 743d 9fc2 11bd
00000080: 89c6 02bd 457e 0fba c8dd d13c 30dd 71bd
00000090: fa80 8a3c 1d28 15bc 9d3f 77bd f96b a23c
000000a0: 1423 613b 9a47 6c3d 6c9a 9dbd f17d 023c
000000b0: 4e70 d43c 7806 b03d f132 b13c 00aa 97bd
000000c0: 6f2c 093c 3a5f 7f3d ae62 94bd fb0e 1b3c
000000d0: 9673 6d38 5979 03bd 8532 10bd 256f 40bd
000000e0: e239 d2bc 8d93 8fbd 86bd ac3c f820 5e3c
000000f0: 6225 013d a1a9 a53a 5f57 0a3d 8910 a5bd
00000100: 0d01 a4bc 1c11 14bd 01f7 1b3d a445 a9bc
00000110: f5b5 973b 00a1 cd3c 3106 02bd 1c63 11bc
00000120: 1153 d2bc 418e 51bc 8f85 1a3d 6452 633c
00000130: 1e82 3c3d 32d2 ba3c f96f 063d ed43 eb3c
00000140: 1bb5 71bd d2d4 34bd da05 37bd 0338 1d3c
00000150: 02c6 f6bc daaa 753d 932a 75bc 457d 4f3d
00000160: f886 ff3a 3e6f 29bc c32d f5bb df1f 033d
00000170: 401a 523d e224 00bd 5220 55bd f41e 96bd
00000180: 7d57 77bd bf94 803c c9ce 81bd a6d0 0d3d
00000190: ac1a 3a3d c618 37bc eb8c 123d 32aa 903d
000001a0: e85c 813b 665c 9bbb 0769 733c 09c8 ba3c
000001b0: 6a39 b33c 7721 cdbc 384f 10bd c61a cf3d
000001c0: 1bd2 763d 137d 2dbc a340 443d b7bc bc3c
000001d0: 5b6c aebd 1a39 a83d 52ef e33b 27a5 c4ba
000001e0: 9e44 e8bc ba15 f0bc 096e 7fbc 3bc2 973d
000001f0: 94f7 863d 4602 d6bc 0ef4 203d 3c59 873c
00000200: 1fff 28bd dfb9 4dbd 71fe f8bb 77eb 473c
00000210: fca4 e53a c901 673c 4247 8b3d c298 393c
00000220: e768 8fbc 29ec 36bb 4a71 fbbb d6c5 3d3d
00000230: 1761 9a3c 9d87 debc 56eb fdba 04f7 26bd
00000240: 0d33 da3c 59c8 823d 3bdf eabd b9e0 233d
00000250: 411c 5f3a 8c76 563d 12ea a8bc b427 aa3c
00000260: e8ea 64bd ec3d f93c d8b1 7b3d d4b0 c73c
00000270: 5547 8abd 0d36 6ebc d131 87bc 13ab 1ebd
00000280: a30a 65bd 68cb 49bc 04b4 23bc 9fe6 ae3c
00000290: a001 703d 09ee abbc 1f4b 80bd 263d 673c
000002a0: 46f8 a3bc 69dd dcbb 6b77 7abc 92d6 f3bb
000002b0: 0947 46bd f6fe 80bc 93d7 973d 986a 63bc
000002c0: 5a3a 10bc 576f febc 84ea ee3c 27be eb3c
000002d0: f16d 423d 6cd4 523b e5d5 be3b 717e 793b
000002e0: 6dfa ac3d a1d5 9abc d56f 353d a766 193d
000002f0: 87f4 be3c 66d6 8dbc 6782 85bd 6c1d ad38
00000300: 6609 f2bc d64e 9f3c a402 b8bd 900c 703d
00000310: e7dc 5abd 1221 47bc 142c 713d 16af f1bc
00000320: 7d6b 8fbd 4459 b13c 19ca 4c3d bd53 10bc
00000330: d65f f9bc aa5e 403d 2879 bb3b 84a4 623d
00000340: 4265 9e3b 39b8 15bd 8717 273d 583e 88bc
00000350: fef8 63bd 1b45 94bc 8df2 31bd 1b37 c4bd
00000360: cc4e 033d d59d 003d 791d c4bc 1142 12bc
00000370: c000 f5bc 5b75 44bc 348f 293d 72ed 833d
00000380: e696 74bc a107 983c 3f92 253d df05 e1bc
00000390: 624e 1d3d 8d11 333d 0193 edbc d2d4 a5bc
000003a0: 1839 cf3d 5a7f 05bc 1a12 51bd 4c19 6abd
000003b0: 26ea 76bd 88bb 55bd b908 303d 092c 2d3b
000003c0: 37ee b1bd 3ff9 303d d53b a3bc 52ae 4b3d
000003d0: 507d aa3b 077f 85bd e709 503d e3f1 f23a
000003e0: f4b4 78bb 2074 6f3d 6afd 093d 71e8 9ebb
000003f0: 5b21 283d 38b2 48bd c399 b73c b341 0e3c

action_model._discrete_distribution.branches.0.bias f4 [3]
0.036364865 0.048124135 -0.08877232
00000000: 53f3 143d d01d 453d 43ce b5bd

action_model._discrete_distribution.branches.1.weight f4 [3, 256]
0.023261799 0.016916715 -0.026501676 0.031403434 0.022870773 -0.0710203 -0.0130726425 3.7109952e-05
0.07954297 0.09296771 -0.05970506 -0.038189188 -0.12539293 0.013526731 0.014563458 0.035965748
-0.06525858 -0.022761986 -0.041510917 0.039307404 -0.029766653 0.028664757 -0.04691582 0.011811597
-0.022025999 0.007973281 0.013658853 0.044028174 0.021285292 0.056210004 -0.13704701 0.036321267
-0.010437472 0.07456014 0.04408833 -0.03225146 0.044795807 -0.010891752 -0.057354555 -0.05071173
-0.008435702 0.041412465 -0.16617745 -0.038386296 0.12512177 0.07852054 -0.049412005 -0.026455872
0.08955378 -0.020312142 0.0022957914 -0.024319677 0.013792232 0.046403017 -0.07427593 0.051976684
0.045151748 -0.009537269 -0.06972215 0.0154825635 0.007594036 -0.013895706 0.046591662 0.04574276
-0.048963863 0.048112694 -0.034740664 0.03388795 -0.015606115 0.006706969 -0.034060445 0.04725392
-0.037000906 0.058341436 -0.07250605 0.020230267 0.006898912 -0.14602928 -0.10371417 -0.0008726459
0.024139304 -0.013051092 -0.002262286 -0.054441206 -0.07983384 -0.030958245 -0.033473972 0.021750908
-0.017604847 -0.082518324 -0.046857804 0.07126259 -0.033209864 0.05193065 0.033258524 -0.06700644
0.009543644 -0.033134874 -0.033724304 -0.006395007 -0.09199135 -0.07089716 -0.009518191 0.052198846
-0.03525646 0.03673683 -0.041850273 -0.0733176 0.0024622672 0.05437185 0.052960567 -0.0052688853
-0.04428511 0.018086392 -0.020491255 0.034613602 -0.01655212 -0.0029240425 0.01617115 -0.04600824
0.023807498 -0.017771592 -0.011984202 0.003304743 0.021081872 0.055300675 -0.09336897 0.02048418
0.00653974 -0.0025811673 -0.021683827 -0.118079096 -0.008167362 -0.03299469 0.0897631 0.031403758
-0.04288327 -0.0039982 -0.019068973 -0.06897216 -0.0649399 0.04692008 -0.057818078 -0.13551743
-0.046963576 0.11372509 -0.015355773 -0.10112747 0.030975996 0.0057108216 -0.021109791 0.05718988
0.047019787 0.07820016 0.03942737 -0.076423585 0.07828355 -0.042420495 -0.10859083 -0.10702313
0.06438129 0.044556174 -0.08708165 0.034830466 0.0726062 0.027556183 -3.3179385e-05 0.046257034
-0.045200586 0.0371148 0.059739605 -0.00024066161 0.001212393 -0.03165684 -0.085031174 -0.007165193
0.050690938 0.07523993 -0.03140387 -0.027865656 0.018689193 0.0358552 -0.11188891 0.05196291
-0.06566799 0.01241665 -0.10679249 -0.016429713 0.042760093 0.009684398 0.076904185 -0.051453337
-0.019730687 -0.026147582 0.10322355 -0.03144409 -0.041036036 0.0052580824 -0.007293192 0.04423766
0.06476554 0.021382283 0.06457119 -0.0029026105 0.06611828 0.100754425 0.0026175694 0.035140976
0.030707289 0.056206137 0.02952724 0.02585891 0.0034747822 0.006389552 -0.029927192 0.10994143
-0.010662393 0.041865002 0.16767734 0.01768412 -0.027949635 -0.03273575 0.018036604 0.05691724
-0.05758611 -0.013466178 -0.089793205 -0.051092252 -0.024671273 0.03723518 0.061846074 -0.011404569
0.05435588 0.055369746 0.048919454 0.047815558 -0.023760254 0.070151806 0.18581939 -0.03719255
0.06607069 -0.02805145 0.06572269 -0.11305536 0.0038977468 0.035413764 -0.017617363 -0.13080232
0.12942721 -0.097117424 -0.016403742 0.028500242 0.05145395 -0.030184893 0.061759632 -0.04943514
00000000: 878f be3c ec94 8a3c 0b1a d9bc e3a0 003d
00000010: 7d5b bb3c 1773 91bd a32e 56bc 82a6 1b38
00000020: 6de7 a23d db65 be3d 4b8d 74bd 446c 1cbd
00000030: 0167 00be 399f 5d3c 929b 6e3c d250 133d
00000040: 4aa6 85bd 5877 babc 5a07 2abd cd00 213d
00000050: 32d9 f3bc 5ad2 ea3c ce2a 40bd 6e85 413c
00000060: de6f b4bc 5da2 023c 62c9 5f3c e356 343d
00000070: 7e5e ae3c 763c 663d 0d56 0cbe 9cc5 143d
00000080: ee01 2bbc fdb2 983d f795 343d 1b1a 04bd
00000090: cf7b 373d 5273 32bc 9cec 6abd 1ab7 4fbd
000000a0: e635 0abc 1ea0 293d 6c2a 2abe f33a 1dbd
000000b0: ec1f 003e 60cf a03d 3e64 4abd fcb9 d8bc
000000c0: f967 b73d a665 a6bc fd74 163b 0f3a c7bc
000000d0: d0f8 613c 1711 3e3d fb1d 98bd 81e5 543d
000000e0: 0af1 383d 3542 1cbc 7dca 8ebd 94aa 7d3c
000000f0: 64d7 f83b d1aa 63bc e6d6 3e3d c35c 3b3d
00000100: 558e 48bd d111 453d 3a4c 0ebd 17ce 0a3d
00000110: cab0 7fbc 22c6 db3b f782 0bbd 548d 413d
00000120: 438e 17bd 6ef7 6e3d 0d7e 94bd f2b9 a53c
00000130: 4510 e23b b388 15be 1868 d4bd 46c2 64ba
00000140: cabf c53c 3fd4 55bc dc42 14bb befd 5ebd
00000150: ed7f a3bd 259c fdbc 011c 09bd f62e b23c
00000160: 0a38 90bc 5eff a8bd f8ed 3fbd 1ff2 913d
00000170: 1107 08bd 3cb5 543d 173a 083d ac3a 89bd
00000180: f25c 1c3c 6fb8 07bd 7f22 0abd 358d d1bb
00000190: f665 bcbd 8832 91bd 30f2 1bbc 75ce 553d
000001a0: 1469 10bd 5c79 163d 316b 2bbd 8a27 96bd
000001b0: fd5d 213b 04b5 5e3d 2eed 583d 9da6 acbb
000001c0: 4e64 35bd ea29 943c 47dd a7bc fec6 0d3d
000001d0: 5098 87bc 4ba1 3fbb 5c79 843c 2373 3cbd
000001e0: f107 c33c bb95 91bc 6359 44bc 6394 583b
000001f0: e4b3 ac3c f682 623d 3b38 bfbd 70ce a73c
00000200: 514b d63b cd28 29bb 48a2 b1bc 74d3 f1bd
00000210: 66d0 05bc 7125 07bd b7d5 b73d 3aa1 003d
00000220: 5ea6 2fbd 5503 83bb 8936 9cbc 4741 8dbd
00000230: 36ff 84bd 452f 403d a6d2 6cbd 15c5 0abe
00000240: e15c 40bd b3e8 e83d c896 7bbc eb1b cfbd
00000250: 5fc1 fd3c d821 bb3b 71ee acbc f03f 6a3d
00000260: d297 403d 6827 a03d 987e 213d f883 9cbd
00000270: 2053 a03d 1dc1 2dbd de64 debd f12e dbbd
00000280: 56da 833d 8980 363d dd57 b2bd 64aa 0e3d
00000290: 8fb2 943d 81bd e13c 182a 0bb8 0478 3d3d
000002a0: 4024 39bd b005 183d 84b1 743d 1c5a 7cb9
000002b0: 29e9 9e3a 9aaa 01bd d324 aebd ffc9 eabb
000002c0: 4da1 4f3d 6417 9a3d 58a1 00bd 8446 e4bc
000002d0: 141a 993c e7dc 123d 0326 e5bd 0fd7 543d
000002e0: f07c 86bd 346f 4b3c 05b6 dabd 9b97 86bc
000002f0: 3525 2f3d 4fab 1e3c f17f 9d3d bcc0 52bd
00000300: 40a2 a1bc 7433 d6bc de66 d33d 85cb 00bd
00000310: 6715 28bd fe4b ac3b bbfb eebb 8c32 353d
00000320: cca3 843d e629 af3c e63d 843d b939 3ebb
00000330: 0569 873d 5658 ce3d 878b 2b3b fcef 0f3d
00000340: da8d fb3c 6838 663d 1ce3 f13c 11d6 d33c
00000350: 2cb9 633b 725f d13b df29 f5bc f928 e13d
00000360: 51b1 2ebc a37a 2b3d 9cb3 2b3e 4ade 903c
00000370: a2f6 e4bc ec15 06bd 80c1 933c 0d22 693d
00000380: 6adf 6bbd 3fa1 5cbc 80e5 b7bd 1c46 51bd
00000390: 691b cabc eb83 183d 4f52 7d3d 3bda 3abc
000003a0: 45a4 5e3d 63cb 623d c45f 483d 3fda 433d
000003b0: dda4 c2bc c0ab 8f3d 7047 3e3e 3757 18bd
000003c0: 1250 873d 28cc e5bc 9e99 863d 9289 e7bd
000003d0: 5771 7f3b 060e 113d 4a52 90bc 0bf1 05be
000003e0: 9188 043e 80e5 c6bd 2461 86bc 5779 e93c
000003f0: 61c1 523d 4f46 f7bc abf7 7c3d 807c 4abd

action_model._discrete_distribution.branches.1.bias f4 [3]
0.0036849119 -0.03695003 0.030136285
00000000: 907e 713b ea58 17bd 5fe0 f63c

action_model._discrete_distribution.branches.2.weight f4 [3, 256]
0.008514859 0.07452533 0.009354102 -0.046416678 0.08488336 0.056389026 0.0023787483 0.05261932
-0.08621858 -0.022412619 -0.0638904 0.027823525 0.036703356 -0.009279848 0.009131246 0.071343355
-0.021055669 -0.04227405 0.018583123 -0.057595357 0.07495641 0.16637103 -0.12067572 -0.10140714
0.016807288 -0.063181624 0.044428285 -0.043480262 0.0043992097 0.075640775 -0.1730192 -0.08285039
0.059180405 0.016093563 0.0098576965 0.05717583 -0.03411207 -0.039017472 -0.037714746 -0.08966851
0.024234265 -0.09997182 0.025475215 0.026266757 0.032592688 -0.024827724 -0.060186084 0.11665215
0.00611994 -0.011970351 -0.040091816 0.10379237 -0.07339626 0.0034493722 0.1503565 0.041227844
0.11739334 0.07052334 -0.103791445 -0.09696994 -0.039635066 0.07011325 -0.021878224 -0.09347319
0.055485312 -0.013958964 -0.03166318 0.083270416 -0.049939174 0.022225592 0.069369644 0.017135587
-0.006504136 0.021979412 -0.10207381 0.010759122 -0.13464585 -0.17210735 -0.046512287 0.071732245
0.022070048 0.031528465 0.047605336 -0.030033093 0.00021329983 -0.027140608 0.05492434 -0.042611964
0.051001236 -0.006604343 0.035677902 -0.0228851 0.07642242 0.09473987 0.12359122 0.02181967
0.14377189 -0.021244641 0.034879573 -0.044842675 -0.15859161 0.04331326 0.03368584 -0.0085096955
0.09217566 0.001788762 -0.04767724 0.1267648 0.001866618 0.0339778 -0.061159886 -0.09839713
0.11508036 -0.06618324 -0.01573223 -0.071126774 0.015343115 -0.12415129 -0.06920878 0.064640045
0.045141127 -0.048813038 0.03632726 -0.02550046 -0.097088896 -0.045998596 -0.09053058 -0.03113138
0.047989015 0.097169906 0.018345388 0.105245695 -0.06933282 0.06551895 0.011561167 0.0013614456
-0.009415071 0.033026215 0.011933609 -0.07547218 0.0032249147 0.06395783 -0.025396293 0.12030863
-0.12766454 -0.009703007 0.2639135 -0.048393633 0.065956436 -0.063779354 -0.045648206 -0.015197172
0.12179548 -0.0790534 0.06301813 0.044005506 0.021431291 -0.16993588 0.07374406 -0.033568166
-0.034992415 0.0822623 -0.03514391 0.021056896 0.029435981 0.114532985 0.00013480069 -0.06439098
-0.0004360043 -0.011449248 -0.011668057 0.0007528611 -0.021416727 -0.010479833 -0.058282763 0.12155237
-0.034100607 -0.09600119 -0.072439164 -0.06935174 0.016289873 0.07580657 0.03150341 0.061693877
-0.0071137547 -0.105428085 0.08881308 -0.024754949 -0.017828802 0.08531935 0.03534125 -0.11223419
-0.016036868 -0.017062496 -0.040495783 0.09539755 -0.011536671 0.03464117 -0.02852001 0.1099654
-0.0057807923 -0.10873047 -0.086184725 0.019357204 -0.06708294 0.011458861 -0.009313607 0.022527738
-0.013807425 0.015362507 0.06867417 0.07963042 -0.08362802 -0.004733415 -0.03677365 0.064683735
-0.037481863 0.022823287 0.06629532 0.09748392 0.010331179 -0.09002231 0.033368926 -0.03465308
-0.015451788 0.037983615 0.014361987 0.023924459 -0.019258406 -0.029167686 0.14573261 -0.1149121
-0.059687205 -0.010208928 0.01588405 0.14360325 0.10670045 0.09663409 -0.020084353 -0.11462891
0.06783878 -0.12924892 0.017793821 -0.083238535 0.057275157 0.07878914 -0.038711425 -0.07422208
0.01734582 0.00014493165 0.014800759 -0.051475406 -0.050924163 0.012959341 -0.00786891 -0.09859307
00000000: e881 0b3c bca0 983d f341 193c 6a1f 3ebd
00000010: 54d7 ad3d 2ef8 663d c6e4 1b3b 5b87 573d
00000020: 5e93 b0bd ab9a b7bc f8d8 82bd 29ee e33c
00000030: 4256 163d 810a 18bc 399b 153c 771c 923d
00000040: f07c acbc 8e27 2dbd a23b 983c 1ce9 6bbd
00000050: bf82 993d 2b5d 2a3e d524 f7bd 8cae cfbd
00000060: 70af 893c 5e65 81bd 6ffa 353d 5c18 32bd
00000070: 3f27 903b 8de9 9a3d f22b 31be 77ad a9bd
00000080: 2767 723d a6d6 833c 2d82 213c 3431 6a3d
00000090: 19b9 0bbd c9d0 1fbd c77a 1abd 20a4 b7bd
000000a0: f086 c63c 07be ccbd 66b1 d03c 622d d73c
000000b0: e97f 053d 8363 cbbc af85 76bd 53e7 ee3d
000000c0: c789 c83b 4b1f 44bc 5137 24bd 1891 d43d
000000d0: c750 96bd dd0e 623b 0ef7 193e 87de 283d
000000e0: eb6b f03d 8a6e 903d 9c90 d4bd 2d98 c6bd
000000f0: 6158 22bd 8997 8f3d f639 b3bc df6e bfbd
00000100: 9144 633d 23b4 64bc 40b1 01bd ae89 aa3d
00000110: 058d 4cbd 7212 b63c ac11 8e3d ee5f 8c3c
00000120: a620 d5bb 2b0e b43c 130c d1bd 0747 303c
00000130: 9ae0 09be e93c 30be ab83 3ebd 5be8 923d
00000140: 3fcc b43c fe23 013d d0fd 423d f607 f6bc
00000150: 3da9 5f39 fb55 debc 58f8 603d e289 2ebd
00000160: ace6 503d 3f69 d8bb fe22 123d 8979 bbbc
00000170: 5c83 9c3d fa06 c23d 651d fd3d 2abf b23c
00000180: f038 133e 3e09 aebc e2dd 0e3d f4ac 37bd
00000190: d765 22be 3f69 313d 2afa 093d 406c 0bbc
000001a0: 98c6 bc3d e574 ea3a 3649 43bd a2ce 013e
000001b0: 4fa9 f43a 4e2c 0b3d ca82 7abd 6f84 c9bd
000001c0: 40af eb3d 148b 87bd e1e0 80bc eaaa 91bd
000001d0: b061 7b3c 0843 febd 55bd 8dbd 0062 843d
000001e0: e7e5 383d 2ef0 47bd e5cb 143d 57e6 d0bc
000001f0: 8bd6 c6bd 0669 3cbd 1968 b9bd 3c07 ffbc
00000200: 2190 443d 0401 c73d 1149 963c 0e8b d73d
00000210: 5efe 8dbd cd2e 863d 0d6b 3d3c 8972 b23a
00000220: ac41 1abc 7f46 073d 2f85 433c 2991 9abd
00000230: 1759 533b 53fc 823d e30b d0bc 5f64 f63d
00000240: 7eba 02be 5cf9 1ebc ac1f 873e 6738 46bd
00000250: 2b14 873d c09e 82bd 9df9 3abd 8ffd 78bc
00000260: e96f f93d c0e6 a1bd a60f 813d 1e3f 343d
00000270: ad90 af3c ac03 2ebe 2007 973d c67e 09bd
00000280: 3554 0fbd 2379 a83d 10f3 0fbd 837f ac3c
00000290: ba23 f13c 4590 ea3d 4959 0d39 6bdf 83bd
000002a0: 8297 e4b9 a095 3bbc 612b 3fbc a75b 453a
000002b0: 2272 afbc 9bb3 2bbc e8b9 6ebd 73f0 f83d
000002c0: 14ad 0bbd 469c c4bd fc5a 94bd 4908 8ebd
000002d0: 5772 853c 7a40 9b3d b809 013d b8b2 7c3d
000002e0: 801a e9bb aeea d7bd a2e3 b53d e4ca cabc
000002f0: b50d 92bc e9bb ae3d fdc1 103d 0adb e5bd
00000300: c05f 83bc a6c6 8bbc e8de 25bd ca5f c33d
00000310: 4e04 3dbc e6e3 0d3d cca2 e9bc 8a35 e13d
00000320: cd6c bdbb 15ae debd 9e81 b0bd 0093 9e3c
00000330: c862 89bd f2bd 3b3c 1998 18bc 178c b83c
00000340: 8a38 62bc 06b3 7b3c 0ba5 8c3d 4615 a33d
00000350: 2b45 abbd c31a 9bbb f89f 16bd e878 843d
00000360: 9586 19bd e7f7 ba3c d7c5 873d a6a5 c73d
00000370: 1b44 293c 9e5d b8bd dbad 083d 63f0 0dbd
00000380: 7f29 7dbc b594 1b3d 8a4e 6b3c 3afd c33c
00000390: cec3 9dbc 12f1 eebc ee3a 153e 0957 ebbd
000003a0: 927a 74bd 5943 27bc 441f 823c bb0c 133e
000003b0: c485 da3d 18e8 c53d f187 a4bc 90c2 eabd
000003c0: 0fef 8a3d d459 04be 59c4 913c f778 aabd
000003d0: 5b99 6a3d 335c a13d df8f 1ebd bf01 98bd
000003e0: d218 8e3c cbf8 1739 e27e 723c e0d7 52bd
000003f0: db95 50bd 6a53 543c 9aec 00bc 2aeb c9bd

action_model._discrete_distribution.branches.2.bias f4 [3]
-0.028770253 0.035408545 0.00339234
00000000: 98af ebbc 8d08 113d 0552 5e3b
