Project/Assets/ML-Agents/Examples/Basic/TFModels/Basic.onnx (onnx, 4378 bytes, 4 tensors)

network_body._body_endoder.seq_layers.0.weight f4 [20, 20]
0	0x3e066f81	0.13128473
1	0xbed425c7	-0.41435072
2	0xbee7fc38	-0.45309615
3	0x3ed394a8	0.41324353
4	0xbe27b9bf	-0.1637945
5	0xbe19dc87	-0.15025531
6	0x3e39c790	0.18142533
7	0xbe43f96b	-0.19138114
8	0x3de4bb50	0.111685395
9	0x3e4bdd90	0.19908738
10	0xbf1a54bc	-0.60285544
11	0xbe9d617c	-0.30738437
12	0xbd78da9c	-0.060755357
13	0xbe151bd8	-0.14561403
14	0xbf015007	-0.5051274
15	0x3b38001b	0.0028076235
16	0xbf142a09	-0.5787664
17	0xbeec5c13	-0.46163997
18	0x3e5f09a8	0.21781027
19	0xbdecce35	-0.11562768
20	0x3e922445	0.28543296
21	0x3dfdca53	0.12392106
22	0x3eda1cc4	0.4260007
23	0xbf1026ca	-0.5630919
24	0xbd8f3683	-0.06992819
25	0xbdd4df9b	-0.10394212
26	0x3d6d6ded	0.05796616
27	0xbefacbe2	-0.48983675
28	0x3eb8d849	0.36102512
29	0xbba0db4f	-0.004908956
30	0xbdfbd374	-0.12296191
31	0x3dd15116	0.10220544
32	0xbf218e82	-0.63108075
33	0xbf0dd1f4	-0.5539849
34	0xbe094029	-0.13403381
35	0xbf95e926	-1.1711776
36	0xbe902b95	-0.2815825
37	0xbc53ff99	-0.012939357
38	0xbd067317	-0.032824602
39	0x3e1349c0	0.14383602
40	0x3e960118	0.2929771
41	0x3df97a56	0.12181537
42	0x3e754687	0.23952685
43	0x3ec60779	0.38677576
44	0xbe893a95	-0.26802507
45	0xbec25942	-0.37958723
46	0x3dacfab0	0.08446252
47	0xbe181350	-0.14851117
48	0x3eb1cf2a	0.34728366
49	0xbcdcc259	-0.026948141
50	0xbeb9be30	-0.36277914
51	0x3e2552d2	0.16144875
52	0x3e1830cf	0.14862369
53	0xbeff5ee3	-0.4987708
54	0xbe13838c	-0.1440565
55	0x3d2eb4a1	0.04265273
56	0xbf5bbc1b	-0.858339
57	0x3e977e71	0.29588655
58	0x3de2b527	0.11069708
59	0x3ddbe281	0.107365616
60	0x3e077e76	0.13231835
61	0x3e900521	0.28128913
62	0x3e91d571	0.28483155
63	0xbef34273	-0.47511634
64	0xbccf5781	-0.02531028
65	0x3bced229	0.006311674
66	0xbd92fbff	-0.07176971
67	0x3dcb3063	0.099213384
68	0xbd7f8491	-0.062382285
69	0xbf1b4efa	-0.60667384
70	0x3e6cfa11	0.23142268
71	0x3f540928	0.8282647
72	0x3efefa1c	0.49800193
73	0x3d3939ad	0.04522102
74	0x3dce5e98	0.10076636
75	0x3df41c3c	0.11919448
76	0x3e8cd2bf	0.27504537
77	0xbee0d6bb	-0.43913826
78	0x3d686491	0.056736533
79	0x3e094e07	0.13408671
80	0xbeb000b1	-0.34375528
81	0xbdcbe34e	-0.09955464
82	0x3d4ad98c	0.049523875
83	0x3bfedbcd	0.007777667
84	0x3eb392bf	0.35072896
85	0xbe48ff7c	-0.1962871
86	0x3d1b8a75	0.03797384
87	0xbe6da994	-0.2320922
88	0x3eb177f1	0.3466182
89	0xbe0b09a3	-0.13577895
90	0xbedd9a5f	-0.43281838
91	0xbef1e37f	-0.47243878
92	0xbef57294	-0.4793898
93	0xbe3c76cd	-0.18404694
94	0xbecefd6a	-0.40427715
95	0xbe5a5297	-0.21320568
96	0xbed5539c	-0.4166535
97	0x3dc747ef	0.09730517
98	0xbdcdf3c4	-0.1005626
99	0x3df59324	0.119909555
100	0x3e02df87	0.12780581
101	0xbd240fc4	-0.040054098
102	0xbc262f0a	-0.010143051
103	0xbe8b8ff0	-0.27258253
104	0x3e4b0492	0.19825962
105	0x3ca4ced4	0.020118155
106	0x3e0076bd	0.12545295
107	0x3eb018f8	0.3439405
108	0xbbdffc35	-0.0068354853
109	0x3dcf8fa0	0.10134816
110	0x3e7cabbb	0.24674885
111	0x3d82d650	0.06388533
112	0xbe96bda9	-0.29441574
113	0xbf245d05	-0.64204437
114	0xbde58129	-0.11206276
115	0x3d91ebce	0.07125054
116	0xbe487cb9	-0.19578828
117	0xbe6eb6f8	-0.23311985
118	0xbeb62a4d	-0.35579148
119	0xbe73589c	-0.2376427
120	0x3d767c02	0.060176857
121	0xbc607056	-0.013698658
122	0x3f0ff9ca	0.5624052
123	0x3ec39675	0.38200727
124	0xbcf65849	-0.030071395
125	0x3da6528d	0.08121214
126	0x3f1946e7	0.59873813
127	0x3d92340a	0.07138832
128	0xbd127819	-0.035759065
129	0x3ebf7ddc	0.3740071
130	0xbd8f9c65	-0.07012252
131	0xbf0a0ee2	-0.5392896
132	0xbec49613	-0.38395748
133	0x3b0224ca	0.0019858354
134	0xbf1f640d	-0.6226204
135	0x3dd791ca	0.10525854
136	0xbee628c5	-0.4495298
137	0xbd7fcbf1	-0.062450353
138	0xbd977fc1	-0.07397414
139	0xbe86b3ce	-0.26309055
140	0xbde462f9	-0.1115169
141	0x3dcb7574	0.09934512
142	0x3b6bf0bf	0.003600165
143	0x3d75d879	0.060020898
144	0x3d8dbf87	0.069212966
145	0x3d581623	0.052755486
146	0x3da3c9f6	0.07997505
147	0x3e996803	0.29962167
148	0x3e4b01b4	0.19824868
149	0x3e2cf889	0.16891684
150	0xbef2a82e	-0.47393936
151	0xbf04f2d1	-0.5193301
152	0xbe2c8f8e	-0.16851637
153	0xbeb39a7a	-0.35078794
154	0xbe962f5f	-0.29333016
155	0xbcc22f22	-0.023704115
156	0xbebe4d19	-0.37168196
157	0xbc8ab90b	-0.016933938
158	0xbee60be9	-0.44930962
159	0x3e4bd1a3	0.19904189
160	0x3dc6f7ac	0.097152084
161	0x3cca01dd	0.024659092
162	0x3e567d63	0.20946269
163	0x3e7672ec	0.24067277
164	0x3d6d23f0	0.0578956
165	0x3d93b70d	0.072126485
166	0x3d2f6e5c	0.042829856
167	0x3ce027d7	0.027362747
168	0x3eeea3aa	0.4660924
169	0x3e81d2fb	0.25356278
170	0xbee68442	-0.4502278
171	0xbf0b1ed6	-0.54343927
172	0xbe9cbc0d	-0.3061222
173	0xbe617c1e	-0.22020003
174	0xbefb9b68	-0.49142003
175	0x3e82e062	0.25561816
176	0xbea4569d	-0.3209733
177	0xbe19262f	-0.14955972
178	0x3e2b956c	0.16756219
179	0xbc64e92a	-0.013971606
180	0x3d742bd9	0.05961213
181	0xbd2dbff9	-0.042419408
182	0xbcca17b0	-0.024669498
183	0xbe26fe27	-0.16307889
184	0x3e8cae4b	0.27476725
185	0xbe589426	-0.21150264
186	0xbe9933c5	-0.2992231
187	0xbe89e318	-0.2693107
188	0x3c971182	0.018440966
189	0xbe0cd6b2	-0.13753775
190	0x3f2eddff	0.6830749
191	0x3e718937	0.235875
192	0x3e99a4b4	0.3000847
193	0x3ed395c7	0.4132521
194	0x3f294d77	0.66133827
195	0xbe4f3cb8	-0.20238006
196	0x3f264805	0.64953643
197	0x3cd83647	0.026393069
198	0xbe29822f	-0.16553567
199	0x3e38ae8e	0.18035337
200	0xbeb6c035	-0.35693517
201	0x3f068f3a	0.52562296
202	0x3dc97244	0.098362476
203	0xbea7d3af	-0.3277869
204	0x3e8d845b	0.27640042
205	0x3d6963bc	0.05697988
206	0xbe97449a	-0.29544526
207	0xbdc2b0c8	-0.095063746
208	0xbe275ff9	-0.16345204
209	0x3dad11bc	0.08450648
210	0x3e1b1257	0.15143715
211	0x3ee4e08b	0.44702563
212	0x3ecade24	0.39622605
213	0x3e89009f	0.26758286
214	0x3f4d82f5	0.8027795
215	0x3d12d5d0	0.03584844
216	0x3ecb8a37	0.39753887
217	0xbc6115da	-0.01373812
218	0xbd7529cd	-0.059854317
219	0xbe1e1920	-0.15439272
220	0x3ccfe866	0.02537937
221	0x3e6389a3	0.22220473
222	0xbbe7bc7a	-0.0070720287
223	0x3e18cfbe	0.14922997
224	0xbe06e7a9	-0.13174309
225	0x3e9c8825	0.3057262
226	0x3e184c37	0.14872824
227	0x3c282c5f	0.010264485
228	0x3e44a11a	0.1920208
229	0xbe84f05f	-0.2596464
230	0xbe2e0deb	-0.16997497
231	0xbdf3ee14	-0.11910644
232	0xbf2a8cfc	-0.66621375
233	0xbc200624	-0.009767089
234	0xbe4326a0	-0.19057703
235	0x3d3210d1	0.04347307
236	0xbedd9b26	-0.4328243
237	0xbe3861f4	-0.18006116
238	0x3e810023	0.25195417
239	0xbe84a96b	-0.25910506
240	0xbde2b079	-0.11068816
241	0x3daa3c03	0.083122276
242	0xbe544158	-0.20728052
243	0xbd91015d	-0.07080338
244	0xbda5d25e	-0.08096765
245	0xbe3c446f	-0.1838548
246	0x3db43acd	0.08800278
247	0xbc60b837	-0.013715795
248	0x3e7c84d4	0.24660045
249	0xbf4bf7bb	-0.7967488
250	0xbe77370d	-0.24142094
251	0xbe847247	-0.25868437
252	0xbf151434	-0.5823395
253	0xbea9e883	-0.33185205
254	0xbf429f1d	-0.7602404
255	0x3e8c971a	0.2745903

network_body._body_endoder.seq_layers.0.bias f4 [20]
0	0xbf227f6c	-0.6347568
1	0xbf14bc15	-0.5809949
2	0xbf28c1e4	-0.65920854
3	0x3f55deaa	0.83542883
4	0xbf204c06	-0.62616
5	0xbf1d6715	-0.61485416
6	0xbf3250c5	-0.69654495
7	0xbf288109	-0.6582189
8	0xbf2c5dbf	-0.67330545
9	0x3f5189a0	0.81850624
10	0x3f3e82d9	0.7441841
11	0xbf2f215e	-0.6841029
12	0xbf0d0b87	-0.55095714
13	0x3f4bcad0	0.7960634
14	0x3f4e1b7c	0.8051069
15	0xbf2289ae	-0.6349133
16	0xbf1fc6da	-0.624128
17	0x3f557826	0.83386457
18	0x3f420e3d	0.75802976
19	0x3f4dac78	0.8034129

action_model._discrete_distribution.branches.0.weight f4 [3, 20]
0	0x3e95eb20	0.2928095
1	0x3e26896b	0.16263358
2	0x3e431f89	0.19054998
3	0xbe88f608	-0.26750207
4	0x3e7b4752	0.24538925
5	0x3cd1be3e	0.02560341
6	0x3e8eb2d5	0.27870813
7	0x3e8eb0fb	0.278694
8	0x3e9943f4	0.29934657
9	0xbed23806	-0.41058367
10	0xbeaafbff	-0.33395383
11	0x3e6cf27c	0.23139375
12	0x3e65d3b6	0.22444043
13	0xbe81fa54	-0.25386298
14	0xbeb1ea3a	-0.34749013
15	0x3e893612	0.26799065
16	0x3e8a5c5d	0.27023593
17	0xbea00d26	-0.3126003
18	0xbe70b6b7	-0.235072
19	0xbeb5f218	-0.35536265
20	0x3eeed138	0.46643996
21	0x3ed6bbec	0.41940248
22	0x3ecb6500	0.39725494
23	0xbef5ae53	-0.4798456
24	0x3f043a85	0.51651794
25	0x3e9f9ea2	0.31175715
26	0x3ee1f60f	0.4413304
27	0x3efb0074	0.49023783
28	0x3ee0cebc	0.43907726
29	0xbef08bd9	-0.46981695
30	0xbf02ed5f	-0.5114345
31	0x3ef3b9a9	0.47602585
32	0x3edae261	0.42750838
33	0xbf03a3e1	-0.51421934
34	0xbf079e24	-0.5297568
35	0x3ecf9507	0.40543386
36	0x3f035851	0.51306635
37	0xbf017a42	-0.50577176
38	0xbf030274	-0.5117562
39	0xbf002deb	-0.50070065
40	0xbf28306a	-0.65698874
41	0xbf119387	-0.56865734
42	0xbf0b9930	-0.5453062
43	0x3f21af96	0.6315855
44	0xbf3538b5	-0.70789653
45	0xbecb7b48	-0.39742494
46	0xbf128f99	-0.5725036
47	0xbf279522	-0.65461934
48	0xbf2a9b01	-0.6664277
49	0x3f3309f3	0.69937056
50	0x3f293570	0.66097164
51	0xbf1ca146	-0.61183584
52	0xbeffe7f2	-0.49981648
53	0x3f28fd6d	0.660117
54	0x3f3d2746	0.7388805
55	0xbf1dc221	-0.6162434
56	0xbf207463	-0.6267759
57	0x3f30b907	0.6903233
58	0x3f196a59	0.599279
59	0x3f2ff782	0.6873704

action_model._discrete_distribution.branches.0.bias f4 [3]
0	0xbe7fb5fd	-0.24971767
1	0xbed32f73	-0.41247138
2	0x3f11597e	0.5677718
