com.unity.ml-agents.tests/Tests/Editor/TestModels/discrete1vis0vec_2_3action_v1_0.onnx (onnx, 201108 bytes, 14 tensors)

action_model._distributions.0.branches.0.bias f4 [2]
0.0 0.0
00000000: 0000 0000 0000 0000

action_model._distributions.0.branches.0.weight f4 [2, 128]
-0.0013813854 0.024082672 0.01057048 -0.0021535975 -0.01799187 0.026238943 0.015118784 -0.008093301
0.010436339 0.0046291384 0.018692976 0.005477712 0.018357955 -0.02993219 -0.007952935 0.037238788
-0.016659198 -0.012642461 -0.011104439 -0.0028161113 0.0011068449 -0.0030391293 -0.0144763235 -0.008324651
-0.014924369 -0.0075672693 0.013592395 -0.005584041 -0.00057066866 0.00087152765 0.0051535307 0.019299662
-0.01017952 -7.304789e-05 0.01136955 0.005154149 -0.0010059492 -0.0076232986 -0.011203474 -0.005322873
0.004628112 0.0095400065 -0.00063220086 0.0051380876 -0.0061307666 -0.010213204 0.018778358 0.0044238023
0.00786991 -0.005674713 0.020712813 0.022683261 -0.010704335 0.013085507 -0.0038487245 0.009668074
-0.004704024 -0.02133139 -0.008901586 0.009610045 -0.0109296655 -0.014284111 -0.02136877 -0.011293886
0.022702053 -0.0066097416 -0.008333842 -0.0047071255 -0.013053738 0.0074791946 -0.0018693696 -0.013780065
0.01117979 -0.008147574 0.011983473 -0.0025233706 -0.0032562313 -0.015032676 -0.01585023 0.01995168
-0.00074481353 -0.020301258 -0.040742308 -0.01556158 0.017924925 0.00045209037 -0.018163173 -0.0019293175
-0.0023820412 0.018206023 -0.020112954 -0.008845629 -0.010860401 -0.011023652 -0.008625556 0.0010051702
-0.0019746923 -0.016019342 0.015549284 0.01185784 0.002789133 0.0020195234 0.0067341262 0.010839864
-0.009887154 0.021073489 -0.029905355 -0.00065267674 -0.018016556 0.006305241 0.009818972 0.033700075
-0.023254786 0.008816953 0.026178984 -0.017627737 0.0063434537 0.0087963 -0.008975891 0.007866404
0.0059605683 -0.03492045 0.01418247 -0.003012276 0.002570363 0.013674331 -0.03621174 -0.0019618436
0.009380172 -0.0068540634 -0.00038760944 -0.010601402 0.016475527 0.012123212 -0.014177001 -0.00011450636
-0.0075129094 -0.009514855 0.008679911 -0.0059133037 -0.0002995613 0.00479512 -0.010408678 0.012401771
-0.015701158 0.012024567 0.0027334576 0.011456252 0.011398931 0.005101868 0.0051847505 -0.006753453
-0.004132862 -0.0032482443 -0.014108866 -0.003112478 0.016190909 0.012388746 0.02284949 0.013251232
0.016480388 0.0058480077 0.0039108256 -0.023297295 -0.011007164 -0.012084524 -0.0031051273 0.009523016
0.00037248933 0.0057384274 -0.02240561 0.005266877 0.0027351077 -0.0016364688 0.011159444 -0.004432346
-0.003857402 0.011947043 -0.016089365 -0.009576069 -0.010658147 0.010583516 0.011238095 -0.0027712914
8.201587e-05 0.009919987 0.008931341 -0.011954774 0.011287498 0.0063240393 0.020364312 0.011853242
0.012119218 0.004650603 0.0075458772 0.020728203 0.01989398 0.018908963 -0.012023234 0.006258962
-0.008425397 -0.007913105 -0.0217 0.033831876 -0.011937031 0.0054070707 -0.002085067 0.01704751
-0.008675726 6.852986e-05 -0.0007123667 -0.0013004267 0.00024583767 -0.0072091124 -0.009813629 0.013761619
-0.015819063 -0.009248643 -0.014630337 -0.0068705627 -0.0114256395 0.01335582 0.01257503 -0.0010534528
-0.010286058 0.011028833 0.009872816 -0.016827874 4.562466e-05 0.008209842 -0.0065063685 -0.013282827
0.006142897 0.008039833 0.020759486 0.008403245 -0.003611394 0.009468715 0.007957934 0.014094588
0.00077783404 0.011031078 -0.0021789332 0.0050784997 -0.02704666 -0.0055566146 0.023508579 0.0021389043
0.0011739399 -0.015195384 -0.021080783 -0.0072327056 -0.0059085903 -0.0029311685 0.0010341565 0.01334808
00000000: 9a0f b5ba 0649 c53c ce2f 2d3c 5f23 0dbb
00000010: b063 93bc 0df3 d63c c7b4 773c c499 04bc
00000020: 2efd 2a3c 07b0 973b 0322 993c 617e b33b
00000030: 6c63 963c 5a34 f5bc 074d 02bc b387 183d
00000040: df78 88bc 5322 4fbc 65ef 35bc 828e 38bb
00000050: 8d13 913a 212c 47bb 1a2e 6dbc 1e64 08bc
00000060: 5785 74bc dbf6 f7bb a3b2 5e3c 55fa b6bb
00000070: ed98 15ba 3b77 643a f3de a83b 531a 9e3c
00000080: 00c8 26bc 4a31 99b8 5947 3a3c 23e4 a83b
00000090: 0eda 83ba ddcc f9bb c78e 37bc 7f6b aebb
000000a0: 6ba7 973b b04d 1c3c 48ba 25ba 675d a83b
000000b0: 99e4 c8bb 4855 27bc 12d5 993c 8bf5 903b
000000c0: ccf0 003c f1f2 b9bb ebad a93c 3fd2 b93c
000000d0: 3c61 2fbc 9864 563c e23a 7cbb d766 1e3c
000000e0: 3724 9abb 2bbf aebc f5d7 11bc 7373 1d3c
000000f0: 5712 33bc e707 6abc 8f0d afbc fe09 39bc
00000100: a8f9 b93c 8896 d8bb ab8a 08bc 3b3e 9abb
00000110: 58df 55bc 0814 f53b a305 f5ba c8c5 61bc
00000120: 702b 373c 677d 05bc 5456 443c 225f 25bb
00000130: 7f66 55bb 9d4b 76bc 57d8 81bc b571 a33c
00000140: 973f 43ba d34e a6bc 68e1 26bd fff5 7ebc
00000150: 4bd7 923c 8b06 ed39 efca 94bc 27e1 fcba
00000160: 051c 1cbb cc24 953c ecc3 a4bc 42ed 10bc
00000170: d3ef 31bc 8c9c 34bc 3452 0dbc eabf 833a
00000180: d769 01bb ff3a 83bc 6dc2 7e3c 6347 423c
00000190: e3c9 363b fb59 043b f2a9 dc3b af99 313c
000001a0: bbfd 21bc 4fa2 ac3c 13fc f4bc 6518 2bba
000001b0: 7597 93bc 329c ce3b c1df 203c 1709 0a3d
000001c0: d280 bebc fb74 103c 4f75 d63c 0b68 90bc
000001d0: bfdc cf3b 5b1e 103c 9e0f 13bc 17e2 003c
000001e0: df50 c33b bf08 0fbd 975d 683c 9b69 45bb
000001f0: 8973 283b 4d0a 603c c352 14bd 4692 00bb
00000200: 4baf 193c 0d98 e0bb 0f38 cbb9 81b1 2dbc
00000210: aff7 863c 70a0 463c a746 68bc 2223 f0b8
00000220: da2e f6bb 32e4 1bbc 2f36 0e3c 63c4 c1bb
00000230: 700e 9db9 6220 9d3b 2989 2abc cc30 4b3c
00000240: b79f 80bc b102 453c cf23 333b 01b3 3b3c
00000250: 95c2 3a3c 922d a73b d7e4 a93b 124c ddbb
00000260: f66c 87bb 7fe0 54bb e028 67bc b7fa 4bbb
00000270: cca2 843c 2bfa 4a3c db2e bb3c b21b 593c
00000280: e101 873c a5a0 bf3b 6226 803b f8d9 bebc
00000290: 6457 34bc 2bfe 45bc 647f 4bbb 6d06 1c3c
000002a0: ac4a c339 6b09 bc3b f88b b7bc c495 ac3b
000002b0: 7e3f 333b c87e d6ba 1ad6 363c 373d 91bb
000002c0: 77cc 7cbb 88bd 433c d8cd 83bc f2e4 1cbc
000002d0: 829f 2ebc 7c66 2d3c fd1f 383c 8e9e 35bb
000002e0: efff ab38 7187 223c c254 123c f5dd 43bc
000002f0: 33ef 383c e339 cf3b 0fd3 a63c 1a34 423c
00000300: af8f 463c 1664 983b 6843 f73b 31ce a93c
00000310: b3f8 a23c f8e6 9a3c 19fd 44bc fb17 cd3b
00000320: ad0a 0abc f8a5 01bc 33c4 b1bc 4b93 0a3d
00000330: 8993 43bc cc2d b13b 9fa5 08bb 38a7 8b3c
00000340: a224 0ebc b0b7 8f38 1fbe 3aba 1473 aaba
00000350: c6e3 8039 6b3a ecbb 58c9 20bc 6a78 613c
00000360: fb96 81bc 9f87 17bc 15b4 6fbc 7522 e1bb
00000370: 9b32 3bbc 5fd2 5a3c 8007 4e3c 0314 8aba
00000380: db86 28bc 47b2 343c 97c1 213c 9cda 89bc
00000390: 1b5d 3f38 9382 063c 6033 d5bb 37a0 59bc
000003a0: 5b4a c93b 81b9 033c cc0f aa3c c4ad 093c
000003b0: 23ad 6cbb ab22 1b3c ff61 023c fdec 663c
000003c0: 8fe7 4b3a b2bb 343c 6fcc 0ebb 8b69 a63b
000003d0: f590 ddbc 4314 b6bb 1095 c03c dc2c 0c3b
000003e0: e3de 993a 0ff6 78bc 9bb1 acbc 5500 edbb
000003f0: d99c c1bb d918 40bb 898c 873a e8b1 5a3c

action_model._distributions.0.branches.1.bias f4 [3]
0.0 0.0 0.0
00000000: 0000 0000 0000 0000 0000 0000

action_model._distributions.0.branches.1.weight f4 [3, 128]
-0.0058066384 -0.0028573533 0.007958944 -0.0059312372 -0.005455592 -0.017311767 0.03096438 -0.012654409
0.015851505 -0.022813868 0.016204363 0.004483377 -0.004944546 0.005219388 -0.010523429 0.012532718
-0.005673316 0.0069938325 -0.0047002 0.009936096 0.021148568 0.025778582 0.0019175689 -0.0065441565
0.002541309 -0.00400812 -0.016033236 -0.004563173 -0.02047739 0.0025214043 0.007752844 -0.014917324
0.00046721162 0.0075557115 0.037779428 -0.0007555293 0.030467073 -0.005447442 0.011643152 0.009724201
-0.01032124 -0.013695493 -0.0054170615 0.007557548 -0.0015296933 0.0041247825 0.0012759176 0.007192779
0.0013716994 0.0017120775 -0.008404358 0.013351403 -0.0028076607 0.01011599 0.010639468 -0.014639336
0.011762966 -0.0040418217 0.026140446 0.0078957 -0.0011357832 -0.005629214 0.016336901 -0.030264577
0.017225344 -0.0150909815 -0.0018584803 -0.004514184 0.0036072524 -0.007125031 0.007346112 0.0151824895
-0.013510314 0.0046495018 0.023080401 -0.02202795 0.017768284 -0.0038150405 -0.014756118 -0.0091284355
0.0048282864 -0.007260706 -0.002897763 0.009972486 -0.0002266349 -0.015306982 -0.005861781 -0.007676653
-0.01274393 -0.0028799744 0.00250129 0.018211314 0.005047727 0.013929489 0.015050538 0.010038986
-0.0014202119 0.0050072437 0.006391128 -0.0031797332 0.008908237 0.010118664 0.0006237144 0.008070889
-0.0031127164 0.022489794 -0.0076295133 -0.021544239 0.0050130687 0.007464201 -0.0063614226 0.013649898
-0.0025927469 0.0052814274 0.0049061584 0.013085877 0.019027216 -0.009408406 0.017141016 -0.00038589467
-0.019281683 -0.004157804 -0.016825903 0.01585861 0.024267688 0.016093986 0.0019538437 -0.006819098
0.005110526 -0.013879919 0.0082596345 0.013315491 0.0016777825 0.002842125 -0.021671813 -0.01899172
-0.007664941 0.0072649154 -0.010947101 0.0047143153 0.004227078 0.018865122 0.019122569 -0.0048985677
-0.0029918475 0.002747296 0.018398792 -0.0069728303 -0.0037844907 0.017031522 0.00026593334 0.018682128
0.034727883 -0.008260986 -0.002107221 0.02085362 -0.014997395 6.9301976e-05 0.008486862 -0.00571776
-0.006037693 -0.010348622 0.008271071 0.010349895 0.002005487 -0.0016633703 -0.0030539883 0.004516663
0.0006060636 0.011765181 -0.009229794 0.008895293 0.017817495 -0.010290644 0.025713807 -0.008853528
0.015813684 0.009632072 -0.006765923 -0.0073810606 0.022255294 -0.0036676724 0.0023045551 -0.007406834
0.01453532 -0.012749965 -0.0062163244 0.01772281 -0.009596878 0.011303658 -0.024195401 -0.004950108
0.011466472 0.014293918 0.016913231 -0.004595887 0.007966855 0.008065725 0.00736205 -0.0018726767
0.015400358 0.0028674805 0.016664168 0.008834786 0.0027285411 0.010197255 -0.0047501847 -0.028554896
0.0036996321 -0.01936617 -0.018697998 -0.011866247 0.00096359785 -0.013685263 0.01835675 -0.01190491
0.008221018 0.01052269 0.004825224 -0.0045743356 -0.0068389066 0.0044984017 0.0010636502 -0.008027424
0.014310734 0.023524458 -0.008013094 0.002280817 -0.00092352595 -0.013575082 0.017163334 0.000566164
-0.014775993 0.00039761892 0.0149278315 0.011339656 -0.034638938 -0.009469156 0.0010598726 -0.0016155388
-0.012949578 0.011539636 -0.017606664 4.8699614e-05 -0.00614819 -0.021885011 -0.011381271 -0.0072698817
-0.012458064 0.0067742923 0.011399537 -0.010859068 0.006450526 0.0007411766 -0.015931442 0.0023523304
00000000: 9d45 bebb 6f42 3bbb 3b66 023c d35a c2bb
00000010: d3c4 b2bb 68d1 8dbc 03a9 fd3c 7054 4fbc
00000020: 04db 813c 26e4 babc 03bf 843c 4be9 923b
00000030: dc05 a2bb 6607 ab3b 766a 2cbc 0756 4d3c
00000040: 39e7 b9bb 852c e53b 2304 9abb 02cb 223c
00000050: c33f ad3c 9b2d d33c ef56 fb3a 5d70 d6bb
00000060: 178c 263b 8c56 83bb 2258 83bc ab86 95bb
00000070: 33c0 a7bc 253e 253b 920b fe3b cb67 74bc
00000080: 15f4 f439 e795 f73b 9abe 1a3d b70e 46ba
00000090: 1596 f93c 7580 b2bb ebc2 3e3c 4152 1f3c
000000a0: 6b1a 29bc 1063 60bc 9b81 b1bb 4fa5 f73b
000000b0: fd7f c8ba 2f29 873b b13c a73a 67b1 eb3b
000000c0: 98ca b33a ca67 e03a 6fb2 09bc d8bf 5a3c
000000d0: bb00 38bb 8abd 253c 2a51 2e3c d3d9 6fbc
000000e0: 75b9 403c 4271 84bb 7d24 d63c f75c 013c
000000f0: 8fde 94ba 4575 b8bb f7d4 853c 6bed f7bc
00000100: 2a1c 8d3c 2a40 77bc 4098 f3ba b8eb 93bb
00000110: a767 6c3b 1879 e9bb a7b7 f03b fabf 783c
00000120: 5d5a 5dbc d95a 983b 1c13 bd3c f673 b4bc
00000130: cb8e 913c c205 7abb a5c3 71bc 6f8f 15bc
00000140: 9a36 9e3b 37eb edbb 65e8 3dbb a363 233c
00000150: d8a4 6db9 23ca 7abc 2f14 c0bb 6f8c fbbb
00000160: ebcb 50bc f4bd 3cbb afec 233b e52f 953c
00000170: 6767 a53b 8338 643c 8896 763c 8f7a 243c
00000180: 6726 baba ce13 a43b ab6c d13b 1263 50bb
00000190: dbf3 113c c1c8 253c c480 233a c33b 043c
000001a0: b7fe 4bbb 843c b83c ff00 fabb 8b7d b0bc
000001b0: ab44 a43b 4296 f43b 7b73 d0bb d2a3 5f3c
000001c0: 13eb 29bb d30f ad3b d7c3 a03b 2566 563c
000001d0: f7de 9b3c b725 1abc 516b 8c3c e851 cab9
000001e0: 9ff4 9dbc 303e 88bb 7ad6 89bc eae9 813c
000001f0: 08cd c63c 89d7 833c 0f0c 003b bd72 dfbb
00000200: 3376 a73b 9a68 63bc 6b53 073c 3829 5a3c
00000210: 0ae9 db3a f242 3a3b 1689 b1bc 8694 9bbc
00000220: 2f2a fbbb 870e ee3b 785b 33bc 8b7a 9a3b
00000230: 4d83 8a3b 078b 9a3c efa6 9c3c 2a84 a0bb
00000240: df12 44bb fa0b 343b 10b9 963c 577c e4bb
00000250: 3805 78bb b185 8b3c f86c 8b39 430b 993c
00000260: d33e 0e3d 1659 07bc 4d19 0abb 36d5 aa3c
00000270: a2b7 75bc 3756 9138 7b0c 0b3c 0c5c bbbb
00000280: d7d7 c5bb 448d 29bc 6383 073c 9b92 293c
00000290: 7d6e 033b 7205 daba 6c25 48bb 8400 943b
000002a0: 3de0 1e3a bfc2 403c 9038 17bc 90bd 113c
000002b0: fff5 913c 179a 28bc c3a5 d23c 630e 11bc
000002c0: b38b 813c d7cf 1d3c adb4 ddbb d3dc f1bb
000002d0: bc50 b63c 555d 70bb 0508 173b 07b5 f2bb
000002e0: 8d25 6e3c 3be5 50bc 4fb2 cbbb 6d2f 913c
000002f0: 393c 1dbc fa32 393c 6f35 c6bc 8434 a2bb
00000300: dfdd 3b3c 0a31 6a3c 9e8d 8a3c 1899 96bb
00000310: 6987 023c 1a26 043c 5a3d f13b 9a74 f5ba
00000320: c851 7c3c 57ec 3b3b 4b83 883c c7bf 103c
00000330: 53d1 323b 6312 273c 70a7 9bbb f5eb e9bc
00000340: 8775 723b cda5 9ebc 8b2c 99bc a66a 42bc
00000350: f599 7c3a 2738 60bc e560 963c d00c 43bc
00000360: 73b1 063c 5c67 2c3c ea1c 9e3b 4fe4 95bb
00000370: e818 e0bb 5467 933b 2e6a 8b3a 7585 03bc
00000380: 9277 6a3c 5db6 c03c 5a49 03bc c279 153b
00000390: c718 72ba 056a 5ebc 1f9a 8c3c 9f6a 143a
000003a0: 0217 72bc 8277 d039 dd93 743c f7c9 393c
000003b0: 8fe1 0dbd 8524 1bbc 6ceb 8a3a 7dc0 d3ba
000003c0: 782a 54bc be10 3d3c da3b 90bc d042 4c38
000003d0: c176 c9bb 3248 b3bc 8378 3abc 3038 eebb
000003e0: e81c 4cbc e2fa dd3b 20c5 3a3c 3bea 31bc
000003f0: ef5e d33b 854b 423a a882 82bc 8e29 1a3b

network_body.linear_encoder.seq_layers.0.bias f4 [128]
0.0 0.0 0.0 0.0 0.0 0.0 0.0 0.0
0.0 0.0 0.0 0.0 0.0 0.0 0.0 0.0
0.0 0.0 0.0 0.0 0.0 0.0 0.0 0.0
0.0 0.0 0.0 0.0 0.0 0.0 0.0 0.0
0.0 0.0 0.0 0.0 0.0 0.0 0.0 0.0
0.0 0.0 0.0 0.0 0.0 0.0 0.0 0.0
0.0 0.0 0.0 0.0 0.0 0.0 0.0 0.0
0.0 0.0 0.0 0.0 0.0 0.0 0.0 0.0
0.0 0.0 0.0 0.0 0.0 0.0 0.0 0.0
0.0 0.0 0.0 0.0 0.0 0.0 0.0 0.0
0.0 0.0 0.0 0.0 0.0 0.0 0.0 0.0
0.0 0.0 0.0 0.0 0.0 0.0 0.0 0.0
0.0 0.0 0.0 0.0 0.0 0.0 0.0 0.0
0.0 0.0 0.0 0.0 0.0 0.0 0.0 0.0
0.0 0.0 0.0 0.0 0.0 0.0 0.0 0.0
0.0 0.0 0.0 0.0 0.0 0.0 0.0 0.0
00000000: 0000 0000 0000 0000 0000 0000 0000 0000
00000010: 0000 0000 0000 0000 0000 0000 0000 0000
00000020: 0000 0000 0000 0000 0000 0000 0000 0000
00000030: 0000 0000 0000 0000 0000 0000 0000 0000
00000040: 0000 0000 0000 0000 0000 0000 0000 0000
00000050: 0000 0000 0000 0000 0000 0000 0000 0000
00000060: 0000 0000 0000 0000 0000 0000 0000 0000
00000070: 0000 0000 0000 0000 0000 0000 0000 0000
00000080: 0000 0000 0000 0000 0000 0000 0000 0000
00000090: 0000 0000 0000 0000 0000 0000 0000 0000
000000a0: 0000 0000 0000 0000 0000 0000 0000 0000
000000b0: 0000 0000 0000 0000 0000 0000 0000 0000
000000c0: 0000 0000 0000 0000 0000 0000 0000 0000
000000d0: 0000 0000 0000 0000 0000 0000 0000 0000
000000e0: 0000 0000 0000 0000 0000 0000 0000 0000
000000f0: 0000 0000 0000 0000 0000 0000 0000 0000
00000100: 0000 0000 0000 0000 0000 0000 0000 0000
00000110: 0000 0000 0000 0000 0000 0000 0000 0000
00000120: 0000 0000 0000 0000 0000 0000 0000 0000
00000130: 0000 0000 0000 0000 0000 0000 0000 0000
00000140: 0000 0000 0000 0000 0000 0000 0000 0000
00000150: 0000 0000 0000 0000 0000 0000 0000 0000
00000160: 0000 0000 0000 0000 0000 0000 0000 0000
00000170: 0000 0000 0000 0000 0000 0000 0000 0000
00000180: 0000 0000 0000 0000 0000 0000 0000 0000
00000190: 0000 0000 0000 0000 0000 0000 0000 0000
000001a0: 0000 0000 0000 0000 0000 0000 0000 0000
000001b0: 0000 0000 0000 0000 0000 0000 0000 0000
000001c0: 0000 0000 0000 0000 0000 0000 0000 0000
000001d0: 0000 0000 0000 0000 0000 0000 0000 0000
000001e0: 0000 0000 0000 0000 0000 0000 0000 0000
000001f0: 0000 0000 0000 0000 0000 0000 0000 0000

network_body.linear_encoder.seq_layers.0.weight f4 [128, 128]
-0.0005419912 -0.08142887 0.07740449 0.05661948 -0.031256665 -0.07015271 0.049610622 -0.039710417
-0.010673321 -0.06093608 0.07704864 0.0121621685 -0.030530985 -0.1176667 -0.06331666 0.04249755
-0.080869794 0.0836107 0.057495162 -0.13170585 0.31024963 0.031881113 0.06901353 0.23015237
0.0550923 -0.15529726 -0.30773425 -0.168885 0.032595597 -0.040766876 0.0067110523 -0.07334236
0.07933708 -0.095383026 0.0026821427 -0.1667164 -0.113263905 -0.05269943 0.2358543 0.02256313
0.09765789 -0.0059625097 0.27687475 -0.09959919 0.05756368 -0.115558624 -0.062222872 -0.11327352
-0.08388492 -0.0828071 0.14210303 0.11482314 -0.10151637 -0.0040232525 0.1272505 -0.038212188
-0.021889877 0.010170875 -0.072007395 -0.0029359804 0.1739909 -0.06577535 0.117381714 0.026493385
0.07483838 0.28116632 -0.010816188 -0.04166566 0.031556293 -0.04285617 -0.12303273 0.10528997
0.19969395 0.070713244 -0.07099658 0.243194 -0.11180013 0.0003505532 0.0056719854 0.04203225
-0.07034028 0.17126045 -0.048717592 -0.28982303 0.06281319 -0.029895343 -0.12943546 -0.07047409
-0.060068283 0.06725521 0.083011575 0.08585578 0.051478755 -0.011913355 -0.010675075 -0.052091815
0.063827 -0.057565805 0.034447983 -0.10624436 -0.018094067 0.13453412 0.020659659 0.00049999583
-0.03370676 -0.049496252 0.1271408 -0.12108348 -0.034859885 0.11125941 -0.02036824 -0.20250292
0.097954266 0.15887994 0.17104967 0.13216719 0.17158419 0.20918953 0.24371673 -0.12643446
0.11471484 0.1426578 -0.019063702 -0.32595697 0.0875695 -0.14615142 0.11343554 -0.024604425
-0.000104586 -0.09032653 0.03894191 0.22703297 -0.116723135 0.24457996 0.13502634 -0.16727884
0.15947506 -0.03738738 0.101596795 -0.087999 -0.04891803 0.28232718 -0.16386549 -0.10227923
-0.09865724 0.1431857 0.055833496 0.13815463 -0.031883713 -0.06818008 0.15601462 0.1465211
0.03960532 0.0074189743 -0.08206013 -0.0141787985 0.061185125 -0.048953418 -0.02598162 -0.03903359
0.0977588 -0.13495646 -0.061106406 -0.10190968 0.25626555 0.061160762 -0.008692837 0.06840711
0.029227136 -0.052105796 -0.113858424 -0.04646696 0.15226327 0.24332519 -0.070055716 0.03818329
-0.09832024 0.13636675 -0.11579532 0.026677603 0.06515449 0.108516194 0.049397375 0.15529832
0.034658596 -0.064829126 -0.0719094 0.031635042 0.0566848 -0.1718759 0.13497669 0.058039457
-0.0074612154 0.16497484 -0.04066239 -0.02476855 -0.095527366 0.018927034 0.0088010235 0.2594487
0.06279821 -0.07744456 0.090693556 0.03065527 0.15501925 0.07026054 0.24836369 0.12827398
-0.13799609 -0.17509878 0.005980244 0.11345157 0.018649949 0.17791572 -0.081476815 0.039163284
0.22605026 0.08062196 0.047517154 0.036484845 0.07563126 0.023610683 0.0869384 0.033807892
-0.16084783 -0.21776573 0.09964922 0.098186195 0.029624155 -0.036148872 -0.16992486 -0.059931185
0.1277322 0.086298615 -0.059857007 -0.05259776 -0.06320646 0.06634276 0.28029868 -0.078419015
-0.17872708 -0.057065293 0.051819995 0.14762862 0.06881651 0.048087087 -0.04653934 0.007203415
-0.053715393 0.10170668 0.10357026 0.0015746607 0.096400134 -0.033100154 0.08600877 0.060624808
00000000: 6a14 0eba 2ec4 a6bd 3f86 9e3d d4e9 673d
00000010: fd06 00bd 39ac 8fbd 8234 4b3d 64a7 22bd
00000020: 27df 2ebc 1c98 79bd adcb 9d3d d543 473c
00000030: 1e1c fabc 3dfb f0bd 2aac 81bd e911 2e3d
00000040: 109f a5bd 163c ab3d 0c80 6b3d e6dd 06be
00000050: 0ad9 9e3e c595 023d f756 8d3d 10ad 6b3e
00000060: 77a8 613d 3f06 1fbe 588f 9dbe 30f0 2cbe
00000070: f682 053d 2bfb 26bd 63e8 db3b 8534 96bd
00000080: 7b7b a23d 2d58 c3bd e3c6 2f3b b4b7 2abe
00000090: e8f6 e7bd 5cdb 57bd ca83 713e 50d6 b83c
000000a0: dc00 c83d 2861 c3bb 87c2 8d3e a9fa cbbd
000000b0: e5c7 6b3d 00aa ecbd 69dd 7ebd f2fb e7bd
000000c0: dbcb abbd c596 a9bd 7583 113e 6528 eb3d
000000d0: d1e7 cfbd 7dd5 83bb f44d 023e 6284 1cbd
000000e0: 6652 b3bc bea3 263c 9d78 93bd 9469 40bb
000000f0: ac2a 323e 3ab5 86bd d365 f03d a808 d93c
00000100: dd44 993d 08f5 8f3e 6136 31bc 9ca9 2abd
00000110: 2c41 013d f489 2fbd 95f8 fbbd 45a2 d73d
00000120: 927c 4c3e 1bd2 903d a866 91bd d907 793e
00000130: 77f7 e4bd 74ca b739 10dc b93b 022a 2c3d
00000140: 910e 90bd e65e 2f3e 198c 47bd af63 94be
00000150: 34a4 803d 14e7 f4bc bb8a 04be b854 90bd
00000160: 290a 76bd 19bd 893d f901 aa3d 28d5 af3d
00000170: 63db 523d 3c30 43bc 83e6 2ebc 3a5e 55bd
00000180: bbb7 823d 1fca 6bbd 5419 0d3d a596 d9bd
00000190: 023a 94bc 50c3 093e 723e a93c 2712 033a
000001a0: 1910 0abd 95bc 4abd 3331 023e 9efa f7bd
000001b0: 3dc9 0ebd f9db e33d 4cdb a6bc ed5c 4fbe
000001c0: 3f9c c83d 6cb1 223e a527 2f3e d656 073e
000001d0: c4b3 2f3e c835 563e e190 793e 0978 01be
000001e0: 9def ea3d e314 123e 7b2b 9cbc d5e3 a6be
000001f0: a357 b33d b8a8 15be e450 e83d 388f c9bc
00000200: 2e55 dbb8 1efd b8bd 8d81 1f3d 557b 683e
00000210: 8a0c efbd 2b73 7a3e 5844 0a3e 254b 2bbe
00000220: 6e4d 233e 8223 19bd fb11 d03d d238 b4bd
00000230: 465e 48bd 308d 903e 5bcc 27be c677 d1bd
00000240: cf0c cabd 469f 123e aab1 643d 6878 0d3e
00000250: 7f98 02bd ffa1 8bbd 4cc2 1f3e a109 163e
00000260: 3039 223d de1a f33b 240f a8bd 314e 68bc
00000270: 419d 7a3d 6183 48bd 68d7 d4bc b0e1 1fbd
00000280: c435 c83d 0732 0abe b64a 7abd 06b6 d0bd
00000290: 3d35 833e b583 7a3d 676c 0ebc 0719 8c3d
000002a0: bf6d ef3c e36c 55bd 9b2e e9bd 2454 3ebd
000002b0: e7ea 1b3e 3d2a 793e 5f79 8fbd 1566 1c3d
000002c0: 1f5c c9bd baa3 0b3e 1926 edbd fd8a da3c
000002d0: b86f 853d bd3d de3d e754 4a3d 8606 1f3e
000002e0: 2cf6 0d3d 22c5 84bd 3c45 93bd bf93 013d
000002f0: 522e 683d 3c00 30be 5437 0a3e c8ba 6d3d
00000300: 367d f4bb 2aef 283e 9b8d 26bd 6ae7 cabc
00000310: daa3 c3bd de0c 9b3c 2b32 103c 76d6 843e
00000320: 599c 803d 419b 9ebd 8bbd b93d c320 fb3c
00000330: 5ebd 1e3e c2e4 8f3d 0d53 7e3e 415a 033e
00000340: d94e 0dbe 184d 33be ecf5 c33b 4c59 e83d
00000350: c7c7 983c 8a2f 363e 51dd a6bd ae69 203d
00000360: b879 673e 201d a53d 59a1 423d 2271 153d
00000370: 90e4 9a3d 316b c13c c30c b23d 257a 0a3d
00000380: 4bb5 24be fbfd 5ebe e414 cc3d d815 c93d
00000390: 5bae f23c d710 14bd c800 2ebe 677a 75bd
000003a0: 3bcc 023e 54bd b03d 9f2c 75bd c070 57bd
000003b0: 6372 81bd b7de 873d 4f83 8f3e 269a a0bd
000003c0: 3b04 37be 4cbd 69bd 3441 543d f52b 173e
000003d0: acef 8c3d f7f6 443d 09a0 3ebd a00a ec3b
000003e0: ac04 5cbd 984b d03d a51c d43d d864 ce3a
000003f0: 6f6d c53d 0794 07bd 5e25 b03d b851 783d

network_body.linear_encoder.seq_layers.2.bias f4 [128]
0.0 0.0 0.0 0.0 0.0 0.0 0.0 0.0
0.0 0.0 0.0 0.0 0.0 0.0 0.0 0.0
0.0 0.0 0.0 0.0 0.0 0.0 0.0 0.0
0.0 0.0 0.0 0.0 0.0 0.0 0.0 0.0
0.0 0.0 0.0 0.0 0.0 0.0 0.0 0.0
0.0 0.0 0.0 0.0 0.0 0.0 0.0 0.0
0.0 0.0 0.0 0.0 0.0 0.0 0.0 0.0
0.0 0.0 0.0 0.0 0.0 0.0 0.0 0.0
0.0 0.0 0.0 0.0 0.0 0.0 0.0 0.0
0.0 0.0 0.0 0.0 0.0 0.0 0.0 0.0
0.0 0.0 0.0 0.0 0.0 0.0 0.0 0.0
0.0 0.0 0.0 0.0 0.0 0.0 0.0 0.0
0.0 0.0 0.0 0.0 0.0 0.0 0.0 0.0
0.0 0.0 0.0 0.0 0.0 0.0 0.0 0.0
0.0 0.0 0.0 0.0 0.0 0.0 0.0 0.0
0.0 0.0 0.0 0.0 0.0 0.0 0.0 0.0
00000000: 0000 0000 0000 0000 0000 0000 0000 0000
00000010: 0000 0000 0000 0000 0000 0000 0000 0000
00000020: 0000 0000 0000 0000 0000 0000 0000 0000
00000030: 0000 0000 0000 0000 0000 0000 0000 0000
00000040: 0000 0000 0000 0000 0000 0000 0000 0000
00000050: 0000 0000 0000 0000 0000 0000 0000 0000
00000060: 0000 0000 0000 0000 0000 0000 0000 0000
00000070: 0000 0000 0000 0000 0000 0000 0000 0000
00000080: 0000 0000 0000 0000 0000 0000 0000 0000
00000090: 0000 0000 0000 0000 0000 0000 0000 0000
000000a0: 0000 0000 0000 0000 0000 0000 0000 0000
000000b0: 0000 0000 0000 0000 0000 0000 0000 0000
000000c0: 0000 0000 0000 0000 0000 0000 0000 0000
000000d0: 0000 0000 0000 0000 0000 0000 0000 0000
000000e0: 0000 0000 0000 0000 0000 0000 0000 0000
000000f0: 0000 0000 0000 0000 0000 0000 0000 0000
00000100: 0000 0000 0000 0000 0000 0000 0000 0000
00000110: 0000 0000 0000 0000 0000 0000 0000 0000
00000120: 0000 0000 0000 0000 0000 0000 0000 0000
00000130: 0000 0000 0000 0000 0000 0000 0000 0000
00000140: 0000 0000 0000 0000 0000 0000 0000 0000
00000150: 0000 0000 0000 0000 0000 0000 0000 0000
00000160: 0000 0000 0000 0000 0000 0000 0000 0000
00000170: 0000 0000 0000 0000 0000 0000 0000 0000
00000180: 0000 0000 0000 0000 0000 0000 0000 0000
00000190: 0000 0000 0000 0000 0000 0000 0000 0000
000001a0: 0000 0000 0000 0000 0000 0000 0000 0000
000001b0: 0000 0000 0000 0000 0000 0000 0000 0000
000001c0: 0000 0000 0000 0000 0000 0000 0000 0000
000001d0: 0000 0000 0000 0000 0000 0000 0000 0000
000001e0: 0000 0000 0000 0000 0000 0000 0000 0000
000001f0: 0000 0000 0000 0000 0000 0000 0000 0000

network_body.linear_encoder.seq_layers.2.weight f4 [128, 128]
-0.10114619 -0.3104314 0.03716914 0.0049248673 0.117660396 -0.17681248 0.15799747 -0.019414866
0.046751004 0.053784195 -0.00774892 0.037563037 0.031240003 -0.034990143 0.10519932 0.05585052
-0.05488117 -0.022126162 -0.014782121 -0.1409298 0.058430467 0.22980371 0.092831284 -0.05025196
-0.008050384 -0.021693889 0.061064307 0.016330328 -0.06554517 -0.15604779 0.07185695 0.0027589442
0.252818 0.0027011866 0.1998165 -0.16622034 0.05192379 0.19551106 -0.06676268 -0.04516116
-0.019890985 0.27437323 0.13717593 -0.20614807 0.046705723 0.07623789 0.19887358 0.047773078
0.08789075 -0.025412504 0.13781942 0.22776277 -0.113705195 -0.15893672 -0.105506256 0.17230892
-0.36418417 0.04494461 0.20478527 0.091705136 -0.14512205 -0.08205183 -0.037704848 0.25340903
-0.06877223 0.11160529 -0.06812936 -0.016245134 -0.15056711 0.18213244 0.017946988 0.11350449
-0.036408238 -0.102728374 0.027217498 0.06976802 -0.037406165 -0.13739458 0.076154955 0.14649284
0.21962187 -0.058834307 -0.14806262 0.21429242 -0.13576642 0.06645767 -0.09924899 0.0101486845
0.1096771 -0.026752448 0.07030325 -0.141144 0.048866346 -0.21366815 0.13187195 -0.04643416
-0.14731719 -0.050545476 -0.060646415 -0.35896382 -0.11890712 -0.027039938 0.05553919 -0.056531303
-0.1298994 -0.19842295 0.21774514 0.051812258 0.021963023 0.36518407 -0.08241117 0.05720369
0.15295537 -0.12005823 -0.16072251 -0.10542308 -0.06797224 0.07077755 -0.2597064 0.22667834
0.042218573 -0.044374634 0.06232305 0.023163114 0.06356158 -0.09472724 0.16361742 0.057514463
0.06295776 -0.22351587 -0.028094815 -0.014579356 -0.046571594 0.056923743 -0.27249888 0.021776296
0.1848525 -0.016366875 0.068239324 0.07847703 0.14950413 0.17996196 0.21569186 0.27084133
0.022535438 -0.14425333 0.32315165 0.1509071 -0.053047445 0.12834334 -0.005297963 0.16153085
0.3129837 0.13312882 -0.008230475 0.104084745 0.0009772262 -0.1564808 -0.017370695 0.0689079
0.23833396 -0.029412065 0.15443608 0.20358938 -0.022571282 0.025111632 -0.11612737 -0.28509945
-0.07730899 0.111079924 0.019871458 -0.0299501 0.10040381 -0.115902625 -0.060414504 -0.034408335
-0.07736892 0.13886893 0.12097298 0.16674608 -0.07506393 0.061641537 0.09574084 -0.25729203
-0.03721175 -0.15361579 -0.14041474 0.0125728985 -0.10561701 -0.096941106 0.23482749 0.16574958
-0.03607986 0.15354297 0.05670008 -0.07182529 0.083573855 0.05936094 0.06704378 -0.04948221
-0.077361204 -0.10154363 0.10158599 0.34380946 0.10091987 -0.2521908 0.003058812 -0.095482424
-0.17250556 -0.015527228 -0.14157213 0.114255674 -0.047565114 0.37046054 0.059701923 -0.04289827
0.2695661 0.03978899 -0.052477423 -0.06773368 0.13395754 0.20422551 -0.264573 0.10304541
-0.0035829844 -0.017184518 -0.113418646 -0.25363284 0.02134646 0.11528756 -0.22432896 -0.25034475
-0.05885843 -0.16595066 0.078007884 -0.1509922 0.013596162 0.06711001 0.068020426 -0.11538056
0.010549871 -0.17544918 0.16081357 0.019431224 0.25101963 0.0125409225 -0.103128016 0.018613197
-0.22372521 -0.16669385 0.065753296 -0.0968366 0.15862498 -0.15898204 -0.14066547 0.026462507
00000000: bc25 cfbd ddf0 9ebe ab3e 183d c860 a13b
00000010: eff7 f03d 550e 35be 17ca 213e ed0b 9fbc
00000020: fb7d 3f3d d14c 5c3d a7ea fdbb b3db 193d
00000030: 09eb ff3c d351 0fbd be72 d73d 84c3 643d
00000040: 14cb 60bd ed41 b5bc b630 72bc e74f 10be
00000050: c954 6f3d aa51 6b3e 541e be3d 00d5 4dbd
00000060: c2e5 03bc 62b7 b1bc 911e 7a3d 2ec7 853c
00000070: 8c3c 86bd feca 1fbe bd29 933d 67cf 343b
00000080: 5c71 813e 6406 313b b29c 4c3e aa35 2abe
00000090: 0aae 543d 0d34 483e dfba 88bd e9fa 38bd
000000a0: 6bf2 a2bc a67a 8c3e d977 0c3e 7b18 53be
000000b0: 804e 3f3d 9c22 9c3d 84a5 4b3e b4ad 433d
000000c0: 1100 b43d e22d d0bc 8920 0d3e a53a 693e
000000d0: 45de e8bd 4fc0 22be aa13 d8bd c071 303e
000000e0: 5976 babe d717 383d 3bb3 513e e7cf bb3d
000000f0: e09a 14be ca0a a8bd 6670 1abd d4be 813e
00000100: 74d8 8cbd 5091 e43d 6887 8bbd 8414 85bc
00000110: 442e 1abe ed80 3a3e 9005 933c 0b75 e83d
00000120: ce20 15bd 4163 d2bd 3bf7 de3c 89e2 8e3d
00000130: 3537 19bd 2ab1 0cbe 21f7 9b3d 3802 163e
00000140: 8ee4 603e 3efc 70bd ba9d 17be 796f 5b3e
00000150: 5a06 0bbe f51a 883d 0e43 cbbd ab46 263c
00000160: 639e e03d f327 dbbc 26fb 8f3d 0e88 10be
00000170: 1428 483d d3cb 5abe 7109 073e bf31 3ebd
00000180: 51da 16be c608 4fbd 6068 78bd 1bca b7be
00000190: 9385 f3bd dc82 ddbc 107d 633d 5e8d 67bd
000001a0: 5904 05be 632f 4bbe 95f8 5e3e 1739 543d
000001b0: cceb b33c 68f9 ba3e 30c7 a8bd 6b4e 6a3d
000001c0: 55a0 1c3e 17e1 f5bd 7194 24be 0ee8 d7bd
000001d0: 0835 8bbd d2f3 903d 3df8 84be 5e1e 683e
000001e0: 62ed 2c3d 2dc2 35bd 7446 7f3d 92c0 bd3c
000001f0: 932c 823d 5b00 c2bd 538b 273e 4994 6b3d
00000200: 00f0 803d 58e1 64be 1927 e6bc 40de 6ebc
00000210: dbc1 3ebd df28 693d f984 8bbe 3464 b23c
00000220: f949 3d3e d313 86bc 0fc1 8b3d 91b8 a03d
00000230: 9c17 193e f347 383e 54de 5c3e b7ab 8a3e
00000240: 3d9c b83c 25b7 13be 2274 a53e 6487 1a3e
00000250: 4748 59bd 706c 033e 899a adbb 5868 253e
00000260: 663f a03e ec52 083e 1dd9 06bc 622a d53d
00000270: 4516 803a 813c 20be fd4c 8ebc 961f 8d3d
00000280: d10d 743e 92f1 f0bc 7e24 1e3e bc79 503e
00000290: 69e7 b8bc e9b6 cd3c 30d4 edbd 8ef8 91be
000002a0: 2d54 9ebd df7d e33d 78c9 a23c ea59 f5bc
000002b0: 83a0 cd3d 5b5e edbd 3375 77bd c1ef 0cbd
000002c0: 9973 9ebd a833 0e3e afc0 f73d 7cbf 2a3e
000002d0: 1ebb 99bd d67b 7c3d c613 c43d c8bb 83be
000002e0: 596b 18bd 754d 1dbe e2c8 0fbe 8ffe 4d3c
000002f0: bb4d d8bd 0f89 c6bd 9e76 703e 42ba 293e
00000300: 7ac8 13bd 5e3a 1d3e 583e 683d 2319 93bd
00000310: c528 ab3d 7524 733d 404e 893d dcad 4abd
00000320: 8d6f 9ebd 1bf6 cfbd 510c d03d cb07 b03e
00000330: 14af ce3d 271f 81be 5a76 483b 4a8c c3bd
00000340: 4ca5 30be ea65 7ebc 49f8 10be e1fe e93d
00000350: a3d3 42bd 01ad bd3e 018a 743d 19b6 2fbd
00000360: 9104 8a3e c8f9 223d 91f2 56bd f5b7 8abd
00000370: 2a2c 093e 7e20 513e 1d76 87be 7909 d33d
00000380: 81d0 6abb 8cc6 8cbc 0948 e8bd 2adc 81be
00000390: c5de ae3c e21b ec3d 7eb6 65be 302d 80be
000003a0: 8915 71bd f8ee 29be 99c2 9f3d b39d 1abe
000003b0: 70c2 5e3c f970 893d 4b4e 8b3d a54c ecbd
000003c0: 5ed9 2c3c f3a8 33be 50ac 243e 3b2e 9f3c
000003d0: a585 803e 7178 4d3c c834 d3bd b47a 983c
000003e0: 3918 65be cbb1 2abe aaa9 863d 4452 c6bd
000003f0: 966e 223e 30cc 22be 9c0a 10be e6c7 d83c

network_body.visual_processors.0.conv_layers.0.bias f4 [16]
0.0068628564 0.019528233 0.04970012 -0.038974572 0.03426992 -0.054290235 0.06702267 -0.018016197
0.02209501 -0.06866965 0.022142336 -0.029106982 0.009942755 -0.0085920915 0.015505582 0.04999928
00000000: d0e1 e03b acf9 9f3c 5a92 4b3d cda3 1fbd
00000010: 9e5e 0c3d 705f 5ebd 2e43 893d b496 93bc
00000020: 9800 b53c aca2 8cbd d863 b53c c471 eebc
00000030: f0e6 223c d8c5 0cbc 200b 7e3c 0ccc 4c3d

network_body.visual_processors.0.conv_layers.0.weight f4 [16, 3, 8, 8]
-0.003789343 -0.013310168 -0.03690111 -0.061259706 -0.01225723 0.02739618 -0.00087911636 -0.005629115
0.0053042993 0.03003744 -0.025064237 -0.04176283 -0.061496973 0.021082215 0.050795674 0.0633439
0.04206702 0.024209179 0.022198208 0.04412798 -0.066340476 0.0045596287 -0.006507069 -0.04344684
0.0704837 0.034295924 -0.034197092 -0.06571581 -0.054243453 -0.0077538043 -0.044696935 -0.03721234
-0.012980912 0.06952225 -0.033854593 0.052118227 0.042796694 -0.057779364 -0.046733834 -0.049558964
-0.012319397 -0.022615142 0.0025021955 0.041471012 -0.006242007 0.00069177896 -0.00913769 0.024052814
-0.00040896982 -0.0028428286 0.041947 -0.007080503 0.042184353 0.017410569 -0.005843185 0.058436945
0.035940126 -0.027259506 0.015834577 0.029144637 0.06360155 0.025914676 -0.025805026 -0.069291964
0.052583538 0.031776562 0.060540825 -0.061660245 0.059249848 -0.035508167 -0.067772485 0.0036375374
0.0032911226 0.023072973 -0.058941945 0.045629196 0.04018251 -0.001966253 -0.01926218 0.03791172
-0.04687933 0.021528967 -0.038035173 0.027530804 0.02771563 -0.043485973 -0.054909065 -0.013393763
-0.06934794 -0.030614562 0.053848714 0.030401744 -0.046052665 0.06426124 0.0020765066 0.07130656
0.01395525 -0.057757873 0.037313282 -0.0031297877 0.009059466 0.01956603 0.03252373 0.016846254
0.027453996 -0.05672888 0.048772745 0.042265154 0.012462981 -0.06988117 0.018662348 -0.044190522
0.017567478 0.034018748 -0.016462099 0.05892636 0.05794859 -0.017587975 0.02720508 -0.04779403
0.026049241 -0.060784757 -0.010478314 0.015019141 0.06138128 -0.04455645 -0.043254625 -0.0578283
0.007178709 0.06551291 -0.046485655 -0.05819217 -0.060355864 0.031108476 0.053578362 -0.031087376
0.048969746 0.05310604 -0.009883162 0.039809793 -0.015663713 0.06617378 0.0001322627 -0.014653761
-0.003767088 0.055808067 -0.019162823 0.010892309 0.030061878 0.020976372 -0.06351083 -0.05567056
0.032949477 0.0017443672 -0.066940024 -0.013385572 -0.038356546 -0.03463971 -0.023560762 0.04748147
-0.023579527 -0.045293253 0.030626394 0.007967941 -0.014205817 -0.030133773 0.07049836 0.025643185
-0.030531883 -0.04067181 -0.040372808 -0.02252648 -0.028668907 -0.030548584 0.057565957 0.010584056
0.02205173 0.07037225 0.035135463 0.024392724 0.063343674 -0.028085887 0.056800857 0.06337465
-0.029617786 -0.03223393 -0.012008201 0.044693373 -0.038967665 0.020326331 -0.010319516 -0.061851934
-0.004581623 -0.04668944 0.065323755 -0.039611485 0.017991856 0.023549028 0.009775251 0.023847051
-0.032268927 -0.016021762 0.00047044456 0.053215787 -0.018197045 -0.016272899 -0.04832168 0.06800796
-0.03837296 0.010134257 -0.014869701 -0.0006644577 -0.01963991 0.04766114 -0.0021507293 0.011704676
-0.054406166 0.0073786825 0.066905126 0.026743747 -0.020450063 0.023760915 -0.05969106 -0.052408047
0.070308134 0.020648465 0.010651886 0.040347032 0.021891057 -0.05216129 0.069093004 0.05498773
0.010351434 -0.048033617 -0.07008478 0.033310235 -0.0391741 -0.04990752 0.041413397 -0.046422146
0.04704901 -0.044245496 -0.030931097 -0.0032068714 0.01833237 0.0021513999 -0.06808105 -0.03935973
0.0022228062 0.044604644 0.019209981 -0.034427054 0.069265306 0.04000608 0.05276552 0.021801814
00000000: a056 78bb e412 5abc 9e25 17bd 75eb 7abd
00000010: 8cd2 48bc f46d e03c 8074 66ba 7074 b8bb
00000020: b0cf ad3b 1411 f63c 8453 cdbc 800f 2bbd
00000030: 40e4 7bbd 9cb4 ac3c 200f 503d 72ba 813d
00000040: 784e 2c3d 5452 c63c 04d9 b53c 8abf 343d
00000050: 84dd 87bd f068 953b 4039 d5bb 50f5 31bd
00000060: c259 903d e279 0c3d 4012 0cbd 0396 86bd
00000070: 622e 5ebd a013 febb 2214 37bd f76b 18bd
00000080: e4ad 54bc ae61 8e3d 1dab 0abd ec79 553d
00000090: 964b 2f3d 0eaa 6cbd fa6b 3fbd 57fe 4abd
000000a0: 4cd7 49bc 6443 b9bc e0fb 233b 82dd 293d
000000b0: c089 ccbb 8058 353a 40b6 15bc 680a c53c
000000c0: 006b d6b9 c04e 3abb 9ed0 2b3d 9003 e8bb
000000d0: 80c9 2c3d 9ca0 8e3c 3078 bfbb 945b 6f3d
000000e0: f435 133d 544f dfbc 84b7 813c bcc0 ee3c
000000f0: 8841 823d 044b d43c 1065 d3bc f2e8 8dbd
00000100: d661 573d 2428 023d a8f9 773d 748f 7cbd
00000110: f8af 723d 0371 11bd 4dcc 8abd c063 6e3b
00000120: e0af 573b 8803 bd3c 1c6d 71bd aee5 3a3d
00000130: 6a96 243d 40dc 00bb b8cb 9dbc 5249 1b3d
00000140: 8a04 40bd 845d b03c c5ca 1bbd 4888 e13c
00000150: e40b e33c 591e 32bd 54e8 60bd 8471 5bbc
00000160: 4b06 8ebd 64cb fabc 7890 5c3d 140d f93c
00000170: b8a1 3cbd 669b 833d 0016 083b 2c09 923d
00000180: 90a4 643c 8593 6cbd d0d5 183d 201d 4dbb
00000190: 286e 143c f048 a03c 9a37 053d 2801 8a3c
000001a0: 34e7 e03c 8b5c 68bd eec5 473d 3a1e 2d3d
000001b0: 8831 4c3c dc1d 8fbd c8e1 983c 1f01 35bd
000001c0: ace9 8f3c 3e57 0b3d 86db 86bc c45c 713d
000001d0: 805b 6d3d a814 90bc 30dd de3c acc3 43bd
000001e0: 3865 d53c 70f9 78bd 3cad 2bbc d812 763c
000001f0: f06a 7b3d d380 36bd c32b 31bd 5edd 6cbd
00000200: 603b eb3b a22b 863d be67 3ebd ea5a 6ebd
00000210: b637 77bd 34d7 fe3c fc74 5b3d f4aa febc
00000220: 8094 483d b885 593d fcec 21bc 980f 233d
00000230: 3051 80bc 1e86 873d 00b0 0a39 5416 70bc
00000240: 40e1 76bb 0097 643d 5afb 9cbc a875 323c
00000250: 5444 f63c a4d6 ab3c f711 82bd d006 64bd
00000260: 08f6 063d 40a3 e43a da17 89bd 284f 5bbc
00000270: c11b 1dbd 5ee2 0dbd 8002 c1bc ee7b 423d
00000280: da29 c1bc 6b85 39bd 34e4 fa3c f88b 023c
00000290: 84bf 68bc 1adb f6bc 7261 903d a811 d23c
000002a0: 001e fabc 7c97 26bd f55d 25bd 7489 b8bc
000002b0: 0edb eabc 0641 fabc 48ca 6b3d c068 2d3c
000002c0: d4a5 b43c 541f 903d 34ea 0f3d 40d3 c73c
000002d0: 54ba 813d 6014 e6bc 04a8 683d 92ca 813d
000002e0: 00a1 f2bc ba07 04bd 0cbe 44bc 6610 373d
000002f0: 8f9c 1fbd 6883 a63c 3013 29bc 7458 7dbd
00000300: 7021 96bb 6d3d 3fbd 76c8 853d a73f 22bd
00000310: a863 933c e4e9 c03c 6028 203c e45a c33c
00000320: 6c2c 04bd 1240 83bc 00a6 f639 ccf8 593d
00000330: f811 95bc be4e 85bc f4ec 45bd c247 8b3d
00000340: f72c 1dbd 280a 263c 0ca0 73bc 002f 2eba
00000350: e0e3 a0bc 5438 433d 40f3 0cbb f8c4 3f3c
00000360: 00d9 5ebd e0c8 f13b 8e05 893d b415 db3c
00000370: e486 a7bc 40a6 c23c 9d7e 74bd d2a9 56bd
00000380: b6fd 8f3d f826 a93c 4085 2e3c ee42 253d
00000390: e054 b33c 14a7 55bd a280 8d3d d03a 613d
000003a0: 1099 293c e6be 44bd 9c88 8fbd 5070 083d
000003b0: 0575 20bd d46b 4cbd 18a1 293d 2625 3ebd
000003c0: 76b6 403d c43a 35bd 3663 fdbc 602a 52bb
000003d0: c42d 963c 80fe 0c3b 146e 8bbd ab37 21bd
000003e0: 80ac 113b 5cb3 363d 405e 9d3c 6203 0dbd
000003f0: f8da 8d3d 6add 233d a820 583d b899 b23c

network_body.visual_processors.0.conv_layers.2.bias f4 [32]
0.058422834 0.03748125 0.044390842 -0.006285697 0.007106751 -0.034277067 0.038283654 -0.042375892
0.00464382 0.038903624 -0.013606206 -0.03137563 0.022444881 0.015298635 -0.023306802 -0.0528993
0.025160894 -0.0020091534 0.014032766 0.017759204 -0.028692767 -0.0006708726 0.030378312 0.059602857
0.02194833 -0.01224871 0.011413984 0.04569962 0.035574026 0.03453522 0.021514758 -0.053608976
00000000: c84c 6f3d f085 193d 2cd3 353d 40f8 cdbb
00000010: c0df e83b 1c66 0cbd 52cf 1c3d 5892 2dbd
00000020: 302b 983b 6859 1f3d 90ec 5ebc bc83 00bd
00000030: 54de b73c 20a7 7a3c e8ed bebc f0ac 58bd
00000040: 381e ce3c 00ac 03bb b0e9 653c c07b 913c
00000050: 180d ebbc 80dd 2fba f0db f83c 2022 743d
00000060: fccc b33c d0ae 48bc b801 3b3c 862f 3b3d
00000070: 12b6 113d ce74 0d3d b83f b03c 1695 5bbd

network_body.visual_processors.0.conv_layers.2.weight f4 [32, 16, 4, 4]
0.024184555 0.056690745 -0.023841016 -0.018775977 -0.013064191 -0.059481546 -0.03593933 0.04938166
-0.020041138 0.00013117492 -0.06050983 0.010082744 0.056191847 -0.023075484 0.058196984 0.027485356
0.060184523 -0.061719306 0.018517986 0.044820555 -0.011318758 -0.03793747 0.062438637 0.03307236
0.0010379851 -0.0076858997 0.007809587 -0.05316534 -0.019371651 -0.04620394 0.04441686 0.004932396
-0.0070378482 0.022979721 -0.056027777 -0.055357523 0.013001218 0.012851119 -0.01567828 -0.008821636
-0.056583248 -0.04461898 -0.0063889623 -0.030870073 0.034024194 0.009177402 -0.042397246 0.021126948
-0.034459837 0.040018223 -0.049414642 -0.05328443 0.016049162 -0.021056853 -0.00076296926 -0.0036047548
0.011519283 -0.01610092 -0.04826229 -0.025603458 0.017105877 -0.020961039 0.013569288 -0.031022072
-0.05956001 0.0061770976 -0.020366922 -0.016288333 -0.01652594 0.013145089 -0.0049606264 0.05296561
0.025597855 -0.045441568 -0.053069144 0.04124465 0.03707567 -0.042337164 -0.052533902 -0.02193433
0.017588526 -0.036539383 0.04137502 0.054938316 -0.045215182 -0.0031663105 -0.021134935 0.0575139
0.006791584 -0.024159513 -0.02420529 -0.018123493 0.056171082 -0.0045078024 -0.013528638 -0.00039070845
-0.03948064 0.038916126 0.022281721 0.026703127 0.052210145 0.0170933 0.033904053 0.013086326
-0.03621675 -0.061856575 -0.05328507 -0.03369975 0.03876309 0.04177005 0.022742435 -0.045932434
-0.039824337 -0.024982773 0.023962885 0.009235293 0.02976051 0.02156417 0.018660784 -0.020224623
0.0376634 0.05778525 -0.005718939 0.0049084723 0.020843431 -0.02728784 -0.04384058 -0.04320608
-0.056785554 0.017741278 -0.039151855 -0.037044764 0.043102168 0.0060196444 -0.026044227 0.032659665
0.041362263 -0.054726318 -0.04333365 -0.007652633 0.024342768 -0.014540143 0.028868146 -0.053925738
0.058602482 0.06149836 -0.03460657 -0.030902818 -0.021773025 0.004993953 -0.02202215 0.005986452
-0.060458608 0.039946355 -0.058360405 0.05824668 -0.030711517 0.053847283 -0.02697932 0.01470121
-0.028082192 0.042555645 -0.053713858 0.049094863 0.04933489 -0.008714125 0.0003562644 0.044730574
0.0060548037 0.021387592 0.010093398 -0.053706653 0.039160244 -0.030931532 -0.035812773 0.022129722
-0.011174023 -0.05110909 0.04345067 -0.040060505 -0.015283085 0.024461783 0.042680256 0.050929032
-0.060959317 -0.033481635 -0.028604873 0.055364363 -0.032084867 0.0025581867 -0.042437196 -0.032449655
0.04493223 -0.05370348 -0.0001065135 0.026393324 0.03386487 0.019971102 -0.020975038 0.05138255
-0.009610236 -0.05969002 0.051787592 0.011931859 -0.016020678 0.06197226 -0.034162387 -0.031583957
0.018642932 -0.059963807 0.04956139 0.028333806 -0.05619239 -0.05360125 -0.017776601 -0.020008639
0.038861215 0.05572976 0.012775511 -0.030041896 -0.062304653 0.037539333 -0.029523805 -0.059788845
-0.02318599 -0.036387652 0.04928931 -0.03940054 -0.02210953 0.051728457 0.04240448 -0.060119852
0.032831773 -0.025624327 0.03610535 -0.012431361 0.048982628 0.059184693 -0.018901423 0.04640924
0.04900521 -0.05401559 0.04003732 -0.0078054145 -0.03341508 -0.006556697 -0.002196759 0.061775595
-0.05191364 -0.05986803 -0.0051802397 0.0037106648 0.040951185 0.056243487 0.01055716 0.055709295
00000000: b01e c63c 8e34 683d 3c4e c3bc 14d0 99bc
00000010: 300b 56bc eca2 73bd 1e35 13bd 6c44 4a3d
00000020: 502d a4bc 008c 0939 28d9 77bd 1832 253c
00000030: 6c29 663d cc08 bdbc f65f 6e3d f828 e13c
00000040: 0c84 763d 62cd 7cbd 08b3 973c c295 373d
00000050: 5072 39bc 5264 1bbd a8bf 7f3d e276 073d
00000060: 000d 883a 00da fbbb 90e7 ff3b e6c3 59bd
00000070: 4cb1 9ebc 5840 3dbd 74ee 353d f09f a13b
00000080: c09d e6bb f83f bc3c 627d 65bd 92be 62bd
00000090: 1003 553c 808d 523c bc6f 80bc a088 10bc
000000a0: d6c3 67bd 64c2 36bd 805a d1bb 3ce3 fcbc
000000b0: f45c 0b3d d05c 163c bca8 2dbd 6c12 ad3c
000000c0: c225 0dbd 26ea 233d 0267 4abd c640 5abd
000000d0: 8879 833c 6c7f acbc 0002 48ba c03d 6cbb
000000e0: 60bb 3c3c 14e6 83bc aeae 45bd 58be d1bc
000000f0: a021 8c3c 7cb6 abbc b851 5e3c 0022 febc
00000100: 32f5 73bd 4069 ca3b 88d8 a6bc 1c6f 85bc
00000110: 6861 87bc 805e 573c c08c a2bb 78f2 583d
00000120: 98b2 d13c f020 3abd 085f 59bd 26f0 283d
00000130: a8dc 173d bc69 2dbd ca2d 57bd a0af b3bc
00000140: d015 903c 52aa 15bd da78 293d 0007 613d
00000150: 8e33 39bd e081 4fbb 2c23 adbc b293 6b3d
00000160: f08b de3b 2cea c5bc 2c4a c6bc b877 94bc
00000170: a613 663d 30b6 93bb 38a7 5dbc 00d8 ccb9
00000180: 74b6 21bd 8466 1f3d 2888 b63c 84c0 da3c
00000190: 4eda 553d 4007 8c3c fade 0a3d 0868 563c
000001a0: 0458 14bd 525d 7dbd 7241 5abd c008 0abd
000001b0: 0cc6 1e3d 1217 2b3d 584e ba3c a623 3cbd
000001c0: d81e 23bd aca8 ccbc d04d c43c a04f 173c
000001d0: 50cc f33c 58a7 b03c 80de 983c 1cae a5bc
000001e0: f044 1a3d 3ab0 6c3d f065 bbbb 40d7 a03b
000001f0: d8bf aa3c c08a dfbc 2e92 33bd dcf8 30bd
00000200: f897 68bd 2856 913c b25d 20bd 40bc 17bd
00000210: e68b 303d 7040 c53b b45a d5bc 24c6 053d
00000220: 7a6b 293d b428 60bd a07e 31bd f0c2 fabb
00000230: 7c6a c73c c839 6ebc e47c ec3c 3ce1 5cbd
00000240: 2809 703d b4e5 7b3d 9ebf 0dbd e827 fdbc
00000250: 585d b2bc 50a4 a33b cc67 b4bc 002a c43b
00000260: 72a3 77bd ca9e 233d 520b 6fbd 1294 6e3d
00000270: b896 fbbc f88e 5c3d bc03 ddbc 58dd 703c
00000280: a00c e6bc d44e 2e3d 1003 5cbd b217 493d
00000290: 6213 4a3d b0c5 0ebc 00c9 ba39 6837 373d
000002a0: 6067 c63b 0835 af3c c85e 253c 82fb 5bbd
000002b0: 7e66 203d 2064 fdbc 6ab0 12bd 6449 b53c
000002c0: 4013 37bc c457 51bd 54f9 313d 7c16 24bd
000002d0: e865 7abc 1464 c83c 7ed1 2e3d f69a 503d
000002e0: 7ab0 79bd 0a24 09bd c454 eabc bec5 623d
000002f0: 6c6b 03bd 40a7 273b a0d2 2dbd eee9 04bd
00000300: dc0a 383d 2ef8 5bbd 0060 dfb8 d036 d83c
00000310: e4b5 0a3d 709a a33c d8d3 abbc 8276 523d
00000320: 4074 1dbc 867d 74bd 3a1f 543d d87d 433c
00000330: cc3d 83bc a0d6 7d3d dced 0bbd 2e5e 01bd
00000340: 10b9 983c 9c9c 75bd e200 4b3d 4c1c e83c
00000350: fe29 66bd fc8c 5bbd 3ca0 91bc 28e9 a3bc
00000360: f02c 1f3d e444 643d 6050 513c 6c1a f6bc
00000370: 2a33 7fbd d8c2 193d e8db f1bc 26e5 74bd
00000380: 8cf0 bdbc 380b 15bd 96e3 493d 7662 21bd
00000390: 0c1f b5bc 38e1 533d 52b0 2d3d 3c40 76bd
000003a0: 9c7a 063d 1cea d1bc 34e3 133d e8ac 4bbc
000003b0: 02a2 483d a66b 723d 28d7 9abc 9e17 3e3d
000003c0: b0b9 483d 743f 5dbd 2cfe 233d 90c4 ffbb
000003d0: 40de 08bd 90d9 d6bb 80f7 0fbb 6808 7d3d
000003e0: 66a3 54bd 2e38 75bd 00bf a9bb a02e 733b
000003f0: 6ebc 273d 925f 663d f0f7 2c3c 6e2f 643d

network_body.visual_processors.0.dense.0.bias f4 [128]
0.0 0.0 0.0 0.0 0.0 0.0 0.0 0.0
0.0 0.0 0.0 0.0 0.0 0.0 0.0 0.0
0.0 0.0 0.0 0.0 0.0 0.0 0.0 0.0
0.0 0.0 0.0 0.0 0.0 0.0 0.0 0.0
0.0 0.0 0.0 0.0 0.0 0.0 0.0 0.0
0.0 0.0 0.0 0.0 0.0 0.0 0.0 0.0
0.0 0.0 0.0 0.0 0.0 0.0 0.0 0.0
0.0 0.0 0.0 0.0 0.0 0.0 0.0 0.0
0.0 0.0 0.0 0.0 0.0 0.0 0.0 0.0
0.0 0.0 0.0 0.0 0.0 0.0 0.0 0.0
0.0 0.0 0.0 0.0 0.0 0.0 0.0 0.0
0.0 0.0 0.0 0.0 0.0 0.0 0.0 0.0
0.0 0.0 0.0 0.0 0.0 0.0 0.0 0.0
0.0 0.0 0.0 0.0 0.0 0.0 0.0 0.0
0.0 0.0 0.0 0.0 0.0 0.0 0.0 0.0
0.0 0.0 0.0 0.0 0.0 0.0 0.0 0.0
00000000: 0000 0000 0000 0000 0000 0000 0000 0000
00000010: 0000 0000 0000 0000 0000 0000 0000 0000
00000020: 0000 0000 0000 0000 0000 0000 0000 0000
00000030: 0000 0000 0000 0000 0000 0000 0000 0000
00000040: 0000 0000 0000 0000 0000 0000 0000 0000
00000050: 0000 0000 0000 0000 0000 0000 0000 0000
00000060: 0000 0000 0000 0000 0000 0000 0000 0000
00000070: 0000 0000 0000 0000 0000 0000 0000 0000
00000080: 0000 0000 0000 0000 0000 0000 0000 0000
00000090: 0000 0000 0000 0000 0000 0000 0000 0000
000000a0: 0000 0000 0000 0000 0000 0000 0000 0000
000000b0: 0000 0000 0000 0000 0000 0000 0000 0000
000000c0: 0000 0000 0000 0000 0000 0000 0000 0000
000000d0: 0000 0000 0000 0000 0000 0000 0000 0000
000000e0: 0000 0000 0000 0000 0000 0000 0000 0000
000000f0: 0000 0000 0000 0000 0000 0000 0000 0000
00000100: 0000 0000 0000 0000 0000 0000 0000 0000
00000110: 0000 0000 0000 0000 0000 0000 0000 0000
00000120: 0000 0000 0000 0000 0000 0000 0000 0000
00000130: 0000 0000 0000 0000 0000 0000 0000 0000
00000140: 0000 0000 0000 0000 0000 0000 0000 0000
00000150: 0000 0000 0000 0000 0000 0000 0000 0000
00000160: 0000 0000 0000 0000 0000 0000 0000 0000
00000170: 0000 0000 0000 0000 0000 0000 0000 0000
00000180: 0000 0000 0000 0000 0000 0000 0000 0000
00000190: 0000 0000 0000 0000 0000 0000 0000 0000
000001a0: 0000 0000 0000 0000 0000 0000 0000 0000
000001b0: 0000 0000 0000 0000 0000 0000 0000 0000
000001c0: 0000 0000 0000 0000 0000 0000 0000 0000
000001d0: 0000 0000 0000 0000 0000 0000 0000 0000
000001e0: 0000 0000 0000 0000 0000 0000 0000 0000
000001f0: 0000 0000 0000 0000 0000 0000 0000 0000
