com.unity.ml-agents.tests/Tests/Editor/TestModels/discrete_rank2_vector_v2_0.onnx (onnx, 506978 bytes, 23 tensors)

186 f4 [151, 128]
0	0x3ca2fe2a	0.019896585
1	0xbc1a6e8e	-0.009425772
2	0xbafe6b24	-0.0019410593
3	0xbc875dc1	-0.016524198
4	0xbc3923ee	-0.01130007
5	0xbcba58c1	-0.0227474
6	0x3ce81b2d	0.02833327
7	0xbb932e22	-0.0044915834
8	0xbd152cc8	-0.03641966
9	0x3db46a08	0.08809286
10	0x3ce6dcd0	0.028181463
11	0x3d2751f4	0.04084964
12	0x3c82b7bb	0.01595675
13	0x3c84a9fd	0.016194338
14	0x3cb56347	0.022142066
15	0x3c3c0529	0.01147584
16	0xbc9feea4	-0.019522972
17	0x3d0f70b2	0.035019584
18	0x3d4dabc1	0.050212625
19	0xbd0db256	-0.034593903
20	0xbd20f792	-0.0392986
21	0x3d30089a	0.042976953
22	0xbcc79416	-0.024362605
23	0x3c9b947e	0.018991705
24	0x3ce23824	0.02761466
25	0x3cea3e99	0.028594302
26	0xbb2895c6	-0.0025724038
27	0xbca60ab4	-0.020268776
28	0x3c5575d7	0.0130285835
29	0x3ce8b4df	0.028406559
30	0x3c95d839	0.01829158
31	0x3c7d3105	0.015453582
32	0x3c3feab4	0.011713672
33	0xbb54a017	-0.0032444054
34	0xbceadd1c	-0.028669886
35	0x3d0ad1d1	0.033891503
36	0x3cad515a	0.021156956
37	0x3ceb6089	0.028732555
38	0x3d93b3b5	0.07212011
39	0x3d3a389b	0.04546414
40	0x3bbb9839	0.0057249335
41	0xbd796342	-0.060885675
42	0x3c2cd3fe	0.01054859
43	0x3caaa315	0.020829717
44	0x3c0aa49a	0.008462096
45	0x3d0c1ad7	0.034205284
46	0xbb41884c	-0.0029530702
47	0x3c55a4fd	0.013039825
48	0xbd1c70cc	-0.03819351
49	0xbb14e55b	-0.0022719714
50	0x3cf83e83	0.030303245
51	0x3c078a8c	0.008272778
52	0x3cbc4cf1	0.022985907
53	0xbcd26d1b	-0.025686791
54	0xbcbaf8e1	-0.022823753
55	0x3d25b421	0.040454987
56	0xbd442f36	-0.047896586
57	0x3cd6ab4f	0.026204733
58	0xbb4a6d64	-0.0030887956
59	0xbc059287	-0.008152611
60	0xbcb2e9e4	-0.021840043
61	0xbacdb72e	-0.0015694851
62	0x3c8acd71	0.016943665
63	0xbc7488aa	-0.014925161
64	0x3c4b1244	0.012394492
65	0x3c697276	0.014248481
66	0xbd008dba	-0.03138516
67	0x3c16c510	0.009202257
68	0x3cf0f4c2	0.029413585
69	0xbc8e4f14	-0.017371692
70	0xbcafc0e1	-0.021454277
71	0xbce9cc92	-0.02853993
72	0xbce98106	-0.028503906
73	0x3d0b0cb0	0.033947647
74	0xbb5debef	-0.0033862551
75	0x3d546160	0.051850677
76	0xbd6625b0	-0.056188285
77	0x3c9d5322	0.01920468
78	0x3bbccd6c	0.005761793
79	0x3b179b51	0.0023133347
80	0x3d0974cd	0.033558656
81	0x3b558138	0.003257824
82	0xbc4131a5	-0.011791621
83	0xbccda2a7	-0.025101973
84	0xbd59a38c	-0.053134486
85	0xbce4d8fd	-0.0279355
86	0xbb196300	-0.0023404956
87	0x3d45ff5b	0.04833923
88	0xba4d905b	-0.000784164
89	0xbd760e1c	-0.06007205
90	0x3d07d93a	0.033166148
91	0xbd04a9ec	-0.032388613
92	0x3cc26951	0.02373186
93	0x3cd5af63	0.026084607
94	0x3c7cec16	0.015437147
95	0xb826b696	-3.974753e-05
96	0xbb249a09	-0.0025116226
97	0x3d1f9c95	0.038967688
98	0x3ce959b9	0.028485166
99	0x3d05ca8c	0.032663867
100	0x3cfef485	0.031122455
101	0x3ce6afad	0.02815994
102	0xbd02f7ee	-0.031974725
103	0xbd3f52c5	-0.046709795
104	0xbd19046c	-0.037357733
105	0x3d09f56f	0.03368133
106	0xbd426c9b	-0.047466855
107	0xbd313419	-0.043262575
108	0xbbd72ce4	-0.0065666307
109	0xbc761dd5	-0.015021761
110	0x39cf4f43	0.0003954117
111	0xbcbe9181	-0.023262741
112	0xbcefb009	-0.029258745
113	0xbce8bfa6	-0.028411698
114	0x3a80e393	0.0009833447
115	0x3c8651b7	0.016396387
116	0xbd53440e	-0.051578574
117	0x3d08d780	0.03340864
118	0x3bc5dc86	0.0060382513
119	0xbc0cb56e	-0.008588178
120	0xbc9ff070	-0.01952383
121	0xbc873719	-0.016505765
122	0x3c951015	0.018196145
123	0xbc2194c3	-0.009862128
124	0x3c9f0725	0.019412586
125	0xbd33f9bf	-0.04393935
126	0x3d936abc	0.07198092
127	0xbb58cb39	-0.0033080115
128	0xbd36d949	-0.044640813
129	0xbb886a47	-0.00416306
130	0xbd197bb2	-0.03747148
131	0xbc855208	-0.016274467
132	0x3c1b406c	0.009475809
133	0x3c52c96a	0.012865404
134	0x3d70ad4a	0.05875901
135	0x3bff1429	0.0077843857
136	0x3c34aef0	0.0110280365
137	0x3cd2723d	0.025689239
138	0xbc70ecf0	-0.014704928
139	0xbc15f8a4	-0.009153519
140	0xbce11df0	-0.027480096
141	0xbab63324	-0.0013900739
142	0xbca9f930	-0.020748705
143	0x3c6e5460	0.014546484
144	0x3d46be5f	0.048521396
145	0xbc999c27	-0.018751217
146	0xbcf8e578	-0.030382857
147	0x3c867da2	0.016417328
148	0x3cd87963	0.02642507
149	0xbb3dfd23	-0.0028989993
150	0x3d164044	0.036682382
151	0xbd1e4534	-0.038640216
152	0xbd1c6bdc	-0.0381888
153	0xbc97f66c	-0.01855012
154	0xbc777912	-0.015104549
155	0x3ce70fda	0.0282058
156	0xbc265364	-0.010151718
157	0xbc5fd0f0	-0.013660654
158	0x3beb8d43	0.0071884706
159	0x3d2f4b96	0.042796694
160	0x3c0d4e77	0.0086246645
161	0x3cfe7da4	0.03106577
162	0xbd954f62	-0.07290532
163	0x3c44fd4a	0.012023279
164	0xbda5ddda	-0.080989555
165	0x3d9b7394	0.07590404
166	0xbca2e723	-0.019885605
167	0xbd4555ff	-0.048177715
168	0x3c0ca0f0	0.008583292
169	0x3d0fca5e	0.0351051
170	0xbc76f6c0	-0.015073478
171	0xbd864fd3	-0.06558194
172	0x3ccb59f8	0.024823174
173	0x3b661fba	0.0035114125
174	0xbd133027	-0.035934594
175	0xbc7cac08	-0.015421875
176	0x3b16c529	0.00230057
177	0x3d6532a5	0.0559565
178	0x3d7c7212	0.061632223
179	0xbdb296d6	-0.08720176
180	0xbd5c1919	-0.053734872
181	0x3c1d09b8	0.009584837
182	0xbcab572b	-0.020915588
183	0xbd0a7b24	-0.033808842
184	0x3cdb590c	0.02677586
185	0x3d1354c8	0.035969526
186	0xbcc3569f	-0.023845015
187	0x3cd79b38	0.026319131
188	0x3be24d75	0.0069062063
189	0xbc3bf13d	-0.01147109
190	0x3d1f4f76	0.03889414
191	0xbcd91a3c	-0.026501767
192	0xbc95b117	-0.01827292
193	0x3d16432a	0.036685146
194	0xbb71e1f7	-0.0036908367
195	0x3c3e6b57	0.0116222715
196	0xbc0ec7a5	-0.008714591
197	0xbb89cf4b	-0.0042056195
198	0x3b7c40c7	0.0038490759
199	0xbb12f009	-0.0022420904
200	0xbd369115	-0.044571955
201	0xbcdd598d	-0.02702024
202	0xbcef792e	-0.029232588
203	0xb95c7e17	-0.00021027807
204	0xbd813bb2	-0.06310214
205	0x3be85bb3	0.0070910095
206	0x3c1f7246	0.009731835
207	0xbd2f7d84	-0.04284431
208	0xbd152206	-0.0364094
209	0xbcc3dbf8	-0.0239086
210	0xbc500d3d	-0.012698469
211	0xbcfcb770	-0.030849189
212	0xbcb46250	-0.022019535
213	0xbcd3f372	-0.02587292
214	0x3c9f2d35	0.019430736
215	0x3d14e32a	0.036349453
216	0x3d15b2b5	0.03654738
217	0x3d3959e1	0.04525173
218	0xbd065006	-0.03279116
219	0x3d008923	0.031380784
220	0xbc6d74b6	-0.014493158
221	0x3c8cdb24	0.017194338
222	0x3d40fb7e	0.04711484
223	0x3b8ee2ea	0.0043605464
224	0x3bdaedbb	0.0066811717
225	0xbc7ac409	-0.0153055275
226	0x3ba4b617	0.0050265896
227	0x3d94bfb3	0.07263126
228	0x3c32c20a	0.01091052
229	0x3c8246ac	0.01590284
230	0xbc811706	-0.015758049
231	0xbc80fce7	-0.015745593
232	0x3c341d25	0.010993277
233	0xbcd741c3	-0.026276475
234	0x3d832670	0.06403816
235	0xbceb6834	-0.028736211
236	0xbd184b06	-0.037180923
237	0x3d19566a	0.037435926
238	0x3b0084e9	0.001961047
239	0xbbe914fc	-0.0071130972
240	0x3c4efd77	0.012633673
241	0x3bf8c516	0.007591854
242	0x399c1666	0.00029771327
243	0xbb126d1e	-0.002234287
244	0xbd0d0ee1	-0.034438018
245	0x3d87998c	0.066210836
246	0x3d0f506c	0.034988806
247	0x3d03c67d	0.032171715
248	0xbc229461	-0.009923072
249	0x3c30ff10	0.010802999
250	0xbc3b406d	-0.0114289345
251	0xbbe6a108	-0.0070382394
252	0xbc421862	-0.011846634
253	0x3d501f4d	0.0508111
254	0x3d2c00fa	0.04199312
255	0xbcfa343a	-0.030542482

188 f4 [128, 128]
0	0x3c9b2a8b	0.018941185
1	0x3d67a3c6	0.05655267
2	0xbd101845	-0.035179395
3	0xbc9f6f23	-0.019462174
4	0xbcc5fc94	-0.02416829
5	0xbc00e935	-0.007868101
6	0x3ccbeabf	0.02489221
7	0xbb3566c9	-0.0027679673
8	0xbbe7f01d	-0.0070781843
9	0x3c16547b	0.009175415
10	0x3cc7dc85	0.024397144
11	0xbca78f90	-0.020454198
12	0x3c82e530	0.015978426
13	0xbcbd845a	-0.0231344
14	0x3d33e3f3	0.04391856
15	0xbc162373	-0.009163725
16	0x3d25de40	0.040495157
17	0xbc11ca1a	-0.008898282
18	0x3c8883b8	0.01666437
19	0x3c80c839	0.015720474
20	0x3cec8041	0.02886975
21	0x3cec5651	0.028849753
22	0x3b24e80d	0.0025162727
23	0xbd081217	-0.033220377
24	0xbaab52e0	-0.0013070963
25	0xbb8302ef	-0.0039981524
26	0xbd1a8144	-0.037720934
27	0x3dc48c63	0.09597089
28	0xbc0f287a	-0.008737678
29	0x3c09141d	0.008366612
30	0xbca829db	-0.02052777
31	0xbcee4eb0	-0.029090255
32	0xbbfb6b40	-0.0076726973
33	0x3cf7317f	0.030174969
34	0x3d3ec9ca	0.04657916
35	0xbd7355e0	-0.05940807
36	0xbc19ed76	-0.009394994
37	0x3c051be0	0.008124322
38	0xbce5601f	-0.027999936
39	0xbd4a80a4	-0.049439088
40	0x3d49c570	0.049260557
41	0x3c7743eb	0.0150918765
42	0x3c8a9d79	0.016920792
43	0x3c648480	0.013947606
44	0x3a18975c	0.0005820894
45	0x3c553f83	0.013015631
46	0x3ca112b8	0.019662246
47	0xbd04fa0b	-0.032465022
48	0xbbff43b6	-0.007790054
49	0x3c551cc8	0.01300735
50	0xbd5db94b	-0.054131787
51	0x3d24a539	0.04019663
52	0xbcdb669d	-0.026782328
53	0xbc9d1913	-0.019176995
54	0xbd1fe8ec	-0.03904049
55	0x3c541940	0.012945473
56	0x3cc6c19c	0.024262242
57	0x3c4f9957	0.012670836
58	0xbcf04aed	-0.029332602
59	0xbba988aa	-0.0051737623
60	0x3c7e8372	0.015534269
61	0xbbb6cf23	-0.005578892
62	0x3d681dc8	0.056669027
63	0x3c417d43	0.01180965
64	0xbcf56782	-0.029956583
65	0xbc9d0076	-0.019165259
66	0xbc13e8cf	-0.009027674
67	0xbc2e9557	-0.010655723
68	0xbdb0292b	-0.08601602
69	0xbc07b8fe	-0.008283852
70	0x3c1e9433	0.009678888
71	0xbc20f722	-0.009824546
72	0x3c1dc27d	0.009628889
73	0xbcf6a7f6	-0.030109387
74	0xbaa82ead	-0.0012831293
75	0x3c8c5bd4	0.01713363
76	0x3c43a682	0.011941554
77	0x3cb4b3c8	0.022058383
78	0xbbd8329a	-0.006597829
79	0x3c437a82	0.011931064
80	0xbbf4fdaa	-0.007476528
81	0x3d7cf11f	0.06175339
82	0xbb8fbec6	-0.0043867556
83	0xbd431025	-0.04762282
84	0xbcf37e3e	-0.029723283
85	0x3c499453	0.01230343
86	0xbd3b1f76	-0.0456843
87	0xbc73cffa	-0.014881128
88	0xbd1943f9	-0.03741834
89	0xbcf601e6	-0.030030202
90	0x3c6116f6	0.0137383845
91	0xba4f641b	-0.000791134
92	0x3c916ab0	0.017751068
93	0xbd1d7dfb	-0.038450222
94	0xbced32c7	-0.028954877
95	0x3b2d7886	0.0026469543
96	0x3b33fe67	0.0027464868
97	0x3d78917b	0.060685616
98	0x3c9881e3	0.018616622
99	0xbcf712f0	-0.030160397
100	0xbd19134b	-0.037371915
101	0xba095729	-0.0005239123
102	0x3bc99125	0.006151336
103	0x3d110280	0.035402775
104	0x3d00a8db	0.031411033
105	0x3cbea9ac	0.023274265
106	0xbd764113	-0.060120653
107	0xbc9a973d	-0.018870944
108	0xba2b9f67	-0.0006546885
109	0xbd99bc84	-0.075066596
110	0xbb0586fa	-0.0020374642
111	0x3cf9e976	0.03050683
112	0x3c235c29	0.009970703
113	0xbcae6108	-0.021286502
114	0xbc9100f9	-0.01770066
115	0x3c753e3f	0.014968454
116	0xbd0014c6	-0.03126981
117	0x3d207601	0.039175037
118	0xbd059dc4	-0.03262116
119	0xbc0aa5f5	-0.008462419
120	0xbc2ce3ef	-0.0105523905
121	0x3c948069	0.018127637
122	0xbc874eb1	-0.016517015
123	0x3ca2332e	0.019799795
124	0x3c4c16b2	0.012456583
125	0xbd1c854e	-0.038213067
126	0x3cc98f41	0.024604442
127	0xbcc9a6ef	-0.024615733
128	0xb990c3ea	-0.00027611788
129	0xbc392889	-0.011301168
130	0xbc6784db	-0.014130796
131	0x3c901c33	0.017591571
132	0x3ccfa6cb	0.025348088
133	0xbcfe2e65	-0.031027982
134	0x3c90fe9e	0.017699536
135	0xbcdd3021	-0.027000489
136	0xbd2e6350	-0.04257518
137	0x3c8bf02e	0.0170823
138	0x3c6eedd6	0.014583072
139	0x3cac9f14	0.021071948
140	0x3d5cf510	0.053944647
141	0xbcd84ae6	-0.026402902
142	0x3ca53948	0.020168915
143	0x3d10cfeb	0.035354536
144	0x39f7f8ed	0.00047296975
145	0x3d653720	0.055960774
146	0x39bf34e9	0.0003646978
147	0x3a8f995c	0.0010955739
148	0xbc380d1f	-0.011233597
149	0x3a90c732	0.0011045693
150	0xbd1de25b	-0.038545948
151	0xbc1f6377	-0.009728304
152	0xbca874a2	-0.020563427
153	0x3d59e352	0.053195305
154	0x3c2ba3f7	0.010476104
155	0xbbceeabe	-0.0063146045
156	0xbb188534	-0.0023272755
157	0xbd100252	-0.035158463
158	0xbc062221	-0.008186848
159	0x3c7e3de0	0.015517682
160	0xbaa02c14	-0.0012220168
161	0x3d2995cd	0.041402627
162	0xbcde64ea	-0.027147729
163	0xbc6fc269	-0.014633753
164	0x3ccb28c6	0.024799716
165	0xbd93b511	-0.0721227
166	0xbc920bc4	-0.017827876
167	0x3c9fdf55	0.019515673
168	0xbcdbf17b	-0.026848545
169	0xbd51c235	-0.0512106
170	0xbd18552a	-0.037190594
171	0xbd6df693	-0.05809648
172	0xbc2c5aa1	-0.0105196545
173	0x3bf5cfe6	0.00750159
174	0x3c93ece5	0.018057296
175	0xba0ea5e7	-0.00054415915
176	0x3a1f939e	0.00060873653
177	0xbcddab9e	-0.027059373
178	0x3d21d020	0.039505124
179	0x3d4d62a9	0.050142918
180	0x3d07f984	0.03319694
181	0xbce07ad7	-0.027402325
182	0xbc627f7b	-0.013824339
183	0xbd022a2c	-0.0317785
184	0x3d004b51	0.031321827
185	0xbcfbe041	-0.030746581
186	0xbd8a269d	-0.06745646
187	0xbd67cae9	-0.056589995
188	0x3d06caf7	0.032908406
189	0xbcea7f55	-0.02862517
190	0xbccd64cd	-0.02507248
191	0xbc8e14bd	-0.017343873
192	0x3d187f08	0.03723052
193	0x3d2b6752	0.04184658
194	0xbcaa500f	-0.020790128
195	0x3c7c0012	0.015380876
196	0x3cd602ea	0.026124436
197	0x3ccafca3	0.02477867
198	0x3cf87b9f	0.030332385
199	0x3d4be242	0.049776323
200	0x3d0ff5c2	0.035146482
201	0xba5c66fd	-0.00084076804
202	0xbd6caf2b	-0.05778424
203	0x3cadc277	0.021210892
204	0xbcbfb9ba	-0.023403991
205	0x3d917425	0.07102231
206	0x3cd52e89	0.026023166
207	0xbd0cd27f	-0.034380432
208	0xbc9a933c	-0.018869035
209	0xbd623c96	-0.05523356
210	0x3c30b1d8	0.010784589
211	0xbb1b8b28	-0.0023734067
212	0x3d7cfec4	0.0617664
213	0x3d2c57e3	0.042076003
214	0xbc809d78	-0.015700087
215	0x3c8e6473	0.017381882
216	0x3c477f07	0.012176282
217	0x3d34b6b5	0.044119556
218	0x3b3faa36	0.002924574
219	0xba3464fa	-0.0006881502
220	0xbcd6dacd	-0.02622738
221	0x3c69d062	0.014270874
222	0xbc17ca8f	-0.009264602
223	0xb8eb6253	-0.000112239875
224	0xbc438893	-0.011934417
225	0x3a850317	0.0010148016
226	0x3c8657cd	0.016399289
227	0x3d3f636b	0.04672567
228	0x3d9687ed	0.073501445
229	0xbba92dd5	-0.0051629343
230	0x3d0c12f8	0.034197778
231	0xbc6104ea	-0.013734082
232	0x3c6a52ea	0.014301995
233	0x3d0004cc	0.031254575
234	0x3ac7a5b4	0.0015231878
235	0x3c0ede13	0.008719939
236	0x3d130565	0.035893817
237	0xbc6e4f68	-0.014545299
238	0x3cc08f14	0.023505725
239	0xbaef256d	-0.0018245407
240	0x3c1bf18f	0.009518041
241	0x3cb42247	0.021989001
242	0x3bb0a74b	0.0053910366
243	0xbcb7e008	-0.022445694
244	0xbc88bb99	-0.016691016
245	0x3d6cd8df	0.057824012
246	0x3bc78189	0.00608844
247	0xbd14abe2	-0.036296733
248	0x3ce059f9	0.027386652
249	0xbc5dfa82	-0.013548495
250	0x3c55aa96	0.013041159
251	0x3c15b65a	0.009137714
252	0xbc954618	-0.0182219
253	0xbba1d326	-0.004938501
254	0x3b36e7e2	0.002790921
255	0x3c26f2b8	0.010189705

189 f4 [128, 128]
0	0x3b94e527	0.0045439187
1	0xbd0cd520	-0.03438294
2	0xbbf17037	-0.0073681134
3	0x3c41dd7d	0.011832592
4	0x3bb5b904	0.005545737
5	0xbc75d303	-0.015003922
6	0xbc0d2a02	-0.0086159725
7	0xbcbc1929	-0.022961216
8	0xbc7b21a5	-0.015327846
9	0xbbf061a7	-0.00733586
10	0x3c57c3f2	0.013169276
11	0xbab2abb2	-0.0013631491
12	0xbbd1f318	-0.006407153
13	0xbd5c1e3c	-0.05373977
14	0x3d046284	0.032320514
15	0xbc0f5c78	-0.008750074
16	0xbd08e617	-0.033422556
17	0xbc851c3f	-0.01624882
18	0x3c097831	0.008390472
19	0x3d02bbaa	0.03191725
20	0xbd124401	-0.035709385
21	0xbd0b106f	-0.03395122
22	0x3d3108e2	0.043221362
23	0x3d8137d5	0.06309477
24	0x3c70d9d4	0.014700372
25	0xbb113362	-0.002215587
26	0x3c2aa9e4	0.010416482
27	0x3cef1318	0.02918391
28	0x3b33fb11	0.002746288
29	0xbc02edd9	-0.007991278
30	0xbd422fe4	-0.047408953
31	0x3d0df7cc	0.034660146
32	0xbd3ec46f	-0.046574052
33	0xbd0a6dac	-0.033795998
34	0xbd8bebad	-0.06832061
35	0xbcf811b8	-0.030281886
36	0x3d295a22	0.041345723
37	0x3d27bb1c	0.040949926
38	0x3d962974	0.07332125
39	0xbbc5e0dd	-0.0060387687
40	0x3c77ce0a	0.015124807
41	0x3ce1e17d	0.027573342
42	0x3b143015	0.0022611667
43	0xbcbbc3eb	-0.02292057
44	0x3b5f4a02	0.0034071212
45	0xbc02a00c	-0.007972728
46	0x3ccf7e20	0.025328696
47	0x3d26c8fe	0.040719025
48	0x3bc3fecf	0.0059813033
49	0xbca790b8	-0.02045475
50	0x3d0a7e55	0.033811886
51	0x3cf4d658	0.029887363
52	0x3d25526f	0.040361818
53	0xbc73a47e	-0.014870761
54	0xbcff2729	-0.031146603
55	0xbcb06745	-0.021533618
56	0xbd1c696d	-0.03818648
57	0x3b927731	0.004469775
58	0x3d8ced81	0.06881238
59	0x3c904cc8	0.017614737
60	0xbd50cf7d	-0.050979126
61	0x3d66488a	0.056221522
62	0xbc3f0b1e	-0.011660365
63	0xbc89d1c8	-0.016823664
64	0xbcc72589	-0.02430989
65	0x3c53ec8d	0.012934816
66	0x3ca0019e	0.019532021
67	0x3cc241b1	0.023712965
68	0x3ce9eb95	0.028554717
69	0xbcd9d361	-0.026590051
70	0x3d010f24	0.03150858
71	0x3a03c649	0.00050268
72	0x3d451062	0.048111327
73	0xbca5798b	-0.020199558
74	0x3ba055eb	0.0048930547
75	0xbc93dbd4	-0.018049158
76	0x3d2c1c24	0.042019024
77	0xb917c70b	-0.00014474631
78	0x3bbdd654	0.005793372
79	0xbcde8e76	-0.02716754
80	0xbbdc8f9a	-0.006730986
81	0xbbaafbd2	-0.0052180076
82	0xbcaff195	-0.0214775
83	0xbc9bd858	-0.01902406
84	0xbc58c162	-0.0132297
85	0xbc45d867	-0.01207552
86	0x3c798b48	0.015230961
87	0x3afb9697	0.001919466
88	0x3cfd354d	0.030909205
89	0x3be68ab7	0.007035579
90	0x3910de0b	0.00013815628
91	0x3d249d62	0.040189154
92	0x3c6de2a4	0.014519367
93	0x3d43b495	0.04777964
94	0xbcc1f626	-0.023676943
95	0xbd2bfda7	-0.04198995
96	0xbc9b2785	-0.018939743
97	0xbd08f23e	-0.033434145
98	0xbb1bdf74	-0.0023784311
99	0xbd247a3d	-0.040155638
100	0x3bf08d48	0.007341061
101	0x3c027be3	0.007964107
102	0x3d07858e	0.033086352
103	0x3d32689a	0.043556787
104	0xbcf8942b	-0.03034409
105	0x3ca0abb0	0.019613117
106	0x3c9d9c9f	0.019239722
107	0xbd3646ae	-0.044501
108	0xbb3feaac	-0.0029284162
109	0xbcd72540	-0.02626288
110	0xbdaccd83	-0.08437636
111	0x3ca987fd	0.020694727
112	0x3d659f16	0.05605992
113	0x3cd7d373	0.026345944
114	0xbced23b3	-0.028947687
115	0x3dc38a06	0.0954781
116	0xbdb6b08f	-0.08920395
117	0xbd00a6ae	-0.031408958
118	0xbc11c776	-0.008897653
119	0xbd21d060	-0.039505363
120	0xbc89045f	-0.016725717
121	0x3c15cb55	0.009142716
122	0x3ca5042f	0.020143596
123	0x3caf51de	0.021401342
124	0x3b3b7fc2	0.0028610085
125	0xbc80a242	-0.01570237
126	0xbc0c4658	-0.008561693
127	0x3bd0d467	0.0063729766
128	0x3cf90ca1	0.03040153
129	0xbb1b29ba	-0.0023675994
130	0xbc12d6d8	-0.008962356
131	0xbc6f1ce1	-0.014594288
132	0xbd219961	-0.039452914
133	0xbbca7c5a	-0.0061793746
134	0x3d5bce37	0.05366346
135	0x3c633657	0.013867936
136	0xbd81132a	-0.063024834
137	0xbc820e96	-0.015876096
138	0xba7c79d7	-0.00096311927
139	0xbc5d890c	-0.013521444
140	0xbcc0d80c	-0.02354052
141	0x3b8db356	0.004324357
142	0xb8a89cc9	-8.040068e-05
143	0xbc88dafc	-0.016705982
144	0x3baca4f9	0.0052686897
145	0xbcf990ca	-0.030464549
146	0xba17e159	-0.0005793772
147	0x3d25b091	0.04045159
148	0x3cafdfff	0.021469114
149	0xbcde998f	-0.027172832
150	0xbd2a3632	-0.04155559
151	0x3c7e33a2	0.01551524
152	0x3d374426	0.044742726
153	0x3a090959	0.0005227528
154	0x3ca926fa	0.020648468
155	0xbccac33f	-0.024751304
156	0xba9533ef	-0.0011383275
157	0x3b74de20	0.0037363842
158	0xbc1fe27f	-0.009758591
159	0xbbfea5c3	-0.007771225
160	0xbb85a83f	-0.0040788944
161	0x3d6613b5	0.056171138
162	0xbdc740b4	-0.09729138
163	0x3d3a221a	0.045442678
164	0x3ba0c5bc	0.0049063843
165	0x3c05b95f	0.008161872
166	0xbd137afd	-0.036005963
167	0xbc3af1b0	-0.011410162
168	0xbb4da862	-0.0031380882
169	0x3c92d5a8	0.017924145
170	0x3ce8fa6a	0.02843972
171	0x3c53f355	0.012936433
172	0x3d0005a8	0.031255394
173	0x39413d68	0.0001842879
174	0xbd06f600	-0.032949448
175	0x3c880ac2	0.016606692
176	0xbc8a4c0c	-0.016881965
177	0xbc1c36e4	-0.009534571
178	0x3d289c7b	0.041164856
179	0xbc45cd83	-0.012072924
180	0xbc863b69	-0.01638575
181	0xbc8b434c	-0.016999863
182	0x3d201a7c	0.039087757
183	0x3d49d64e	0.049276643
184	0x3cc15653	0.023600733
185	0xbcc0604d	-0.02348342
186	0xbc898406	-0.016786586
187	0x3d04d90a	0.032433547
188	0x3c114e7a	0.008868808
189	0x3d81bbd9	0.06334657
190	0xbc4eeed3	-0.012630182
191	0xbc7e17f3	-0.01550864
192	0x3c9d8586	0.019228708
193	0xbd62e2b4	-0.055391982
194	0x3b9b4522	0.004738466
195	0xbcc87492	-0.024469648
196	0x3c3e1e9c	0.0116039775
197	0xbcff1ba8	-0.031141117
198	0x3d595701	0.05306149
199	0x3b18c9e0	0.0023313686
200	0xbb760cda	-0.0037544281
201	0xbbdca35e	-0.006733342
202	0x3d11a61e	0.035558812
203	0x3d864151	0.06555427
204	0x3d246f1a	0.040145017
205	0xbc75a786	-0.014993554
206	0xbd12626b	-0.03573839
207	0x3d2b55c8	0.041829854
208	0xbcfb9ed7	-0.03071539
209	0xbce42d16	-0.02785353
210	0xbcc71b2c	-0.024304949
211	0x3b31c39c	0.002712465
212	0x3c4c5f35	0.012473871
213	0x3cbfb0fe	0.023399826
214	0x3d04fe21	0.03246892
215	0x3c9780af	0.018493978
216	0x3d862cf4	0.06551543
217	0x3c1cd0e7	0.009571291
218	0xbd334a94	-0.043772295
219	0x3c545e21	0.012961895
220	0xbd21b7a4	-0.039481774
221	0xbcdebbb0	-0.027189106
222	0xbd4af511	-0.04955012
223	0xbcf51e01	-0.029921534
224	0xbc0a337d	-0.008435127
225	0x3c1f72d8	0.009731971
226	0xbc93962f	-0.018015949
227	0xbd1b10bc	-0.037857756
228	0xbd7d91b6	-0.06190654
229	0xbc7a9ea2	-0.01529661
230	0xbb515cd3	-0.0031946197
231	0x3bdc0060	0.006713912
232	0x3c6481ae	0.013946934
233	0xbd0140cc	-0.031555936
234	0x3cf113c7	0.029428376
235	0xbbe4e90a	-0.0069857882
236	0xbc83d27a	-0.016091574
237	0x3d16579e	0.036704652
238	0x3bbc12ee	0.0057395613
239	0xbd38a1c5	-0.04507615
240	0xbd9ab109	-0.07553298
241	0xbd04a910	-0.032387793
242	0xbd20ccc9	-0.0392578
243	0x3d1c0c6e	0.03809779
244	0xbcee44a0	-0.029085457
245	0xba154fb5	-0.0005695776
246	0x3dad55f4	0.0846366
247	0x3c45a905	0.012064223
248	0x3bef7a1a	0.007308257
249	0x3d3bec1f	0.04587948
250	0x3cf9cfab	0.030494532
251	0xbcd71486	-0.026254904
252	0x3d433aef	0.047663625
253	0x3ca0c70e	0.019626167
254	0x3db6b81c	0.08921835
255	0xbcc43778	-0.02395223

190 f4 [128, 128]
0	0x3b6fcf02	0.0036591892
1	0xbd245e94	-0.04012926
2	0xbd9c17b5	-0.07621709
3	0x3cf989c1	0.030461194
4	0xbb7c9926	-0.0038543432
5	0xbc6bcfc5	-0.014392798
6	0xbce41fe0	-0.02784723
7	0x3c845c0e	0.016157176
8	0xbc058b42	-0.008150877
9	0x3ce98d7a	0.028509844
10	0x3cb6f78f	0.022334842
11	0xbcd34468	-0.025789455
12	0x3b2f51d4	0.0026751654
13	0xbd97135b	-0.07376739
14	0x3ce4b440	0.027917981
15	0x3ccc0b04	0.024907596
16	0x3a2e334d	0.00066452177
17	0x3c73dd17	0.014884255
18	0x3b0d6755	0.0021576483
19	0x3c85d2d7	0.016335888
20	0x3c9c9898	0.019115731
21	0xbb256e51	-0.0025242756
22	0xbcb41074	-0.021980502
23	0x3ca9833e	0.020692464
24	0x3cfa4870	0.030552119
25	0x3b270765	0.0025486585
26	0xbbc4a843	-0.0060015037
27	0xbcb95cc3	-0.02262724
28	0xbbb1c1ce	-0.0054247146
29	0x3c2397e2	0.009984942
30	0x3a8db82a	0.0010812331
31	0x3c758839	0.014986091
32	0x3bad56f6	0.0052899076
33	0xbc82181b	-0.015880635
34	0xbcfbe238	-0.030747518
35	0xbcf269cf	-0.02959147
36	0xbce73376	-0.02822278
37	0x3d1ee1dd	0.03878962
38	0x3d0e0166	0.034669302
39	0x3c6c7659	0.014432513
40	0x3ce7b7fa	0.028285969
41	0x3c8d2dc9	0.017233746
42	0xbca50e53	-0.020148432
43	0xbd564d65	-0.052319903
44	0xbcca68a6	-0.024708103
45	0x3caaa55d	0.020830804
46	0x3c337db3	0.010955262
47	0x3c2f4969	0.010698655
48	0xbc90c52c	-0.017672144
49	0xbc25d6a5	-0.010121976
50	0x3d099417	0.033588495
51	0xbd87f604	-0.06638721
52	0xbcae6787	-0.0212896
53	0xbc94dcdb	-0.018171718
54	0xbabb3455	-0.0014282564
55	0x3d1e8077	0.038696732
56	0x3cb00579	0.021486985
57	0xbd4e7546	-0.05040481
58	0xbcc5e884	-0.024158724
59	0xbad25fd1	-0.0016050284
60	0x3cfa99aa	0.03059085
61	0xbd58797a	-0.052850224
62	0x3d4476f5	0.04796501
63	0x3c7aa38c	0.015297782
64	0x3bedcbcb	0.00725696
65	0xbcc4028b	-0.023926994
66	0xbbea5d70	-0.007152252
67	0x3b85a78c	0.004078811
68	0xbd02b4bd	-0.031910647
69	0xbd29eb00	-0.04148388
70	0x3cd30e98	0.025763795
71	0x3d651f79	0.055938218
72	0xbcd88000	-0.026428223
73	0x3d0e93ca	0.03480891
74	0x3d15b8ce	0.036553197
75	0x3caf3600	0.021388054
76	0xbd4efbf5	-0.050533254
77	0x3be12a7b	0.006871519
78	0xbc9eb49b	-0.019373229
79	0x3c1a240e	0.00940801
80	0xbbf55967	-0.007487464
81	0x3d1a5905	0.037682552
82	0xbc33d808	-0.010976799
83	0xbc864b59	-0.01639335
84	0x3d2b54eb	0.04182903
85	0x3c6dbf73	0.014510977
86	0x3c0b834c	0.00851519
87	0x3d2d0103	0.042237293
88	0xbd81331a	-0.06308575
89	0x3c1c23d0	0.009530023
90	0x3d14a5c3	0.036290895
91	0xbcac15bb	-0.021006456
92	0x3be112fa	0.0068687173
93	0x3c3f11f9	0.011662
94	0x3c917f9f	0.01776105
95	0xbdad0af1	-0.084493525
96	0xbc393d94	-0.011306185
97	0x3c789635	0.015172531
98	0xbd90f136	-0.07077257
99	0xbc5d7b3d	-0.013518152
100	0xbc91b64d	-0.017787123
101	0x3b46ab82	0.003031463
102	0x3c66b469	0.014081099
103	0xbcb6f1f1	-0.022332164
104	0x3d1de691	0.038549963
105	0x3c888a30	0.016667455
106	0xbd646703	-0.055762302
107	0xbbb5865c	-0.0055396985
108	0x3d523284	0.051317707
109	0xbd7598e3	-0.059960257
110	0xbc07b2fb	-0.008282418
111	0x3a709bb9	0.0009178478
112	0xbd31b01c	-0.04338084
113	0xbd0fc5e7	-0.035100844
114	0x3ce2538f	0.027627734
115	0x3ce95384	0.028482206
116	0x3c97a1ef	0.018509833
117	0x3c48ee03	0.012263778
118	0x3a93c90b	0.0011275125
119	0x3c242369	0.010018208
120	0x3cc4b454	0.024011768
121	0x3ccc24b9	0.024919854
122	0xbc5678d5	-0.013090332
123	0xbce737c1	-0.028224828
124	0xbbe606ad	-0.007019839
125	0xbca37da5	-0.019957373
126	0x3c62b5a0	0.013837248
127	0xbd11e396	-0.035617433
128	0x3b36a101	0.0027866962
129	0xbcdc4f70	-0.026893348
130	0xbbe2c458	-0.0069203787
131	0xbd6e21d8	-0.058137745
132	0xbb8cf405	-0.0043015503
133	0xbc4687cd	-0.012117338
134	0x3ceddf18	0.029037043
135	0x3d159bda	0.036525585
136	0x3d25d40a	0.04048542
137	0x3d95b62a	0.07310136
138	0x3cf4fd1e	0.029905852
139	0x3ccaff58	0.02477996
140	0xbc7181c6	-0.014740413
141	0xbc9dd691	-0.019267352
142	0x3d2cc3e5	0.042179007
143	0x3cc920f8	0.024551854
144	0xbcde29e4	-0.027119584
145	0x3d409623	0.04701818
146	0x3bfd533f	0.007730871
147	0xbd3466d2	-0.04404337
148	0xbd1cb943	-0.038262617
149	0xbbac6aeb	-0.005261769
150	0x3d784e69	0.060621653
151	0xbd26e6f6	-0.040747605
152	0x3c89d74a	0.01682629
153	0x3c8ad156	0.016945522
154	0x3c9c9e52	0.019118462
155	0xbd048a0b	-0.03235821
156	0xbd76627a	-0.06015251
157	0xbca0e211	-0.019639047
158	0x3c7953b3	0.015217709
159	0x3ce9dc9d	0.02854758
160	0x3ab41745	0.0013739845
161	0xbbc98d4b	-0.0061508766
162	0x3d7560d9	0.059906814
163	0xbc3422e4	-0.010994647
164	0xbcbb8495	-0.022890368
165	0xbc11b448	-0.00889308
166	0xbad316bf	-0.0016104801
167	0x3ce92c09	0.02846338
168	0x3c671865	0.014104937
169	0x3c9170b8	0.017753944
170	0xbc81c3e2	-0.015840475
171	0xbd47c641	-0.048773054
172	0xbd002bb3	-0.031291675
173	0xbb88e80d	-0.0041780532
174	0x3c0aac01	0.0084638605
175	0x3cc93a64	0.024563976
176	0x3d06359c	0.03276597
177	0x3b9ae842	0.0047273943
178	0x3d962e48	0.07333046
179	0x3b888632	0.004166388
180	0xbcb20cdb	-0.021734646
181	0xbadb397d	-0.0016725507
182	0x3c67def3	0.014152276
183	0xbaeb3213	-0.0017944
184	0x3c511dbc	0.012763437
185	0x3cd67a7b	0.02618145
186	0xbd90327e	-0.070408806
187	0xb73fb560	-1.1426717e-05
188	0x3cfaf4f3	0.030634379
189	0x3d4fb008	0.050704986
190	0x3d0a147f	0.033710953
191	0x3b2a59df	0.0025993509
192	0xbccf7902	-0.025326256
193	0x3b77e9fa	0.003782867
194	0x3ca15b90	0.01969698
195	0xbd104b3d	-0.035228003
196	0x3ba8e4e5	0.0051542395
197	0xbc5c5d17	-0.013449929
198	0xbcfebf0a	-0.031096954
199	0x3d0cd370	0.03438133
200	0xbc34ecad	-0.011042756
201	0x3c86fd11	0.016478093
202	0x3bd972af	0.006635986
203	0xbbb24487	-0.005440298
204	0xbd1360ea	-0.035981096
205	0x3c13c2b1	0.009018586
206	0x3c9dd6fb	0.01926755
207	0x3d3c20c2	0.045929678
208	0xbd29360b	-0.041311305
209	0xbc674904	-0.014116529
210	0x3daa0b8d	0.083029844
211	0x3d48d6e1	0.04903305
212	0x3cc64d26	0.02420671
213	0x3ba86249	0.0051386696
214	0x3cc4a912	0.0240064
215	0xbcd38108	-0.025818363
216	0x3c64e3b8	0.013970308
217	0xbcfece22	-0.031104151
218	0x3d424075	0.047424752
219	0xbd61ad34	-0.05509682
220	0x3d27cfa5	0.04096951
221	0xbd1fc359	-0.039004657
222	0xbc44dc04	-0.012015346
223	0xbc3fc0f4	-0.011703718
224	0x3a5d70f0	0.000844731
225	0x3c1f3324	0.009716783
226	0xbced92a1	-0.029000582
227	0xbd65c056	-0.05609163
228	0x3cfd2e3e	0.030905839
229	0xbd7bb45c	-0.0614513
230	0xbcb77301	-0.022393705
231	0x3cb1b39e	0.021692093
232	0x39af4031	0.00033426427
233	0x3c8663bc	0.016404979
234	0xbbf62fd6	-0.0075130267
235	0xbc9d0868	-0.019169047
236	0xbdab0587	-0.08350664
237	0x3c445be9	0.011984804
238	0x3be1d303	0.0068916096
239	0xbd035d34	-0.032071307
240	0xbd62da10	-0.05538374
241	0x3cdceff7	0.026969893
242	0xbd0dc835	-0.03461476
243	0xbc11ba02	-0.008894445
244	0x3ba08f3d	0.004899888
245	0x3c93927a	0.018014181
246	0xbc724e00	-0.014789104
247	0xbbfee4e8	-0.0077787526
248	0x3d9b5c6e	0.07585989
249	0x3c19853d	0.009370145
250	0xbcc8629a	-0.02446108
251	0x3c5b3d67	0.013381339
252	0xbd577650	-0.052603066
253	0xbd36bf0e	-0.044615798
254	0xbc900083	-0.017578369
255	0xbd8b054f	-0.06788122

191 f4 [128, 128]
0	0xbc3d46df	-0.0115525415
1	0x3c432f7e	0.0119131785
2	0x3c8d6477	0.01725982
3	0xbca8e420	-0.020616591
4	0x3c2aa628	0.010415591
5	0x3cb45cbc	0.022016875
6	0xbcc70845	-0.024295935
7	0x3cba1b0f	0.02271798
8	0xbce6aad5	-0.028157631
9	0x3bd96c02	0.00663519
10	0x3cc3a39f	0.023881732
11	0xbbc95ac9	-0.0061448556
12	0xbc959b0d	-0.01826241
13	0x3c3bd8e2	0.011465283
14	0xbd033e58	-0.032041878
15	0x3bd86f53	0.0066050678
16	0xbb7bd649	-0.0038427284
17	0xbd1fcd96	-0.03901442
18	0x3af43066	0.0018630147
19	0xbc505c05	-0.012717252
20	0x3c3a5bdf	0.011374443
21	0x3c830287	0.015992416
22	0x3d1a928a	0.037737407
23	0x3c8bc4f5	0.01706169
24	0xbd71debe	-0.059050314
25	0xbbb04350	-0.005379118
26	0xbd71fd3a	-0.059079386
27	0x3cfd9d20	0.030958712
28	0xbc84f3b8	-0.016229495
29	0xbc738d3d	-0.014865217
30	0xbd13c79a	-0.036079027
31	0xbb16941d	-0.0022976466
32	0xbcc4b3e6	-0.024011564
33	0xbc244fb7	-0.010028771
34	0xbcf0869e	-0.029361065
35	0xbd1f7da3	-0.038938176
36	0x3d2fc636	0.042913638
37	0xbd0eb5d6	-0.03484138
38	0x3ca5d964	0.020245261
39	0xbce88d05	-0.028387556
40	0x3c91efac	0.01781448
41	0x3c410e0a	0.011783132
42	0x3cdeb3c1	0.027185323
43	0x3c5cc363	0.013474318
44	0xb906f0f2	-0.00012868995
45	0xbd09268b	-0.033484023
46	0x3d4af7a2	0.049552567
47	0xbc727c20	-0.0148001015
48	0xbaea52ab	-0.001787742
49	0xbd304d13	-0.043042254
50	0x3d234c71	0.039867822
51	0x3c79c19c	0.015243914
52	0xbc79e235	-0.015251686
53	0x3d4d59f1	0.050134603
54	0x3c8221d1	0.015885266
55	0x3d5679d7	0.05236229
56	0x3cc8a760	0.024493873
57	0xbd0e05c6	-0.034673475
58	0x3ca9acea	0.020712335
59	0x3d82abc7	0.0638042
60	0xbc11a3c6	-0.008889144
61	0x3bb2d000	0.0054569244
62	0xbcbe6198	-0.023239896
63	0xbd2b01cc	-0.04174976
64	0x3cd001ee	0.025391545
65	0xbd204618	-0.039129347
66	0xbbb381fd	-0.0054781423
67	0xbc95f872	-0.018306945
68	0xbb821d10	-0.0039707497
69	0x3b2a755b	0.002600989
70	0xbaa37007	-0.00124693
71	0x3cb5f567	0.022211744
72	0x3d9af5d4	0.07566419
73	0x3d50cf94	0.050979212
74	0xbd55699e	-0.052102678
75	0x3d251579	0.04030368
76	0x3bc4647a	0.005993423
77	0x3be7646c	0.007061532
78	0x3d36d934	0.044640735
79	0x3d364993	0.04450376
80	0x3d7d3298	0.061815828
81	0x3a93fb42	0.0011290091
82	0x3c6e55d7	0.014546833
83	0xbca7d2a9	-0.020486193
84	0x3cb83d31	0.022490116
85	0xbcfced67	-0.030874921
86	0x3ba32908	0.0049792565
87	0x3cdb0839	0.02673732
88	0xbcaaf9d4	-0.02087108
89	0xbc9543b6	-0.018220764
90	0x3d1813fe	0.03712844
91	0x3c872e2b	0.016501507
92	0x3d1d8465	0.03845634
93	0x3cf4d1f4	0.02988527
94	0x3c4e5d7a	0.012595529
95	0xbbf84fbb	-0.007577864
96	0x3c17ba9c	0.0092608
97	0xbcb6e1ef	-0.02232453
98	0x3d9331d7	0.071872406
99	0xbcba5b3b	-0.02274858
100	0xb909dba5	-0.00013147162
101	0xbc89f36d	-0.016839707
102	0xbbc67ea7	-0.0060575786
103	0x3c7924ff	0.015206574
104	0x3cf21367	0.029550267
105	0xbb8d0e8e	-0.0043047136
106	0x3c36c3c7	0.011155075
107	0xbd9d3995	-0.076769985
108	0xbc23f0e9	-0.010006168
109	0xbc2dffd8	-0.01062008
110	0xbc692b95	-0.014231582
111	0x3c3530b0	0.011058971
112	0x3dc7f15a	0.09762831
113	0x38666c5f	5.49372e-05
114	0xbbf383a1	-0.007431463
115	0xbccfc87d	-0.025364155
116	0xbd01d302	-0.031695373
117	0xbcfc9805	-0.030834207
118	0x3cc14673	0.023593163
119	0xbc173cd4	-0.009230811
120	0x3c149b07	0.0090701645
121	0xbd833ffe	-0.0640869
122	0x3ce08aa5	0.02740986
123	0x3bcdb918	0.0062781684
124	0xbcf38625	-0.029727051
125	0x3d0d06b2	0.034430213
126	0x3a8eb4b9	0.00108876
127	0xbc5e7446	-0.013577526
128	0x3d63e85b	0.055641513
129	0x3d006da1	0.03135455
130	0xbcb16806	-0.021656048
131	0x3c38a3b0	0.011269495
132	0xbd591e6a	-0.05300752
133	0x3c927985	0.01788021
134	0x3c9b0c65	0.018926809
135	0xbd150a73	-0.03638692
136	0xbcd171ef	-0.025567023
137	0xbc791d71	-0.015204773
138	0xbcec4dfe	-0.028845783
139	0xbc0a2034	-0.008430529
140	0x3cc177da	0.02361672
141	0x3cf12231	0.029435249
142	0x3d351b73	0.04421563
143	0x3d079ce4	0.033108607
144	0xbdae53a5	-0.08512048
145	0x3ca766f1	0.020434828
146	0x3d374b20	0.04474938
147	0x3b81dba4	0.003962951
148	0x3c858705	0.016299734
149	0xbd51fb8d	-0.05126529
150	0xbc6ef2fe	-0.014584301
151	0xbafd6e66	-0.001933527
152	0xbc9fab2d	-0.019490803
153	0xbd627758	-0.055289596
154	0x3d8036a5	0.062604226
155	0xbd2e1794	-0.042502955
156	0xbdb67893	-0.089097165
157	0xbc9459b0	-0.018109173
158	0xbb0a31bf	-0.002108678
159	0x3d32ad2f	0.043622192
160	0xbc370861	-0.011171431
161	0xbcb6b609	-0.022303598
162	0x3d26fba9	0.040767346
163	0x3c18b941	0.009321512
164	0x3d1a1462	0.037617095
165	0x3d2a35ef	0.04155534
166	0x3d954db9	0.07290215
167	0x3d91dd2a	0.07122262
168	0xbd0a1ad0	-0.033716977
169	0xbd38ec1b	-0.045147043
170	0x3c625a7c	0.0138155185
171	0x3cf18918	0.029484317
172	0xbc3120b9	-0.010811024
173	0x3c0f3236	0.008739999
174	0xbd0157ab	-0.031577747
175	0xbd01b997	-0.031671133
176	0x3d585b38	0.052821368
177	0xbd312cf1	-0.04325575
178	0xbcd8c272	-0.026459906
179	0x3cbd88c0	0.023136497
180	0xbc733b37	-0.014845661
181	0xbd2bbab4	-0.0419261
182	0x3c852603	0.016253477
183	0x3c57669e	0.013147024
184	0x3d4aff41	0.049559835
185	0xbcb703ba	-0.022340644
186	0xbb13ce09	-0.0022553226
187	0x3d032e19	0.032026384
188	0x3d14cd98	0.036328882
189	0x3ce2ee0d	0.027701402
190	0xbd25ca58	-0.040476173
191	0x3c9e870f	0.01935151
192	0x3bd77587	0.0065752896
193	0x3cdd792e	0.027035322
194	0xbbf934e6	-0.007605183
195	0xbcd1f72e	-0.02563056
196	0xbba0a827	-0.004902858
197	0xbc62b5ea	-0.013837317
198	0x3d3e2fd1	0.04643232
199	0x3d125096	0.035721384
200	0x3c95b484	0.018274553
201	0xbc4d5e61	-0.012534709
202	0x3ca33ab6	0.019925456
203	0x3be39e98	0.006946396
204	0xbc79349c	-0.015210297
205	0xbca649bf	-0.020298837
206	0x3c404763	0.01173577
207	0xbc9d6dc3	-0.019217378
208	0x3d04d68f	0.03243118
209	0x3d27d13f	0.040971037
210	0xbb29d682	-0.002591521
211	0xbcf8ff45	-0.03039516
212	0xbcc4e568	-0.02403517
213	0x3d6ded89	0.05808786
214	0x3b42acc6	0.0029705032
215	0xbd930184	-0.071780235
216	0x3b3953fd	0.002827882
217	0x3d805e3d	0.062679745
218	0xbd8e2f46	-0.069426104
219	0x3c7a12ec	0.0152633
220	0x3cf74a73	0.030186867
221	0xbbc0080a	-0.0058603333
222	0x3d210106	0.039307617
223	0x3b3fb55a	0.002925238
224	0xbc578f7e	-0.01315677
225	0xbcf61227	-0.030037953
226	0x3cf07dc3	0.029356843
227	0x3cc13dc3	0.02358902
228	0xb9f5873d	-0.00046830802
229	0x3c4a5422	0.01234916
230	0xbc88c8d8	-0.016697332
231	0x3cc34768	0.02383776
232	0xbc82c82d	-0.015964592
233	0x3d14127f	0.03615045
234	0x3adea9c3	0.0016987849
235	0x3c284320	0.01026991
236	0x3cec8814	0.02887348
237	0xbc9a8583	-0.018862491
238	0x3c307eac	0.010772388
239	0xbcb35d2f	-0.02189502
240	0xbcb267cd	-0.021778012
241	0xbcb6c453	-0.022310412
242	0xbbaef353	-0.005339065
243	0x3c78f813	0.015195864
244	0xbc61fd57	-0.013793311
245	0xb9f77a2b	-0.00047202533
246	0xbd009060	-0.031387687
247	0xbbdc4484	-0.006722035
248	0xbbca1607	-0.0061671766
249	0x3d220981	0.039559845
250	0x3b15778c	0.0022806851
251	0xbd2eb9a8	-0.042657524
252	0xbce038fc	-0.027370922
253	0x3bc5ce3c	0.006036548
254	0xbbba2d2f	-0.005681656
255	0x3d08c9d7	0.033395614

action_model._discrete_distribution.branches.0.bias f4 [3]
0	0x00000000	0.0
1	0x00000000	0.0
2	0x00000000	0.0

action_model._discrete_distribution.branches.0.weight f4 [3, 128]
0	0xbc8af582	-0.01696277
1	0xba5f1ebd	-0.0008511355
2	0x3b7ad162	0.0038271775
3	0x3bdb9d8f	0.006702132
4	0x3c145027	0.009052313
5	0xbb4ce53f	-0.003126457
6	0x3aafa8a2	0.0013401697
7	0x3b7e9f05	0.0038852107
8	0xba4f1df0	-0.00079008844
9	0x3b6293e5	0.0034573015
10	0x3c0ef8d1	0.008726315
11	0x3bfdc1d8	0.0077440552
12	0xbc03c243	-0.008041921
13	0x3c15ca32	0.009142445
14	0xbb9a8a1f	-0.0047161723
15	0x3c564737	0.013078502
16	0x3b6a1935	0.003572059
17	0xbb26e1ab	-0.0025464098
18	0xbc8c9b03	-0.01716376
19	0x3abddd2a	0.0014485468
20	0x3bdad8a2	0.0066786567
21	0xbc3d0dba	-0.011538917
22	0xbc2f170f	-0.01068665
23	0xba8aaba4	-0.0010579717
24	0x3a73f1df	0.0009305756
25	0x3a854cb3	0.0010169953
26	0x3c0a8fa3	0.008457097
27	0x3c2be788	0.010492213
28	0xb9cd2212	-0.0003912603
29	0x3c28963b	0.010289724
30	0xbc52a8e3	-0.012857649
31	0xbc5056d7	-0.012716017
32	0x3b35477a	0.0027661012
33	0x398801d7	0.00025941312
34	0xb9cadbc2	-0.00038692175
35	0x3bba6ef1	0.005689495
36	0xbacf75ea	-0.0015827988
37	0xbbff7af3	-0.007796639
38	0xbbe614da	-0.0070215287
39	0xbc9c499c	-0.019078068
40	0xbc45c013	-0.01206972
41	0x3be509b5	0.0069896826
42	0x3c4fc9c3	0.012682381
43	0x3b9c6333	0.0047725677
44	0x3c00e5a5	0.0078672515
45	0xbb90bb85	-0.0044168853
46	0xbbaa128b	-0.005190199
47	0x3b1cf1a6	0.0023947745
48	0x3c1b4057	0.009475789
49	0x3c39df43	0.011344734
50	0xba81b147	-0.0009894752
51	0xbba7567c	-0.0051067453
52	0x3b52a587	0.003214212
53	0x3c4bca04	0.012438301
54	0xbbebb995	-0.007193754
55	0xbbacf56f	-0.0052782814
56	0xbc5627d5	-0.01307102
57	0xbc2364a1	-0.009972722
58	0xbc27e426	-0.010247266
59	0xbb788f02	-0.0037927036
60	0x3cba6d91	0.022757323
61	0xbc3e5168	-0.011616088
62	0x3c6cc552	0.014451342
63	0xbbec6892	-0.007214614
64	0x3ab8272c	0.001404976
65	0x3ad93188	0.0016570548
66	0x3ca83f11	0.020537885
67	0xbc04404d	-0.008071971
68	0xba171ab0	-0.00057641696
69	0x3b32ebf0	0.0027301274
70	0xbad4f512	-0.0016247353
71	0x3c18876b	0.00930963
72	0xbc92e248	-0.017930165
73	0x3c1c194e	0.0095275175
74	0x3bb96458	0.005657714
75	0x3bf99d0a	0.0076175975
76	0xbbc1bf18	-0.0059126727
77	0x3c8a7fc9	0.016906636
78	0xbb74b43f	-0.003733888
79	0x3ac851f9	0.0015283219
80	0x3acc8299	0.0015602886
81	0xbc36fb6f	-0.011168345
82	0xbba1bd79	-0.004935917
83	0x3b7cd602	0.0038579707
84	0x3b35bef1	0.0027732218
85	0x3ac3956b	0.0014921849
86	0x3c29fe69	0.0103755975
87	0x3c049242	0.008091511
88	0x3a29018f	0.00064470706
89	0xbc6cf303	-0.014462235
90	0x3b954017	0.0045547592
91	0x3996008d	0.0002861064
92	0xba9c9cb5	-0.0011948558
93	0x3ac8de4b	0.0015325038
94	0x3b6f25fd	0.0036491149
95	0xbccdd993	-0.025128162
96	0x3bc152d0	0.0058997646
97	0x3c26ff4d	0.010192704
98	0x3c8a1887	0.016857399
99	0xbc3180df	-0.010833948
100	0x3c0cba8d	0.008589399
101	0xbbf31377	-0.007418092
102	0x3abbb1b3	0.0014319926
103	0x3b18cd24	0.0023315633
104	0xbc2d2eec	-0.010570269
105	0xbafcd610	-0.001928987
106	0x3c3b0a31	0.011416004
107	0xba70a9e3	-0.00091805885
108	0xbbe7fc77	-0.0070796567
109	0xbc66d1d3	-0.014088112
110	0xbbd1b098	-0.0063992254
111	0xbc48e9b8	-0.012262754
112	0xbaa2994c	-0.0012405305
113	0x3be80895	0.007081101
114	0xbaa014d7	-0.0012213242
115	0xbbe067c5	-0.006848308
116	0x3ba9a60d	0.0051772655
117	0xbabe6035	-0.0014524522
118	0xbb1b4d7c	-0.0023697307
119	0x3b478d4a	0.0030449205
120	0xbbe08d0f	-0.006852753
121	0xbb72c728	-0.0037044976
122	0xbbbcd324	-0.0057624746
123	0x3b049586	0.0020230724
124	0x3bac0707	0.005249861
125	0x3a9416ab	0.001129826
126	0x3b80d4c1	0.0039316122
127	0x3c0bfee9	0.008544662
128	0xba2140c7	-0.0006151315
129	0xbc485f06	-0.012229687
130	0x3be46e82	0.0069711814
131	0xbc2d8da7	-0.010592855
132	0xbc03e66a	-0.00805054
133	0x3c60f505	0.013730292
134	0xbc2a6fc8	-0.010402627
135	0xbbf43a6a	-0.0074532526
136	0xbb6c8e98	-0.0036095735
137	0x3c5f08ff	0.013612985
138	0x3c6b845d	0.01437482
139	0x3c337937	0.010954193
140	0xbbf2253a	-0.0073896917
141	0xbb257eab	-0.0025252502
142	0xbc2d07ff	-0.010560988
143	0x3b86b38b	0.0041107587
144	0x3b6091ef	0.003426667
145	0x3a2d9a5c	0.00066224276
146	0x3c100fff	0.008792876
147	0xbc43fa14	-0.011961479
148	0xbc12e0d2	-0.008964734
149	0x3c0c1b93	0.008551496
150	0x3c64f915	0.013975401
151	0xbc4a93d3	-0.012364346
152	0x3bfbf3d3	0.007688978
153	0x3bacc1ab	0.0052721105
154	0x3a2070e0	0.00061203353
155	0x3c22c13b	0.009933765
156	0xbb95f2bd	-0.004576056
157	0x3c018cc7	0.007907099
158	0x3c105397	0.008808992
159	0x3a3dd568	0.0007241578
160	0x3c00602e	0.007835431
161	0x3b5d5413	0.0033772036
162	0x3a7a2627	0.00095424283
163	0x3b483eba	0.0030554966
164	0x3bcb8fda	0.006212217
165	0xbc1e3f8c	-0.009658705
166	0x3bbc190c	0.0057402905
167	0xbc945593	-0.018107211
168	0xbbc59aef	-0.0060304324
169	0xbc819b2b	-0.01582106
170	0x3c6813e0	0.014164895
171	0x3ac0e75f	0.0014717391
172	0x3cb441eb	0.022004088
173	0xbba296f6	-0.0049618436
174	0xbc128dd8	-0.008944951
175	0x3c2e76c3	0.010648432
176	0x3bb1a908	0.0054217614
177	0xbb07b771	-0.0020708705
178	0x3ab5aa26	0.0013859912
179	0xbb40fa7e	-0.002944618
180	0x3c04d25d	0.008106795
181	0xbcb7b9a1	-0.022427382
182	0xba03ada7	-0.00050231296
183	0xba3f4da9	-0.0007297644
184	0xbae42d68	-0.0017408552
185	0x3c36b40c	0.011151325
186	0xbbe4c8bd	-0.0069819377
187	0x3bfde7d2	0.0077485824
188	0x3b93b8db	0.0045081205
189	0x3bfee983	0.0077793016
190	0xbc46fc77	-0.012145153
191	0xbc0866ce	-0.008325292
192	0xbbd08c37	-0.006364371
193	0xbb23092f	-0.00248773
194	0x3bc93604	0.0061404724
195	0xbb28f1ff	-0.0025779007
196	0x3c923b67	0.01785059
197	0x3b6b5a58	0.0035912003
198	0x3bba35b8	0.0056826733
199	0x3bf447c2	0.0074548433
200	0x3b7cd14d	0.0038576901
201	0x3b50df4d	0.003187138
202	0xbc016827	-0.007898367
203	0x3becab7b	0.0072225905
204	0x3b553855	0.0032534797
205	0x3bebc81d	0.007195486
206	0x3bf33e50	0.0074231997
207	0x39a021d1	0.00030542773
208	0xb97cd418	-0.00024111604
209	0xbb9d9682	-0.0048092017
210	0x3a54cf87	0.0008118082
211	0xbc98516d	-0.018593514
212	0x3c8be454	0.017076649
213	0xbc905a47	-0.017621173
214	0xbb4b82f1	-0.003105339
215	0x3bf0b3fb	0.007345674
216	0xba400063	-0.00073242764
217	0xbb979d0b	-0.0046268753
218	0x3ae8eaca	0.0017770168
219	0x38c051f5	9.170539e-05
220	0x3b252166	0.002519691
221	0xbb950794	-0.0045480225
222	0x3c7d7f60	0.015472263
223	0xbb62f51d	-0.0034630962
224	0xba6ffa3d	-0.0009154415
225	0x3a864ae1	0.0010245704
226	0x3bac570c	0.0052594002
227	0xbb0c2f3a	-0.0021390454
228	0xbc0fafbf	-0.0087699285
229	0xba6fb4e0	-0.0009144079
230	0x3c435c5e	0.0119238775
231	0x3bb3d333	0.0054878234
232	0xbbf3e96b	-0.007443597
233	0x3c6c68c3	0.014429274
234	0xbb0c2747	-0.0021385716
235	0x3bf99868	0.007617045
236	0x3b93e311	0.0045131524
237	0x3b61576f	0.003438439
238	0xbb695b58	-0.0035607424
239	0xbca281b1	-0.019837232
240	0xbb8301e4	-0.003998028
241	0x3bb848f7	0.0056239325
242	0xbc6f5722	-0.014608176
243	0x3c1c6ec2	0.009547891
244	0x3c9f573f	0.019450782
245	0xbc6c2847	-0.0144139
246	0x3b5d4f7b	0.0033769298
247	0xbbea103d	-0.007143049
248	0x3c2eb87f	0.0106641045
249	0x3adf0625	0.0017015381
250	0xbc39ce6a	-0.011340717
251	0xbc309910	-0.01077868
252	0x3c92edd7	0.017935677
253	0x381945bf	3.6543e-05
254	0xba4da02f	-0.00078439986
255	0xbb067cb3	-0.0020521104

action_model._discrete_distribution.branches.1.bias f4 [3]
0	0x00000000	0.0
1	0x00000000	0.0
2	0x00000000	0.0

action_model._discrete_distribution.branches.1.weight f4 [3, 128]
0	0xbb7b311d	-0.0038328834
1	0xbc283637	-0.010266832
2	0xbc573fe8	-0.013137795
3	0xbad7405b	-0.0016422378
4	0xbb72eea5	-0.0037068513
5	0x3bb2e093	0.0054589002
6	0xbbc7f908	-0.006102685
7	0xbcb60562	-0.022219364
8	0xbb9cc1ad	-0.00478383
9	0xbc4ac64f	-0.012376382
10	0x3a70e81f	0.0009189862
11	0x3c9678ef	0.018368213
12	0xbbcdb1f3	-0.0062773167
13	0xbbfbd86b	-0.007685711
14	0x3b1c6f87	0.0023870186
15	0xbc5a05b3	-0.013307023
16	0xbb57e073	-0.0032940179
17	0xb5a75f95	-1.2470288e-06
18	0xbc11c869	-0.008897879
19	0x3c406431	0.0117426375
20	0xbc52392b	-0.012831013
21	0xbbacad91	-0.005269714
22	0x3c07fd76	0.008300176
23	0xbb793605	-0.0038026583
24	0xbc8b492b	-0.017002663
25	0x3b87ae67	0.0041406634
26	0xbc4db310	-0.012554899
27	0x3c4a4dbd	0.012347636
28	0xbb66576a	-0.0035147318
29	0xbafb8d1a	-0.0019191832
30	0x3b0325ec	0.0020011617
31	0x3ba34411	0.0049824794
32	0xbbf427c5	-0.00745103
33	0xbc1d9cdc	-0.009619918
34	0x3b79e5db	0.003813139
35	0x3a2c935c	0.00065832376
36	0xbc8e1326	-0.017343115
37	0x3ba403cd	0.005005336
38	0xbc444255	-0.011978705
39	0xbc3237c7	-0.010877556
40	0x3ae7f3d2	0.0017696565
41	0x3b1cc1b2	0.0023919162
42	0x3b16e015	0.0023021747
43	0xbbfada43	-0.0076554134
44	0x3babc479	0.005241927
45	0x3abdff28	0.0014495598
46	0xbbb2c3c4	-0.005455466
47	0x3bf62778	0.0075120293
48	0xbc88ef11	-0.016715558
49	0x3b91ac2f	0.0044455747
50	0x3c6e241f	0.014534979
51	0x3c145b63	0.009054991
52	0xbb853f91	-0.0040664156
53	0xb9109faa	-0.0001379239
54	0xbc89e03f	-0.016830562
55	0x3c2da40a	0.010598192
56	0xba68a12d	-0.0008874115
57	0x3af05b2d	0.0018337719
58	0xba08f7fe	-0.0005224942
59	0x3b74cc60	0.0037353262
60	0xbc5cf2d3	-0.013485628
61	0x3b6a3378	0.0035736244
62	0xbb364d9c	-0.0027817255
63	0x3c1ea6ae	0.009683294
64	0x39805a7b	0.00024481476
65	0xbc027633	-0.007962751
66	0xbaf86fc2	-0.0018954205
67	0x3be2210b	0.0069009117
68	0x3b8dc496	0.0043264134
69	0xbba5977f	-0.00505346
70	0x3b9483ae	0.004532299
71	0x3b43c6b3	0.0029873073
72	0xbc5b13db	-0.013371433
73	0x3ab90e93	0.0014118723
74	0x3b9f17a0	0.0048551112
75	0xbb0a0dcf	-0.002106536
76	0xbc6b2127	-0.014351166
77	0x3c1af1a2	0.009457024
78	0x3c207325	0.009793078
79	0xbc5ddf0f	-0.013541951
80	0x3c130e48	0.008975573
81	0xb8e89ea8	-0.00011092174
82	0xba0f1eee	-0.0005459626
83	0x3b94512c	0.004526278
84	0x3bd017fb	0.006350515
85	0xbb980bdb	-0.004640085
86	0x3b2f9b8a	0.002679559
87	0x3b7d6dc5	0.0038670164
88	0xbb96b6bf	-0.0045994218
89	0xbc110b69	-0.008852818
90	0x3c26424f	0.010147645
91	0x3c8b58f7	0.017010195
92	0x3a8421b3	0.0010080844
93	0x3c04ff1f	0.008117466
94	0xbbc14f96	-0.00589938
95	0x3b35c142	0.0027733599
96	0xbc2b8c12	-0.010470407
97	0x3bbaa423	0.005695836
98	0x3c2a6d6b	0.010402064
99	0x3bfa6a5d	0.007642074
100	0x3b9f7f1d	0.004867448
101	0xbbe9b9f3	-0.0071327626
102	0xbbc8b3ab	-0.0061249337
103	0x3c197d63	0.009368273
104	0xbac4a4bf	-0.0015002711
105	0xb88bdaab	-6.6687666e-05
106	0x3b8dc007	0.00432587
107	0x3bfea215	0.0077707865
108	0xbb9ee04a	-0.0048485147
109	0x3c29e5a5	0.010369693
110	0xbc6ab248	-0.014324732
111	0xbb3467f9	-0.0027527793
112	0xbc82bacb	-0.01595821
113	0x3c41970e	0.011815799
114	0xbc570f4d	-0.013126207
115	0xbc28a3d0	-0.010292962
116	0xbc57bb58	-0.013167225
117	0xba51cba2	-0.0008003061
118	0x3b3dd19c	0.0028964048
119	0x3bd1380a	0.006384854
120	0xbb7774f2	-0.0037758914
121	0xbb66a93d	-0.0035196089
122	0x3aa422fc	0.0012522633
123	0x3aca8f00	0.0015453994
124	0xbb193c04	-0.002338172
125	0xbc29aaaf	-0.010355636
126	0x3c1d5002	0.009601595
127	0x3c3d35a8	0.011548437
128	0xba862037	-0.001023299
129	0x3c42b1b0	0.011883184
130	0x3c3178c3	0.0108320145
131	0x395500e5	0.00020313596
132	0x3a0c41ab	0.00053503615
133	0xbbce8b72	-0.0063032443
134	0xbb6e5d62	-0.0036371578
135	0x3bbbfbaf	0.00573679
136	0x3bc9b50f	0.006155617
137	0x3c295aff	0.010336637
138	0x3c00dacf	0.007864668
139	0x3b57760f	0.0032876765
140	0x3c26874e	0.010164095
141	0x3c349d5f	0.011023848
142	0xbbf45505	-0.007456424
143	0xbc1108f3	-0.008852231
144	0xbc2c3b8a	-0.010512242
145	0x3be2af95	0.0069179037
146	0x3c6f8cd5	0.014620979
147	0x3bd28a5d	0.0064251856
148	0xbc7865bf	-0.015160977
149	0x3c93bdd7	0.018034859
150	0x3be1f717	0.0068959105
151	0x3b0a5350	0.0021106787
152	0xbb249197	-0.0025111192
153	0x3c1df2a3	0.009640369
154	0xbbb3aff7	-0.005483623
155	0xbb676330	-0.0035306923
156	0x3b3fcf1e	0.0029267739
157	0xbb095dff	-0.0020960567
158	0x3cb1fa9c	0.021725945
159	0x3b22c027	0.002483377
160	0xbb80e5d1	-0.0039336463
161	0x3c6aa865	0.014322375
162	0xbb5c4270	-0.0033608936
163	0x3b0e266c	0.0021690382
164	0xbc4bf31f	-0.012448101
165	0xbbf0939f	-0.0073418166
166	0xb8a7f188	-8.008169e-05
167	0x3ab457fd	0.0013759133
168	0x3c23f254	0.010006506
169	0x3c0f4cce	0.008746339
170	0xbc186cac	-0.009303253
171	0x3af971a5	0.0019031061
172	0x3be564c0	0.0070005357
173	0xbb16aeaf	-0.0022992303
174	0xbbea7285	-0.007154765
175	0x3bb76924	0.0055972505
176	0x3ae7846f	0.001766337
177	0x3c4e381d	0.012586621
178	0xbc38ee5e	-0.0112873
179	0xba97b8c8	-0.0011575455
180	0x3ab9ee77	0.0014185448
181	0x3cb65095	0.022255221
182	0x3b9f47df	0.0048608626
183	0x3ac500d6	0.0015030156
184	0xba5a7f77	-0.0008335034
185	0x3a977dd7	0.0011557889
186	0xbb50f9ca	-0.0031887167
187	0x3c134247	0.00898797
188	0x3a39fb08	0.00070945965
189	0xbc956587	-0.018236889
190	0x3bb11669	0.005404283
191	0xbc0a9ca7	-0.0084602
192	0xbc13082b	-0.008974115
193	0xbb5084ba	-0.0031817392
194	0xbc688e10	-0.014194027
195	0x3b30e782	0.0026993458
196	0x3bdbae12	0.0067041004
197	0xbc01a363	-0.00791249
198	0x3a52069a	0.0008011848
199	0x3b16ad8e	0.002299163
200	0x3b0e7518	0.0021737274
201	0x3c3ffb9f	0.011717706
202	0xb9fbaafb	-0.0004800184
203	0xbb7e7b72	-0.0038830903
204	0x3aad716f	0.0013232658
205	0x3c4a4007	0.012344367
206	0x3adb5b07	0.0016735502
207	0x3b558ee5	0.0032586392
208	0xbcaaa4f9	-0.020830618
209	0xbc5b89c0	-0.013399541
210	0xbb1e43e0	-0.0024149343
211	0x3c0d8df7	0.008639804
212	0x3c068725	0.008210932
213	0xbb60bd48	-0.0034292508
214	0x3a16be2e	0.0005750385
215	0xbbed94a7	-0.0072503868
216	0xb9e40c75	-0.0004349683
217	0x3c3b3991	0.011427299
218	0xbba82843	-0.0051317527
219	0xbb889d2f	-0.0041691284
220	0xb6ca01a8	-6.020262e-06
221	0x3c89498b	0.0167587
222	0x3c566d6a	0.01308761
223	0x3c2b4023	0.010452303
224	0xbc017674	-0.007901777
225	0xbb77c772	-0.0037808088
226	0x39af2a14	0.00033409952
227	0xbcc12832	-0.023578737
228	0x3c06b746	0.008222407
229	0xbba4087b	-0.0050058938
230	0xbc1afd38	-0.009459786
231	0x3c889b35	0.016675571
232	0xbb9e9e52	-0.0048406506
233	0xbc9133a0	-0.017724812
234	0xbb625f52	-0.0034541679
235	0xbc84e001	-0.016220095
236	0xbc54cc90	-0.012988225
237	0x3c89c2da	0.016816545
238	0xbb8c6fe6	-0.0042858003
239	0xbb685678	-0.003545193
240	0xbb9ee1c4	-0.0048486907
241	0x3c062353	0.008187133
242	0x3b891ddc	0.0041844677
243	0x3baa3b6f	0.0051950733
244	0xbb6ce167	-0.0036145092
245	0x3b8061f2	0.003917926
246	0x3af6b9c7	0.0018823677
247	0x38cf00d0	9.8706805e-05
248	0xbbda0467	-0.006653357
249	0x3bd45fd2	0.0064811492
250	0x3c165e44	0.009177748
251	0x3c9215be	0.017832633
252	0xbc4cd4ef	-0.012501939
253	0x3c037640	0.0080237985
254	0xbb5f88fb	-0.0034108746
255	0x3ba41961	0.005007908

action_model._discrete_distribution.branches.2.bias f4 [3]
0	0x00000000	0.0
1	0x00000000	0.0
2	0x00000000	0.0
