com.unity.ml-agents.tests/Tests/Editor/TestModels/hybrid0vis8vec_2c_2_3d_v2_0.onnx (onnx, 276437 bytes, 17 tensors)

116 f4 [8]
000000 cf e9 e3 3d ea b6 cc 3d 7c 9b a5 3f 6b 92 02 3f
       0.1112858 0.099958256 1.2938075 0.51004666
000010 14 41 a0 3f d2 71 ae 3f 91 8b 89 3f f9 ac 97 3f
       1.251986 1.3628485 1.0745717 1.1849662

134 f4 [1, 256, 128]
000000 d8 bc d8 bc bb 52 2a 3e 30 de 3c bd d0 5c 88 3d
       -0.026457235 0.16633122 -0.046110332 0.066583276
000010 24 46 d8 bd 41 c4 0d be 38 04 43 3d 56 69 cc 3d
       -0.10560253 -0.13844396 0.047611445 0.09981029
000020 9e b8 a8 3d e3 0a 0a be 94 d9 61 bd 8e a9 d7 3d
       0.08238338 -0.13480715 -0.05513914 0.10530387
000030 36 1f e9 3d c8 d8 04 bd 00 67 58 ba 64 0e 09 bd
       0.11382906 -0.0324333 -0.0008255094 -0.03346099
000040 39 0d 2f be 35 70 13 3e 70 35 93 bc b6 91 20 be
       -0.17094888 0.14398272 -0.017969817 -0.15680584
000050 90 18 5c 3c 6a 08 d1 3d 98 18 94 3d 7a d6 73 bd
       0.0134335905 0.10206683 0.072312534 -0.059530713
000060 43 30 16 be 6c 48 a4 bd 1f ef 21 3e c7 ad 2b 3e
       -0.14666848 -0.08021626 0.15813874 0.1676551
000070 58 0a 05 bd 7b d2 22 be 2c 93 70 3d db 9e bb bd
       -0.032480568 -0.15900604 0.058734104 -0.09161159
000080 e6 da bb 3d 16 51 c6 3d 36 cc b5 3d 00 8f 1f ba
       0.09172611 0.09683435 0.08876841 -0.00060866773
000090 16 c1 bf bd 56 4c ba 3d 00 2c a7 39 40 71 8f 3b
       -0.09363 0.09096591 0.00031885505 0.004377514
0000a0 8c ee e6 bd ac 67 c5 bd 00 55 36 bc e2 d0 c7 3d
       -0.11275968 -0.096389145 -0.011128664 0.09756638
0000b0 f4 07 08 bd 5e 29 74 bd f1 a4 12 3e b8 8b bb bc
       -0.03321071 -0.059609763 0.14320733 -0.022893772
0000c0 c0 39 f3 3b 08 bb 25 3d a0 f3 f9 3c d0 65 c1 bc
       0.007422656 0.04046157 0.030511677 -0.023608118
0000d0 f8 06 a9 bc fa 8e 7b bd 3e 7e 04 be 71 6e 2a 3e
       -0.020633206 -0.06141565 -0.12938783 0.16643693
0000e0 bb ca dd bd 8f 43 34 3e 12 cd b7 3d b8 05 26 bd
       -0.108296834 0.17603897 0.08974661 -0.040532798
0000f0 66 46 dc 3d f8 1e 30 be 3c bb 62 3d fe bb 07 be
       0.10755615 -0.17199314 0.055354342 -0.13255307
000100 48 c5 82 3d b3 e9 89 bd 50 9a af 3c c0 a6 9a 3b
       0.06385285 -0.06734028 0.021435887 0.004719585
000110 aa 1b d4 3d 37 5f 0f 3e 9b 33 00 3e 17 c2 21 be
       0.10356839 0.14001165 0.12519686 -0.15796696
000120 30 a9 27 be 81 ac 29 be 38 3c 19 be 69 d2 a6 bd
       -0.16373134 -0.16569711 -0.14964378 -0.08145601
000130 36 94 1c be 7a 17 ff 3d 89 ea 08 3e a0 f1 79 bc
       -0.15290913 0.1245565 0.13370718 -0.015255362
000140 e9 d3 01 3e a1 80 1f 3e cf 99 31 3e e8 67 c8 bc
       0.12678494 0.15576412 0.1734383 -0.024463609
000150 50 61 91 bc 12 eb cd 3d 00 63 34 bc 20 c0 fa bc
       -0.017746598 0.10054602 -0.011009932 -0.03060919
000160 54 ac 15 bd 9a 1e 1b be 69 c2 2f 3e 78 40 85 3d
       -0.036541298 -0.15148392 0.17164005 0.06506437
000170 0c b8 1d be 08 c7 3a 3d c0 ae 9c bc c4 a1 1b be
       -0.1540224 0.045599967 -0.019126296 -0.15198427
000180 84 e7 16 3d 00 06 16 bc 4c 47 48 bd ee 43 d9 3d
       0.036841884 -0.009156704 -0.04889612 0.1060866
000190 90 92 48 3d 08 1e bc bc c3 5a dd bd ba 51 f0 bd
       0.048967898 -0.022963539 -0.10808327 -0.11734338
0001a0 6e c7 f0 3d 0f 0b 14 3e cf be 0e 3e d0 13 fa bc
       0.11756788 0.14457344 0.13939975 -0.030527025
0001b0 e8 c3 33 3d 55 73 0e 3e fc d8 6c 3d 99 14 08 be
       0.043888003 0.13911183 0.05782412 -0.13289107
0001c0 08 59 2c bd f5 e5 fe bd 47 1f 32 3e 54 48 5e 3d
       -0.042077094 -0.124462046 0.17394744 0.054268196
0001d0 fe a9 bc 3d fb 74 96 bd 92 ca c6 3d 82 53 f5 bd
       0.09212111 -0.07346531 0.09706606 -0.119788185
0001e0 f0 d3 29 bc a4 7d 14 3d 2c 50 6b bd 20 a6 68 3c
       -0.010365471 0.036252633 -0.057449505 0.014199764
0001f0 bd 27 d3 bd de 4f 55 bd 32 67 a5 3d a2 56 c4 3d
       -0.10310314 -0.05207812 0.080763236 0.095868364
000200 68 05 19 3d b8 3e 55 bd b2 61 dd 3d f4 26 83 bd
       0.03735867 -0.052061766 0.108096495 -0.06403914
000210 c5 49 e8 bd 00 d2 c4 3c 14 ac 6a bd 48 20 39 bd
       -0.113421954 0.024025917 -0.057293013 -0.0451968
000220 29 91 8a bd 3e 0c 74 bd fb 13 24 be 84 d2 03 bd
       -0.06765968 -0.059581988 -0.16023247 -0.032183185
000230 b0 75 53 3c de bb ea 3d ba f4 91 bd 70 67 34 3d
       0.012906477 0.11461614 -0.07126756 0.04404396
000240 6b 32 8a bd fe eb 84 3d 4e a5 f1 3d 6c b8 45 bd
       -0.06747898 0.064903244 0.117991075 -0.04827158
000250 66 98 c1 3d cf 30 9a bd 9a 6f f5 3d 8a 37 cf 3d
       0.09452896 -0.07528841 0.11984177 0.10118015
000260 59 8b 18 3e 40 34 99 3b c0 92 5a bc f0 68 6c 3d
       0.14896907 0.004675418 -0.013340652 0.057717264
000270 ba 6b f6 bd 6d 17 2f be e0 50 ca bd b0 fa 03 bd
       -0.12032266 -0.1709878 -0.09878707 -0.032221496
000280 98 dc 1d 3d 2c 3d 5d bd d0 2e 6b 3c 7b bb 11 3e
       0.038540453 -0.054013416 0.014354423 0.14231674
000290 b9 e0 34 3e bc 5e 66 3d 32 7c 1e be 7e cb 01 be
       0.1766385 0.05624269 -0.15477064 -0.12675282
0002a0 f9 e2 fc bd d8 89 e3 bd fa 50 58 bd 5e eb cc bd
       -0.12347979 -0.11110276 -0.0528116 -0.1000583
0002b0 24 be 1c 3d c0 85 23 bb b5 3c 2e 3e 40 2a 90 bc
       0.03826727 -0.0024951547 0.17015345 -0.017598271
0002c0 ad 07 08 be 6d 6c 33 3e 28 e2 a9 3c 8a 2b bd 3d
       -0.13284178 0.1752183 0.020737723 0.0923682
0002d0 83 0f 22 be 4c 3e f1 bd 54 f3 3a 3d 5b d7 8b bd
       -0.1582623 -0.1177946 0.045642212 -0.06828185
0002e0 b3 c0 23 3e d4 a8 49 bd 72 d5 da 3d 66 6f fc 3d
       0.15991478 -0.049233273 0.10685243 0.12325935
0002f0 5d 7d 29 be 35 1f 30 3e 3c ac 59 bd 96 d2 ca bd
       -0.16551729 0.17199405 -0.05314277 -0.09903447
000300 53 12 20 be 60 ee 22 bd d8 dc c5 3c 40 ec 77 bd
       -0.1563199 -0.039778113 0.024153158 -0.06052804
000310 e0 bd 0c be b5 75 1d 3e 0c 2a 60 3d 28 23 c1 bc
       -0.13744307 0.15376933 0.0547276 -0.023576334
000320 3a 14 b8 bd 14 98 48 3d c0 50 6d 3c 98 ab 2c be
       -0.08988233 0.048973158 0.014484584 -0.16862333
000330 6a 16 2a be ee ef a2 bd 6d c9 30 3e 18 8a ce bc
       -0.16610113 -0.07955919 0.17264338 -0.025212333
000340 44 5e 25 3d 30 ee 64 bc a4 2f 80 3d c2 64 ea 3d
       0.0403731 -0.013972804 0.06259087 0.11444999
000350 30 21 68 bc 18 1b b7 3c 30 0d 4a 3c 1e 53 de 3d
       -0.014168069 0.022351786 0.012332246 0.10855697
000360 c8 f2 a1 3c fe 76 8f bd 68 71 b5 bc 81 52 25 3e
       0.019769087 -0.07005118 -0.022148803 0.16144754
000370 a4 6f 96 bd 96 b5 31 be 66 68 f6 3d cd 0d 01 3e
       -0.073455125 -0.17354426 0.12031631 0.12602921
000380 4c 7c 8f bd 0b b4 01 3e a0 fd 1c bd 60 16 0a bc
       -0.070061296 0.12666337 -0.038327813 -0.008428186
000390 be e4 f7 bd 80 94 74 3d c2 95 0c be c6 9b e0 3d
       -0.12104176 0.059711933 -0.13729003 0.109672114
0003a0 e0 c6 69 3c 4c 9d c0 bd cc 13 21 be 99 9f 0c 3e
       0.014268607 -0.09405002 -0.15730208 0.13732757
0003b0 16 25 e1 3d 4c 96 84 bd 70 11 a9 3c e8 e2 75 3d
       0.10993402 -0.06473979 0.020638198 0.060030848
0003c0 25 6a 8d bd f0 47 54 3d 7c 0b 09 bd 61 89 26 be
       -0.06905011 0.051826417 -0.033458218 -0.16263343
0003d0 8d 59 04 be c9 0f 25 3e 05 f9 2b be 2e 82 a8 3d
       -0.12924786 0.16119303 -0.16794212 0.08227955
0003e0 69 e6 1c be 80 54 20 be 46 df 9c 3d 3e 0e c6 3d
       -0.1532227 -0.15657234 0.076597735 0.09670685
0003f0 c4 b4 2a be 63 b3 30 3e 62 58 1e be 40 2d c2 bb
       -0.16670519 0.1725593 -0.15463403 -0.0059258044

135 f4 [1, 256, 64]
000000 27 00 4b 3e 16 f9 8f 3d 91 1b 14 3e 66 41 86 bd
       0.19824277 0.07029931 0.14463641 -0.065554425
000010 51 cf 11 3e 45 d2 0b 3e a0 39 c1 3b b6 68 91 bd
       0.14239241 0.1365443 0.005896762 -0.0710005
000020 84 60 3b 3d e0 34 96 bb 04 8a 83 bd 29 aa df bd
       0.04574634 -0.00458394 -0.06422809 -0.10921127
000030 89 80 0a 3e 68 3f e2 bc 91 ad 4d be 20 73 4c bc
       0.13525595 -0.027618125 -0.20085742 -0.01247862
000040 16 c4 84 bd 51 14 18 3e a6 85 cc 3d 8a ce a7 bd
       -0.06482713 0.148515 0.09986429 -0.08193691
000050 45 47 44 3e 76 3b 56 be e6 6d 4a be cc b5 34 bd
       0.19167812 -0.2092112 -0.19768485 -0.044118688
000060 10 dd 07 be 00 27 45 3b b0 74 2d be 24 08 18 be
       -0.13267922 0.003008306 -0.16939044 -0.14846855
000070 60 59 0e bd 10 9b c4 bc d6 a0 ee bd b0 2f b6 bd
       -0.034753203 -0.02399972 -0.11651771 -0.088958144
000080 af 87 00 3e 7c da f4 bd 08 fe 9d 3c a2 0d e4 3d
       0.12551759 -0.11955735 0.01928617 0.11135413
000090 7b 69 2e be df 67 55 be 45 66 13 be de dc 8f bd
       -0.17032425 -0.20840405 -0.14394481 -0.07024549
0000a0 ef 75 39 be a4 27 51 3d 3c 81 30 3d 16 ef 48 be
       -0.18111394 0.051063195 0.043091998 -0.19622454
0000b0 85 b4 2a 3e 40 f1 77 bd 9f dd 57 3e fe 69 d5 3d
       0.16670425 -0.06053281 0.21080635 0.10420607
0000c0 fe b7 a4 bd bc 49 5c 3d 20 b9 04 bc 00 58 02 ba
       -0.08042906 0.053781256 -0.008100778 -0.00049722195
0000d0 f8 18 9e bd 70 54 3a bd 76 8a d4 3d 8e 5e 9d bd
       -0.07719606 -0.045490682 0.10377972 -0.076840505
0000e0 74 f7 b8 bd 90 e2 44 3c 08 69 57 be af 0d 29 be
       -0.09031573 0.012016907 -0.2103616 -0.16509126
0000f0 f0 3c ea bc 78 73 ff 3c 1a 2c b0 3d ad 30 1b 3e
       -0.02859351 0.03118299 0.08602162 0.15155287
000100 97 ef 15 3e 48 88 de bc 19 7d 27 3e 4a fa a8 bd
       0.14642178 -0.027164593 0.16356315 -0.08250864
000110 08 92 17 be 99 7b 38 3e 1a ec c6 3d cc 97 81 bd
       -0.148018 0.18015899 0.097130015 -0.06327781
000120 14 b6 67 bd cc 0c 2e bd fb a7 1a 3e c9 c7 e2 bd
       -0.056570128 -0.042492673 0.15103142 -0.11073262
000130 8b 43 1b 3e c4 a3 58 3d 74 09 66 bd 40 cf d8 3c
       0.15162484 0.052890554 -0.05616136 0.026466012
000140 30 cd fe 3c 60 25 07 3c 22 17 e3 bd 52 d3 a5 3d
       0.0311037 0.008248657 -0.110883966 0.08096947
000150 4c 62 a9 bd 85 91 1d 3e 40 64 1e 3b 76 e6 98 3d
       -0.08270702 0.15387543 0.002416864 0.07465832
000160 9a e2 8d 3d b8 f7 22 bd 00 28 09 be 15 ab 4e be
       0.069279864 -0.039787024 -0.13394165 -0.2018245
000170 ca 16 b0 3d 5d 81 4d 3e f5 a8 1b 3e 54 f6 30 3d
       0.08598097 0.2006888 0.1520117 0.043203667
000180 7c 6a 1c be 18 42 fc bd 14 1e 2c be 2a 3f b0 3d
       -0.15274996 -0.12317294 -0.16808349 0.086057976
000190 3e a7 f4 bd 6e dc f1 3d 00 04 81 3b 00 15 94 3b
       -0.119459614 0.11809622 0.0039372444 0.004519105
0001a0 6c da a4 bd ff 60 4e be 17 72 00 3e 74 ad 28 bd
       -0.08049473 -0.20154189 0.12543522 -0.041181043
0001b0 b6 4a 43 be 42 5f 5a be 3c 55 15 bd ce 91 88 3d
       -0.19071469 -0.213254 -0.03645824 0.06668435
0001c0 1e c2 d8 3d 61 1f 0f 3e 03 56 0b 3e d0 3e cf bc
       0.105839 0.13976814 0.1360703 -0.025298506
0001d0 08 b8 cd 3c 8a 47 f0 3d d2 58 cc 3d 80 22 29 be
       0.025112167 0.11732395 0.09977879 -0.16517067
0001e0 40 1e 56 be e7 5d 17 3e eb 3a 26 3e bc 3f 02 3d
       -0.20909977 0.14781915 0.16233413 0.031799063
0001f0 7e 4b cb 3d d7 9b 18 3e 5d 16 26 be db 3a 3e be
       0.09926508 0.14903198 -0.16219468 -0.18577139
000200 2a 2a 88 3d da 2b 84 3d a5 23 44 3e 08 9f 85 bc
       0.06648667 0.064536765 0.19154222 -0.016311184
000210 7c 77 4f be 07 5d 12 be be 21 8f 3d 71 b4 f0 bd
       -0.20260423 -0.142933 0.06988858 -0.117531665
000220 04 4f 19 3d f0 c4 7e 3c a5 86 42 3e 66 70 00 be
       0.03742887 0.015549883 0.18996675 -0.12542877
000230 f8 4d b1 3c c0 d4 17 bc fe d2 00 be 1c c4 2c bd
       0.021643624 -0.009267032 -0.12580487 -0.042179212
000240 c6 f5 17 be 12 7b fa 3d 62 40 db 3d a4 af 6a 3d
       -0.14839849 0.12230505 0.107056394 0.05729641
000250 f0 c7 fd bc 70 c5 8f bc 7e 2f d0 3d 4c 53 81 bd
       -0.030979127 -0.0175502 0.101653084 -0.06314716
000260 00 85 25 be f0 6c 90 3c e0 d3 2a bd c2 f4 c4 bd
       -0.16164017 0.01763007 -0.041705966 -0.09616996
000270 2f d7 40 3e 48 22 8e 3c b2 16 ea 3d 9b c8 10 3e
       0.18832086 0.017350331 0.1143011 0.14139025
000280 48 ec 0d be d6 7c a0 bd 04 75 44 be f3 61 1e be
       -0.13859665 -0.078363106 -0.19185263 -0.15467052
000290 20 fe b3 bb 2f 6e 1c 3e 74 fe 02 3d 36 77 94 3d
       -0.0054929405 0.15276407 0.031980947 0.072493
0002a0 d2 48 99 3d 00 89 17 be ec 0e 69 bd e2 ba 59 be
       0.074845925 -0.14798355 -0.056898996 -0.21262696
0002b0 e2 60 f7 3d 40 71 50 bc fb df 3e 3e 0f 98 3b 3e
       0.12079026 -0.012722313 0.1864013 0.18319725
0002c0 b0 fd a3 bd 79 90 03 3e ca d8 1f be 53 06 0d 3e
       -0.080073714 0.1284808 -0.15610042 0.13771944
0002d0 f0 66 c1 bc 78 09 78 bd 80 29 ee bb 90 06 4c bc
       -0.023608655 -0.060555905 -0.007268131 -0.0124527365
0002e0 ab cc 0f 3e 64 94 15 be 1a da b9 3d 79 54 2a be
       0.14042918 -0.14607388 0.09074803 -0.16633786
0002f0 2c 67 2f 3d 68 de 03 3d 5e 98 38 be 2d f2 33 3e
       0.042823 0.032194525 -0.18026873 0.17572851
000300 43 7a 20 3e e4 d0 1d 3d 25 e7 50 be 03 28 10 3e
       0.15671639 0.03852929 -0.20400675 0.14077763
000310 17 2d 3f 3e be bc 8d bd c6 8b 92 3d 5f 10 3f be
       0.18669544 -0.06920765 0.07155566 -0.18658589
000320 a2 b8 ed 3d a2 24 bb bd 00 8d c2 3c 78 df 73 bd
       0.116074815 -0.091378465 0.023748875 -0.05953929
000330 7e a4 a8 bd 3c c1 0c bd 07 81 59 3e 12 8d 8b 3d
       -0.082344994 -0.03436397 0.21240626 0.068140164
000340 25 7d 35 be f8 1b 11 bd 3f f7 51 3e 01 97 05 3e
       -0.1772352 -0.035427064 0.20504473 0.13045885
000350 18 e0 05 bd 37 34 4d 3e a6 52 df 3d 47 90 19 3e
       -0.032684416 0.2003945 0.10904436 0.14996444
000360 b9 70 12 3e a4 a5 5f bd de 90 86 3d cc f1 b3 bd
       0.14300813 -0.054601327 0.065706 -0.087863535
000370 3a 54 8d bd 11 58 17 3e 83 6a 20 be 24 09 04 bd
       -0.069008306 0.14779688 -0.15665631 -0.03223528
000380 ab 6b 22 3e e6 af 21 be f0 82 59 bc e4 a5 2c 3d
       0.15861385 -0.15789756 -0.013275847 0.042150393
000390 dc 1d 28 3d 96 39 2e be b4 41 44 be 00 f6 18 3a
       0.0410441 -0.17014155 -0.19165689 0.00058349967
0003a0 34 42 b9 bd 6a 98 c5 3d 0c c1 4e 3d 4e 32 b5 3d
       -0.0904583 0.09648211 0.050477073 0.088474855
0003b0 6f 44 58 be a2 dd 55 be 88 ac c6 3c a4 b8 18 3d
       -0.21119855 -0.20885327 0.024252191 0.037285462
0003c0 b0 2d 2c bd 78 12 5c be ad c2 0e 3e 9d 6e 00 3e
       -0.04203576 -0.2149142 0.1394145 0.12542196
0003d0 7a b9 93 bd 41 58 f9 bd 2e 2c ff 3d 58 c9 ff bd
       -0.07213111 -0.12175036 0.124595985 -0.12489575
0003e0 38 75 08 3d ab 9d 28 be 00 1a b7 3c d0 9e 00 bc
       0.033314914 -0.16466396 0.022351265 -0.007850364
0003f0 94 a1 07 be a0 0d d5 3b 44 ad 6d bd c2 0a ec bd
       -0.13245231 0.0065018684 -0.058026567 -0.115254894

136 f4 [1, 512]
000000 00 00 00 00 00 00 00 00 00 00 00 00 00 00 00 00
       0.0 0.0 0.0 0.0
000010 00 00 00 00 00 00 00 00 00 00 00 00 00 00 00 00
       0.0 0.0 0.0 0.0
000020 00 00 00 00 00 00 00 00 00 00 00 00 00 00 00 00
       0.0 0.0 0.0 0.0
000030 00 00 00 00 00 00 00 00 00 00 00 00 00 00 00 00
       0.0 0.0 0.0 0.0
000040 00 00 00 00 00 00 00 00 00 00 00 00 00 00 00 00
       0.0 0.0 0.0 0.0
000050 00 00 00 00 00 00 00 00 00 00 00 00 00 00 00 00
       0.0 0.0 0.0 0.0
000060 00 00 00 00 00 00 00 00 00 00 00 00 00 00 00 00
       0.0 0.0 0.0 0.0
000070 00 00 00 00 00 00 00 00 00 00 00 00 00 00 00 00
       0.0 0.0 0.0 0.0
000080 00 00 00 00 00 00 00 00 00 00 00 00 00 00 00 00
       0.0 0.0 0.0 0.0
000090 00 00 00 00 00 00 00 00 00 00 00 00 00 00 00 00
       0.0 0.0 0.0 0.0
0000a0 00 00 00 00 00 00 00 00 00 00 00 00 00 00 00 00
       0.0 0.0 0.0 0.0
0000b0 00 00 00 00 00 00 00 00 00 00 00 00 00 00 00 00
       0.0 0.0 0.0 0.0
0000c0 00 00 00 00 00 00 00 00 00 00 00 00 00 00 00 00
       0.0 0.0 0.0 0.0
0000d0 00 00 00 00 00 00 00 00 00 00 00 00 00 00 00 00
       0.0 0.0 0.0 0.0
0000e0 00 00 00 00 00 00 00 00 00 00 00 00 00 00 00 00
       0.0 0.0 0.0 0.0
0000f0 00 00 00 00 00 00 00 00 00 00 00 00 00 00 00 00
       0.0 0.0 0.0 0.0
000100 00 00 00 00 00 00 00 00 00 00 00 00 00 00 00 00
       0.0 0.0 0.0 0.0
000110 00 00 00 00 00 00 00 00 00 00 00 00 00 00 00 00
       0.0 0.0 0.0 0.0
000120 00 00 00 00 00 00 00 00 00 00 00 00 00 00 00 00
       0.0 0.0 0.0 0.0
000130 00 00 00 00 00 00 00 00 00 00 00 00 00 00 00 00
       0.0 0.0 0.0 0.0
000140 00 00 00 00 00 00 00 00 00 00 00 00 00 00 00 00
       0.0 0.0 0.0 0.0
000150 00 00 00 00 00 00 00 00 00 00 00 00 00 00 00 00
       0.0 0.0 0.0 0.0
000160 00 00 00 00 00 00 00 00 00 00 00 00 00 00 00 00
       0.0 0.0 0.0 0.0
000170 00 00 00 00 00 00 00 00 00 00 00 00 00 00 00 00
       0.0 0.0 0.0 0.0
000180 00 00 00 00 00 00 00 00 00 00 00 00 00 00 00 00
       0.0 0.0 0.0 0.0
000190 00 00 00 00 00 00 00 00 00 00 00 00 00 00 00 00
       0.0 0.0 0.0 0.0
0001a0 00 00 00 00 00 00 00 00 00 00 00 00 00 00 00 00
       0.0 0.0 0.0 0.0
0001b0 00 00 00 00 00 00 00 00 00 00 00 00 00 00 00 00
       0.0 0.0 0.0 0.0
0001c0 00 00 00 00 00 00 00 00 00 00 00 00 00 00 00 00
       0.0 0.0 0.0 0.0
0001d0 00 00 00 00 00 00 00 00 00 00 00 00 00 00 00 00
       0.0 0.0 0.0 0.0
0001e0 00 00 00 00 00 00 00 00 00 00 00 00 00 00 00 00
       0.0 0.0 0.0 0.0
0001f0 00 00 00 00 00 00 00 00 00 00 00 00 00 00 00 00
       0.0 0.0 0.0 0.0
000200 00 00 80 3f 00 00 80 3f 00 00 80 3f 00 00 80 3f
       1.0 1.0 1.0 1.0
000210 00 00 80 3f 00 00 80 3f 00 00 80 3f 00 00 80 3f
       1.0 1.0 1.0 1.0
000220 00 00 80 3f 00 00 80 3f 00 00 80 3f 00 00 80 3f
       1.0 1.0 1.0 1.0
000230 00 00 80 3f 00 00 80 3f 00 00 80 3f 00 00 80 3f
       1.0 1.0 1.0 1.0
000240 00 00 80 3f 00 00 80 3f 00 00 80 3f 00 00 80 3f
       1.0 1.0 1.0 1.0
000250 00 00 80 3f 00 00 80 3f 00 00 80 3f 00 00 80 3f
       1.0 1.0 1.0 1.0
000260 00 00 80 3f 00 00 80 3f 00 00 80 3f 00 00 80 3f
       1.0 1.0 1.0 1.0
000270 00 00 80 3f 00 00 80 3f 00 00 80 3f 00 00 80 3f
       1.0 1.0 1.0 1.0
000280 00 00 80 3f 00 00 80 3f 00 00 80 3f 00 00 80 3f
       1.0 1.0 1.0 1.0
000290 00 00 80 3f 00 00 80 3f 00 00 80 3f 00 00 80 3f
       1.0 1.0 1.0 1.0
0002a0 00 00 80 3f 00 00 80 3f 00 00 80 3f 00 00 80 3f
       1.0 1.0 1.0 1.0
0002b0 00 00 80 3f 00 00 80 3f 00 00 80 3f 00 00 80 3f
       1.0 1.0 1.0 1.0
0002c0 00 00 80 3f 00 00 80 3f 00 00 80 3f 00 00 80 3f
       1.0 1.0 1.0 1.0
0002d0 00 00 80 3f 00 00 80 3f 00 00 80 3f 00 00 80 3f
       1.0 1.0 1.0 1.0
0002e0 00 00 80 3f 00 00 80 3f 00 00 80 3f 00 00 80 3f
       1.0 1.0 1.0 1.0
0002f0 00 00 80 3f 00 00 80 3f 00 00 80 3f 00 00 80 3f
       1.0 1.0 1.0 1.0
000300 00 00 00 00 00 00 00 00 00 00 00 00 00 00 00 00
       0.0 0.0 0.0 0.0
000310 00 00 00 00 00 00 00 00 00 00 00 00 00 00 00 00
       0.0 0.0 0.0 0.0
000320 00 00 00 00 00 00 00 00 00 00 00 00 00 00 00 00
       0.0 0.0 0.0 0.0
000330 00 00 00 00 00 00 00 00 00 00 00 00 00 00 00 00
       0.0 0.0 0.0 0.0
000340 00 00 00 00 00 00 00 00 00 00 00 00 00 00 00 00
       0.0 0.0 0.0 0.0
000350 00 00 00 00 00 00 00 00 00 00 00 00 00 00 00 00
       0.0 0.0 0.0 0.0
000360 00 00 00 00 00 00 00 00 00 00 00 00 00 00 00 00
       0.0 0.0 0.0 0.0
000370 00 00 00 00 00 00 00 00 00 00 00 00 00 00 00 00
       0.0 0.0 0.0 0.0
000380 00 00 00 00 00 00 00 00 00 00 00 00 00 00 00 00
       0.0 0.0 0.0 0.0
000390 00 00 00 00 00 00 00 00 00 00 00 00 00 00 00 00
       0.0 0.0 0.0 0.0
0003a0 00 00 00 00 00 00 00 00 00 00 00 00 00 00 00 00
       0.0 0.0 0.0 0.0
0003b0 00 00 00 00 00 00 00 00 00 00 00 00 00 00 00 00
       0.0 0.0 0.0 0.0
0003c0 00 00 00 00 00 00 00 00 00 00 00 00 00 00 00 00
       0.0 0.0 0.0 0.0
0003d0 00 00 00 00 00 00 00 00 00 00 00 00 00 00 00 00
       0.0 0.0 0.0 0.0
0003e0 00 00 00 00 00 00 00 00 00 00 00 00 00 00 00 00
       0.0 0.0 0.0 0.0
0003f0 00 00 00 00 00 00 00 00 00 00 00 00 00 00 00 00
       0.0 0.0 0.0 0.0

action_model._continuous_distribution.log_sigma f4 [1, 2]
000000 00 00 00 00 00 00 00 00
       0.0 0.0

action_model._continuous_distribution.mu.bias f4 [2]
000000 00 00 00 00 00 00 00 00
       0.0 0.0

action_model._continuous_distribution.mu.weight f4 [2, 64]
000000 ed 22 fc b9 33 ec 98 3c 3f 46 8e 3c 65 0f 5c bd
       -0.00048091207 0.018667316 0.01736748 -0.05372562
000010 c7 76 88 3b ab 75 19 bc 80 cb f8 38 7e 1a 30 3d
       0.00416455 -0.009366433 0.00011863466 0.042994015
000020 ec ad 48 3c 5f f6 c1 3c 40 57 44 3c 46 f7 14 3d
       0.012248497 0.02367705 0.011983693 0.03636863
000030 75 82 eb bb e0 1f 4c 3c c8 ed 0c bd 67 00 18 3d
       -0.0071871825 0.0124587715 -0.034406453 0.03710976
000040 b7 e5 e4 bb 9d cb 43 bd 34 db 0b 3c 95 11 49 bc
       -0.006985392 -0.047801603 0.008536149 -0.012272258
000050 ab 5c 48 bd 47 93 be 3a a3 41 9f bb 28 6f 57 bd
       -0.0489165 0.0014539742 -0.0048601194 -0.05259624
000060 67 5d d9 bc f0 62 4d bc e3 70 09 bd 63 05 91 bc
       -0.026533796 -0.012535796 -0.033554923 -0.017702764
000070 4a f3 d7 bc 2a ed fa 3b 57 f8 19 3c c1 97 14 bb
       -0.026361126 0.0076576667 0.009397588 -0.002267346
000080 db 9c 06 bd b6 46 91 bd ab fd 28 3d 79 b1 26 3c
       -0.032864433 -0.07093565 0.04125754 0.010174149
000090 72 bd 7b 3b 8a 8a 73 bc 11 13 ba bc 29 21 47 3c
       0.0038412479 -0.014864573 -0.02271417 0.012153902
0000a0 13 d2 80 3c 32 9f 6c bb f8 fd c5 3c 5f 38 3c bc
       0.015725171 -0.003610563 0.024168953 -0.011488049
0000b0 7f ed fb bc ff 57 99 3a 03 16 0b 3d 43 f0 9e 3a
       -0.030752895 0.0011699199 0.03395654 0.0012126047
0000c0 80 d3 10 bc 2f 58 1f 3c 63 21 91 3c 02 22 6d 3b
       -0.008839488 0.009725614 0.017716115 0.00361836
0000d0 7d b3 5e 3c 8f 16 78 bd 54 e4 b5 3b ca 74 d3 bb
       0.013592598 -0.06056839 0.0055509005 -0.0064531313
0000e0 eb 30 51 3c 10 68 c2 bc 27 a9 a7 bc 8b b0 32 3d
       0.012768011 -0.023731261 -0.0204664 0.043625396
0000f0 30 83 6f 3d 43 11 fe 3c d5 b3 a0 bb 76 81 1a bd
       0.05847472 0.03101409 -0.00490425 -0.03772112
000100 ca fd b4 3c 5f 2e e7 3c 33 38 91 b9 b7 fe 15 bd
       0.022093672 0.028220354 -0.00027698427 -0.036619868
000110 fe de 27 bc 13 52 21 3d 35 a2 c0 3b 82 3c a9 3c
       -0.010246037 0.039384913 0.0058787116 0.020658735
000120 f1 2c 83 bc 4b 20 22 bc 31 93 af 3b 61 9c 09 bd
       -0.01601264 -0.009895395 0.0053581228 -0.0335964
000130 d0 1f 00 bd 11 f2 a6 bc cb 3a 23 bd 1b 9b c6 bb
       -0.03128034 -0.020379098 -0.03985099 -0.0060609705
000140 9a bb 50 bb 5b 3c 2f bd 77 21 fb bc 7c 1b 34 3c
       -0.00318501 -0.04278217 -0.030655606 0.010992881
000150 0b d5 13 3b da cd 8c bd 07 52 11 bd fc 4c 36 3d
       0.0022557403 -0.068752006 -0.035478618 0.04450701
000160 1b 89 34 bc bd 90 54 bc df ab 78 3c 07 07 83 3b
       -0.011019017 -0.012973961 0.015177696 0.0039986405
000170 6d d0 a4 3b 13 7d a4 3c 08 66 5a 3d 98 a9 e1 bc
       0.005029729 0.020079171 0.05331996 -0.027546689
000180 ca 79 a6 3c d2 d0 8e bc 96 58 18 3d 8e da 11 bd
       0.020321745 -0.017433558 0.037193857 -0.03560882
000190 f1 39 9b 3c 71 83 ab bc fa 79 19 3c fb b3 e1 3c
       0.018948527 -0.0209367 0.00936746 0.027551642
0001a0 93 e4 e4 3c 8a 72 36 3c df 23 e3 3c ab 72 8f 3b
       0.027941024 0.011135707 0.027727066 0.004377683
0001b0 eb 69 19 3c bb 64 00 3c d6 d3 8e bc f3 a6 07 bc
       0.009363632 0.007836516 -0.017434996 -0.00827955
0001c0 b6 53 bc 3c ca 09 84 bc 28 18 03 bd 20 81 93 3b
       0.022989135 -0.016117949 -0.03200546 0.004501477
0001d0 9a 9c a3 bc 20 76 09 3c a3 0f 8c 3c c8 a8 85 3c
       -0.019972134 0.00838998 0.0170973 0.016315833
0001e0 ff 15 08 bd 74 0e 0f bd 8c 9f be bc ce 84 bb 3c
       -0.033224102 -0.034925893 -0.023269437 0.022890475
0001f0 4f a6 9c bc bb e9 e7 bc e3 d0 a1 3c 25 2a 56 3c
       -0.01912227 -0.028309694 0.019752925 0.0130715715

action_model._discrete_distribution.branches.0.bias f4 [2]
000000 00 00 00 00 00 00 00 00
       0.0 0.0

action_model._discrete_distribution.branches.0.weight f4 [2, 64]
000000 3f 23 65 3c 4f 52 db ba d1 19 ad 3c 8c 4a 34 bc
       0.013985454 -0.0016732904 0.021130474 -0.0110041015
000010 d0 2f 83 bb 51 44 2b bb f2 e7 7f bc 3b d2 9d bc
       -0.0040035024 -0.002613325 -0.015619265 -0.019265285
000020 6a d1 37 bc be ff b8 ba 63 47 81 3a 43 3d be 3c
       -0.011219362 -0.0014114303 0.0009863194 0.023222571
000030 3b a9 91 3c a7 d9 74 bc 9f bc 99 3b 3a 17 e9 bc
       0.01778089 -0.0149444705 0.004691675 -0.028453458
000040 d7 87 1a bc b1 71 08 bc ab 6e 7b 3c bf 30 51 3c
       -0.009431801 -0.008327887 0.0153462095 0.01276797
000050 59 47 8c bc 98 09 69 3b 4f 31 85 3b 62 03 65 bc
       -0.017123865 0.0035558697 0.004064716 -0.013977857
000060 03 95 64 3c 5a 3d d9 3b fd 29 5d 3c 5f c1 65 bc
       0.013951543 0.006629628 0.01349878 -0.014023154
000070 d3 e1 83 3c 85 eb 2f 3c 07 8a 56 bb 80 be 59 bc
       0.016098892 0.010737305 -0.003273608 -0.013290048
000080 ab d7 a6 3c e2 a4 bb b9 f5 96 9b ba 5a e3 8e 3c
       0.02036651 -0.00035790267 -0.001187055 0.017442394
000090 db b4 90 bb a2 da a2 3b cf af 70 3a 94 82 31 3c
       -0.004416091 0.0049699107 0.0009181471 0.010834355
0000a0 ab e2 1f bc a7 51 d6 bb c9 b9 a1 3c 38 30 ac ba
       -0.009758632 -0.0065404954 0.01974191 -0.0013136929
0000b0 e0 06 59 bc 1b ca 5b bb fc 34 1f 3c ca 8d b9 3c
       -0.013246268 -0.0033537212 0.009717222 0.022650618
0000c0 8a 7d 83 bc de 24 3f bc 2f f5 4c 3b 62 f7 73 bb
       -0.016051073 -0.011666505 0.003127407 -0.003722631
0000d0 19 b9 48 3c 7d 0c ee bb 87 7b 1d 38 6a 84 56 bb
       0.012251162 -0.0072646723 3.754676e-05 -0.0032732734
0000e0 9b f1 9f 3c 3e eb 8c 3b ca e9 39 3c e7 42 82 3c
       0.019524386 0.004300504 0.011347244 0.015901042
0000f0 b3 2e d2 3a c4 c8 99 3b 2f 9d 8c 39 07 3b 37 bc
       0.0016035646 0.0046931226 0.00026819992 -0.011183507
000100 af 40 45 bb f6 7e 87 bc 45 37 af 3b 8d 71 51 3c
       -0.003009837 -0.016540032 0.005347165 0.01278342
000110 8f 06 5c 3c eb 36 87 3c 58 66 d0 bb 50 54 2d ba
       0.013429298 0.01650568 -0.0063598566 -0.000661199
000120 10 10 12 bb 7a af de 3c 6e 93 b8 3b 2f 47 84 3c
       -0.0022287406 0.027183283 0.0056328094 0.016147224
000130 aa da 20 bc 77 0f 42 3c db f6 9a bb c5 c8 ea 3b
       -0.009817759 0.011844507 -0.0047291345 0.007165047
000140 8d f1 63 bc 8f a7 3f 3c 47 9d 3a 3c d7 93 8d bc
       -0.013912571 0.011697664 0.011390037 -0.01728241
000150 c3 fb de bb e7 fd 8a 3c 9b 96 bb 3c 53 7c 1d 3b
       -0.0068049147 0.016966773 0.022898963 0.0024030402
000160 38 73 a9 ba ce f1 89 bc cf 6e ba 3b 73 8a 95 3a
       -0.0012928015 -0.016838934 0.005689479 0.0011409059
000170 0b 5d 5a bb 42 c0 02 ba eb 24 dc 3b 74 9f 49 bc
       -0.0033319618 -0.0004987755 0.006718268 -0.012306083
000180 5b ba 8c bb e7 7f 05 3b 8f 82 92 ba f8 30 db b8
       -0.0042946762 0.0020370425 -0.0011177826 -0.00010451855
000190 0a ee a5 bb 15 63 d4 bb a1 38 aa bb 6d 0a df 3c
       -0.005063777 -0.006481538 -0.005194739 0.027226651
0001a0 32 70 96 3b 0a 4c 07 bc f4 5b 1b 3b b4 46 1a bc
       0.0045910114 -0.008257875 0.0023705931 -0.009416271
0001b0 2a 18 4e bc 73 1e 49 bc ef 13 ee bb 8d 00 d3 3b
       -0.012579003 -0.012275326 -0.00726556 0.0064392746
0001c0 9c b1 99 bc a8 7f f2 3a 3b 13 27 39 5f 08 b7 3c
       -0.018761449 0.0018501179 0.00015933525 0.022342859
0001d0 9b e5 49 3c a5 f4 3b bc 1f b3 10 3b a5 90 7b 3b
       0.012322809 -0.011471902 0.002207942 0.0038385775
0001e0 17 6a d0 ba 92 fa 11 3b 4b 4a 46 bc 65 43 69 bb
       -0.0015900758 0.0022274596 -0.012102674 -0.0035593149
0001f0 d2 6e 98 3c 3b 24 2f bc 20 78 eb bc d2 40 4f 3c
       0.01860753 -0.01068979 -0.028743804 0.012649732

action_model._discrete_distribution.branches.1.bias f4 [3]
000000 00 00 00 00 00 00 00 00 00 00 00 00
       0.0 0.0 0.0

action_model._discrete_distribution.branches.1.weight f4 [3, 64]
000000 35 22 a0 3b 62 b8 6a bc 07 dd 81 ba 67 cf 33 3c
       0.0048868903 -0.014326187 -0.000990779 0.010974742
000010 00 25 dc bc 53 52 77 b9 0f cc df bb 8f 8c 28 bc
       -0.026873112 -0.00023586424 -0.0068297456 -0.010287418
000020 d3 40 88 3c 54 fc 0f 3a f7 63 bc 3b 0a 30 d5 39
       0.016632473 0.0005492617 0.0057492214 0.00040662318
000030 2c 2f 12 3c 27 ce 28 bc f5 61 59 bc 77 24 17 3b
       0.008922379 -0.010303057 -0.013267984 0.0023062506
000040 83 cf 8f bc 2d d8 f0 3a 52 f2 fc bb 2d ba ee 3b
       -0.017555004 0.0018374972 -0.0077193165 0.0072853775
000050 a0 71 5e bc e3 b9 3e 3c cd f1 4e 3a 6d f5 0a bc
       -0.013576895 0.011640999 0.00078943075 -0.008481366
000060 11 4b 46 3c 97 3c 9d bb 17 5d 96 3b 87 fc 17 3c
       0.012102858 -0.0047984826 0.004588734 0.009276516
000070 ef 03 07 bc 23 75 71 3a 9b db 0a bc a8 31 94 bb
       -0.008240684 0.0009210875 -0.00847521 -0.004522521
000080 bb 7e c7 bb b9 1a 09 bb f2 e3 b4 bb 2e f9 1d bc
       -0.0060881055 -0.002092047 -0.0055203373 -0.009641929
000090 df a2 c3 bb ef b2 5a bc d8 35 b1 3c 73 a8 ce bc
       -0.0059703435 -0.013348325 0.02163212 -0.025226807
0000a0 4f 90 95 bc 09 c9 41 bc 07 a8 01 bc e6 72 15 bc
       -0.018257288 -0.011827716 -0.007913596 -0.009121632
0000b0 2a fd 9d 3c cf c4 b9 3c 01 8c 2a b9 96 fd a6 ba
       0.019285757 0.022676853 -0.00016264619 -0.001274037
0000c0 c5 cc 07 bc 8b b5 b3 3c 67 89 89 bb ef 2b 8c bc
       -0.008288567 0.021937152 -0.004197288 -0.017110793
0000d0 b7 55 0a bc eb fa 08 bc 43 18 98 bb d1 2a 97 bb
       -0.008443288 -0.008360605 -0.004641564 -0.0046132584
0000e0 35 1c f6 b9 c2 b3 d2 bb a0 17 fa 3a 57 fc 12 bb
       -0.00046941792 -0.00643012 0.0019080527 -0.0022428238
0000f0 27 e9 8f bb 42 31 a7 39 9b 60 97 3c 68 69 80 3b
       -0.0043918076 0.00031889422 0.018478682 0.0039188154
000100 03 3a 2e bc 27 ae af bb 7f e8 64 bb 48 3c 05 3c
       -0.010633948 -0.0053613367 -0.0034928618 0.008132048
000110 2d cf f5 ba 86 ac 17 ba 27 eb 9c 3b 9f 3f 05 3c
       -0.001875376 -0.0005785901 0.0047887745 0.008132844
000120 35 eb 28 3b bc 18 02 3c cf 3c 5b 3c 08 60 e6 3b
       0.002577496 0.007940467 0.013381197 0.007030491
000130 93 79 b7 bb 56 2d cc 3b 6f 32 0b 3c 20 58 e8 3b
       -0.0055992096 0.0062309904 0.008495911 0.0070905834
000140 e5 6a 08 3b e2 be 02 bc 17 ba b9 b7 ca ad d2 39
       0.0020815667 -0.00798008 -2.2140373e-05 0.00040183804
000150 80 29 1e bc e2 13 14 3c d0 7c 7b bc 78 b3 5a 3b
       -0.009653449 0.009037944 -0.015349582 0.0033371132
000160 27 81 d7 bc 65 8d 83 3b b9 5c 2c bb f9 64 8a bb
       -0.026306702 0.0040146583 -0.0026300384 -0.0042234627
000170 23 dd 91 3a ed 03 0e 3c 85 f9 6a bc 57 cd a8 3c
       0.0011128526 0.008667928 -0.014341717 0.020605726
000180 3f 35 42 bb 43 27 71 bc 90 12 82 bc c5 9f a9 bb
       -0.0029633788 -0.014718833 -0.015877992 -0.0051765167
000190 a5 56 a8 bc 4a 5e 51 3b 5c 26 0a 3c 15 e7 63 bc
       -0.020549128 0.003194707 0.008431997 -0.013910075
0001a0 3e 61 81 3c 6b 45 1e b9 ba b6 54 bc 6f c9 17 bc
       0.015793439 -0.00015093914 -0.0129830185 -0.009264334
0001b0 73 8a dc ba 0f 89 05 3c d9 28 31 3b 31 62 04 3d
       -0.0016825929 0.008150353 0.0027032404 0.032320205
0001c0 26 74 03 3c 5f c6 31 bb b9 90 88 bb 14 e7 82 bb
       0.008023297 -0.0027126295 -0.004167643 -0.003994832
0001d0 3b 28 c5 bc 36 ed 95 3c 17 d7 07 3c 3a ae 8b bb
       -0.024067035 0.018301588 0.0082910275 -0.004262713
0001e0 2a 40 35 bc 3d 7b 67 3c 8e 3c 2a bc 37 eb 5f bc
       -0.011062661 0.014128503 -0.010390414 -0.013666919
0001f0 50 60 1f bc ca 8f c5 ba ad 00 90 bc 23 fc 49 3b
       -0.0097275525 -0.001507276 -0.017578447 0.0030820451
000200 bf e1 91 b8 b8 52 0d bd cf c9 79 bb ba 50 e5 3c
       -6.956187e-05 -0.034502715 -0.0038114672 0.027992595
000210 fd eb d2 bc 4e 1f 0a bc 6a 55 57 3b ab e0 b3 bc
       -0.025747294 -0.008430315 0.0032857307 -0.021957716
000220 01 0c a9 bb f7 de e9 3c 13 e8 2f 3c 18 10 88 3c
       -0.0051589017 0.0285487 0.010736483 0.016609237
000230 23 1a fa 3b 39 e5 15 bc 7a b2 73 3c da 50 7c 3b
       0.0076325103 -0.009148889 0.014874095 0.003850034
000240 4b a1 28 bc 33 6c 72 bc d9 7f ac bc 11 96 87 3b
       -0.0102923615 -0.0147963045 -0.021057056 0.0041377624
000250 71 20 22 3d ae c1 16 3d 9d 2e df 3b 72 2a 89 3c
       0.03958172 0.0368058 0.0068109767 0.016743872
000260 2f 71 da bb 65 63 47 3b 3f 1d 32 3c 97 b5 70 3a
       -0.0066663246 0.0030424234 0.010871231 0.00091823324
000270 b1 f1 24 bc 47 c3 4a 3b fe 42 c2 ba db 1a b1 3a
       -0.010067389 0.0030939148 -0.0014820991 0.0013512032
000280 cd 8d e2 3c ea f6 94 3c 1d 42 7b 3b c8 e5 72 3b
       0.027655507 0.018184144 0.0038338967 0.003706323
000290 c3 14 90 ba 32 e0 8d ba f7 8c bb bb 0a 8b 7d ba
       -0.0010992516 -0.0010824262 -0.0057235914 -0.00096719025
0002a0 a3 6a 06 bd a7 8f d4 bb 0b 0c c9 3c b7 73 27 3b
       -0.03281654 -0.0064868513 0.024541875 0.002555115
0002b0 ad 55 9b 3b 44 2c 16 3c b4 70 89 3b d4 ca 27 3c
       0.004740438 0.009165827 0.0041943435 0.010241229
0002c0 81 8a 2e bb 90 df 25 bc 13 0b 83 3a e7 ba 3d bb
       -0.0026632848 -0.010124102 0.0009997807 -0.0028950514
0002d0 53 4a 0a bc d3 5a c2 bc dd 96 ee 3b 94 af 40 3a
       -0.008440572 -0.023724949 0.007281168 0.0007350382
0002e0 1d a3 51 bc b7 86 2f bc a2 d9 54 bc ef a6 1c bc
       -0.012795237 -0.010713271 -0.012991341 -0.009561284
0002f0 02 4e 56 bc d6 98 0c bc d0 b4 52 bc 08 ad b7 3c
       -0.013080122 -0.008581361 -0.012860492 0.022421375

network_body._body_endoder.seq_layers.0.bias f4 [128]
000000 00 00 00 00 00 00 00 00 00 00 00 00 00 00 00 00
       0.0 0.0 0.0 0.0
000010 00 00 00 00 00 00 00 00 00 00 00 00 00 00 00 00
       0.0 0.0 0.0 0.0
000020 00 00 00 00 00 00 00 00 00 00 00 00 00 00 00 00
       0.0 0.0 0.0 0.0
000030 00 00 00 00 00 00 00 00 00 00 00 00 00 00 00 00
       0.0 0.0 0.0 0.0
000040 00 00 00 00 00 00 00 00 00 00 00 00 00 00 00 00
       0.0 0.0 0.0 0.0
000050 00 00 00 00 00 00 00 00 00 00 00 00 00 00 00 00
       0.0 0.0 0.0 0.0
000060 00 00 00 00 00 00 00 00 00 00 00 00 00 00 00 00
       0.0 0.0 0.0 0.0
000070 00 00 00 00 00 00 00 00 00 00 00 00 00 00 00 00
       0.0 0.0 0.0 0.0
000080 00 00 00 00 00 00 00 00 00 00 00 00 00 00 00 00
       0.0 0.0 0.0 0.0
000090 00 00 00 00 00 00 00 00 00 00 00 00 00 00 00 00
       0.0 0.0 0.0 0.0
0000a0 00 00 00 00 00 00 00 00 00 00 00 00 00 00 00 00
       0.0 0.0 0.0 0.0
0000b0 00 00 00 00 00 00 00 00 00 00 00 00 00 00 00 00
       0.0 0.0 0.0 0.0
0000c0 00 00 00 00 00 00 00 00 00 00 00 00 00 00 00 00
       0.0 0.0 0.0 0.0
0000d0 00 00 00 00 00 00 00 00 00 00 00 00 00 00 00 00
       0.0 0.0 0.0 0.0
0000e0 00 00 00 00 00 00 00 00 00 00 00 00 00 00 00 00
       0.0 0.0 0.0 0.0
0000f0 00 00 00 00 00 00 00 00 00 00 00 00 00 00 00 00
       0.0 0.0 0.0 0.0
000100 00 00 00 00 00 00 00 00 00 00 00 00 00 00 00 00
       0.0 0.0 0.0 0.0
000110 00 00 00 00 00 00 00 00 00 00 00 00 00 00 00 00
       0.0 0.0 0.0 0.0
000120 00 00 00 00 00 00 00 00 00 00 00 00 00 00 00 00
       0.0 0.0 0.0 0.0
000130 00 00 00 00 00 00 00 00 00 00 00 00 00 00 00 00
       0.0 0.0 0.0 0.0
000140 00 00 00 00 00 00 00 00 00 00 00 00 00 00 00 00
       0.0 0.0 0.0 0.0
000150 00 00 00 00 00 00 00 00 00 00 00 00 00 00 00 00
       0.0 0.0 0.0 0.0
000160 00 00 00 00 00 00 00 00 00 00 00 00 00 00 00 00
       0.0 0.0 0.0 0.0
000170 00 00 00 00 00 00 00 00 00 00 00 00 00 00 00 00
       0.0 0.0 0.0 0.0
000180 00 00 00 00 00 00 00 00 00 00 00 00 00 00 00 00
       0.0 0.0 0.0 0.0
000190 00 00 00 00 00 00 00 00 00 00 00 00 00 00 00 00
       0.0 0.0 0.0 0.0
0001a0 00 00 00 00 00 00 00 00 00 00 00 00 00 00 00 00
       0.0 0.0 0.0 0.0
0001b0 00 00 00 00 00 00 00 00 00 00 00 00 00 00 00 00
       0.0 0.0 0.0 0.0
0001c0 00 00 00 00 00 00 00 00 00 00 00 00 00 00 00 00
       0.0 0.0 0.0 0.0
0001d0 00 00 00 00 00 00 00 00 00 00 00 00 00 00 00 00
       0.0 0.0 0.0 0.0
0001e0 00 00 00 00 00 00 00 00 00 00 00 00 00 00 00 00
       0.0 0.0 0.0 0.0
0001f0 00 00 00 00 00 00 00 00 00 00 00 00 00 00 00 00
       0.0 0.0 0.0 0.0

network_body._body_endoder.seq_layers.0.weight f4 [128, 8]
000000 c2 f8 49 bd a2 6a d8 3e 03 fd 74 be e3 0d a6 3e
       -0.0493095 0.42268854 -0.23924641 0.3243247
000010 7b 80 ce 3e 15 89 25 3f 05 16 84 be 9b 11 4d 3f
       0.40332398 0.64662296 -0.2579805 0.8010499
000020 4b f0 0e bf 55 43 e8 3e 64 76 b5 3e 0a a3 1a 3f
       -0.5583541 0.4536387 0.35441887 0.6040503
000030 cd 47 17 3f 36 f0 1a 3f 93 e7 85 3e 7a e7 b5 3e
       0.59093934 0.6052278 0.2615324 0.35528165
000040 e3 0f 7e 3e 49 2f 70 3e 62 c8 34 be 39 84 22 bd
       0.24810748 0.23455538 -0.17654565 -0.03967688
000050 d5 89 11 3f e6 86 64 3d 40 97 68 3e 92 6c 14 3e
       0.5685094 0.05579271 0.22713947 0.14494541
000060 af 50 bc be 69 5f 8a 3a 7d 5f e2 bd 9e de fb 3e
       -0.36780307 0.0010556999 -0.11053369 0.4919328
000070 77 b8 6f 3e 60 f8 a8 3e 4a c2 20 3e ba 7b a6 3e
       0.23410212 0.33001995 0.15699115 0.3251627
000080 c7 5b d9 bd 43 f6 54 3f 3a e9 e7 3c b5 9f 5f 3e
       -0.10613208 0.83188266 0.028309453 0.21838267
000090 9a 33 e0 bd b2 54 6f 3e 67 15 1a be 7c d9 dc 3e
       -0.10947342 0.23372152 -0.15047227 0.43134677
0000a0 c5 a2 9c 3d fb 47 0e 3e 69 04 95 3b 8c c7 d7 be
       0.07648233 0.13894646 0.004547645 -0.4214443
0000b0 fe fb d1 3e 05 8e 76 bf c3 bb d8 3e 50 29 07 3e
       0.41012567 -0.96310455 0.4233075 0.13199353
0000c0 47 d4 28 be bf ab cf bb 51 27 89 3e 86 d5 27 be
       -0.16487227 -0.0063376124 0.2678781 -0.16390046
0000d0 ce 84 17 3e fa 7c 34 bf 4f 9c cf 3c 4b c0 a9 3e
       0.14796755 -0.705032 0.025343088 0.3315452
0000e0 4e 09 bc be 21 f1 30 be 7f a9 3d be d2 87 c7 3e
       -0.3672585 -0.17279483 -0.18521689 0.3897081
0000f0 5c 33 05 3f 4a c5 64 3e ae a8 40 be 57 f3 2f 3d
       0.52031493 0.22340885 -0.18814346 0.042956676
000100 63 5b c3 ba 80 ea 5b 3e 45 55 12 bf a1 c5 01 3f
       -0.0014904555 0.21476173 -0.5716136 0.5069218
000110 47 2f f1 3e 11 fc df be fc ae 53 bd f3 f8 14 be
       0.47106382 -0.43747 -0.05168055 -0.14548092
000120 db 5b 51 be 8e 38 a6 3d b1 29 94 bd 43 4a 89 3c
       -0.20445196 0.08116256 -0.072345145 0.016759044
000130 38 65 c7 3d 30 72 31 3f 4f 6b ef be 60 d4 5f be
       0.09736103 0.6931486 -0.46761557 -0.21858358
000140 c9 42 1a bf 4d b9 61 bc b4 40 10 3e 2f 92 b9 3e
       -0.60258156 -0.013777089 0.14087182 0.36244342
000150 52 7b 3f 3e cb bf 55 be e2 ce 94 be 97 76 14 3e
       0.18699387 -0.20873944 -0.2906409 0.14498363
000160 47 be 99 bd 38 8a 1c be 68 8a ad 3d 86 72 87 be
       -0.07506996 -0.15287101 0.084736645 -0.26454562
000170 4a 79 7f 3d a4 a1 a5 3d 13 75 a3 be e7 31 03 be
       0.06237153 0.08087471 -0.31925258 -0.12812005
000180 86 19 df be 12 02 4b 3e da 7b 65 be d9 49 76 3e
       -0.4357416 0.19825009 -0.22410527 0.24051608
000190 de c4 d6 be 72 b2 13 bf c0 af 82 3e 3e 0f 97 be
       -0.41947073 -0.5769416 0.25524712 -0.29503816
0001a0 89 ce db be 34 d4 72 3e 67 7c 03 3f 7b 9b 3d be
       -0.4293101 0.23713762 0.513617 -0.18516342
0001b0 36 a5 05 3d 49 e1 09 3e 77 35 d5 bd 22 8a 9a 3d
       0.03262826 0.13464846 -0.10410588 0.07545878
0001c0 3c 23 b3 3e 56 5d 3f 3d 2b 86 46 be 51 a6 dc 3d
       0.3498782 0.04671987 -0.19387119 0.1077391
0001d0 e0 1c 1e bf ee f4 e2 3d 29 6b 2f 3d c1 41 d4 be
       -0.6176281 0.11081873 0.042826805 -0.41456416
0001e0 5f 4f fd be 07 97 24 be ce 3b 8e bd 6c 36 e2 3e
       -0.49474618 -0.16073237 -0.069450006 0.44182146
0001f0 1e 9b b3 3d ed ff 56 3e d4 fa 59 be 3b 83 f5 bc
       0.08769821 0.20996065 -0.2128709 -0.029969802
000200 80 c6 26 bf 5d 1f 24 bf 97 ae 2a bf d9 1e b6 3d
       -0.65146637 -0.64110357 -0.6667265 0.088926025
000210 25 62 82 3e 96 d4 0c 3e a6 ed b8 3d c1 67 88 be
       0.25465503 0.1375297 0.09029703 -0.26641658
000220 91 a3 d5 3e c1 54 9f 3e 46 ae 5c be 65 d9 a9 3e
       0.41726354 0.3111935 -0.21550855 0.3317367
000230 06 ef c4 3e 1d 27 b9 be 56 47 7e 3e 5e 05 e7 3d
       0.3846361 -0.36162654 0.248319 0.112803206
000240 b7 ee c5 be c8 88 18 bc 3d 50 08 bf ab b8 c6 3e
       -0.38658687 -0.009309955 -0.53247434 0.38812765
000250 6f 4a ec 3e fd 7b e3 bd 06 49 0e bf 4d 11 93 3c
       0.46150538 -0.11107633 -0.55580175 0.017952586
000260 70 1d 8d be 67 0c a7 3c 26 6e 1f be ca 3c b6 bd
       -0.27561522 0.020391656 -0.15569362 -0.08898313
000270 21 2d 17 be a9 15 e3 be c9 cb 09 be 2f e2 b5 3d
       -0.14763309 -0.44352463 -0.13456644 0.08881032
000280 9c 82 56 3e 47 1c 5c be ba e1 73 3e 6c 41 95 3d
       0.20948261 -0.21495162 0.23816577 0.07287869
000290 fc 38 06 be 8f 97 88 be 99 16 5d be ce e2 a9 be
       -0.13107675 -0.2667813 -0.21590652 -0.3318085
0002a0 cd 3c 8d be 55 9d 02 3f 83 92 2b 3f 9f 8c 38 3e
       -0.2758545 0.5102132 0.67020434 0.18022393
0002b0 65 bd 91 3e ed 99 0e 3f 32 d0 87 3f 92 95 a2 be
       0.2846481 0.5570362 1.0610411 -0.31754738
0002c0 61 97 8a 3e 6b 7a 8c 3e 67 eb a8 3d bc a3 33 bd
       0.27068618 0.27437147 0.082480244 -0.04385732
0002d0 4a a1 ef be 96 0c d0 bd 9f c2 d5 3e 40 d8 12 3e
       -0.4680274 -0.101586506 0.41750047 0.14340305
0002e0 0c e7 bd be 5f ec a9 3e 2a b2 00 bf 89 30 b8 3c
       -0.37090337 0.3318815 -0.50271857 0.02248408
0002f0 0a dc 1c be eb 8b c9 3d 8b 6c 88 be 85 07 b5 3e
       -0.15318313 0.0984114 -0.26645312 0.353573
000300 c5 21 46 3e 4b 5c 11 be 61 b8 ca 3e 3f 49 3a bf
       0.1934882 -0.14195363 0.39593795 -0.72768015
000310 d3 2a 93 be f1 e7 b6 3d 08 07 00 3e 2a 67 97 bd
       -0.2874361 0.08930958 0.12502682 -0.07392724
000320 1d b5 be bd b6 fc 7b be 68 34 b0 be 41 58 ea bd
       -0.09311888 -0.2460812 -0.34414983 -0.11442614
000330 c2 52 c8 bd 69 f9 c9 3e 2c ce 0c 3f 45 54 9f bc
       -0.0978141 0.39448097 0.55002093 -0.019449363
000340 b9 94 95 3e 01 56 9c be 88 01 8f 3e dc b8 fc 3e
       0.2921503 -0.30534366 0.27930856 0.49359787
000350 5f c8 8e 3e 5f 8f 07 3e af 5c 17 3e 1d 7f f1 bb
       0.27887246 0.13238285 0.1478145 -0.0073698894
000360 a3 88 76 bc 60 f7 9f 3d 0c e7 a6 bd 62 23 07 3d
       -0.015047225 0.07810855 -0.081495374 0.032992728
000370 35 2c 1f bd b4 c3 5f 3e a9 f0 63 3f 81 48 72 3e
       -0.03886052 0.21851999 0.89039093 0.2366047
000380 71 c9 d6 3d 56 e7 eb bc a1 95 8d bd 53 99 d2 3e
       0.10487641 -0.028796833 -0.06913305 0.41132602
000390 21 9d 05 3f e6 56 df bc b9 7a e0 be 99 92 ad be
       0.52192885 -0.027263116 -0.4384363 -0.33900908
0003a0 9d f8 e0 bc 89 16 2e 3d d2 58 1a be b7 0d 21 3e
       -0.027462298 0.04250196 -0.15072945 0.15727888
0003b0 53 48 99 be 7b 7a 92 bc ac d9 91 bd 04 75 b6 be
       -0.29937991 -0.017880669 -0.07121596 -0.3563615
0003c0 67 f7 71 be 40 e0 35 3e 76 bf 62 bb c9 c2 26 be
       -0.23629533 0.17761326 -0.0034598983 -0.16285242
0003d0 eb ef 10 3f 21 fc 8e be 3b b9 b8 3e 6d c2 12 3f
       0.56616086 -0.27926734 0.3607882 0.5732792
0003e0 30 ff 4c 3b e0 db 8d 3c b9 49 40 be 6d 81 5d be
       0.0031280033 0.017316759 -0.18778123 -0.21631403
0003f0 b5 93 9e be 57 11 f2 be f7 bd 0f be aa fe f9 3d
       -0.30972067 -0.47278854 -0.1403731 0.122067764

network_body._body_endoder.seq_layers.2.bias f4 [128]
000000 00 00 00 00 00 00 00 00 00 00 00 00 00 00 00 00
       0.0 0.0 0.0 0.0
000010 00 00 00 00 00 00 00 00 00 00 00 00 00 00 00 00
       0.0 0.0 0.0 0.0
000020 00 00 00 00 00 00 00 00 00 00 00 00 00 00 00 00
       0.0 0.0 0.0 0.0
000030 00 00 00 00 00 00 00 00 00 00 00 00 00 00 00 00
       0.0 0.0 0.0 0.0
000040 00 00 00 00 00 00 00 00 00 00 00 00 00 00 00 00
       0.0 0.0 0.0 0.0
000050 00 00 00 00 00 00 00 00 00 00 00 00 00 00 00 00
       0.0 0.0 0.0 0.0
000060 00 00 00 00 00 00 00 00 00 00 00 00 00 00 00 00
       0.0 0.0 0.0 0.0
000070 00 00 00 00 00 00 00 00 00 00 00 00 00 00 00 00
       0.0 0.0 0.0 0.0
000080 00 00 00 00 00 00 00 00 00 00 00 00 00 00 00 00
       0.0 0.0 0.0 0.0
000090 00 00 00 00 00 00 00 00 00 00 00 00 00 00 00 00
       0.0 0.0 0.0 0.0
0000a0 00 00 00 00 00 00 00 00 00 00 00 00 00 00 00 00
       0.0 0.0 0.0 0.0
0000b0 00 00 00 00 00 00 00 00 00 00 00 00 00 00 00 00
       0.0 0.0 0.0 0.0
0000c0 00 00 00 00 00 00 00 00 00 00 00 00 00 00 00 00
       0.0 0.0 0.0 0.0
0000d0 00 00 00 00 00 00 00 00 00 00 00 00 00 00 00 00
       0.0 0.0 0.0 0.0
0000e0 00 00 00 00 00 00 00 00 00 00 00 00 00 00 00 00
       0.0 0.0 0.0 0.0
0000f0 00 00 00 00 00 00 00 00 00 00 00 00 00 00 00 00
       0.0 0.0 0.0 0.0
000100 00 00 00 00 00 00 00 00 00 00 00 00 00 00 00 00
       0.0 0.0 0.0 0.0
000110 00 00 00 00 00 00 00 00 00 00 00 00 00 00 00 00
       0.0 0.0 0.0 0.0
000120 00 00 00 00 00 00 00 00 00 00 00 00 00 00 00 00
       0.0 0.0 0.0 0.0
000130 00 00 00 00 00 00 00 00 00 00 00 00 00 00 00 00
       0.0 0.0 0.0 0.0
000140 00 00 00 00 00 00 00 00 00 00 00 00 00 00 00 00
       0.0 0.0 0.0 0.0
000150 00 00 00 00 00 00 00 00 00 00 00 00 00 00 00 00
       0.0 0.0 0.0 0.0
000160 00 00 00 00 00 00 00 00 00 00 00 00 00 00 00 00
       0.0 0.0 0.0 0.0
000170 00 00 00 00 00 00 00 00 00 00 00 00 00 00 00 00
       0.0 0.0 0.0 0.0
000180 00 00 00 00 00 00 00 00 00 00 00 00 00 00 00 00
       0.0 0.0 0.0 0.0
000190 00 00 00 00 00 00 00 00 00 00 00 00 00 00 00 00
       0.0 0.0 0.0 0.0
0001a0 00 00 00 00 00 00 00 00 00 00 00 00 00 00 00 00
       0.0 0.0 0.0 0.0
0001b0 00 00 00 00 00 00 00 00 00 00 00 00 00 00 00 00
       0.0 0.0 0.0 0.0
0001c0 00 00 00 00 00 00 00 00 00 00 00 00 00 00 00 00
       0.0 0.0 0.0 0.0
0001d0 00 00 00 00 00 00 00 00 00 00 00 00 00 00 00 00
       0.0 0.0 0.0 0.0
0001e0 00 00 00 00 00 00 00 00 00 00 00 00 00 00 00 00
       0.0 0.0 0.0 0.0
0001f0 00 00 00 00 00 00 00 00 00 00 00 00 00 00 00 00
       0.0 0.0 0.0 0.0
