Project/Assets/ML-Agents/Examples/Sorter/TFModels/Sorter.onnx (onnx, 510893 bytes, 23 tensors)

discrete_act_size_vector f4 [1, 3]
00000000: 0000 4040 0000 4040 0000 4040
3.0 3.0 3.0

network_body.observation_encoder.processors.0.self_ent_encoder.seq_layers.0.bias f4 [128]
00000000: 8214 8ebc 809d 0d3c b189 453d 5e8d 9fbc
00000010: ff15 cbbc b07e d33d 3438 4d3c 6c3c 68bd
00000020: ef3f 4e3d 5176 503c 0561 7fbb 86b9 03bd
00000030: a5d6 35bb 5204 5dba 9e3b 953d d312 8d3c
00000040: 1089 b1bd 2dc5 773c ed2d fa3b 8faa 33bc
00000050: 6b0e 31bd 2a3f 1fbe 3ede 4ebb 96b4 05bc
00000060: fa4c b73d d01c 053d 680d fd3c 2547 fe3c
00000070: 2b33 dbbc d846 05bd 19ce 8d3c a22e 12bb
00000080: cf6c 4dbd 49bf c8bd b6d0 5d3b 340c 92ba
00000090: 9b01 db3c 7642 dabc 1361 80bc c466 02bc
000000a0: 5d6f 5f3c 5df5 98bb 1ebe cc3c e4bd 863c
000000b0: 38a5 773c 81a1 3d3c b4ee 723c a087 33bd
000000c0: dd8a 523d 12f7 043e fc3e 8bbd bcd5 85bc
000000d0: 48f4 053d d9df 00bd ce73 55bc 9d8b 5fbd
000000e0: 1e37 78bd fa6b 953b 9aef aebc 627b 64bc
000000f0: 43e7 903c 720d 90bc 5942 173c 7375 023d
00000100: 5b81 9abb 5b73 a4bd 44a2 223d dd31 4c3c
00000110: d502 c3bd f412 963d d8ce a33c 2783 00bb
00000120: 9aae ffbb 48dc 673c fe86 34bc b2dd 77bc
00000130: a93f b4bc 62d8 7dbd e61e bdbc db30 81bc
00000140: 7744 51bb 0fe5 363b bd2d 313c 1893 dabb
00000150: 1fb6 63bc 2377 a83c ff0d b83c 7e8e 30bd
00000160: 9c67 843c 2b92 223c aefb 3abb 5d82 da3b
00000170: 6163 33bc 92b3 263d 5aa3 a33c b00a c4bc
00000180: 7c3c 283b dec1 6fbd 0a55 623c ae5c cebc
00000190: 318e 273d 1729 ea3c 8826 023d 2a8d 93bc
000001a0: 5a0b 8f3c 3863 4aba 39f0 71bd bd55 2ebb
000001b0: a88c 603d 7d52 333d b753 8dbd cf86 5a3d
000001c0: d924 1b3d 0119 81bb 2fa4 3fbd 6576 ce3c
000001d0: d65b 5ebc b080 e13b 7c0b e6bb c2ca 6f3c
000001e0: 5ccf 63bd 865c 5abb f8ea 4cbc f8c5 153e
000001f0: eeab 403d 8a8b 36bd 4b3b 4cbc cde8 99bd
-0.017343763 0.008643508 0.048227016 -0.019476589 -0.024790762 0.10326898 0.012525607 -0.056698248
0.05035394 0.012723521 -0.003896774 -0.03215935 -0.0027746346 -0.0008431125 0.07286762 0.01722089
-0.08668721 0.015122694 0.0076348693 -0.010965957 -0.04322664 -0.15551439 -0.0031565572 -0.008160731
0.08950229 0.03249818 0.030890182 0.031039784 -0.026757797 -0.032538265 0.01731019 -0.0022305627
-0.050152596 -0.0980211 0.0033846325 -0.0011142553 0.026734164 -0.02664302 -0.015671289 -0.007959072
0.013637391 -0.0046679215 0.024992999 0.016447969 0.015115075 0.01157415 0.014827419 -0.043830514
0.05140196 0.12984875 -0.06799123 -0.016337268 0.032703668 -0.031463478 -0.013028098 -0.054576505
-0.06059944 0.004559991 -0.021354485 -0.013945432 0.0176884 -0.017584536 0.009232127 0.03185029
-0.0047151274 -0.08029815 0.03970553 0.01246306 -0.095220245 0.07327834 0.019996092 -0.0019609423
-0.0078027966 0.01415164 -0.011018513 -0.01512854 -0.022003012 -0.061973937 -0.023086023 -0.015770366
-0.0031931677 0.0027907526 0.0108141275 -0.006670367 -0.0138984015 0.020564621 0.022467611 -0.04310464
0.016162686 0.0099225445 -0.002853136 0.0066683725 -0.010948987 0.040698595 0.019975353 -0.023930877
0.0025670817 -0.058534496 0.01381422 -0.025190677 0.04090709 0.028584046 0.031775028 -0.018011648
0.017461468 -0.0007720473 -0.059066985 -0.0026601397 0.05482164 0.04377984 -0.06900733 0.05335122
0.037876938 -0.0039397483 -0.046787437 0.02520294 -0.0135717 0.006881796 -0.007020412 0.014635744
-0.055617675 -0.0033319308 -0.012507193 0.146263 0.047038965 -0.04456667 -0.012465308 -0.07515106

network_body.observation_encoder.rsa.fc_q.bias f4 [128]
00000000: 2f47 09be 504f 99bb 0be0 5dbd 274d 1dbe
00000010: 7ef7 a9bd 2cb8 e43d 8270 153e 05a8 ecbd
00000020: 432b 2cbe f8c7 f23c dcc7 f03d a2a2 bb3c
00000030: 234d 08be f833 2c3e 4700 523e d391 b73d
00000040: 02b7 853e 220a 403e a055 5a3d 5707 29bd
00000050: f52b 1bbe 103d 0e3d d8a3 4e3e f1c3 e83d
00000060: d65f 3d3e a4a0 233e 1f3b 33be c931 ea3d
00000070: e128 463d 3598 0f3d 47c6 c1bd c6ac 913d
00000080: e141 2dbd 7a86 0cbd bfc2 a43c 41bc d93d
00000090: 3365 24bc a7d2 bf3d 58e5 a33c 5ad3 e13d
000000a0: 2cf3 c6bd c641 8dbd 49c8 93bd 6d8f 193d
000000b0: 30ae be3d 41cf f13d 0b31 77bd aaf2 80bc
000000c0: a1a2 813d 122e 97bc 1fd9 17bd 816b 1f3c
000000d0: b9e9 3ebd f619 7fba 9595 e13d eb0e d2bd
000000e0: b385 8d3d e181 8c3d aa6a 8b3c 650f 783c
000000f0: 3903 aebd 91f4 3dbd e44b 77bd 01ed e03d
00000100: a9f8 7a3d 947e 28be 3574 bbbe 8487 833e
00000110: e35d 293e 58d7 953e c408 063e 1e0e 9d3e
00000120: 908f 1cbe 1c0f 613e f3e6 883d 95a8 d63d
00000130: 39d3 cebd 0966 c43d af85 b2bc 85ff 273c
00000140: 0d1d 94be d3ba 933d 9725 a0bd 69ac ae3d
00000150: dada abbd 25e6 d43b fb27 ca3d 2624 07bc
00000160: 73b9 453e 3c8b 8bbe 07c4 ebbd 571f f73d
00000170: 23ca 823e 9559 683c a5ae c2be 3765 ddbd
00000180: 2fe6 203e 01d1 acbb 857c 2bbd 9fc2 f0bc
00000190: a4e2 c4bc 31b5 4e3e 0ea3 15bd 4c8c 04bd
000001a0: c7e0 09be 41c9 123e e905 a63d 03d0 533c
000001b0: aed2 05be a84e 5abe a9c0 49bd 33e4 8a3d
000001c0: 5b57 5bbd 0c60 99bd bfe5 3a3e 86cb 4dbd
000001d0: 171d e43d 0f5d c2bd 0bf6 e5bd f041 36be
000001e0: 5c45 b23d 2a8b 9c3d cccf 92be 9cbf b3bd
000001f0: 76a5 203d 31a7 4abe 07e5 23bd b040 343e
-0.1340606 -0.0046786442 -0.054168742 -0.15361463 -0.082991585 0.111679405 0.145937 -0.11555485
-0.16813378 0.029636368 0.1175687 0.022904698 -0.13310675 0.168167 0.20507918 0.08963361
0.26116186 0.18753865 0.053304315 -0.041266765 -0.15153487 0.034726202 0.20179689 0.11365498
0.1849359 0.15979248 -0.17503022 0.11435277 0.04837883 0.035057265 -0.094616465 0.07113032
-0.042299155 -0.034307934 0.020112393 0.1063161 -0.010033893 0.093663506 0.02000682 0.1102664
-0.0971435 -0.06897311 -0.07215936 0.037490297 0.093105674 0.11807109 -0.060349505 -0.015740711
0.06329847 -0.018454585 -0.037072297 0.009730221 -0.046609614 -0.00097313465 0.11014859 -0.102567516
0.06910267 0.0686071 0.017018635 0.015140389 -0.084967084 -0.046375815 -0.06037511 0.10982705
0.061272297 -0.16454536 -0.36612096 0.25689328 0.16539721 0.29265857 0.13089281 0.30674833
-0.1528914 0.2197842 0.06684675 0.10481373 -0.10098881 0.09589774 -0.02179226 0.010253792
-0.28928414 0.07213368 -0.0781967 0.085289784 -0.08391352 0.006497162 0.09870907 -0.008248365
0.19309025 -0.27254665 -0.115119986 0.120665245 0.25544843 0.014181514 -0.38023868 -0.10810321
0.15712808 -0.0052739386 -0.041866798 -0.029389678 -0.024033852 0.20186307 -0.036532454 -0.03236036
-0.13464652 0.14334585 0.08106596 0.012928012 -0.13068649 -0.21319067 -0.049256 0.06781807
-0.053550106 -0.074890226 0.18251704 -0.050242923 0.11138361 -0.09490406 -0.112285696 -0.1779859
0.087046355 0.07643731 -0.2867416 -0.08776781 0.039220296 -0.19790341 -0.04001334 0.17602801

network_body.observation_encoder.rsa.fc_k.bias f4 [128]
00000000: 12ae b937 c0c2 dab8 f84a 89b8 ea96 9fb7
00000010: 0135 7e38 1f5f e138 6533 68b7 1b8d 0739
00000020: e6a6 7938 4f2a 7b38 e1c4 69b8 102e 6bb6
00000030: 7c65 4c38 2ca0 a837 9a30 0cb9 abf9 a336
00000040: 5723 1cb9 0482 2c38 d7a7 c9b8 517e 8938
00000050: 1cd5 fa37 be23 91b8 ef95 f6b6 aa22 8738
00000060: 4de9 92b6 1627 81b8 ac59 cd38 755e ceb7
00000070: d047 1438 63f7 c038 0521 99b8 e6c2 01b8
00000080: 46e9 b637 4cd0 09b9 7c73 e238 2c18 f638
00000090: 7cc1 d6b6 0585 8a39 63f4 1ab8 93d2 34b8
000000a0: 8e8b 89b7 b2bd 58b8 7688 8a37 ff6f d638
000000b0: 3210 d838 a2f0 d538 25f2 c937 bf38 d938
000000c0: 0fb1 6437 4447 9f37 4deb 96b8 22e7 4eb8
000000d0: 7299 df38 2b4b 44b8 5e47 99b7 f774 4438
000000e0: effa 1539 6e40 5e38 3b3f 5b38 8c65 8bb8
000000f0: 0d0f 3d39 0222 8db8 1c32 04b8 15f7 2838
00000100: d49e 05b9 bfce 38ba d97a 7fba 1e17 b938
00000110: 4377 c039 5c74 9139 7053 3b39 0c8d f639
00000120: 0a3f 40b8 c063 193a 94c8 beb9 454e 20b9
00000130: f66a 8e39 b832 56b9 4dcd 7739 7702 38b8
00000140: c6f5 af39 1032 57b9 3d76 7b39 8839 283a
00000150: 7d54 9ab8 9679 0136 62ab ecb9 ffc6 04b9
00000160: 602b ca39 b6a8 9139 0301 7fb8 c54e 6239
00000170: 75e4 b739 3f16 6939 94de c539 e421 c5b7
00000180: 6736 6e39 2f88 7f38 fcb6 6439 2b88 6fb8
00000190: 6e09 8138 01d0 77b6 561c 58b9 af93 5238
000001a0: 948a aeb9 9dad 86b6 53a0 cf38 c53c 5b39
000001b0: 83b4 a5b9 3b0b 7bb9 6902 c8b8 63da d0b8
000001c0: 3863 bfb9 70e6 4cb9 1e47 5d39 cc3a 9ab9
000001d0: b11f 1739 1b5b 7bb7 7f80 5339 cf47 acb9
000001e0: 76b4 43b9 994e 3db8 b879 39b8 e99c 7cb9
000001f0: 7b71 68b9 b82a 2db9 073f 11b9 b35a a639
2.2134776e-05 -0.00010431325 -6.546633e-05 -1.9024552e-05 6.0607683e-05 0.00010746554 -1.3840244e-05 0.00012927169
5.9521662e-05 5.9882466e-05 -5.5734887e-05 -3.504454e-06 4.8731905e-05 2.0101746e-05 -0.00013369546 4.8868437e-06
-0.00014890484 4.1129082e-05 -9.6156895e-05 6.556197e-05 2.990156e-05 -6.920796e-05 -7.348826e-06 6.443758e-05
-4.378299e-06 -6.15848e-05 9.7918644e-05 -2.4601099e-05 3.535283e-05 9.201353e-05 -7.301759e-05 -3.093751e-05
2.1804717e-05 -0.00013142935 0.000107980304 0.000117346965 -6.4002215e-06 0.00026420518 -3.6944064e-05 -4.3111457e-05
-1.6396658e-05 -5.167508e-05 1.6514427e-05 0.00010225176 0.00010302699 0.00010201453 2.4073825e-05 0.00010357936
1.3631084e-05 1.8987463e-05 -7.1963856e-05 -4.9329487e-05 0.0001066205 -4.6800047e-05 -1.8272254e-05 4.6838974e-05
0.00014303227 5.298893e-05 5.2272557e-05 -6.646951e-05 0.00018030051 -6.7297384e-05 -3.151792e-05 4.0284434e-05
-0.00012743036 -0.00070498505 -0.0009745784 8.825793e-05 0.0003670995 0.0002774325 0.00017864793 0.00047025864
-4.5835077e-05 0.0005851351 -0.00036389066 -0.00015287947 0.00027164043 -0.00020427525 0.00023632236 -4.3871314e-05
0.00033561717 -0.00020522648 0.00023981273 0.0006417264 -7.3590294e-05 1.929327e-06 -0.00045141118 -0.00012662633
0.0003856076 0.00027782255 -6.079768e-05 0.00021582383 0.00035074694 0.00022228899 0.00037740602 -2.3500012e-05
0.00022717715 6.092357e-05 0.00021811941 -5.7108857e-05 6.152956e-05 -3.6926942e-06 -0.00020609921 5.0205443e-05
-0.00033291115 -4.0137224e-06 9.900392e-05 0.00020908106 -0.00031605744 -0.00023941409 -9.537192e-05 -9.9588906e-05
-0.00036504283 -0.000195408 0.00021102696 -0.00029416976 0.00014412288 -1.4981978e-05 0.00020170397 -0.00032859898
-0.00018663876 -4.513431e-05 -4.4220797e-05 -0.00024091046 -0.00022167519 -0.0001651448 -0.00013851757 0.00031729563

network_body.observation_encoder.rsa.fc_v.bias f4 [128]
00000000: f011 ab3d 984e 14bd 73f0 233c 26e0 07bd
00000010: 6fc7 d53c b404 353d eaf0 963c b8de cbbc
00000020: d5ad 31bc 9311 1bbd 6b83 9a3b 0e61 edbc
00000030: b6b4 ff3c fea9 f8bb 27ae 873c 7bb1 2fbb
00000040: d52b 853c 9210 d6bb 9743 323d b8be e63a
00000050: 6ab4 b63c d12f 153d 2100 febc 4807 42bb
00000060: cfa9 6bbc 257d 9e3c b738 11bc 6241 25bd
00000070: 8f40 423c ee1b 2fbb 5b3a b2ba 6cf0 ae3d
00000080: d03a 113d 895f dcbb 0b52 163c 9c51 8fbc
00000090: 4432 50bd fa3e 073b fd1f 7ebd 3525 2dbc
000000a0: 8c83 e33c e6eb 153b 733f b2bc d31e 29bd
000000b0: 1280 b53b 4983 50bc 8350 b3bc 83af 0cbd
000000c0: e511 48bc 20c9 b1bc e987 35bd 55f0 0ebc
000000d0: 44d2 4abc b8fd 77bc 1305 5b3c e9bd 593d
000000e0: 4af7 f13c 6ba8 21bd c865 233d 311e 29bd
000000f0: 52ed 14bd 4ccf 09bc ee36 e5bc 2ae2 4bbc
00000100: 614f 013c 3dd7 473c 61d2 ba3b 5e81 133c
00000110: 4d04 b8b9 2c35 c8ba 73d6 ab3c ee47 123c
00000120: 20b3 18bd fc7a 8abc 70cc ccbc 337d d5bb
00000130: 86e3 413c 670f 2d3c 5ded 0bbc 25aa bf3c
00000140: aa65 71bc ae3c 7a3a 3f02 02bc abd0 793c
00000150: a8e1 06bd dbba ac3c e603 223c 91be d13b
00000160: 3fa0 60bb 8921 d6bc fec2 3b3c 65cf b93b
00000170: c571 0bbc d01f e73a 4199 bb3c 9ade ea3b
00000180: 8a30 12bc 8403 03bd 7977 c63c 3c6e 9dbd
00000190: fde6 28bd 6b03 2e3c 9369 fc3c c121 8c3c
000001a0: 9229 1abd e966 2ebd 6bb8 5c3d 5d42 87bc
000001b0: 6eae 0dbd 2515 103d e3c9 e3bc 3569 ebbc
000001c0: 57da a8bc 1939 e6bb 325f d4bb 8fef 87bd
000001d0: a575 27bc e32f c73c 183a 073d 3f32 333d
000001e0: 6164 78bd beb7 14bc 6414 673c a782 24bd
000001f0: c796 2a3d dc3b af3c f263 1a3c 47c4 91bd
0.08353031 -0.036207765 0.010006058 -0.03317275 0.026096074 0.04419394 0.018425424 -0.024886474
-0.010844667 -0.037858557 0.0047153733 -0.028976943 0.0312141 -0.007588624 0.016562534 -0.0026808667
0.016256252 -0.006532737 0.04352149 0.0017604446 0.022302825 0.036422554 -0.03100592 -0.002960639
-0.014383747 0.019346783 -0.0088636195 -0.040345557 0.011856212 -0.0026719528 -0.0013597714 0.085419506
0.03545648 -0.006725256 0.009174834 -0.01749497 -0.050829187 0.0020636902 -0.062042225 -0.010567953
0.027772687 0.0022876202 -0.02175877 -0.041289162 0.005538949 -0.012726613 -0.021888977 -0.03434707
-0.012211298 -0.02170235 -0.044319067 -0.008724292 -0.012379233 -0.015136175 0.013367909 0.053159628
0.029536862 -0.039467257 0.039891988 -0.04128856 -0.03635914 -0.00841124 -0.027980294 -0.012444058
0.007892461 0.012197313 0.0057013487 0.0090030115 -0.0003509842 -0.0015274636 0.02097628 0.008928282
-0.037280202 -0.016904347 -0.024999827 -0.006515169 0.011834031 0.010562754 -0.008540479 0.02339656
-0.014733711 0.0009545785 -0.007935106 0.015247504 -0.032930046 0.021085193 0.009888625 0.006400891
-0.0034275202 -0.026139038 0.011460064 0.0056704753 -0.0085110115 0.0017633382 0.022900226 0.0071676495
-0.008922705 -0.031985775 0.02422689 -0.07687041 -0.041235913 0.010620932 0.03081206 0.017105939
-0.0376373 -0.04257861 0.053886812 -0.016511137 -0.034590177 0.035176415 -0.027806228 -0.02873669
-0.020611925 -0.0070258495 -0.0064810747 -0.06637489 -0.01022092 0.024314826 0.033014387 0.04374909
-0.060642604 -0.009077011 0.014103983 -0.040163662 0.0416477 0.021390848 0.009423243 -0.07117515

network_body.observation_encoder.rsa.fc_out.bias f4 [128]
00000000: 5270 f1bc 8e58 b3bb 5fa2 2abc 58ea aa3b
00000010: 3de0 a6bc 9151 da3c 8c25 9c3c af7c ca3c
00000020: a38c dd3b 7a4a 7dbc 056c a13c edeb deba
00000030: 356b db3c 52bc 06bc f988 693c 668a 7d3c
00000040: be61 cbbc 2459 7d3d cf83 64bd 2dca 1f3d
00000050: 72b0 c93b e295 de3a 2921 9abd 663b 1b3d
00000060: cc4c 54ba 1b6c 96ba 911b f83b 0f80 cebb
00000070: a4f2 9d3d 8d8c 6ebc 0c7b d7bb a5c6 22bd
00000080: 85e8 133d 7476 9c3d a1cb d4bc 0bdd 2cbc
00000090: f4ae 86bc 6fca 613c db2c 14bd 0331 8c3d
000000a0: 570c ff3b 8397 0f3d cb39 0abb 6a0c 8abc
000000b0: 689b 933b 768a ccbc e404 22bd a846 833a
000000c0: 6b1a b8bc 170d a23c fb0d 8fbb 3e3b efbb
000000d0: 89d8 f13b 24b5 873c 85bc fdba 2926 453c
000000e0: 4e47 25bc 12d8 2dbd 721a 95bc cee4 a1bd
000000f0: 0de2 463c 3245 fbbc c2c7 01bd 0da6 363b
00000100: 0c64 8d3c c3e9 3b3c 5038 29bd 453c 0abd
00000110: f400 743d 3cba 0b3c 1177 fcbc 9898 153d
00000120: 9bdd 6ebc 050e 0c3c 0f78 bbbd 233a 58bc
00000130: c2dd 42bd 07bb 823c 77ad 283d 5cce 583a
00000140: b0f7 a63d e210 9e3c 1db3 933d 7ec3 35bc
00000150: 4f08 6c3c ac8e 80bd 8f87 043c 6c4c 86bb
00000160: 9c94 c6bd 1647 97bc 8637 093d 4cd2 4d3d
00000170: 87ee 50bd 4dbc 46bc 8e61 053c cc76 6abc
00000180: 657f 3abb 50b2 91bd 1822 0dbc e641 1c3d
00000190: 31ce 20bd 5e7b f93c 3a01 29bd ab8a e63c
000001a0: fa23 293c 4992 22bd 276c 973c bdc7 90bc
000001b0: f914 893d 751f 393c d144 3ebb 9855 483c
000001c0: 850e 503c 1d64 35bd 0205 803c 8e3f 25bd
000001d0: 3033 a7bc 4d4d dabb f5cb 06bc 9fe4 093d
000001e0: 2d14 91bc ceac 4fbc 980e bb3c 1d3c 2c3d
000001f0: 2909 dd3c ef42 4d3d 5afa 6ebd ea7c b53c
-0.029472504 -0.005473203 -0.010414689 0.0052159242 -0.020370597 0.026650222 0.019060872 0.024717657
0.00676115 -0.015459651 0.019704828 -0.0017007567 0.026784519 -0.00822361 0.014253848 0.015474891
-0.02482688 0.06185259 -0.055789765 0.03901117 0.006155067 0.0016981924 -0.07525856 0.037898444
-0.0008098602 -0.001147631 0.0075716455 -0.006301887 0.07712296 -0.014559877 -0.0065759476 -0.039740223
0.03611042 0.07639781 -0.025976004 -0.010550748 -0.016440846 0.013781174 -0.03617559 0.06845286
0.0077834534 0.035056602 -0.0021091576 -0.016851623 0.00450461 -0.024968367 -0.039555445 0.0010015564
-0.022473535 0.019781632 -0.0043656803 -0.0073007634 0.0073805493 0.016565867 -0.0019358551 0.012033024
-0.010087801 -0.04244239 -0.018201087 -0.07904969 0.012138856 -0.030672643 -0.031684645 0.002786997
0.01725962 0.011469307 -0.04131347 -0.033748884 0.05957122 0.008528288 -0.030818494 0.036522478
-0.014579202 0.008548264 -0.09153759 -0.013197455 -0.047574766 0.015958322 0.041181054 0.0008270496
0.081527114 0.01929516 0.072118975 -0.011093972 0.014406278 -0.062772125 0.00808896 -0.0040984657
-0.09696314 -0.018466514 0.033500217 0.050249383 -0.051008727 -0.012129855 0.008140935 -0.01431055
-0.002845728 -0.071140885 -0.008614086 0.038148783 -0.03925914 0.030454334 -0.041260935 0.028142294
0.010323519 -0.03969029 0.018484188 -0.017673368 0.06693453 0.011299004 -0.0029032717 0.012227438
0.012698774 -0.04428493 0.015627388 -0.040343814 -0.02041015 -0.006662047 -0.008227338 0.033665296
-0.017709816 -0.012675477 0.022834107 0.042049516 0.026981907 0.05011266 -0.058344223 0.02215429

network_body.observation_encoder.x_self_encoder.seq_layers.0.weight f4 [128, 18]
00000000: 821c d83c 5def e8bc faad 603d bb15 983c
00000010: 2b09 183d f6b9 25bd 46f7 b6bb 90e0 21bb
00000020: 1f44 9fbd ff11 0dbb a733 513c eb03 35bc
00000030: 5755 32bc 2b74 9fbd 714b 97bb db50 46bc
00000040: 16cb 263c e7e1 623d c9b6 0b3c d078 cb3c
00000050: 39bf a8bb 4cb3 60bd e544 0dbc afd1 1c3d
00000060: 20e9 1d3d b973 1ebb 837a 463c 8b21 0cba
00000070: 2b7b d2bd f80b 8a3d d462 54bd 809a dfba
00000080: 36d6 3abc 1cec c13c b240 8c3d 9221 933d
00000090: be07 62bc 2281 9cbc 7b0b 833c 10d3 3a3b
000000a0: 5644 01bd 82eb e0bc b96b bdbd 611d a1ba
000000b0: 14bd f7bd 6087 7f39 3f22 6abc d61d 9f3b
000000c0: 045a f2bc f756 a9bc e2a0 163c 8853 30bc
000000d0: de2b 033e ce99 00be d726 f7bc ceac 27bd
000000e0: 28d6 433c 365b 24bc 3af6 74bd 78a0 20bb
000000f0: 803b be3b 80ff 083b 463f ad3c afdc ca3a
00000100: 3710 b739 58ba c13a b5ad 7e3d 0886 96bc
00000110: d4b6 cc3a d399 ce3b 7fdc 8bbd 510d 593d
00000120: 791d 723c 1c10 713b 7696 263d edf3 4e39
00000130: aecb 3dbd 87f0 623c f44a 503d 0e43 193b
00000140: 528f 053d c6c9 4c3b 0832 c2ba 2c6e 6d3c
00000150: 718c c7bc e1be 2c3c 3b16 4b3c 8b21 e6bb
00000160: 76c6 0fbc 3cc9 e93d cc37 1abb 126b 2d3d
00000170: 4a06 10bd b6ce be3c 0a6f 1abc ebfe 123b
00000180: f6f7 dabb 9267 59bb d186 353c 08f2 e93a
00000190: 69f1 d8bd c9d1 0e3d 4de2 8cbc e234 4c3d
000001a0: 9e24 f7bd a6fb 2b3d 70a4 d1bd 44a5 e1bc
000001b0: 3669 8d3d dad8 163d 33b3 613b d382 37bc
000001c0: 1374 8a3d 11cb 013d 59cf a5bc 082c 123b
000001d0: e2eb 293d ecf0 cd3a 7d9f 713c e059 a63b
000001e0: 2180 633d 5cc8 7f3b 3540 063c ab7b 483b
000001f0: 4eba 40bd d903 04bd 28a5 67bc 2b45 28bd
00000200: bc85 7b3d 9ba3 ff39 a4a5 64bd 1882 343d
00000210: 6114 18bd a3d0 b6ba ce79 2dbd 2026 14bb
00000220: 63a1 0ebd 34be 4fbc 8f4f 0e3d e913 c4bc
00000230: aea9 f6bc 5dfc e53c f83a 0bbd 2d67 31bd
00000240: 320b 2a3d 2fe0 4e3b 32f1 96ba 3414 acbc
00000250: 551a 123d 2ead cdbc c6cf 3e3d a796 31bb
00000260: 9a1d 85bc bb3f a7bb 867c 7d3d b087 eabd
00000270: e5f0 6a3c d45e b03c c98a ba3c 9037 1abd
00000280: 5cf0 9f3d fa9a 9f3d 9737 52bd 431a efbc
00000290: aa14 a7bd dcf0 393d 9e52 ba3c e0ea e13c
000002a0: ea49 5f3d bc1a 233a 17f4 f4bc 3890 e1b9
000002b0: ab15 e6bc 26ee 013d 7558 73bd f30d 613d
000002c0: 3bc0 3f3d 8b97 f8bc 0114 1f3d 0b49 98bc
000002d0: fb98 a13c e223 163c 450f 423c 34f7 d0bc
000002e0: ca7e 78bd 3c7c 703d 8728 09bb 5073 4a3b
000002f0: 052f 233c da54 dbba 4762 973d aa9d 0d3a
00000300: 82b7 86bc 66b1 3a3c 5c69 213d 9b5f a1bd
00000310: 18f0 e83d 29e2 663d 8d98 25bc 6c81 38bd
00000320: 6805 993c db30 643b 02c7 e2bc 3727 383c
00000330: 4a66 9ebc 4804 433d 13ce 1bbc 77f8 d4bc
00000340: 8dca 393c 44db 433c bde5 933d 207c d93d
00000350: c9fe a8bd b3df 413b 7df9 233e 367f 983e
00000360: 0c6e 52bc e802 c9ba e084 3c3d 3b4e 213d
00000370: d48d 1dbd e9fe e6bc 9995 8dbc fca2 b4ba
00000380: 0fc8 5fbd af7d acba f4c9 423c a4c6 17bd
00000390: 5b15 9f3c 36ba 53bc 4a89 54bc eab8 063d
000003a0: 9c5d 9cbc b199 f8bb 5a66 14bd 198e 2bbd
000003b0: 25ed 86bc cbe7 bb3c 0585 953b 8675 c0bb
000003c0: ac16 c4bc 408c 91bc d82c 97bc 08ac 103b
000003d0: b8a2 643d a031 b33c be03 0abe ad23 7d3a
000003e0: a9be e7bc 08aa acbc 719f 61be 6188 6dbd
000003f0: 9b3e 33bc 0a71 383c 7785 13bd ef07 01bc
0.026380781 -0.02843445 0.054853417 0.01856505 0.03711812 -0.04046055 -0.0055836765 -0.00247005
-0.07776665 -0.002152562 0.012768663 -0.011048297 -0.010884604 -0.07785829 -0.0046171476 -0.012104238
0.010180255 0.05539122 0.008527466 0.024837881 -0.0051497486 -0.05485849 -0.008622383 0.038285907
0.038552403 -0.0024177863 0.01211417 -0.00053455745 -0.10277399 0.06740564 -0.051852062 -0.0017059594
-0.011403611 0.023672156 0.06848277 0.071841374 -0.013795791 -0.019104544 0.015996685 0.002850715
-0.03155931 -0.027456049 -0.09249062 -0.0012292081 -0.12096611 0.00024369126 -0.0142903915 0.0048558516
-0.029583938 -0.02067135 0.009193631 -0.010762103 0.12809703 -0.12558672 -0.030169887 -0.040936284
0.011952914 -0.010031512 -0.059805132 -0.002450971 0.005805433 0.0020904243 0.021148335 0.0015477146
0.0003491656 0.0014780266 0.06217738 -0.018374458 0.0015618452 0.0063049584 -0.06829166 0.052991215
0.014777535 0.0036783284 0.040670834 0.0001973656 -0.046336822 0.0138512915 0.05085273 0.0023385915
0.032607384 0.0031248196 -0.0014815936 0.014491599 -0.02435896 0.010543556 0.012395437 -0.0070230416
-0.008775344 0.114153355 -0.0023531793 0.04233844 -0.035162248 0.023291927 -0.009425888 0.0022429775
-0.0066823913 -0.0033173305 0.011079506 0.001784862 -0.1059292 0.034868035 -0.017197752 0.04985512
-0.12067531 0.041988038 -0.10236442 -0.027544625 0.06904833 0.0368279 0.0034439086 -0.0112006245
0.06760421 0.0316878 -0.020240473 0.0022304077 0.04148472 0.0015712059 0.014747498 0.005076632
0.055542115 0.0039029336 0.008194019 0.003059129 -0.047052674 -0.032230232 -0.014138497 -0.04108159
0.061406836 0.00048759286 -0.05582203 0.04406938 -0.03712881 -0.0013947677 -0.04235249 -0.0022605732
-0.03482188 -0.012679625 0.03474384 -0.023935275 -0.030110206 0.028074438 -0.033991784 -0.043311287
0.041514583 0.003156673 -0.0011515974 -0.021005727 0.035669643 -0.025106993 0.046584867 -0.0027097852
-0.016249467 -0.005104033 0.061886333 -0.114516616 0.01433966 0.021529593 0.022771256 -0.037650645
0.07809517 0.07793231 -0.051322546 -0.029187327 -0.08158238 0.045395717 0.022744473 0.027577817
0.05451385 0.000622194 -0.029901547 -0.00043022796 -0.028086504 0.031721257 -0.05941053 0.054944944
0.046814185 -0.030345699 0.038837437 -0.018589517 0.019726267 0.009163829 0.011844461 -0.0255085
-0.06066779 0.05871223 -0.0020928697 0.0030891486 0.009959941 -0.0016733662 0.07391792 0.0005402217
-0.016444925 0.011394834 0.03940712 -0.078795634 0.11373919 0.056368027 -0.010107172 -0.0450453
0.018679336 0.003481916 -0.027682785 0.011239818 -0.019335885 0.047611505 -0.009509581 -0.025997384
0.011339796 0.0119541325 0.072215535 0.10619378 -0.082517214 0.0029582798 0.16013141 0.29784554
-0.01284362 -0.0015335949 0.046025157 0.039381247 -0.038465336 -0.028197723 -0.017283248 -0.0013781483
-0.05463415 -0.0013160015 0.01188897 -0.037054673 0.019419363 -0.012922814 -0.012972185 0.03289119
-0.019087605 -0.007586681 -0.036230423 -0.04188356 -0.016470501 0.022937676 0.0045629763 -0.005873385
-0.023936592 -0.017767072 -0.018454 0.0022075195 0.055819243 0.021874249 -0.1347799 0.00096565
-0.028289156 -0.021077171 -0.22033478 -0.05799139 -0.010940219 0.011257419 -0.036015954 -0.007875427

network_body.observation_encoder.x_self_encoder.seq_layers.0.bias f4 [128]
00000000: 7668 4ebc a723 cfbc ea18 54bd 8225 b73c
00000010: 3037 703d 45c1 953c 9a92 023b efe5 fdbc
00000020: 57f7 d2bc 0689 80bc 0847 7b3c 0c98 eeba
00000030: 29ee 9bbb 11e7 d7bc ba62 80bc 1426 ccba
00000040: fcb0 21bd 4ab3 353c d39f 89bc 74d7 2ebc
00000050: ddda 1e3d eed5 e23c 3670 80bd 46e7 33bd
00000060: b7c8 a73c 3b36 963c 0f60 483d beee 8f3c
00000070: b36c bd3b ff7b 8ebc 7785 2d3c 6424 9b3b
00000080: b0c0 5cbb af46 5dbc 5fd2 3bbc a9a9 05bd
00000090: bece d9bc ae5c b0bc 77bf 9ebb e29f 2abb
000000a0: 587c 11bd 13df f7bc 1f05 bbbc 99bf 35bc
000000b0: f193 47bd 8500 0abc 0ad9 783d 6ba3 44bb
000000c0: a2a1 cdbc fd73 41bd 58b5 363d 0f39 3bbd
000000d0: cd12 55bb 9532 c6bc 6309 7bbc 6459 13bc
000000e0: 14c0 0c3c cd55 d1bb 5a08 103d 8a35 9f3c
000000f0: a5bd 34bd 94dc 5cbc 4175 c93c 1ca7 e53b
00000100: 6f65 11ba 31a8 d2bc d2c6 8f3c 5257 4bbd
00000110: 3110 6abb 9a8c b13c bd84 04bc 9616 b8bc
00000120: 8c58 89bc a004 e33c 01ab e7ba c501 e43c
00000130: 6b58 773c 09cb 9bbb 8a79 a1bc c1b5 243d
00000140: 23af 6ebc e234 d33c 62be 5dbc 8001 3cbd
00000150: e9fa 3dbc b3c7 bf3c 57a2 073c 1d42 cb3c
00000160: b777 583d 047f 40bd 2e0b 843b c05d 163b
00000170: c259 09bc b69a 0dbd 7b3a 9f3c 8a59 83bb
00000180: 51b5 ab3c 5c22 9dbc acc3 c1bc 9b42 95b9
00000190: ff17 15bd 5bfc 6e3b dbc1 44bd 8094 053c
000001a0: 217e c5bc aba4 c4bc a58d 0dbd 8009 cd39
000001b0: 253b 883c 1f70 32bd 140e 893c 7398 cf3b
000001c0: 9ea4 11bd 66d5 353b 6ad8 9c3c 8267 86bc
000001d0: 2672 15bd 7b14 973b b022 24bd 8126 4fbc
000001e0: 1286 003c b357 013d c940 27bb 77ed 1abd
000001f0: cf1b 59bc 91d8 813c 73bb db3c 7841 3bbd
-0.012598148 -0.025285555 -0.051781572 0.022356752 0.05864638 0.018280635 0.0019923807 -0.03099343
-0.025752706 -0.015690338 0.015336759 -0.0018203272 -0.0047586155 -0.026355298 -0.015672076 -0.0015575313
-0.039475426 0.011090109 -0.016799843 -0.010671485 0.038782943 0.0276899 -0.062714025 -0.04392173
0.02048145 0.018336406 0.048919734 0.017569896 0.00578078 -0.01739311 0.0105909025 0.0047345627
-0.0033684187 -0.013505622 -0.011463731 -0.032632504 -0.02658784 -0.021528568 -0.0048446017 -0.002603524
-0.035518974 -0.030257737 -0.02282959 -0.011093044 -0.048725072 -0.008422975 0.06075386 -0.0030004631
-0.025101487 -0.047229756 0.044606537 -0.045708712 -0.0032512427 -0.024194041 -0.015322062 -0.00899348
0.008590717 -0.006388402 0.035164215 0.01943471 -0.04412617 -0.013480324 0.024592044 0.0070084464
-0.0005546426 -0.025714966 0.01755086 -0.049643822 -0.0035715217 0.02167349 -0.008088288 -0.022471707
-0.016765855 0.027712166 -0.0017674865 0.027832875 0.015096764 -0.0047544283 -0.019711275 0.040212397
-0.014568123 0.025782052 -0.01353416 -0.045899868 -0.011595466 0.023410654 0.008278451 0.024811799
0.052848544 -0.04699613 0.004029653 0.0022944063 -0.008383216 -0.034571372 0.019437065 -0.0040084766
0.020960482 -0.019181423 -0.023652874 -0.0002846912 -0.036399838 0.0036466334 -0.048036437 0.008153081
-0.024107995 -0.024004301 -0.03455891 0.00039107725 0.016629765 -0.04356396 0.016730346 0.006335312
-0.03555738 0.0027745604 0.019146163 -0.016406778 -0.036485814 0.0046105958 -0.040072143 -0.012643457
0.007844465 0.031577777 -0.0025520793 -0.03782412 -0.013251259 0.015850337 0.026822781 -0.045716733

network_body._body_endoder.seq_layers.0.weight f4 [128, 146]
00000000: 01ca 4c3d eb26 4c3d adb2 4b3d d00d b2bd
00000010: c12b dfbd 6e87 d53b 365d d0ba 228a d83d
00000020: 52d2 eabd 00ff 19bd ec53 f3bd 3df3 313e
00000030: 1d14 913e f5a2 fc3d f99a 1dbd a76a 8c3e
00000040: 78b8 a73d c5f3 2d3e 6531 363e 5e15 913d
00000050: 841a af3d 22a7 68bb 896b 843c efc1 28bd
00000060: 6f93 1f3b 25f5 d4bd acdb 86bd 769a 70bb
00000070: c837 51be 503f 78be 2dc2 633e 8281 a3bd
00000080: 1f06 2f3c 940d be3d 5a12 b63d 4e00 efbc
00000090: 5093 18bd 0aef c93d 2a9e b0bd bfb6 bbbd
000000a0: ad7f 41bd 49d6 88bd a4fb 7d3d bccf 26bb
000000b0: 1a72 9ebd 2c74 0b3e 6142 1dbc 6874 363d
000000c0: 7e4a 80bb f36c 363e 0fd9 d13c 1d34 823c
000000d0: 21a1 833e 198c 143e a7d1 873b 17a5 fdbd
000000e0: c976 8d3b 76e5 a93d 6876 6fbd 1c4d 29bd
000000f0: 51a0 c53c 6273 48bd 824e 9c3d 0677 423e
00000100: 2767 94bd 3fb7 a4bc 79f9 053b 2a04 2a3c
00000110: a002 273e 63f0 bdbd 68b0 19be 7f98 57bc
00000120: d603 c9bb 4257 19be fdd5 73bd 4093 e63b
00000130: 4d97 81bc 47bb 203e 09d6 f33d 85a7 02bd
00000140: 3c96 c1bd ed74 853c c469 d8bc 315e 52bd
00000150: 737f 14bd 7082 903d ce61 77bd 8239 0e3d
00000160: 258c f83d 2dbc 903c 046e f1ba dc98 21bd
00000170: 44e9 6e3d c494 26bd 3f93 3e3e 0c63 de3d
00000180: 9b34 fb3c fbe3 b03c a357 99bd 443d b93c
00000190: aaa0 97bd ccd5 9a3c d920 353d aa4b fdbd
000001a0: fceb c7bd 40f7 ebbd 989b d6bd 2672 6abc
000001b0: 6cca 2f3d 20bc 8a3d e9aa 4b3e 3319 993d
000001c0: fd5f d3bc f1c5 243e 3edf 203e b83f c9bd
000001d0: 17e3 a03c d12a 363d 5b86 183e ee14 d1bd
000001e0: 1a43 d5bc 2886 20bc 9e9c a93d 1512 2a3e
000001f0: ca78 14be d937 f53d e8d9 77bd ac98 e0bd
00000200: b768 a6bd f686 2cbd ef95 dfbd ac22 1c3d
00000210: 5e8d 8f3c 0237 a0be 5aee 5bbe 13ea 5cbd
00000220: 5b07 c6bd 85e9 763c b60c dd3d 71a5 54bd
00000230: 43f8 053e c902 0f3e 280b 513c 0d87 8bbd
00000240: da9c 7cbd 044f af3c ac98 af3b eb10 25bc
00000250: 761f 023e 0a37 463c 0650 cbbd 8ddf 283d
00000260: 370c bbbd 8c88 7cbd fc1c 023d 327f 173c
00000270: 98ed 4bbe a250 63bd 6654 a1bc 6f73 db3e
00000280: 846a 86be a06e e13d 5dd3 6dbc 0de0 083f
00000290: 3921 b23d 89c2 b8bb aa75 10be fdab 5fbd
000002a0: 9cd8 d2bd 181f 1ebe 03cf 81bd 37ce 1c3e
000002b0: 743c 233d f240 abbd b85d 1c3e d76f f9bc
000002c0: 6d19 c73d 215a b3bd c76a 853d 248a 7cbd
000002d0: d060 cfbc cef0 f0bb 0319 f93d 9811 03be
000002e0: 6aaf 103e ed73 8f3d 1651 013d 4651 babd
000002f0: 2b06 8bbe 145f a93c d831 68be a493 abbb
00000300: e0cb 6fbc d51b bf3b 60b7 513c 8c68 8e3c
00000310: 6f00 90bd fd48 e13c cf41 d73b 549b d8bd
00000320: 97a6 413e 6ed1 233d 872b 3fbd 5dac e93d
00000330: bee1 5dbd d52e 183d a791 b33c 1b31 463d
00000340: 1775 38be 0ba0 5dbd 66ab 5a3e 10ab 81bc
00000350: 337f 27be 698f d0bd 4b91 5d3d 950b a6bd
00000360: df30 27bd 397c b1bc bb04 17be 740e 2a3d
00000370: 0d59 01bd cb82 f5bd bef6 a5bd 7d43 723d
00000380: dde8 b13d 07d8 05be a26e 96bd c675 57bd
00000390: 7b81 1cbd 4a94 17bd 1e7a dcbc 1305 85bd
000003a0: fc4c 76bd 2197 43bd 3f61 ab3d 801b 8c3d
000003b0: 7dbb 5b3d 18d4 69bd 86ef 023d e191 32bd
000003c0: 6804 3ebe da36 53bd ac60 d73d 0790 d6bd
000003d0: ca07 a13c 321b 143d bf6e e1bc 028b ec3d
000003e0: 7039 a23d b5de 823b f044 1dbe a0f6 4d3d
000003f0: 6957 963d 9582 313e 5982 5f3d f443 743d
0.049997333 0.049841803 0.049730945 -0.08694041 -0.10897017 0.0065163886 -0.001589692 0.10573222
-0.11465897 -0.037596703 -0.11881241 0.17377944 0.28335658 0.12335769 -0.03847787 0.2742512
0.081894815 0.16987522 0.1779228 0.070841536 0.08549979 -0.003550001 0.016164558 -0.041200574
0.0024349352 -0.1039832 -0.06584868 -0.003671316 -0.20431435 -0.24242902 0.22242041 -0.07983686
0.010682612 0.092799336 0.08890219 -0.02917495 -0.037249863 0.09860046 -0.086239174 -0.091657154
-0.0472409 -0.06681497 0.06200756 -0.002545341 -0.07736607 0.13618535 -0.0095983455 0.044544607
-0.00391513 0.17814998 0.025616197 0.01589399 0.2570887 0.14506568 0.0041448656 -0.12385004
0.004317139 0.08295719 -0.05846253 -0.041333303 0.024124296 -0.048938163 0.07632162 0.18990716
-0.07246237 -0.02010691 0.0020442887 0.010376969 0.16309595 -0.09274366 -0.150087 -0.0131589165
-0.0061344905 -0.14974692 -0.059530247 0.0070365965 -0.015819216 0.1569644 0.11906058 -0.03189804
-0.09452483 0.016291106 -0.02641762 -0.05135936 -0.036254358 0.07056129 -0.06039601 0.034722812
0.121361054 0.017667854 -0.0018419628 -0.03945242 0.05832793 -0.040669218 0.18610857 0.108587354
0.030664733 0.021593085 -0.074874185 0.022612222 -0.07403691 0.018900774 0.04422078 -0.123679474
-0.09761807 -0.115217686 -0.10478896 -0.014309442 0.042917654 0.06774163 0.19889416 0.074755095
-0.025802607 0.16091134 0.1571016 -0.098266065 0.019639535 0.044474427 0.14895003 -0.1020907
-0.026032973 -0.00979761 0.082818255 0.1660846 -0.14499202 0.11973543 -0.060510546 -0.1096662
-0.081254415 -0.042120896 -0.109172694 0.038119003 0.017523464 -0.31291968 -0.21477643 -0.053934168
-0.09669372 0.015070324 0.1079344 -0.05191559 0.13082986 0.13965906 0.0127590075 -0.06812868
-0.061673023 0.021399982 0.005358776 -0.010074834 0.12707314 0.012098083 -0.09927373 0.04122882
-0.09133189 -0.06165366 0.031765923 0.009246634 -0.19914854 -0.05549682 -0.019693565 0.42861506
-0.2625314 0.11007428 -0.014515725 0.53466874 0.08697743 -0.005638425 -0.14107385 -0.05460738
-0.10295221 -0.15441549 -0.063383125 0.1531304 0.039852574 -0.08361997 0.15270126 -0.030448837
0.097216465 -0.08757425 0.06514507 -0.06165518 -0.025314718 -0.007352925 0.12162974 -0.1279968
0.14129415 0.07004533 0.03157147 -0.09097533 -0.27153143 0.02067522 -0.22675264 -0.005236106
-0.01463601 0.0058321753 0.012800068 0.017383836 -0.07031333 0.027500624 0.0065691243 -0.105765015
0.18911205 0.03999465 -0.04667237 0.11409829 -0.054170363 0.037154038 0.021920038 0.048386674
-0.18013416 -0.054107707 0.21354446 -0.01582864 -0.16357116 -0.10183603 0.05409364 -0.08107678
-0.04081809 -0.02166568 -0.14747898 0.04151769 -0.031579066 -0.119878374 -0.08103703 0.059146393
0.08686993 -0.13070689 -0.0734532 -0.052602552 -0.03820942 -0.037006654 -0.026913699 -0.064951085
-0.06013201 -0.04775155 0.083681576 0.06841183 0.0536456 -0.057087034 0.03196671 -0.043596152
-0.18556368 -0.051565982 0.105164856 -0.1047669 0.019657034 0.036158748 -0.027518628 0.11549951
0.079211116 0.003993834 -0.15358329 0.050284028 0.07340891 0.1733497 0.05456767 0.059635118

network_body._body_endoder.seq_layers.0.bias f4 [128]
00000000: 2fc6 bf3b 2f2a 38bd e6f1 6ebd 8ebe 54bd
00000010: 936d abbd 6e5a 07bc 35b1 83bc 5c8e 58bd
00000020: 7d0f 93bd 55b5 6bba d2c0 3cbd 9d9b 73bd
00000030: 5d15 7cbd 1dad 79bd 252c 94bd 6a82 a2bc
00000040: b526 9bbc cfe0 3fbc 1468 4cbc 7bc0 8abd
00000050: 3da5 24bd 0ea9 e7bd 3842 2cbd 1f0c 1fbd
00000060: 1ec4 3abd c035 9ebd 9bd0 e7bc 42be 48bd
00000070: 7489 62bd 178f 78bd b176 2abd d87d fdbc
00000080: 62cc 24bd 8981 ddbc 0a21 8bbd 8710 643d
00000090: e092 8ebd 9882 30bd 6eeb 6fbd 4e9b 10bd
000000a0: ee0e 55bd 5b72 54bd 94d4 a2bd 6f50 a0bc
000000b0: c8b2 433a 0d92 a6bc 3ac7 64bc 95b3 e23b
000000c0: 6612 b4bd 3643 c1bd 3cfb 253c c4d2 2fbd
000000d0: 24bd d6bd b6bd 663a ee9d b8bd 522d 9cbd
000000e0: 8e84 b5bc ec4c 2aba 4683 e4bc 6a4a a4bd
000000f0: 0da2 24bd c8d4 30bd e119 4cbd f9fc 9fbd
00000100: 4ebb 0cbb 8e53 b3bc e446 9abd 0824 6fbd
00000110: 4a13 82bd 2c77 0b3d 2e85 a2bc 9d23 64bd
00000120: d016 8cbd 59f2 8ebd 9e49 56bd fc23 e2bc
00000130: 7da0 5ebd 8861 4fbd a065 46bd 002a 44bd
00000140: bade abbc 1f67 0bbb 9150 da3c 4838 92bd
00000150: 1bb8 99bc b67a a1bd 7632 7cbd 78f9 bcbd
00000160: 11df 4ebd f4b2 afbd 7128 63bd 452d 50bb
00000170: 2f54 22bb 8bc7 f4bc bf9f 45bd dc9e 25bd
00000180: 03f5 21bd daf2 71bd b013 a9bc 23a6 86bd
00000190: 3a12 22bd 9a5d 80bd ecfe a9bd 4324 a6bc
000001a0: ec4e 9bbd 4290 b5bd b1fb abbc a1ba 5abd
000001b0: 24c9 4fbc 9fd8 82bd d0a7 3bbd 0a55 35bd
000001c0: 5656 0fbd 980c 83bd 830c 15bd 14ff adbc
000001d0: 09c3 27bd 4645 a7bc c293 e1bc 53c7 29bd
000001e0: a8cd 8ebd e73a 67bb 9b9c 8abd bcac 0abc
000001f0: 1c08 abbd a8eb 96bd 8d96 3cbc 6699 d1bb
0.0058524827 -0.044962104 -0.05833616 -0.05193954 -0.08370509 -0.008261306 -0.01607571 -0.05287014
-0.071806885 -0.0008991559 -0.046082325 -0.059474576 -0.06154381 -0.06095611 -0.072349824 -0.019837577
-0.018939355 -0.011711313 -0.012475986 -0.06774994 -0.040196646 -0.113115415 -0.04205534 -0.03882992
-0.04559719 -0.07725096 -0.028297713 -0.04900957 -0.055306867 -0.060683336 -0.0416171 -0.030943796
-0.040233977 -0.027039306 -0.06793411 0.055679824 -0.06961608 -0.043093294 -0.058574133 -0.03530436
-0.05201619 -0.05186687 -0.07950702 -0.019569604 0.00074653 -0.020333314 -0.013963515 0.0069183805
-0.08792572 -0.094366476 0.0101307 -0.04292561 -0.104852945 0.0008802073 -0.09014498 -0.07625832
-0.022157934 -0.00064964476 -0.027894627 -0.08022006 -0.040193606 -0.043171674 -0.049829368 -0.078119226
-0.0021473947 -0.021890428 -0.075330526 -0.05838397 -0.06351335 0.034049198 -0.019838896 -0.055698026
-0.06840289 -0.06979818 -0.0523163 -0.02760505 -0.054352272 -0.050630122 -0.04843676 -0.047891617
-0.020980228 -0.0021271182 0.026649745 -0.07139641 -0.018764546 -0.078847334 -0.06157156 -0.0922727
-0.0505057 -0.085790545 -0.05545849 -0.0031765264 -0.0024769416 -0.029880306 -0.04824805 -0.040434703
-0.039540302 -0.059069492 -0.02063927 -0.06574657 -0.039568163 -0.06267853 -0.083005756 -0.020280963
-0.075834125 -0.088654056 -0.02099404 -0.05340064 -0.012682233 -0.063889734 -0.045814335 -0.044270553
-0.034994446 -0.063988864 -0.036388885 -0.021239795 -0.040957484 -0.020418774 -0.027536277 -0.041449856
-0.069728196 -0.0035282911 -0.067681514 -0.008464035 -0.08351156 -0.073691666 -0.0115105035 -0.0063964603

network_body._body_endoder.seq_layers.2.weight f4 [128, 128]
00000000: ae01 24bd f376 e73c 9f5d 64be 5f6a 0bbd
00000010: 023e 39bd 1b2e b63d 3de0 c23d 2713 6e3c
00000020: 9438 893d cf01 563e 7d7c b73e 9c31 9bbd
00000030: 57b2 0a3d 7dca 3c3b 59d2 d63d 68a6 673e
00000040: e3f5 133c c3f4 f6bc 7b2b c9bd 7901 dfbc
00000050: 9fcc 7ebd 3d2c 74bd 4dfb 403e 00b9 10be
00000060: f06d 34be b58d 2ebd 7923 a4be 5a93 973d
00000070: c00d 563d 6c94 80bc 2254 63bc 22d6 6c3c
00000080: 59d0 a03d 9bdd 5f3d 64ad f2bd f12e 84bd
00000090: 5cec 083e ba39 bf3d 0cd6 173e 351d f63c
000000a0: d883 4fbd 11a7 e7bd 5960 bdbc cef0 31bd
000000b0: a050 21be 7f9c 863c 39aa e43d 5d17 1a3c
000000c0: 5d43 acbc ec83 453e 531d 12bd 0ec0 123e
000000d0: 08e6 ca3d 90fd df3d 2c28 13be b989 1bbe
000000e0: cd4d 10bd b873 3dbd 8463 8bbd 85de be3c
000000f0: ee74 be3d 268a 8e3d ed97 1f3c 50ab 313e
00000100: aa78 72bc 5d1b 9e3c 649e 103d 3d94 21be
00000110: 151b 6abd 1eaf 273d c14c c93d 5be5 d33b
00000120: f300 1e3e e967 0cbc 088f b43c cbcf e8bb
00000130: 9645 c03d fd29 8a3d dea5 8dbd 5a66 3bbd
00000140: fe2a f2bd b5f2 38be e311 46bd 9f40 7cbe
00000150: 4ce0 fabd 2d46 4a3d 3638 333e b4e3 053d
00000160: ccdf b13d 4af0 61be 8ae0 55bd 88da a5bc
00000170: 12af f6bd 1e70 07be 8ab9 adbd 4003 8bbc
00000180: bebe 1ebd 9854 e6bc 3f64 96be 48e2 463c
00000190: 4fa8 89bd 20e0 303e 5f3c c53d 5268 473c
000001a0: d113 983c b020 35bd cdeb 13bb 9e33 3fbe
000001b0: 24a6 52be 9c79 433d 4f5e 1c3d 29da e13d
000001c0: b9db cc3d fcb2 aebd 8787 ad3d 4969 82bd
000001d0: 511f 863d 9ce6 e4bd d32e d1bd 03b8 313e
000001e0: 1cbd d9bd acac 64bd cbdf b7bc 865a a8be
000001f0: bee1 29bd dd0b 923d 3753 1abd 0f5a 7db9
00000200: 58c0 0abb 9f3e b2bd ddea c1bd aad4 45be
00000210: b7e6 92bc 5d3e e6bd ced3 1e3d 2f54 c1bc
00000220: dbd5 233d aef4 0bbe a703 0cbe 2d53 b7bc
00000230: cd1f 973c 5dfb 1abd 3683 d13d 39c6 7cbe
00000240: 0d1b b2bd 7ea1 993d b843 35bb 60a6 023e
00000250: 6d3b 57be dbf8 05bd 11ac efbd 22a4 b6bb
00000260: 5dab 293e 4520 1cbe 7323 9fbc 400f 6e3d
00000270: 2378 b9bd c82f 00be e393 643e c28d 8bbe
00000280: 2ab1 83bc 9d0b 92bd c138 56bd b336 e63b
00000290: 10bd b33d 5606 c0bd de0e 14be 6b08 54bc
000002a0: 338d 20be 6454 04be ccc7 0ebb 325f 71be
000002b0: 8dab 1f3c 72bb 143d 13ea 6a3d 8b80 d3bd
000002c0: 8aec bc3d d931 c93d 371c 2fbe 3d7e 25be
000002d0: a64d bd3d 3211 1bbd 8a9d 373e 478c 8c3e
000002e0: 9c6a 3fbe a4c7 7fbe cf52 77bd b584 2abe
000002f0: e05b fe3d 492f 473d ca64 843d bfae 863d
00000300: 3bd2 51be 24d7 62be e24d 18bc 525c d1bc
00000310: 5534 09be 66f1 1e3e 9492 35be 98a6 8dbc
00000320: c05c 97be a5b4 be3d 6984 52be d7b5 c0bc
00000330: d15c 73bd 00a7 68bd 1c2b 6abd abcd 1cbd
00000340: 352f 053e c8a5 70bc 70e9 943c 2e0d 603e
00000350: cbdd 3e3e 9038 e63c 1524 04be 09cc e5bd
00000360: e08d 2b3d fb4e cabd 9198 2fbe 05c1 023e
00000370: 9298 723d a1e3 7fbc bf46 1d3e b559 06bc
00000380: 82e6 20be 8006 a1bd fc77 8abc 8510 183e
00000390: 0854 e0bc 90d7 2ebe af27 01bc a971 bebd
000003a0: e5ce 6cbe b123 0b3e 530b 69be e420 45be
000003b0: 9e9b 8a3b 80f5 7e3a 2cac 943d f7b3 2cbe
000003c0: d7e0 aebd 37c5 43bd ee18 1a3d 5f05 4dbe
000003d0: 550b 02be fa98 58be 2ea5 03be 8af9 14be
000003e0: 77dd cc3b ffd4 0cbe 3a59 883c a818 cc3c
000003f0: de65 17bd adb8 bdbd 2cce 303e c1b9 d23d
-0.040040664 0.028254962 -0.22301339 -0.03403699 -0.04522515 0.08895513 0.09515426 0.014530933
0.067002445 0.20899127 0.35837165 -0.075778216 0.033861484 0.0028807216 0.104893394 0.22622073
0.009030792 -0.030146008 -0.09822746 -0.027222382 -0.06220686 -0.0596125 0.18845864 -0.14133072
-0.17620063 -0.04261561 -0.32058313 0.07401152 0.052259207 -0.015695773 -0.013875039 0.01445535
0.07852239 0.0546547 -0.11849478 -0.06454266 0.13371414 0.09337182 0.14827746 0.030043224
-0.050662845 -0.11311162 -0.023117231 -0.04344254 -0.15753412 0.016432045 0.1116528 0.009404984
-0.021028215 0.19288605 -0.035672497 0.14331076 0.09907156 0.10937035 -0.14370793 -0.15189256
-0.035230447 -0.046252936 -0.068060905 0.023299465 0.09299646 0.069599435 0.009740812 0.17350507
-0.014799276 0.019300157 0.035307303 -0.15779205 -0.057154734 0.04093849 0.09829093 0.0064665503
0.1543005 -0.008569696 0.022040859 -0.007104849 0.093882725 0.0674629 -0.06916402 -0.045751907
-0.11824606 -0.18061335 -0.0483569 -0.24634026 -0.122498125 0.04938333 0.17501912 0.032687858
0.08685264 -0.22064319 -0.05221609 -0.020245805 -0.12045111 -0.13226363 -0.084826544 -0.016969323
-0.038756125 -0.02811651 -0.29373357 0.012138911 -0.067215554 0.17272997 0.096306555 0.012170868
0.018564137 -0.044220626 -0.0022570968 -0.18672034 -0.2057119 0.047723398 0.038175877 0.11027939
0.10002846 -0.08530232 0.084731154 -0.06367738 0.06548942 -0.11176798 -0.10214009 0.17355351
-0.10631773 -0.055828735 -0.02244558 -0.32881564 -0.04147505 0.07131169 -0.037677016 -0.0002416151
-0.0021171775 -0.0870335 -0.09468625 -0.19319406 -0.017932279 -0.112423636 0.03877621 -0.023599712
0.03999887 -0.13667557 -0.13673268 -0.022378528 0.018447781 -0.037837375 0.102301046 -0.24684991
-0.08696566 0.07501505 -0.0027658772 0.1275878 -0.21018763 -0.03270803 -0.11702741 -0.0055737654
0.16569276 -0.15246685 -0.019426083 0.058120012 -0.090561174 -0.12518227 0.2232204 -0.2725659
-0.01607569 -0.07131121 -0.05230022 0.0070255636 0.08776295 -0.093762085 -0.14458796 -0.01294146
-0.15678863 -0.12922817 -0.0021786569 -0.2357147 0.009745491 0.036311574 0.057352137 -0.10327252
0.09224804 0.09823961 -0.17100607 -0.16161437 0.09243326 -0.037858196 0.1793119 0.27450773
-0.18693012 -0.249785 -0.060381707 -0.16652186 0.124198675 0.04862908 0.064645365 0.06576299
-0.20490353 -0.22152382 -0.009295912 -0.025556717 -0.1339887 0.15521774 -0.17731696 -0.017291352
-0.2956295 0.09311799 -0.20558323 -0.023524208 -0.05941469 -0.05679989 -0.05717002 -0.038282078
0.1300629 -0.014687963 0.018177718 0.21880028 0.18639295 0.028103143 -0.12904389 -0.11220557
0.04188335 -0.098783456 -0.17148043 0.12768944 0.059227534 -0.015618236 0.15359019 -0.008200099
-0.15712932 -0.07862568 -0.016902916 0.14850052 -0.02738382 -0.17074418 -0.007882996 -0.09299023
-0.23125799 0.13587834 -0.22758226 -0.19250828 0.004229977 0.00097259134 0.07259402 -0.16865526
-0.085389785 -0.0477955 0.03762143 -0.2002158 -0.12699635 -0.21152106 -0.1285598 -0.14548317
0.0062519866 -0.13753127 0.016644109 0.0249141 -0.036962382 -0.0926374 0.17266148 0.10289336

network_body._body_endoder.seq_layers.2.bias f4 [128]
00000000: 6885 87bd a601 44bd c287 84bd 7df7 d6bb
00000010: 3197 8ebc e03b ce3c c06c cfbc 3993 803d
00000020: 39ef 2abd 0081 83bd f26f 1a3c 95cf 55bd
00000030: d535 053d 81a4 80bd 006a 22bd 091b 67bd
00000040: 563c 5c3c b176 2abc 55ca 5cbd 7b6b 263d
00000050: 9ab1 35bc 8af1 023d 3438 a0bd 60fa 23bd
00000060: a813 b7bd fc21 2dbd 6f07 10bc b33e b1bc
00000070: 840e a3bd 056f 0f3c c0a7 c83b d1fa 8bbc
00000080: e08a ce3c 86ac 2439 317b 5dbd 4687 9cbd
00000090: 1943 95bd 3074 dabc dbc5 4c3c d5be 29bd
000000a0: 0beb e0bc ac41 21bd 3fb1 68bc 9d6b d0bc
000000b0: 9bb5 11bd 815c 74bb 933b 7bbc 2842 bebb
000000c0: 5135 8ebc b9e9 d6bd 848e f3ba 2863 87bd
000000d0: b688 9b3b 37d3 72bd ff93 2e3b 4845 1ebd
000000e0: 1043 51bd efc0 31bd 3949 20bd b6f8 20bd
000000f0: 72bd 5bbd 3514 99bc 5c57 0ebd 47b0 a9bc
00000100: a754 f9bc 2ec2 05bd 8f2a 663d d94c 8abc
00000110: a065 68bc f9fe 4bbd 3ef5 b3bc d430 3fbd
00000120: d9b1 a6bd b840 50bc d758 aebc 95d6 aabc
00000130: 2a4a 71bc 59aa 49bd 4c0e ddbc 819e a9bc
00000140: 4f9e ce3c b5ca 6abd 7e3f 6e3a 9383 31bd
00000150: 6a08 f6bb 1508 83bd 3b02 b1bd aff9 76bd
00000160: e017 e93c cafd 973c 0c15 91bc 7ad0 b2bd
00000170: 7456 68bd d75f cebc 74da 25bd a322 3abd
00000180: 4cae 07bd 679a 90bd 9934 39bd 1f85 2ebd
00000190: c8ea b5bd ab3b 28bb 6345 5bbd 74f6 c7bd
000001a0: fc33 0abd 607e c7bc 277f 83bd 032c 47bd
000001b0: b03d e93c 1043 953c 6caa e4bd c88e 54bd
000001c0: 776b 0abd 4794 b0bc f0fa 5abd f833 34ba
000001d0: e10b 58bc bea7 75bd 2eab 4bbd c77d e9bc
000001e0: 0b47 afbc f99b 22bd 760b 88bd a0ce f0bc
000001f0: 049e 993c 5a7c 38bc fdf6 29bd 4dc4 f1bc
-0.06617242 -0.047853135 -0.06471206 -0.0065602646 -0.017406078 0.025175035 -0.02532041 0.062780805
-0.041732047 -0.06421089 0.009426104 -0.05219992 0.03252204 -0.06281377 -0.03965187 -0.056422267
0.01344212 -0.010404275 -0.053903896 0.040629845 -0.011089707 0.03196863 -0.0782322 -0.040033698
-0.08939296 -0.04226874 -0.008790835 -0.021636343 -0.07961753 0.008754496 0.006123513 -0.017087372
0.025212705 0.00015704529 -0.054072563 -0.07642989 -0.072881885 -0.02666673 0.012498344 -0.041441757
-0.027455827 -0.03936927 -0.014202415 -0.025441939 -0.035573583 -0.0037286582 -0.015334028 -0.0058062263
-0.017359408 -0.10493798 -0.0018581902 -0.066107094 0.004746522 -0.05928346 0.0026638506 -0.03864029
-0.051089346 -0.043396886 -0.03913233 -0.03929969 -0.053647466 -0.018686393 -0.03475128 -0.020713938
-0.030435873 -0.032655887 0.05619293 -0.016882347 -0.014184386 -0.049803708 -0.021967527 -0.046677426
-0.081393905 -0.012710743 -0.021282597 -0.020854274 -0.014727155 -0.04923472 -0.026984356 -0.020705463
0.025221972 -0.057322223 0.00090884406 -0.04333837 -0.0075083273 -0.06398026 -0.086430036 -0.06029671
0.028453767 0.018553633 -0.017710231 -0.0873117 -0.056723073 -0.025192184 -0.040491536 -0.04544319
-0.033125207 -0.070607 -0.045216177 -0.042607423 -0.088826716 -0.002567033 -0.05353297 -0.09763804
-0.033740982 -0.024352252 -0.06420737 -0.048625957 0.028471798 0.018220454 -0.11165318 -0.05189398
-0.033793893 -0.02155508 -0.05346197 -0.0006874199 -0.013186426 -0.059974425 -0.049723797 -0.028502358
-0.02139618 -0.03969953 -0.06642811 -0.029395401 0.018752106 -0.0112601165 -0.041495312 -0.029512549
