Project/Assets/ML-Agents/Examples/Sorter/TFModels/Sorter.onnx (onnx, 506926 bytes, 22 tensors)

210 f4 [151, 128]
-0.041821733 0.018786954 0.015315893 0.015185486 -0.040955164 0.0030301556 -0.0025764387 0.010855246
0.07702988 -0.014855083 -0.035334524 0.06511556 0.023259874 0.017850934 0.023621578 0.014207419
-0.0053336406 -0.009333879 0.005860102 -0.0137485145 -0.021603566 -0.012339626 -0.004740869 -0.045662228
-0.008615196 0.039267182 -0.024058003 0.0643841 -0.041062444 0.020662371 0.018882979 -0.007631451
0.0083158 -0.050928436 0.030397391 -0.0020475253 0.039826468 -0.007858374 -0.0379889 -0.0009506037
-0.00958894 -0.0061458247 -0.022209495 -0.016168758 0.00040834592 -0.0286451 0.049551845 0.026588745
0.020872258 -0.0579676 -0.042803597 -0.0020609095 0.012897771 -0.04689277 0.00724519 0.028952092
-0.012282439 0.011832446 0.017275007 -0.0063118865 0.029816465 -0.025248326 -0.087948486 -0.025432318
0.010735752 0.0095322775 0.04205034 -0.032305084 0.0033984862 -0.027286211 0.033603515 -0.072666384
-0.00016517869 0.004467098 0.0377645 -0.030290017 -0.018102052 -0.02835529 0.03236582 -0.010626673
-0.017952193 -0.013836619 -0.012486112 0.04731415 0.06179862 0.00020066615 0.029379817 0.000607633
0.06622978 -0.008595062 -0.007436115 0.024818316 -0.00023505106 0.028096076 -0.05460057 -0.006937727
-0.025128992 0.054671608 -0.022043604 -0.013539198 0.015153448 0.042396624 -0.0012007247 0.019406004
-0.00523336 0.0053549926 0.0105638215 0.054915003 -0.013786339 -0.059118897 0.0010047368 -0.0038132248
-0.0016647673 -0.011650111 0.022480516 0.017446954 0.047879037 -0.031891823 -0.02541488 -0.0061915936
0.01734818 -0.046655845 0.051949654 0.013451458 0.026988922 -0.0009335787 0.030383522 -0.02228931
-0.11084261 0.030257989 0.026698524 -0.038588718 -0.010185438 0.095661685 0.04255002 0.03548805
0.09840525 0.082305774 0.006701571 -0.02378648 0.011736936 -0.005347439 0.013198013 0.038427684
0.021165244 0.0725767 0.06952289 0.046324037 -0.06661443 0.092118844 0.049944416 0.021647913
0.0061569996 0.020088254 -0.011329272 0.066790245 -0.053480472 -0.02216958 0.020500025 -0.050834417
-0.007941136 -0.08496662 0.015524548 -0.06961023 0.03429942 -0.045297954 0.09224545 -0.04041245
-0.0848548 -0.06772961 0.059256937 -0.0073850653 0.04841676 0.015185925 0.101169735 -0.01806568
0.029386448 -0.039865 -0.012161628 -0.04628193 -0.10517542 0.04146971 -0.015222486 -0.04347001
0.0074079307 0.016940594 0.07861767 -0.034909833 -0.016802244 0.048304636 -0.06831697 0.0067440625
-0.0007045371 0.0075527695 0.005032431 0.114911005 -0.0015753809 0.039305303 0.035084605 0.032389477
-0.15393777 -0.016182123 0.01037749 0.10446673 0.059716523 0.04873682 -0.049451903 -0.007036801
-0.0057758563 0.056507397 0.02384092 -0.07335552 -0.010800082 0.065627486 0.03278034 0.015906667
0.024685357 0.00692484 -0.10219259 -0.037428167 0.032794695 -0.06844321 -0.021570833 0.04417668
-0.07459542 -0.02149119 -0.044542484 0.05611074 0.029268874 0.009489783 -0.0392483 -0.016435595
0.016172238 -0.020494804 0.039306458 -0.045945026 0.057117432 0.104995444 -0.061413947 0.0926861
-0.00060513045 -0.031985953 -0.09458801 0.010595607 -0.014678207 0.020681433 -0.041487202 0.05600731
-0.072983816 0.047238465 -0.08247612 -0.010820948 0.071358785 -0.013474463 0.014410445 1.2270415e-05
00000000: 444d 2bbd 19e7 993c 83ef 7a3c 8bcc 783c
00000010: 9ac0 27bd 9395 463b 78d9 28bb 34da 313c
00000020: d7c1 9d3d bc62 73bc efba 10bd 4f5b 853d
00000030: 7e8b be3c 1f3c 923c 0a82 c13c 3cc6 683c
00000040: d2c5 aebb 20ed 18bc 1906 c03b 7341 61bc
00000050: f6f9 b0bc 252c 4abc 4b59 9bbb 5108 3bbd
00000060: c026 0dbc a0d6 203d 4a15 c5bc d0db 833d
00000070: 1831 28bd 2244 a93c 7ab0 9a3c 4011 fabb
00000080: fe3e 083c 569a 50bd f303 f93c c62f 06bb
00000090: 1421 233d 69c0 00bc 409a 1bbd ef31 79ba
000000a0: ee1a 1dbc ea62 c9bb b0f0 b5bc 5874 84bc
000000b0: 4317 d639 21a9 eabc e0f6 4a3d a4d0 d93c
000000c0: 4cfc aa3c 6f6f 6dbd d352 2fbd 5310 07bb
000000d0: 2c51 533c a212 40bd 0f69 ed3b f02c ed3c
000000e0: 483c 49bc e0dc 413c 5184 8d3c f1d3 cebb
000000f0: a941 f43c 94d5 cebc 561e b4bd 7057 d0bc
00000100: 02e5 2f3c 452d 1c3c fa3c 2c3d 5652 04bd
00000110: 23b9 5e3b 5587 dfbc d7a3 093d 1dd2 94bd
00000120: d133 2db9 bc60 923b f3ae 1a3d c522 f8bc
00000130: c14a 94bc 5a49 e8bc 0692 043d 7f1b 2ebc
00000140: 7a10 93bc fdb2 62bc 8d92 4cbc 7bcc 413d
00000150: 8d20 7d3d e969 5239 f1ad f03c 8f49 1f3a
00000160: 7ba3 873d 4ed2 0cbc a7aa f3bb c84f cb3c
00000170: 0a78 76b9 be29 e63c d9a4 5fbd df55 e3bb
00000180: 51db cdbc 56ef 5f3d ca94 b4bc 83d3 5dbc
00000190: 2b46 783c 15a8 2d3d a361 9dba 57f9 9e3c
000001a0: 9b7c abbb ef78 af3b e113 2d3c 8eee 603d
000001b0: 19e0 61bc a826 72bd 5fb1 833a 4ce7 79bb
000001c0: 5234 daba 1be0 3ebc 0f29 b83c eaec 8e3c
000001d0: cf1c 443d 00a1 02bd de32 d0bc dae2 cabb
000001e0: c51d 8e3c 331a 3fbd 29c9 543d 8163 5c3c
000001f0: df17 dd3c 68bb 74ba dde6 f83c 1298 b6bc
00000200: 7301 e3bd 9adf f73c ddb6 da3c 340f 1ebd
00000210: d3e0 26bc 46ea c33d ee48 2e3d eb5b 113d
00000220: b188 c93d ee8f a83d da98 db3b dddb c2bc
00000230: 474c 403c 9239 afbb 7b3c 583c 5966 1d3d
00000240: bc62 ad3c 18a3 943d 0462 8e3d 46be 3d3d
00000250: 256d 88bd cea8 bc3d 8492 4c3d f756 b13c
00000260: a8c0 c93b 1f90 a43c 699e 39bc 53c9 883d
00000270: 570e 5bbd fb9c b5bc abef a73c c037 50bd
00000280: 8a1b 02bc fb02 aebd ac5a 7e3c cf8f 8ebd
00000290: 8c7d 0c3d 598a 39bd 2feb bc3d 8687 25bd
000002a0: 5ac8 adbd d2b5 8abd 67b7 723d 6bfe f1bb
000002b0: a750 463d 63ce 783c 1432 cf3d 7afe 93bc
000002c0: d9bb f03c 7b49 23bd 9141 47bc 1f92 3dbd
000002d0: 3666 d7bd 25dc 293d bc67 79bc 9c0d 32bd
000002e0: 3abe f23b 00c7 8a3c 4d02 a13d 9dfd 0ebd
000002f0: dca4 89bc 15db 453d c4e9 8bbd 4cfd dc3b
00000300: afb0 38ba 397d f73b 17e7 a43b 7656 eb3d
00000310: 037d ceba 99fe 203d e0b4 0f3d d4aa 043d
00000320: dda1 1dbe 5f90 84bc 5906 2a3c a7f2 d53d
00000330: 5099 743d 43a0 473d 148e 4abd f794 e6bb
00000340: 6543 bdbb 4d74 673d 084e c33c 6b3b 96bd
00000350: d4f2 30bc b467 863d ae44 063d b34e 823c
00000360: f238 ca3c c5e9 e23b 594a d1bd 474e 19bd
00000370: bb53 063d f42b 8cbd 51b5 b0bc 9bf2 343d
00000380: 7cc5 98bd 4b0e b0bc 2e72 36bd 60d4 653d
00000390: 47c5 ef3c 097b 1b3c d3c2 20bd f1a3 86bc
000003a0: a47b 843c b8e4 a7bc cfff 203d da30 3cbd
000003b0: f8f3 693d da07 d73d 318d 7bbd 36d2 bd3d
000003c0: 9ea1 1eba b403 03bd 5cb7 c1bd 3299 2d3c
000003d0: dd7c 70bc 1c6c a93c 7cee 29bd ec67 653d
000003e0: 8a78 95bd 1f7d 413d 3de9 a8bd 584a 31bc
000003f0: 8e24 923d fec3 5cbc c919 6c3c 08dd 4d37

212 f4 [128, 128]
0.10317556 -0.12998852 -0.038893443 0.039898552 0.09082496 0.13838428 -0.086206175 -0.08832104
0.102399826 -0.019241927 -0.08252397 0.1329828 0.059180845 0.08717132 0.13613869 -0.17029345
-0.0082372995 -0.058600955 0.07633829 0.017761106 -0.04813751 -0.06961226 0.024217293 0.09852567
0.03565408 -0.14482313 -0.13147596 0.04978027 0.015902216 -0.14185733 0.020734375 -0.0009351048
-0.19499768 0.20214008 -0.1312909 0.079365395 0.08437935 -0.10035124 0.14223905 0.080977194
0.07864495 0.09111142 -0.09022067 -0.08271223 0.062125374 -0.023643382 -0.20064999 -0.19560112
-0.04502266 -0.04002913 0.12255625 -0.008533128 0.032386947 0.041280076 0.0778588 0.03173868
-0.02582601 -0.034615185 -0.040545613 -0.024890592 0.16707428 0.09507717 -0.03199257 0.08711231
-0.013857964 0.012531332 -0.025492493 -0.12819518 -0.041740116 0.14440203 -0.06239184 -0.011992834
0.0005844111 0.03066161 0.06914633 0.054598175 0.023357185 -0.069475345 0.011288286 -0.039297223
-0.044519298 0.016113324 -0.052103207 -0.030148573 -0.0698445 -0.013587693 0.04810422 0.023108412
0.113648385 -0.0029541608 -0.07905704 -0.061892387 -0.0127235055 -0.053024918 0.044903632 0.025252033
0.23190002 -0.20614424 0.13833407 -0.005387665 0.19800395 -0.0818041 -0.12545061 0.047835935
-0.009496603 0.029049484 0.11498553 -0.14901519 -0.04094365 -0.20022982 0.0031416442 -0.1097861
0.08506745 0.17853397 -0.25439346 -0.11601188 -0.11302167 0.049459543 -0.045086037 -0.11531168
-0.1903318 -0.14668988 0.07445266 0.0005500162 -0.11557095 0.11435939 -0.08616336 0.15930523
-0.032773465 -0.0829397 -0.13567759 -0.069604635 -0.025225038 0.06773913 -0.043296106 0.0013715267
0.024886338 0.047619026 0.05164428 0.034914494 -0.03208656 0.07334939 0.09329473 -0.17107879
-0.019062761 -0.14156753 0.07328318 0.038496654 -0.10419221 0.09797921 0.11273684 0.040389158
0.07965065 -0.1502791 0.09237391 0.026435569 0.06056889 -0.107595116 0.10718488 -0.071545616
-0.039068323 0.086038925 -0.109317616 -0.025325982 0.016565831 -0.07073026 0.032352723 -0.0497272
-0.08787799 0.0014768922 -0.010244897 0.029693382 0.080136195 -0.07088088 -0.04924686 -0.10388089
0.13252443 0.016327573 -0.0034912562 0.035032604 -0.015942728 -0.047216486 0.033858288 0.041797783
-0.063549794 -0.041388635 -0.08797552 0.018255932 0.071250014 -0.00858868 -0.13395011 -0.048093773
0.07820475 -0.13604978 -0.16982064 0.09813257 0.02275839 -0.08212867 0.11377474 0.088099115
0.014096778 -0.010606335 0.06320925 -0.046515226 0.0457357 -0.017838515 0.01847936 0.0729589
-0.127932 0.080496974 -0.016946148 -0.12764595 -0.11626768 -0.1349901 0.01666684 -0.009959791
0.059824344 0.03690038 0.03786054 -0.01594806 -0.06303658 0.043076184 -0.089750335 0.011104283
-0.0005064147 -0.10101922 0.13207619 0.029292421 0.03058214 0.07635419 -0.08525911 0.10389757
0.046673108 -0.0015815741 0.0483152 -0.081195086 -0.030053828 -0.17447191 -0.057731185 -0.06229256
-0.01846246 0.0010719865 -0.16057265 -0.09843006 0.08716512 -0.028604416 0.005581638 -0.060109533
-0.041033305 0.044704605 0.035159074 -0.008393588 0.028017119 0.048189677 -0.023050569 0.10386271
00000000: b54d d33d b61b 05be bb4e 1fbd aa6c 233d
00000010: 7002 ba3d 9cb4 0d3e dd8c b0bd a9e1 b4bd
00000020: 00b7 d13d 3fa1 9dbc 5402 a9bd a52c 083e
00000030: 9d67 723d e186 b23d f167 0b3e 6861 2ebe
00000040: bdf5 06bc 8e07 70bd 4057 9c3d bd7f 913c
00000050: d62b 45bd df90 8ebd 5863 c63c d4c7 c93d
00000060: 030a 123d 844c 14be a2a1 06be 65e6 4b3d
00000070: 5d45 823c 0c43 11be 23db a93c d221 75ba
00000080: 79ad 47be cffd 4e3e 1f71 06be 538a a23d
00000090: 15cf ac3d f384 cdbd 1da7 113e 5fd7 a53d
000000a0: 9b10 a13d a098 ba3d 9dc5 b8bd 0865 a9bd
000000b0: 2d77 7e3d c4af c1bc 3177 4dbe a94b 48be
000000c0: ae69 38bd 96f5 23bd c5fe fa3d 88ce 0bbc
000000d0: 2da8 043d 4c15 293d 6f74 9f3d 6b00 023d
000000e0: 1291 d3bc a7c8 0dbd 2813 26bd 5be7 cbbc
000000f0: 8515 2b3e d2b7 c23d a40a 03bd f067 b23d
00000100: 840c 63bc 3750 4d3c a2d5 d0bc 9945 03be
00000110: aff7 2abd 20de 133e 968e 7fbd 977d 44bc
00000120: 2a33 193a 0f2e fb3c 979c 8d3d 56a2 5f3d
00000130: 9157 bf3c 1749 8ebd 81f2 383c 20f6 20bd
00000140: de59 36bd 1700 843c 2c6a 55bd 24fa f6bc
00000150: a20a 8fbd ea9e 5ebc ee08 453d da4d bd3c
00000160: 7cc0 e83d 989a 41bb a8e8 a1bd df82 7dbd
00000170: 4076 50bc a830 59bd dfec 373d 5add ce3c
00000180: 3377 6d3e 7a17 53be 72a7 0d3e 028b b0bb
00000190: 8cc1 4a3e e888 a7bd 2076 00be 9def 433d
000001a0: a497 1bbc 2ff9 ed3c 897d eb3d 7097 18be
000001b0: 87b4 27bd 0c09 4dbe 0be4 4d3b 89d7 e0bd
000001c0: d837 ae3d 9cd1 363e dc3f 82be a397 edbd
000001d0: e877 e7bd 1796 4a3d 23ac 38bd 8828 ecbd
000001e0: 57e6 42be df35 16be a37a 983d f62e 103a
000001f0: 76b0 ecbd 4235 ea3d 6a76 b0bd e920 233e
00000200: 783d 06bd 4adc a9bd 11ef 0abe e08c 8ebd
00000210: bda4 cebc d0ba 8a3d 4257 31bd cdc4 b33a
00000220: 6fde cb3c 2b0c 433d f488 533d 8002 0f3d
00000230: 326d 03bd 3438 963d 4f11 bf3d 472f 2fbe
00000240: 8229 9cbc 14f7 10be 7e15 963d abae 1d3d
00000250: ba62 d5bd 53a9 c83d 93e2 e63d 1a6f 253d
00000260: e11f a33d c4e2 19be 882e bd3d 688f d83c
00000270: 1617 783d d45a dcbd bf83 db3d 8286 92bd
00000280: 1b06 20bd 2d35 b03d eae1 dfbd 6f78 cfbc
00000290: 11b5 873c 07db 90bd 4a84 043d c0ae 4bbd
000002a0: 60f9 b3bd 4794 c13a 36da 27bc 893f f33c
000002b0: 721e a43d ff29 91bd 13b7 49bd 81bf d4bd
000002c0: 7cb4 073e 67c1 853c 8fcd 64bb 597e 0f3d
000002d0: 539a 82bc 1366 41bd fdae 0a3d 2734 2b3d
000002e0: 6526 82bd 2187 29bd 822c b4bd 778d 953c
000002f0: 87eb 913d 89b7 0cbc 382a 09be fafd 44bd
00000300: d029 a03d a250 0bbe 76e5 2dbe bbf9 c83d
00000310: ce6f ba3c 1333 a8bd bb02 e93d 4f6d b43d
00000320: 2cf6 663c 31c6 2dbc da73 813d c086 3ebd
00000330: 5b55 3b3d 1422 92bc 0762 973c 7a6b 953d
00000340: 9b00 03be 99db a43d a6d2 8abc 9fb5 02be
00000350: c01d eebd d83a 0abe e688 883c 642e 23bc
00000360: 5f0a 753d da24 173d a713 1b3d 82a5 82bc
00000370: 5319 81bd a770 303d 06cf b7bd bdee 353c
00000380: eac0 04ba 2ae3 cebd fb3e 073e a9f6 ef3c
00000390: 6587 fa3c 965f 9c3d 549c aebd 40c8 d43d
000003a0: 4d2c 3f3d d24c cfba 29e6 453d 9c49 a6bd
000003b0: 7233 f6bc c4a8 32be 8977 6cbd 7c26 7fbd
000003c0: 963e 97bc e681 8c3a 286d 24be b395 c9bd
000003d0: a083 b23d cf53 eabc 2ce6 b63b 6a35 76bd
000003e0: 8a12 28bd 2d1c 373d f602 103d 4285 09bc
000003f0: 2884 e53c 8a62 453d 8cd4 bcbc f9b5 d43d

213 f4 [128, 128]
0.0790866 0.044468742 -0.002285068 -0.07161695 0.0045815306 -0.10485003 -0.06641078 0.09368477
-0.13211462 0.04329372 -0.067745484 0.16186802 -0.16805245 0.12910044 0.16229154 0.113238625
0.09101947 0.05549228 0.03151021 0.048663758 0.031380694 -0.07594762 -0.055297606 0.040070686
0.13731894 -0.17097186 -0.07397288 -0.018106539 -0.16680855 0.031206185 0.16470304 -0.08404643
-0.12404125 0.16943602 -0.0293363 0.06778233 0.09210919 0.07050779 0.051953875 0.08608678
0.1141175 0.14869474 0.016815731 0.07197226 0.09340305 0.035482734 -0.0925051 -0.116164975
-0.10521272 -0.04086013 0.19420289 -0.14127524 0.07198535 0.10172835 0.06910779 0.061598606
0.10188428 0.09587928 0.024159467 -0.080759875 0.1332287 0.041458644 -0.024126552 -0.045194335
-0.060496572 -0.03192336 0.2126639 -0.107791714 0.12952085 0.10858192 -0.099579155 0.05073974
-0.21579742 -0.07404854 -0.14804542 0.11239659 -0.08992269 0.11192274 0.12961532 -0.055497393
0.15667595 -0.018228207 0.037489466 -0.13992009 -0.2225465 0.19648618 0.0006861962 0.06437744
-0.06446378 0.044371974 0.12694952 0.16989629 0.14999107 0.01794803 -0.0486593 0.11693339
-0.009586696 -0.22803713 -0.22594689 -0.22327559 0.1478308 -0.07108515 -0.048030656 0.21252076
-0.13613445 0.06315583 -0.0019312646 -0.05115462 0.20903733 0.19937782 -0.2562502 -0.13613041
0.06344013 -0.09735985 0.014256259 -0.03559223 -0.07951701 -0.04782719 0.0071166414 -0.18172646
-0.07711854 -0.063347176 -0.029387923 0.16073062 0.1780029 0.13370699 -0.041169804 -0.24060029
-0.055052944 -0.037485268 -0.015269505 -0.1467873 -0.004833644 -0.070488736 -0.06853584 0.04174174
-0.094463654 -0.0003468818 0.06817547 0.050221268 -0.028339298 0.123400085 0.012017328 -0.019294564
0.009073714 0.008764758 0.043623496 0.12150452 -0.107757516 0.1055912 -0.0048302137 -0.12916617
-0.069670595 0.03721567 0.13309164 -0.043067362 0.07408272 0.073257826 0.06386646 -0.0484343
0.15942587 -0.157031 0.057411168 0.04492519 -0.2033929 0.18779375 -0.23326991 0.05275878
0.063853145 -0.08251475 0.11115021 -0.007493594 0.07467016 0.0037657914 0.23403105 -0.0897861
0.023941323 0.19918159 0.06644043 0.010905811 -0.1712702 -0.049398556 0.0628445 -0.05171451
0.19424847 0.0035694898 0.11926161 -0.04586708 0.049594507 -0.09205715 -0.008654948 -0.06395057
-0.0018296796 -0.057525802 0.10865002 -0.041058343 -0.022182839 -0.011375544 -0.10788988 -0.0033453738
-0.13034245 -0.046667244 -0.05135882 0.018344188 -0.05745924 0.09083434 0.13323902 -0.06623564
0.046338875 0.034145076 0.005975621 -0.057839938 0.049983107 0.043635998 -0.1154119 0.024812419
-0.02107447 0.076117046 0.048454687 0.080297485 -0.030327337 0.076828316 0.089211464 0.02402254
-0.15934232 -0.11987998 -0.14449996 -0.10416447 0.02555587 -0.07226057 -0.065208256 0.15989299
-0.023278238 0.026244013 0.007230979 -0.02240142 0.13360028 0.0957466 -0.10599023 -0.04314064
-0.03394691 -0.07901843 0.02820505 0.08941023 0.03874742 -0.08433949 0.080860674 -0.04927606
0.0749111 -0.015168213 -0.031597614 0.031925205 0.17578648 0.046515338 -0.0017004089 -0.28467914
00000000: 28f8 a13d db24 363d 14c1 15bb e8ab 92bd
00000010: aa20 963b 9dbb d6bd 6002 88bd cddd bf3d
00000020: 0e49 07be c154 313d 25be 8abd bbc0 253e
00000030: f115 2cbe e832 043e c12f 263e a7e9 e73d
00000040: 6a68 ba3d df4b 633d da10 013d a653 473d
00000050: 0b89 003d 6d8a 9bbd be7f 62bd 2921 243d
00000060: 569d 0c3e 3f13 2fbe 187f 97bd 2a54 94bc
00000070: dccf 2abe 1da4 ff3c eaa7 283e 8920 acbd
00000080: 5709 febd a380 2d3e ae52 f0bc 76d1 8a3d
00000090: bea3 bc3d 6366 903d 96cd 543d 444e b03d
000000a0: 70b6 e93d 6f43 183e 25c1 893c 3166 933d
000000b0: 194a bf3d 5856 113d 5073 bdbd e7e7 edbd
000000c0: c479 d7bd f45c 27bd 1fdd 463e 75aa 10be
000000d0: 0e6d 933d f456 d03d 6388 8d3d d24e 7c3d
000000e0: b5a8 d03d 5b5c c43d 13ea c53c 6f65 a5bd
000000f0: 1b6d 083e 8ad0 293d 0ca5 c5bc b21d 39bd
00000100: 41cb 77bd 12c2 02bd 91c4 593e e7c1 dcbd
00000110: 1da1 043e 3360 de3d 28f0 cbbd 79d4 4f3d
00000120: 00fa 5cbe c3a6 97bd 3899 17be 2f30 e63d
00000130: 6329 b8bd c037 e53d e1b9 043e 3c51 63bd
00000140: a96f 203e 5253 95bc 8e8e 193d 3647 0fbe
00000150: 3be3 63be ac33 493e d9e1 333a 52d8 833d
00000160: 9605 84bd 63bf 353d 0eff 013e 4bf9 2d3e
00000170: 4297 193e bf07 933c f94e 47bd c67a ef3d
00000180: 8411 1dbc 9182 69be 9f5e 67be 5ba2 64be
00000190: f560 173e 1795 91bd cbbb 44bd 0b9f 593e
000001a0: d466 0bbe d857 813d 7d22 fdba 8287 51bd
000001b0: e20d 563e b329 4c3e 3a33 83be c565 0bbe
000001c0: e6ec 813d 9a64 c7bd 1693 693c 28c9 11bd
000001d0: d0d9 a2bd 72e6 43bd b732 e93b 8016 3abe
000001e0: 53f0 9dbd 2abc 81bd f1be f0bc 9196 243e
000001f0: 6446 363e 7cea 083e aba1 28bd ec5f 76be
00000200: 327f 61bd 278a 19bd f22c 7abc 694f 16be
00000210: 8b63 9ebb 665c 90bd 855c 8cbd 63f9 2a3d
00000220: 2976 c1bd b0dd b5b9 959f 8b3d d1b4 4d3d
00000230: d127 e8bc 2fb9 fc3d 54e4 443c a20f 9ebc
00000240: eaa9 143c 0f9a 0f3c 8dae 323d 5dd7 f83d
00000250: f9af dcbd 3340 d83d c546 9ebb 2344 04be
00000260: 75af 8ebd 756f 183d 2d49 083e 6767 30bd
00000270: aeb8 973d 3308 963d 6bcc 823d 0b63 46bd
00000280: 8940 233e bccc 20be f927 6b3d 7a03 383d
00000290: 3a46 50be 014d 403e 4fde 6ebe 9719 583d
000002a0: 70c5 823d 7efd a8bd b9a2 e33d d38c f5bb
000002b0: abec 983d 7fcb 763b d6a5 6f3e c6e1 b7bd
000002c0: 9820 c43c 42f6 4b3e ec11 883d 49ae 323c
000002d0: 7561 2fbe 2456 4abd 9eb4 803d 98d2 53bd
000002e0: 12e9 463e 1aee 693b 6e3f f43d 1fdf 3bbd
000002f0: 9c23 4b3d 7688 bcbd 7ccd 0dbc 84f8 82bd
00000300: dcd1 efba 2da0 6bbd e783 de3d cb2c 28bd
00000310: c9b8 b5bc 7d60 3abc 5ff5 dcbd 0f3e 5bbb
00000320: 7e78 05be 2726 3fbd a05d 52bd 8d46 963c
00000330: 615a 6bbd 5b07 ba3d cf6f 083e 8da6 87bd
00000340: d5cd 3d3d b5db 0b3d 24cf c33b 92e9 6cbd
00000350: 16bb 4c3d a9bb 323d 135d ecbd 6a43 cb3c
00000360: 5ea4 acbc 41e3 9b3d 6c78 463d 0273 a43d
00000370: 0971 f8bc 2a58 9d3d 80b4 b63d ebca c43c
00000380: a22a 23be a383 f5bd ccf7 13be 2f54 d5bd
00000390: 8b5a d13c 5afd 93bd e88b 85bd fdba 233e
000003a0: 01b2 bebc affd d63c d9f1 ec3b 2f83 b7bc
000003b0: 83ce 083e cb16 c43d 6811 d9bd 3db4 30bd
000003c0: ea0b 0bbd 6ad4 a1bd 470e e73c b61c b73d
000003d0: 9db5 1e3d 2fba acbd 489a a53d b2d5 49bd
000003e0: fe6a 993d 1984 78bc 806c 01bd 01c4 023d
000003f0: 5f01 343e de86 3e3d 41e0 deba 77c1 91be

214 f4 [128, 128]
-0.030911475 0.013290939 -0.023585875 0.0395608 0.027492497 0.019948527 -0.055179864 -0.021168262
0.05015689 -0.0518371 -0.020379288 0.025915634 0.005401789 0.05942735 -0.05153228 0.0029217938
0.01620085 0.010676267 0.03162442 -0.00024164918 0.0060263663 -0.012171717 0.0021454305 0.047582578
0.0055696703 -0.004864089 0.032446675 0.042986155 0.0006274797 -0.054736495 -0.005393889 0.04932038
-0.08933387 -0.015431769 0.0032048293 -0.05696775 0.016994264 0.032788128 0.0346249 -0.013934913
-0.0024081874 -0.020717867 0.02285881 -0.014879461 -0.020315656 -0.08335095 -0.06401598 -0.004606147
-0.032814838 0.01909459 0.0010315625 0.040167745 0.018191243 -0.041161023 0.06647837 0.018642083
0.054873094 -0.024357526 -0.017983967 -0.020625995 0.075148895 0.022002012 0.031117478 0.005065698
0.009550294 -0.028734412 -0.036238458 0.037724808 0.03334157 -0.01871893 -0.060982656 -0.0029119144
0.0048505096 -0.031428587 0.045562398 0.0340016 0.021917699 -0.010891873 0.0023073768 0.031584755
-0.030594565 0.032984428 0.014496211 0.06745757 -0.04843068 0.0013379741 0.025967043 -0.0237054
0.02862596 -0.002078049 0.046170417 0.013610927 -0.061220538 0.034173004 -0.10263805 0.019620992
0.015403331 -0.06532698 0.002808501 -0.019888321 0.0041845855 -0.0022971793 -0.016531449 0.02022439
0.0295541 0.026321618 -0.003084581 -0.023267409 0.0317639 -0.0039148005 0.015247836 -0.014738248
0.024323016 0.041119847 -0.03508734 -0.0028550292 0.05669054 0.0054884106 -0.031121759 -0.052807212
0.033916034 -0.02205178 -0.08115658 -0.049293187 0.019810874 -0.042563714 -0.00083235063 0.005671336
-0.07564481 -0.015544821 0.028248122 0.020198751 0.016978981 -0.019271245 0.005562608 -0.06539799
-0.045089275 0.020423763 0.04447233 0.09910126 0.039702233 -0.034722112 -0.0059276773 0.0036461076
0.009497983 0.031082476 -0.05163434 -0.0039363317 0.007597799 -0.027700366 0.021496912 -0.02306576
0.03590569 0.006378413 -0.0655529 0.07375458 -0.02709059 0.020721123 0.00020694881 -0.023503218
0.05830414 -0.11488861 -0.015865322 0.04000309 0.008721138 0.08202379 -0.049350314 -0.008398099
0.024513068 -0.033053383 0.015471679 -0.074725464 -0.026865857 0.016457226 -0.018215716 0.036881063
-0.023632659 -0.083708026 -0.015059931 0.012945477 0.0009788835 0.011882831 0.022293199 0.018971382
-0.025734639 0.028268946 0.008147504 -0.030302027 -0.008517304 -0.014423132 -0.021840079 -0.016721053
-0.015107916 0.016137559 0.00635912 -0.046181872 -0.060864624 0.05474976 0.03826675 -0.10567575
-0.006658427 0.019205991 0.020739067 -0.029547185 0.015312231 -0.014458926 -0.036074653 0.054064274
-0.027361054 -0.06970357 -0.0067798966 -0.038319368 -0.04198376 -0.07836282 -0.038309474 0.008384265
0.023605065 -0.015611949 -0.014901302 0.010544217 0.027586767 -0.0463998 0.0057186624 -0.01983164
-0.03508807 -0.0018980195 0.008032711 0.013974001 0.06798842 -0.053646307 -0.059988093 0.030534886
0.037245467 -0.036014263 0.008192052 -0.057346098 -0.059076894 -0.008646785 0.0340039 -0.060309187
0.009014117 -0.0046278364 0.04744746 0.0023855343 -0.0055667087 -0.027832352 0.020463383 -0.037896592
0.0062760212 0.008639511 -0.024169529 -0.0459772 -0.010035332 0.003461956 -0.06697611 0.038909566
00000000: 103a fdbc 3dc2 593c 2a37 c1bc 810a 223d
00000010: f237 e13c 186b a33c 4804 62bd 1069 adbc
00000020: 5071 4d3d 2453 54bd 77f2 a6bc 064d d43c
00000030: 7e01 b13b 186a 733d 8313 53bd 917b 3f3b
00000040: a5b7 843c 82eb 2e3c 9c88 013d 3563 7db9
00000050: d378 c53b e26b 47bc 5a9a 0c3b f3e5 423d
00000060: c881 b63b f062 9fbb cee6 043d 4012 303d
00000070: 737d 243a 6033 60bd 38bf b0bb 2b04 4a3d
00000080: adf4 b6bd 88d5 7cbc 1d08 523b 0457 69bd
00000090: 8e37 8b3c d84c 063d d7d2 0d3d 434f 64bc
000000a0: aed2 1dbb 84b8 a9bc 6642 bb3c fcc8 73bc
000000b0: 056d a6bc e7b3 aabd cf1a 83bd 29ef 96bb
000000c0: da68 06bd 426c 9c3c 7e35 873a ef86 243d
000000d0: cd05 953c 7698 28bd d025 883d 48b7 983c
000000e0: 9cc2 603d 6f89 c7bc 1d53 93bc d9f7 a8bc
000000f0: aae7 993d 903d b43c 15ea fe3c 28fe a53b
00000100: d678 1c3c 6e64 ebbc c76e 14bd 5485 1a3d
00000110: 2c91 083d 7158 99bc f3c8 79bd d1d5 3ebb
00000120: 06f1 9e3b 43bb 00bd a39f 3a3d 4345 0b3d
00000130: bf8c b33c d473 32bc 5c37 173b 045f 013d
00000140: 74a1 fabc ae1a 073d 8481 6d3c 3227 8a3d
00000150: 405f 46bd f65e af3a d6b8 d43c d431 c2bc
00000160: fd80 ea3c e02f 08bb 311d 3d3d 5e00 5f3c
00000170: 63c2 7abd fef8 0b3d e633 d2bd 34bc a03c
00000180: 415e 7c3c 27ca 85bd d40e 383b d5ec a2bc
00000190: d91e 893b 468c 16bb f66c 87bc 9fad a53c
000001a0: 711b f23c 6fa0 d73c af26 4abb 4b9b bebc
000001b0: dd1a 023d ba47 80bb 0fd2 793c b178 71bc
000001c0: 1041 c73c 496d 283d beb7 0fbd 711b 3bbb
000001d0: 5734 683d 20d8 b33b 0ff3 febc 604c 58bd
000001e0: 8aeb 0a3d efa5 b4bc 6c35 a6bd a7e7 49bd
000001f0: 6a4a a23c 4a57 2ebd 1b32 5aba 9dd6 b93b
00000200: abeb 9abd b4af 7ebc 9b68 e73c da77 a53c
00000210: 8117 8b3c bbde 9dbc 8a46 b63b 62ef 85bd
00000220: 88af 38bd bc4f a73c 9e28 363d 9af5 ca3d
00000230: cf9e 223d c638 0ebd f63c c2bb 89f3 6e3b
00000240: 6e9d 1b3c ada0 fe3c 887e 53bd 58fc 80bb
00000250: f5f6 f83b e1eb e2bc 4b1a b03c 68f4 bcbc
00000260: d811 133d 0202 d13b 9940 86bd a40c 973d
00000270: 16ed ddbc 58bf a93c 6600 5939 d289 c0bc
00000280: 52d0 6e3d b84a ebbd fef7 81bc 48da 233d
00000290: 1be3 0e3c 17fc a73d 8e23 4abd 2e98 09bc
000002a0: a1cf c83c fc62 07bd ed7c 7d3c aa09 99bd
000002b0: c915 dcbc 4ed1 863c 2039 95bc 9910 173d
000002c0: 4799 c1bc 1d6f abbd eebd 76bc 4419 543c
000002d0: e14d 803a 35b0 423c 3aa0 b63c df69 9b3c
000002e0: 73d1 d2bc 4794 e73c 1c7d 053c f53b f8bc
000002f0: 2a8c 0bbc 004f 6cbc f7e9 b2bc 97fa 88bc
00000300: 3187 77bc ea32 843c 2a60 d03b 3429 3dbd
00000310: 2f4d 79bd 4941 603d 98bd 1c3d 876c d8bd
00000320: ef2e dabb e255 9d3c fae4 a93c f00c f2bc
00000330: 27e0 7a3c 22e5 6cbc 04c3 13bd 8072 5d3d
00000340: 4a24 e0bc bfc0 8ebd e529 debb c5f4 1cbd
00000350: 2af7 2bbd b07c a0bd 65ea 1cbd 285e 093c
00000360: 695f c13c 43c9 7fbc 9724 74bc a7c1 2c3c
00000370: a5fd e13c b70d 3ebd 9e63 bb3b f775 a2bc
00000380: 82b8 0fbd f7c6 f8ba a29b 033c 35f3 643c
00000390: 833d 8b3d 3bbc 5bbd 13b6 75bd 4c24 fa3c
000003a0: b48e 183d b183 13bd f537 063c bee3 6abd
000003b0: 9dfa 71bd 3fab 0dbc ac47 0b3d c406 77bd
000003c0: f2af 133c 1ba5 97bb 4558 423d a056 1c3b
000003d0: f068 b6bb ac00 e4bc d3a2 a73c 7539 1bbd
000003e0: 15a7 cd3b bc8c 0d3c 2dff c5bc 9752 3cbd
000003f0: 3c6b 24bc fce1 623b c52a 89bd a35f 1f3d

215 f4 [128, 128]
0.038016573 -0.07175005 -0.068989344 0.0039119334 0.03574526 0.0029344775 0.025050785 0.045272306
0.006333908 0.010072282 0.053977206 0.042507716 -0.017626984 -0.022834571 -0.026014565 -0.08193906
0.04897773 -0.04640745 -0.073507756 0.08568324 -0.051922042 -0.035271183 -0.025543861 -0.048691034
-0.055705912 0.09642024 0.013074596 -0.015202066 0.054999683 -0.08063477 0.029244458 -0.011763731
0.024404343 0.0090095885 0.045033745 0.012638189 -0.05044211 0.016018683 -0.07852914 0.06280734
-0.031492345 -0.059867274 0.0002603525 0.053208355 0.09064047 -0.04588303 0.06594243 -0.045336984
-0.0846281 -0.11906998 0.017238814 -0.048394557 0.07912315 -0.03369503 0.0075089205 -0.112455085
-0.063003145 -0.024631979 -0.02869764 0.027347537 -0.13072531 0.023993438 -0.011645228 -0.07091644
-0.036586262 0.023048349 0.003620476 -0.032211542 -0.050260093 -0.044230707 0.0061031864 -0.061555263
0.038583443 -0.017163027 -0.061747566 -0.0058735674 0.08147501 -0.07772661 0.022482049 -0.05525281
-0.021168241 0.08714143 -0.07435684 0.09414342 0.0053982013 -0.036802754 -0.0025504164 0.023800192
-0.021733351 0.006209292 0.049224176 -0.00034890033 0.0069602486 0.048351415 0.047411703 0.04818086
0.056595907 0.00968192 0.05566818 0.018060189 -0.0692234 0.009632876 -0.019352546 0.0345038
0.039910857 0.057786126 -0.031807467 0.115007445 -0.021888124 0.012283456 -0.08452216 -0.041191455
0.025828807 0.072164185 0.07550707 0.034118716 -0.013456602 -0.024819741 -0.013687707 0.009346899
0.050899323 0.022957722 0.07326483 0.098246366 0.016458737 0.018835522 -0.019390287 -0.05287104
0.010425982 0.07920502 -0.005485388 -0.047668956 -0.051145226 -0.025822219 0.047408443 0.06211097
0.035847526 -0.022069786 0.06313068 0.0024869367 0.005622585 -0.006452585 -0.01641288 0.05194292
-0.049385358 -0.019035272 0.042537402 -0.012035778 -0.0565444 -0.0126429945 0.0036390154 0.04436575
-0.00048540306 -0.028851703 -0.040509146 0.055447835 -0.016305543 -0.02425317 -0.06100131 0.019838752
0.02531669 -0.0011034227 0.08018472 0.025099512 0.0047018854 -0.010594995 -0.03137467 -0.048965286
-0.030203888 -0.03025573 0.013385237 0.029970722 0.026372027 -0.081834726 -0.023163265 0.0685653
0.08963775 0.054528125 0.082906574 0.06928935 -0.005031709 0.01174802 -0.0024693308 -0.040958855
0.018235585 -0.09576894 -0.0075135324 -0.11257801 -0.03888518 0.0017825532 -0.04537628 0.020572627
-0.0022711148 0.07038813 0.0347751 0.07578967 0.02334197 -0.008116489 -0.027291646 0.070712276
-0.08116843 -0.0548455 -0.06451881 0.08302305 -0.14198977 0.01660544 0.016892789 -0.023324622
-0.12077283 0.015785938 -0.02985294 0.00025290743 -0.018979877 0.06282227 -0.07346222 -0.08507658
-0.10719495 0.0016158079 -0.09638269 -0.060227685 0.034378644 0.048859302 0.139748 0.11233332
0.02775198 0.08260512 -0.0076206876 0.044427805 0.055864677 0.014775958 0.012695054 -0.031299856
-0.054616075 0.02721806 -0.02602692 0.024529861 0.00222968 0.113733105 -0.017601285 -0.0029659432
-0.04834197 -0.09766124 -0.09709021 0.021984318 -0.061430443 -0.032419242 -0.035673108 0.1784898
-0.0005449529 -0.11759282 -0.01465793 -0.0031904522 0.1287502 0.077189386 -0.031569324 -0.008144665
00000000: 44b7 1b3d b1f1 92bd 494a 8dbd ad2f 803b
00000010: 9f69 123d 5d50 403b 4e37 cd3c 746f 393d
00000020: ac8c cf3b 3606 253c 3417 5d3d 921c 2e3d
00000030: 7766 90bc 910f bbbc 7f1c d5bc aacf a7bd
00000040: df9c 483d bd15 3ebd 3c8b 96bd b27a af3d
00000050: 35ac 54bd 8478 10bd 5c41 d1bc 4070 47bd
00000060: e22b 64bd fa77 c53d d536 563c 1612 79bc
00000070: 5947 613d d823 a5bd 1392 ef3c aabc 40bc
00000080: 9eeb c73c f49c 133c 4e75 383d 6810 4f3c
00000090: 639c 4ebd 9d39 833c e3d3 a0bd 22a1 803d
000000a0: 1efe 00bd 6337 75bd ec7f 8839 01f1 593d
000000b0: b6a1 b93d d8ef 3bbd d30c 873d 46b3 39bd
000000c0: 7f51 adbd f6da f3bd 6a38 8d3c 5f39 46bd
000000d0: 510b a23d cd03 0abd 640d f63b da4e e6bd
000000e0: cb07 81bd 01c9 c9bc 5017 ebbc f107 e03c
000000f0: dbdc 05be e38d c43c a0cb 3ebc a33c 91bd
00000100: 7adb 15bd e4cf bc3c 8245 6d3b 40f0 03bd
00000110: 87dd 4dbd 422b 35bd 3dfd c73b 5f21 7cbd
00000120: ac09 1e3d 7a99 8cbc 04eb 7cbd 0e77 c0bb
00000130: 5fdc a63d 212f 9fbd 462c b83c c550 62bd
00000140: 0569 adbc 3577 b23d 6648 98bd 44ce c03d
00000150: 65e3 b03b 7cbe 16bd e324 27bb 9ff8 c23c
00000160: 240a b2bc 5177 cb3b 4a9f 493d 9cec b6b9
00000170: cc12 e43b 220c 463d c632 423d 4b59 453d
00000180: 1cd1 673d eaa0 1e3c 5104 643d f6f2 933c
00000190: ffc4 8dbd 36d3 1d3c 3b89 9ebc db53 0d3d
000001a0: 9179 233d 25b1 6c3d 8c48 02bd 0689 eb3d
000001b0: b94e b3bc 8c40 493c f419 adbd 5fb8 28bd
000001c0: ef96 d33c d1ca 933d 73a3 9a3d 11c0 0b3d
000001d0: 1479 5cbc c552 cbbc 6742 60bc bc23 193c
000001e0: cf7b 503d d511 bc3c df0b 963d 6435 c93d
000001f0: 79d4 863c f44c 9a3c 61d8 9ebc 4e8f 58bd
00000200: bdd1 2a3c 3e36 a23d c5be b3bb 8640 43bd
00000210: a87d 51bd 1e89 d3bc 5b2f 423d 1368 7e3d
00000220: dbd4 123d b2cb b4bc a84a 813d e0fb 223b
00000230: a93d b83b 3570 d3bb 4e74 86bc 19c2 543d
00000240: 4d48 4abd dcef 9bbc b33b 2e3d b631 45bc
00000250: 1a9b 67bd 9024 4fbc 8c7c 6e3b dcb8 353d
00000260: b27d feb9 685a ecbc ebec 25bd 451d 633d
00000270: 3493 85bc 95ae c6bc 82dc 79bd e184 a23c
00000280: f264 cf3c b9a0 90ba e337 a43d 7e9d cd3c
00000290: 4612 9a3b a196 2dbc ba82 00bd d38f 48bd
000002a0: 256e f7bc ddda f7bc c14d 5b3c 2985 f53c
000002b0: 260a d83c f798 a7bd e3c0 bdbc f76b 8c3d
000002c0: ff93 b73d e258 5f3d ecca a93d 93e7 8d3d
000002d0: 09e1 a4bb c47a 403c 7fd4 21bb 79c4 27bd
000002e0: cb62 953c 8222 c4bd 1434 f6bb 4d8f e6bd
000002f0: 1146 1fbd 8fa4 e93a 7adc 39bd ed87 a83c
00000300: fcd6 14bb a727 903d 5670 0e3d 9d37 9b3d
00000310: a937 bf3c 06fb 04bc bb92 dfbc 99d1 903d
00000320: a23b a6bd ada5 60bd 7022 84bd fd07 aa3d
00000330: c465 11be 2208 883c bf62 8a3c 4713 bfbc
00000340: bf57 f7bd 8351 813c 278e f4bc a998 8439
00000350: b07b 9bbc f6a8 803d 5c73 96bd a13c aebd
00000360: 0789 dbbd 84c9 d33a 4a64 c5bd 4eb1 76bd
00000370: 9fd0 0c3d b120 483d 1a1a 0f3e 030f e63d
00000380: 1f58 e33c e02c a93d f6b6 f9bb eef9 353d
00000390: 5cd2 643d dc16 723c eafe 4f3c 4734 00bd
000003a0: 1bb5 5fbd 69f8 de3c 6836 d5bc d9f2 c83c
000003b0: d31f 123b e7ec e83d 9230 90bc 4560 42bb
000003c0: 3b02 46bd 9e02 c8bd 3bd7 c6bd 7518 b43c
000003d0: 7d9e 7bbd 0aca 04bd f71d 12bd 08c6 363e
000003e0: 2cdb 0eba 81d4 f0bd d027 70bc e816 51bb
000003f0: 18d7 033e 7815 9e3d d64e 01bd 3371 05bc

action_model._discrete_distribution.branches.0.bias f4 [3]
-0.0533578 0.0497824 0.0031945813
00000000: b58d 5abd a1e8 4b3d 2e5c 513b

action_model._discrete_distribution.branches.0.weight f4 [3, 128]
0.005576894 0.04718649 0.026409267 -0.0006942509 0.05678552 0.015998056 0.06716035 0.0025130077
-0.023763148 -0.010269815 -0.03978135 -0.035790876 0.010562845 -0.039834857 -0.030755624 -0.0058574993
-0.016355256 0.013746341 -0.06162674 -0.0130531 0.042255003 0.04636839 0.033906534 -0.00771184
-0.013020935 -0.029934008 0.054986313 -0.049402975 0.022163993 -0.08515697 0.022268962 -0.048710067
-0.023220927 -0.037127808 0.010435887 -0.023413839 -0.027310906 0.06134662 0.040157642 0.015952475
0.029092837 -0.07891003 -0.045697898 0.056554448 -0.030952273 -0.053910885 0.04058707 -0.016133504
-0.009580564 -0.041338123 0.04505713 -0.020987097 -0.019410277 0.006342693 -0.0054573803 -0.006256585
-0.03171491 0.035821933 0.00046057504 0.029223364 -0.02923931 0.016700048 0.03509006 -0.00312301
0.003549227 0.043788087 -0.002542295 -0.028397659 -0.039503906 0.0025220162 0.050134365 0.011021334
-0.020774364 -0.0070976363 0.014046911 -0.07238296 0.013458219 -0.111491196 0.032887526 0.012647683
-0.075097956 -0.04254636 0.05516398 0.013651292 0.037022624 0.056859486 0.026779572 -0.003785748
-0.021305077 -0.049557608 -0.03392797 0.0037514907 0.031866528 0.02988389 0.036663532 -0.107133694
0.06278749 -0.026665522 0.02781251 0.0044828337 -0.0030372879 -0.08618778 0.05266971 -0.051856656
0.023165764 0.011434235 0.0073621543 0.016290724 0.011090511 -0.009762124 -0.019402003 -0.034581475
0.021670228 -0.0070305797 0.09313879 -0.0030536263 -0.051244862 0.005399726 0.04994395 0.02551771
0.020039197 0.024936846 0.0459643 -0.008119557 -0.018467639 -0.017533172 0.052800898 -0.0432529
0.05668783 0.0070731053 0.07171631 -0.01886278 -0.0419802 -0.06290392 -0.05674127 0.044673063
0.019057149 0.05166358 0.104632854 0.12591355 -0.03210601 0.004420468 -0.013737142 -0.0066917734
0.10300107 -0.015270795 -0.09834481 0.009008007 0.0017249711 -0.004125214 0.010608908 0.03274264
0.0809824 0.03144406 -0.052269198 0.06764792 0.013395089 0.058750343 0.006413313 0.06543194
0.056151144 0.006272462 -0.010620943 0.06582241 -0.018920586 0.024649527 -0.052513424 -0.024531545
0.04465934 0.1357384 0.085037805 0.004653723 0.039072566 -0.008615133 0.0042448486 0.043131392
-0.0028990656 0.10911745 -0.112963475 -0.04729347 0.06790329 -0.0452464 -0.022850707 -0.03640128
-0.086391844 -0.039808735 0.037977204 -0.0016013449 0.058665037 0.005584778 -0.06088601 -0.007955601
-0.009898559 -0.054905497 0.01564109 0.04956052 -0.0061154217 0.00867453 -0.07369442 -0.026186315
0.04944297 0.083189026 0.011655482 0.055341486 0.037249025 0.050445706 -0.016208677 -0.08290009
0.08910177 0.03507238 -0.048124522 0.06721365 -0.09160942 -0.047233716 -0.004414664 -0.059794076
0.04057965 0.074575625 -0.010893847 -0.034103557 0.020632226 -0.030067928 0.013400779 0.062939726
0.059749104 -0.07383832 -0.1146118 -0.05429746 0.056903966 -0.018513553 -0.023044415 0.043686673
-0.052584186 -0.092061326 0.0033779559 -0.011215641 -0.022512276 -0.03126367 0.05577734 0.0335454
-0.0073717036 0.059664648 -0.039497517 -0.012999574 -0.08772138 0.07775826 0.03211049 -0.04785938
0.037205953 -0.04831614 -0.05660253 0.049153086 -0.014388442 -0.01716391 -0.12592663 0.00788014
00000000: 61be b63b 9f46 413d 3f58 d83c 64fe 35ba
00000010: ef97 683d 5b0e 833c 5e8b 893d 46b1 243b
00000020: efaa c2bc ba42 28bc c5f1 22bd 7499 12bd
00000030: c80f 2d3c e029 23bd 38f3 fbbc 44f0 bfbb
00000040: 75fb 85bc 5538 613c 526c 7cbd abdc 55bc
00000050: 9513 2d3d c8ec 3d3d 94e1 0a3d 9ab3 fcbb
00000060: c255 55bc 2a38 f5bc 5439 613d c65a 4abd
00000070: 4391 b53c c766 aebd 666d b63c 3584 47bd
00000080: d039 bebc 5413 18bd 48fb 2a3c 61ce bfbc
00000090: 1fbb dfbc 9846 7b3d 577c 243d c4ae 823c
000000a0: 1a54 ee3c 959b a1bd b82d 3bbd a3a5 673d
000000b0: 9f8f fdbc a9d1 5cbd a13e 263d 692a 84bc
000000c0: ccf7 1cbc 2a52 29bd d38d 383d 22ed abbc
000000d0: 4d02 9fbc 5ed6 cf3b d3d3 b2bb 0a04 cdbb
000000e0: 7ee7 01bd 05ba 123d 5679 f139 d665 ef3c
000000f0: 4787 efbc 8ace 883c 98ba 0f3d 6aab 4cbb
00000100: 269a 683b 235b 333d a29c 26bb 35a2 e8bc
00000110: d9ce 21bd 6948 253b b159 4d3d d392 343c
00000120: 002f aabc 4a93 e8bb 0425 663c 843d 94bd
00000130: dd7f 5c3c 7f55 e4bd 12b5 063d 3a38 4f3c
00000140: f5cc 99bd 1845 2ebd a0f3 613d aba9 5f3c
00000150: 09a5 173d 7ee5 683d d560 db3c 501a 78bb
00000160: fc87 aebc ebfc 4abd 0ef8 0abd 92db 753b
00000170: 7a86 023d 0fcf f43c 802c 163d e968 dbbd
00000180: ba96 803d a771 dabc 10d7 e33c bce4 923b
00000190: 3c0d 47bb 3883 b0bd 32bc 573d a567 54bd
000001a0: 21c6 bd3c a856 3b3c 3a3e f13b 2074 853c
000001b0: fab4 353c 51f1 1fbc f3f0 9ebc 4ea5 0dbd
000001c0: c385 b13c c760 e6bb 8dbf be3d 591f 48bb
000001d0: 22e6 51bd 2ff0 b03b 0792 4c3d 840a d13c
000001e0: 3e29 a43c 5b48 cc3c 1045 3c3d e407 05bc
000001f0: 7249 97bc baa1 8fbc c145 583d f429 31bd
00000200: 7f31 683d 82c5 e73b 00e0 923d 1e86 9abc
00000210: 6ef3 2bbd c5d3 80bd 8969 68bd 1afb 363d
00000220: bd1d 9c3c 319d 533d c049 d63d 7bef 003e
00000230: 9781 03bd 93d9 903b c011 61bc aa46 dbbb
00000240: 3af2 d23d 5b32 7abc 0169 c9bd 5296 133c
00000250: 6d18 e23a ce2c 87bb fcd0 2d3c 251d 063d
00000260: 1ada a53d 7dcb 003d 3a18 56bd fe8a 8a3d
00000270: 1377 5b3c 33a4 703d c526 d23b 2e01 863d
00000280: befe 653d 3a89 cd3b 7703 2ebc e6cd 863d
00000290: 58ff 9abc ceed c93c 5118 57bd 61f6 c8bc
000002a0: b6ec 363d 02ff 0a3e 4d28 ae3d 427e 983b
000002b0: 8e0a 203d 7d26 0dbc 5f18 8b3b 8baa 303d
000002c0: 40fe 3dbb f878 df3d 6559 e7bd ccb6 41bd
000002d0: e110 8b3d 4a54 39bd 6831 bbbc 8219 15bd
000002e0: 35ee b0bd 7c0e 23bd fc8d 1b3d 38e4 d1ba
000002f0: c04a 703d 8300 b73b 9c63 79bd 3658 02bc
00000300: 912d 22bc 96e4 60bd be21 803c f9ff 4a3d
00000310: e063 c8bb 9e1f 0e3c 1aed 96bd af84 d6bc
00000320: b684 4a3d 025f aa3d a3f6 3e3c c1ad 623d
00000330: 6f92 183d 28a0 4e3d 0fc8 84bc 86c7 a9bd
00000340: fd7a b63d 0ea8 0f3d 381e 45bd 4fa7 893d
00000350: b89d bbbd 2478 41bd e3a8 90bb a2ea 74bd
00000360: d936 263d 1bbb 983d 1b7c 32bc 2cb0 0bbd
00000370: ea04 a93c 0451 f6bc f18e 5b3c 8be6 803d
00000380: 7abb 743d 8c38 97bd 97b9 eabd 0367 5ebd
00000390: 2214 693d bca9 97bc a4c7 bcbc ccf0 323d
000003a0: 8462 57bd a68a bcbd b260 5d3b cfc1 37bc
000003b0: aa6b b8bc 560e 00bd c876 643d e766 093d
000003c0: 558e f1bb eb62 743d 26c8 21bd 2afc 54bc
000003d0: 44a7 b3bd b93f 9f3d 4a86 033d 3208 44bd
000003e0: 4565 183d 25e7 45bd 0ed8 67bd bf54 493d
000003f0: 80bd 6bbc 549b 8cbc e9f2 00be b41b 013c

action_model._discrete_distribution.branches.1.bias f4 [3]
-0.023548355 0.07598253 -0.05205865
00000000: 7be8 c0bc bb9c 9b3d 733b 55bd

action_model._discrete_distribution.branches.1.weight f4 [3, 128]
0.047204766 -0.012813991 0.07608021 0.042579547 0.041067146 0.043351837 0.012122943 0.029261615
0.04845149 0.01338147 -0.033920083 0.08049683 0.00054510706 0.09914498 0.03749465 0.08896275
0.08284871 0.039788328 0.09820363 -0.022042511 0.100512974 0.017421005 0.019345496 0.06614352
-0.018031731 0.088273 0.07768651 0.06209884 -0.025003685 -0.0320747 -0.11999932 0.019964743
-0.070243165 0.018785888 0.01154329 0.0732473 -0.02344851 -0.022052767 -0.050473258 -0.06496589
0.046137042 -0.015834974 0.09546748 -0.05974891 0.024710115 0.040046304 -0.026664454 -0.016595809
-0.033621624 -0.028343784 0.10869011 0.042236313 0.078643054 0.026682159 0.008634346 0.07160577
-0.018613202 -0.07119982 0.020323498 -0.025655342 0.011543705 0.05321931 -0.012664041 0.0985137
-0.034723677 -0.018455006 -0.046854448 0.010649362 -0.008178846 0.022012694 0.06216339 0.09502368
-0.03312621 -0.024147276 0.012414143 -0.0006219529 0.022708487 -0.008999627 -0.049077205 -0.0053533725
0.034793533 -0.012611077 -0.03237801 0.0221928 0.06331603 0.076972574 -0.048472922 0.07585047
0.0023605048 0.056460377 0.02266008 -0.05712823 0.04954238 -0.029015146 -0.075322494 0.029148992
-0.04031847 -0.02112851 0.04206679 0.05677386 0.038756303 0.02317391 -0.09667558 0.02152654
-0.14756507 0.058392424 -0.087430365 -0.03692397 0.0042626597 0.05361171 0.02952957 -0.056608193
-0.09895637 -0.005082984 -0.004696622 0.08998618 0.102272294 0.04865576 -0.028704457 0.0392372
-0.01759942 -0.08833057 -0.08501663 -0.011879433 0.021409292 0.04194466 -0.15650503 -0.08571566
0.034592893 -0.08386284 -0.013602538 0.00080815196 -0.08565627 0.05242796 -0.054403506 0.06570741
-0.04125642 0.042497054 0.047292963 -0.037357748 0.04924008 -0.10031347 -0.012905556 -0.17231807
-0.025655115 -0.13369963 -0.13789211 0.08330193 -0.17948416 0.02434822 -0.030453876 -0.023232399
-0.12339769 -0.15734777 -0.05269402 -0.026651084 0.08400921 0.025781771 0.045649808 -0.070154496
0.06319457 -0.049125686 0.07308962 -0.16903803 -0.06311642 -0.05282904 0.016275216 -0.07055698
-0.026692616 -0.073066585 -0.13798776 -0.05726876 -0.026783258 0.02532519 -0.015834745 -0.0632935
0.060459465 0.07877342 -0.08250915 0.07247198 -0.044669323 -0.061857887 -0.14287916 -0.10820742
-0.028701795 0.096170746 -0.0965179 -0.09704518 0.012096028 -0.07744565 0.06994397 -0.028146558
0.04630082 -0.10542876 0.096877635 -0.009303611 -0.043578066 -0.085434616 -0.10702259 -0.09050699
0.02449788 -0.057036642 0.035314042 0.037011173 -0.06297043 -0.046701893 0.05269307 0.02040242
-0.043180358 0.08477218 0.03996671 -0.06270681 -0.036731996 -0.05091182 0.07054647 -0.14401522
0.0017624336 -0.016133903 0.09681304 0.068855345 0.059282362 0.017226659 0.032985654 -0.007378109
0.010534029 -0.044404414 0.014019317 -0.015941264 -0.048048645 0.05080955 0.02744905 -0.09803583
0.03977226 0.06914098 0.04200626 0.099526666 -0.149276 -0.013648931 -0.085856825 0.03492164
0.109721705 0.0057325047 -0.068239555 -0.14891063 -0.08533184 -0.02893495 -0.052082077 0.03761358
0.052477762 -0.023280943 0.13878003 0.07468196 -0.08450499 0.0019701088 0.03465539 0.014312366
00000000: c959 413d c6f1 51bc f1cf 9b3d e467 2e3d
00000010: 0636 283d b291 313d 4f9f 463c 0eb6 ef3c
00000020: 1275 463d f43d 5b3c c9ef 0abd 86db a43d
00000030: 84e5 0e3a 860c cb3d fd93 193d 1a32 b63d
00000040: 96ac a93d 16f9 223d fc1e c93d 7f92 b4bc
00000050: bfd9 cd3d 7fb6 8e3c 727a 9e3c 4176 873d
00000060: 48b7 93bc 7ac8 b43d 1b1a 9f3d 5a5b 7e3d
00000070: 87d4 ccbc c360 03bd 34c2 f5bd 1a8d a33c
00000080: a6db 8fbd dde4 993c 1120 3d3c ae02 963d
00000090: 1717 c0bc 01a8 b4bc 0cbd 4ebd d60c 85bd
000000a0: 32fa 3c3d 59b8 81bc 7484 c33d 46bb 74bd
000000b0: de6c ca3c 9807 243d 6a6f dabc eff3 87bc
000000c0: d4b6 09bd 3931 e8bc ec98 de3d fcff 2c3d
000000d0: 9c0f a13d 8b94 da3c 1277 0d3c 0ca6 923d
000000e0: b77a 98bc 36d1 91bd 777d a63c 272b d2bc
000000f0: cf21 3d3c 7efc 593d d67c 4fbc 8dc1 c93d
00000100: 6a3a 0ebd f42e 97bc 73ea 3fbd a97a 2e3c
00000110: 9100 06bc f753 b43c 0a9f 7e3d c69b c23d
00000120: 59af 07bd 82d0 c5bc b164 4b3c 8d0a 23ba
00000130: 2607 ba3c 2c73 13bc 2e05 49bd 586b afbb
00000140: aa83 0e3d b19e 4ebc ce9e 04bd adcd b53c
00000150: d6ab 813d cca3 9d3d 8b8b 46bd 7e57 9b3d
00000160: b3b2 1a3b ff42 673d a2a1 b93c 4aff 69bd
00000170: f3ec 4a3d 2cb1 edbc ae42 9abd dec9 ee3c
00000180: fb24 25bd b215 adbc 3a4e 2c3d b58b 683d
00000190: eebe 1e3d 36d7 bd3c d9fd c5bd 6d58 b03c
000001a0: 4c1b 17be e52c 6f3d b10e b3bd 973d 17bd
000001b0: c8ad 8b3b f497 5b3d ffe7 f13c fedd 67bd
000001c0: a3a9 cabd 298f a6bb 1fe6 99bb ad4a b83d
000001d0: 2374 d13d 434b 473d 9c25 ebbc 30b7 203d
000001e0: a92c 90bc a8e6 b4bd 331d aebd f4a1 42bc
000001f0: 8a62 af3c 2ace 2b3d db42 20be b18b afbd
00000200: 47b1 0d3d 48c0 abbd 2edd 5ebc 29da 533a
00000210: 8e6c afbd b3be 563d 36d6 5ebd 9b91 863d
00000220: 7efc 28bd 6411 2e3d 44b6 413d 7004 19bd
00000230: f7af 493d 2671 cdbd d371 53bc 2674 30be
00000240: ad2a d2bc 8ee8 08be 9733 0dbe 349a aa3d
00000250: b2ca 37be eb75 c73c 687a f9bc df51 bebc
00000260: eeb7 fcbd c61f 21be afd5 57bd 6053 dabc
00000270: 050d ac3d 4b34 d33c 4bfb 3a3d 29ad 8fbd
00000280: 286c 813d 0438 49bd 03b0 953d 4e18 2dbe
00000290: 2e43 81bd 4363 58bd 9a53 853c 2e80 90bd
000002a0: 79aa dabc efa3 95bd aa4c 0dbe a692 6abd
000002b0: 9068 dbbc c676 cf3c deb7 81bc 06a0 81bd
000002c0: 58a4 773d f553 a13d 8ffa a8bd 306c 943d
000002d0: 2ef7 36bd b25e 7dbd ea4e 12be da9b ddbd
000002e0: 0720 ebbc 2bf5 c43d 2dab c5bd a0bf c6bd
000002f0: 6b2e 463c d39b 9ebd c93e 8f3d 9c93 e6bc
00000300: eea5 3d3d 09eb d7bd c867 c63d 2c6e 18bc
00000310: ea7e 32bd 58f8 aebd a92e dbbd bb5b b9bd
00000320: c7af c83c 419f 69bd 75a5 103d 0799 173d
00000330: a4f6 80bd 7c4a 3fbd b0d4 573d fa22 a73c
00000340: e3dd 30bd 099d ad3d 22b4 233d 6e6c 80bd
00000350: 4a74 16bd ea88 50bd ab7a 903d ba78 13be
00000360: 7501 e73a 3f2b 84bc ea45 c63d 0804 8d3d
00000370: 10d2 723d ec1e 8d3c f71b 073d 10c4 f1bb
00000380: ec96 2c3c 67e1 35bd 47b1 653c 4197 82bc
00000390: a8ce 44bd ad1d 503d d5dc e03c 02c7 c8bd
000003a0: 3de8 223d c999 8d3d c20e 2c3d a3d4 cb3d
000003b0: cfdb 18be c49f 5fbc b4d5 afbd fe09 0f3d
000003c0: c6b5 e03d bcd7 bb3b 2ec1 8bbd 077c 18be
000003d0: 76c2 aebd fd08 edbc 0454 55bd b210 1a3d
000003e0: ecf2 563d adb7 bebc 5a1c 0e3e dbf2 983d
000003f0: f410 adbd f11c 013b cff2 0d3d 6a7e 6a3c

action_model._discrete_distribution.branches.2.bias f4 [3]
0.0047030034 0.00187603 -0.0038466756
00000000: a71b 9a3b 1fe5 f53a 8218 7cbb
