Project/Assets/ML-Agents/Examples/3DBall/TFModels/3DBall.onnx (onnx, 74869 bytes, 9 tensors)

network_body.observation_encoder.processors.0.normalizer.running_mean f4 [8]
000000 09 44 78 b9 bc f3 b6 b8 6a 4c 3a bd 42 5a 43 40
       -0.00023676468 -8.723835e-05 -0.04548303 3.052384
000010 27 11 db bd 0c 95 de bb 6b 63 7f be fe 5f 0b bc
       -0.10696631 -0.00679267 -0.24940269 -0.008506773

network_body._body_endoder.seq_layers.0.weight f4 [128, 8]
000000 67 46 93 be 80 80 05 bf 04 ce 1f 3e 0d 41 35 be
       -0.2876465 -0.521492 0.15605932 -0.17700596
000010 0f dd c6 be 1a ee 15 bf c7 dd 67 3f 1e 01 55 be
       -0.3884053 -0.5856644 0.9057278 -0.20801207
000020 f0 81 d2 be b8 21 5c be e7 36 d6 bd 0f 7e 3b 3e
       -0.4111476 -0.21497238 -0.104596905 0.18309806
000030 44 a8 83 3e dc 96 11 be 38 8c 17 be d8 5f 5b be
       0.25714314 -0.14217705 -0.14799583 -0.2142328
000040 29 39 c6 3e 9b c3 6a bc 80 26 89 be 53 c0 23 3c
       0.38715485 -0.014328863 -0.26787186 0.009994584
000050 1b ad f4 3d b7 73 e4 be c0 38 08 3f 18 e8 ca 3e
       0.1194708 -0.44619533 0.53211594 0.39630198
000060 80 98 1c bf 16 5e 87 bd 0f 4b 31 3e 42 8a e7 3e
       -0.61170197 -0.06609742 0.17313789 0.4522267
000070 21 df 33 be 9d 49 20 be 1f 6e 8e 3c ef 53 11 bf
       -0.17565586 -0.15653081 0.017386494 -0.567687
000080 c6 b8 85 be 83 d9 08 be 53 81 e3 3e a0 7d eb be
       -0.26117533 -0.13364224 0.44434604 -0.45994282
000090 95 ae 58 3e 0c 0b 4e 3f a5 1a e9 3e 2a a9 4b bd
       0.21160348 0.80485606 0.4552814 -0.049721874
0000a0 b4 4a d0 be d4 ff 92 be 97 50 00 bf 12 86 70 bd
       -0.40681994 -0.28710806 -0.5012297 -0.05872161
0000b0 48 84 9e 3e 38 9c 23 3e 2e 3e ed 3e 18 d7 db 3d
       0.30960298 0.15977561 0.46336502 0.10734385
0000c0 d8 40 79 3e 06 f4 11 3f 87 f7 d2 be 10 c3 b4 be
       0.24341142 0.57012975 -0.41204473 -0.3530507
0000d0 74 58 2f be d0 fe e3 be a1 a4 12 3e 34 64 1c bf
       -0.17123586 -0.44530344 0.14320613 -0.610904
0000e0 b6 50 05 be c3 fc 74 bf 25 13 98 3e 01 ec 31 bf
       -0.1301907 -0.95698184 0.29702106 -0.6950074
0000f0 fd 37 80 be 8e 2c 8d 3e 22 80 c5 be 0a ee 11 be
       -0.25042716 0.27573055 -0.3857432 -0.14250961
000100 19 cb 85 be bd dd a9 3e 40 56 d9 bd 07 45 ad 3e
       -0.26131514 0.33176985 -0.10612154 0.33841726
000110 63 8b bd 3e 9a 3f bf 3d 02 e7 0a bf 3e 7b d1 bd
       0.37020406 0.09338303 -0.5425874 -0.10228585
000120 01 aa 2a bf 1f 7f 61 be c0 a2 8d be a4 2c 07 be
       -0.66665655 -0.22021149 -0.2766323 -0.13200623
000130 90 8c 0e bf 9c 22 04 bf 72 b2 4c be ab bf de be
       -0.5568323 -0.5161531 -0.19989946 -0.43505606
000140 0d 8c 5b be 88 64 8e 3e 27 e4 20 bf f8 16 3e bd
       -0.21440144 0.27811074 -0.6284813 -0.046408623
000150 70 86 4a 3e 37 d0 32 3d c3 24 93 3d 33 2d 04 3e
       0.19777846 0.0436556 0.07184746 0.12907867
000160 08 55 9a be 49 d4 aa be 47 48 36 3f a7 d7 9f 3e
       -0.30143 -0.33365086 0.71204036 0.31219217
000170 24 e9 12 3f c4 24 24 3e bf 31 87 3e 8e d9 cc 3c
       0.57386994 0.1602965 0.2640514 0.025006082
000180 e1 c1 1a 3e 8a f4 b6 bd 05 a1 f7 bd d5 43 40 3e
       0.15113021 -0.08933361 -0.12091259 0.18775876
000190 26 42 93 bd f0 f6 08 3f 30 40 ce be 77 c6 12 bf
       -0.07190351 0.53501797 -0.40283346 -0.57334083
0001a0 9e ec aa 3e c6 53 2f bd 2e 32 27 3f c0 a2 c3 3e
       0.3338365 -0.042804502 0.65310943 0.38210106
0001b0 ca dc 90 3e 82 4d ce be 7a 49 27 3e 7a 3f 1d bf
       0.2829345 -0.4029351 0.16336623 -0.6142498
0001c0 52 17 b6 3e ce 38 69 3e fe b0 43 3d 13 e1 bc 3d
       0.35564667 0.22775576 0.047776215 0.09222617
0001d0 67 40 a2 be 10 3d 0f 3e a8 71 ec be 57 03 1f 3d
       -0.3168976 0.13988137 -0.46180463 0.038821544
0001e0 df 16 69 3e 36 d6 4a 3f d8 eb 51 bd c6 ba 64 be
       0.22762631 0.7923311 -0.05125031 -0.22336873
0001f0 3c 9c 94 be a1 fa cb 3e 24 4c 19 bf e4 04 36 3f
       -0.29025447 0.39839652 -0.59881806 0.7110121
000200 83 f6 fc 3d 36 91 77 3d 7b dd 93 be 46 d2 cb 3e
       0.12351706 0.06044122 -0.28879914 0.39808863
000210 6f 40 0b 3f d3 1d ed bd a2 43 05 bd 1f 15 e6 be
       0.5439519 -0.11577954 -0.032535203 -0.4493799
000220 23 7b aa be 68 5d c1 bc 8a ae a4 be 5f 78 f9 be
       -0.3329707 -0.02360411 -0.32164413 -0.48724648
000230 18 8f 81 be 03 ca a8 bd c5 67 f8 3e cc d8 53 be
       -0.25304484 -0.08241656 0.4851667 -0.2068817
000240 16 f0 08 3b fa 62 bc be 54 50 7d bd 64 1c 9e bd
       0.0020895055 -0.36794263 -0.061844185 -0.07720259
000250 7e 17 74 be 7f 1f 7b be 43 85 30 3e 81 a0 36 3e
       -0.23837087 -0.24523734 0.17238335 0.17834665
000260 c5 ab e4 3e 0f 4c 8e 3e ba f0 50 be f6 87 77 3d
       0.446623 0.27792403 -0.2040433 0.060432397
000270 4d db bf bd d3 42 f0 3d 2f 68 0a 3f 41 2c 23 bf
       -0.09368 0.11731496 0.5406522 -0.637394
000280 da e7 89 be c1 90 2e be d6 25 69 3f b5 67 25 3f
       -0.269347 -0.17047407 0.9107336 0.6461137
000290 ed 7d 97 be 17 0a ee bd f2 05 71 3c 85 c1 9e 3e
       -0.2958826 -0.11623018 0.01471089 0.3100702
0002a0 5d 1e 7c bd 39 10 f2 3e 8c f9 2e bf e9 99 0b bd
       -0.061552394 0.47278002 -0.6834953 -0.034082327
0002b0 3a b9 33 be 94 84 83 be 0a f1 4f bf 23 ab bf be
       -0.17551127 -0.25687087 -0.8122717 -0.37435254
0002c0 fa a9 5a 3d bb e9 c3 bd ab 14 4b 3d 8d 9e 04 3e
       0.05338476 -0.09566065 0.049580257 0.12951107
0002d0 dc f1 e9 bd 4b 97 2f 3e b8 4e 99 bd d6 8c 4c be
       -0.11423084 0.17147557 -0.074857175 -0.199756
0002e0 f0 a7 6e be d0 4b 09 be e3 d0 a7 3e ff e2 bf 3e
       -0.2330625 -0.13407826 0.32776555 0.37477872
0002f0 64 c0 20 be fc be 1b 3f c5 57 e5 3d 91 df 0d 3f
       -0.15698391 0.60838294 0.11198381 0.5541926
000300 5d 89 ab 3d 1a c3 3a bd df c2 0a 3f 20 e1 bd 3e
       0.08375809 -0.04559622 0.542036 0.3708582
000310 7c 93 5c 3d 6b 76 9f 3d ab dd a0 3e c5 8b 27 3f
       0.05385159 0.07786258 0.3141912 0.65447646
000320 c0 dc 85 3f 50 bb cc be 2b 02 8f bd 57 45 72 be
       1.0457993 -0.39986658 -0.069828354 -0.23659264
000330 1b 8d 1d be 4f 52 e2 3d f8 0d 7f bc 7a b2 75 3d
       -0.15385859 0.11050855 -0.015567295 0.05998466
000340 fc 0e b1 be a4 d9 79 be 0c c3 de be 68 8b 1e bf
       -0.34581745 -0.2439943 -0.43508184 -0.6193147
000350 43 1b ad 3d 8e aa b5 3e 36 01 4f 3e cf d4 2d bd
       0.084524654 0.35481685 0.20215306 -0.04243928
000360 b5 22 36 3e 5e f1 80 be de 47 1c bf 7d a9 fa bd
       0.17786677 -0.2518415 -0.6104716 -0.122393586
000370 72 dd d3 3c 55 36 a8 bd 19 57 5f 3d 44 d8 4f 3e
       0.02586243 -0.08213488 0.054526422 0.20297343
000380 da 53 e9 3c 60 f1 16 be 8a 7e 1b bf 6c 23 9b be
       0.028482366 -0.14740515 -0.6073996 -0.30300462
000390 26 40 f2 3d 2a 2d dc be 43 b8 07 3f 3c 95 57 be
       0.118286416 -0.43003207 0.53015536 -0.21053022
0003a0 c0 99 c5 ba ab ad da 3e 41 a0 08 3f 1a 6e 3e bb
       -0.0015075728 0.42710623 0.5336953 -0.0029057325
0003b0 f9 bc b0 3d 12 a6 e7 3e a1 2d 99 bd bf b6 05 bf
       0.08629794 0.4524389 -0.07479406 -0.52231973
0003c0 6e 47 f1 be 3b 6d c0 be 18 96 90 3e f8 81 74 bc
       -0.4712481 -0.37583336 0.28239512 -0.014923565
0003d0 53 68 41 bc 93 55 70 bd 28 c5 f3 be bb eb 2a 3f
       -0.011804658 -0.05867536 -0.47611356 0.66765946
0003e0 9d 16 52 bd 5a 37 da be fd 49 02 be 8f 11 c0 3e
       -0.051291097 -0.42620355 -0.12723537 0.37513396
0003f0 0e 62 64 bf f8 db db bd 6f db e0 be b4 89 b0 bd
       -0.8921212 -0.10735315 -0.43917415 -0.08620015

network_body._body_endoder.seq_layers.0.bias f4 [128]
000000 a3 0d 8a 3c 1d 0e 84 bc c5 89 3d 3d ca 00 eb bb
       0.016852206 -0.016120011 0.046273965 -0.007171725
000010 a3 8d 3b bc 66 cb 19 3c 3d 1f 67 bc f8 41 c8 bc
       -0.011447343 0.009386873 -0.014106569 -0.024445519
000020 69 e2 09 3b 53 68 93 bd 18 94 b9 bc 6d e3 28 bc
       0.0021039492 -0.07197633 -0.022653624 -0.010308129
000030 8d 5c f8 bc 44 98 e6 3c 2c 01 1e 3d 33 ac 07 bd
       -0.03031757 0.028148778 0.038575336 -0.033123206
000040 d1 00 5a bd ca 5a 21 bd 6a ab de bc c8 4c 01 bc
       -0.053223435 -0.039393224 -0.027181346 -0.007891841
000050 e8 5a 6b bd e5 71 70 3a 0c b1 98 bc bc 01 a0 3c
       -0.05745974 0.0009172245 -0.01863911 0.019532077
000060 7e 70 05 3c 8c fd eb bc 91 2d a7 bd b4 79 50 bc
       0.008144496 -0.028807424 -0.08162988 -0.012724329
000070 bb ee 44 bd 55 44 48 bc 8c f2 9a 3c 49 d1 fe 3b
       -0.048079234 -0.012223323 0.018914483 0.0077764136
000080 b8 77 b5 3b 6b 3f 45 bd ec 70 07 bd 50 ca 90 bb
       0.005537953 -0.048156183 -0.033066675 -0.004418649
000090 6c 29 ec bc 51 6f bf bd c1 f0 84 3c 74 0f 16 bc
       -0.028828345 -0.09347404 0.016228082 -0.009158958
0000a0 c3 30 fd bb 95 30 28 bd f7 29 90 bd 4e cd 7e 3c
       -0.00772676 -0.041061956 -0.07039254 0.015551878
0000b0 82 3e f0 3b 78 6c fb bc ee 34 9b bd 30 fb 8d 3c
       0.0073316703 -0.03069137 -0.07578455 0.01733169
0000c0 c2 6b 07 bd 7d b9 4e 3c d8 91 f6 bb 65 d8 89 bc
       -0.03306175 0.012617466 -0.00752471 -0.016826818
0000d0 c9 26 08 3d d0 95 9e bc bf 87 a9 bd 8f 90 10 3d
       0.033240113 -0.019358546 -0.08277845 0.03529411
0000e0 10 50 43 bd 6b c8 91 3c f6 4e 32 bc d3 d4 f0 3c
       -0.047683775 0.017795762 -0.010883084 0.029398357
0000f0 43 07 96 bd a2 65 fa 38 16 8c b6 39 c9 69 30 bd
       -0.07325604 0.000119398595 0.00034818117 -0.043069635
000100 d7 1f ba bb dc 63 bd 3b fa c3 ee 3c 52 5d d9 39
       -0.005680065 0.0057797264 0.029146183 0.00041458994
000110 3b 1d 5c 3c 97 65 be 3c 8b 42 0a bd 15 8a 39 bd
       0.013434703 0.023241801 -0.033754867 -0.0452977
000120 e5 62 29 bc 97 3b 6c bc 67 a7 99 3b 65 c8 96 3c
       -0.01033852 -0.014418504 0.0046891454 0.018406102
000130 49 c1 d6 ba 79 fc ca 3c 74 b8 a7 bc 22 97 d2 3c
       -0.0016384508 0.024778591 -0.020473696 0.025706831
000140 84 ee 89 bd 75 d0 7f bd fe 05 a9 bd b0 4b 8e bd
       -0.06734946 -0.06245466 -0.08253096 -0.0694803
000150 26 97 11 bd e7 1d 14 bd 59 b3 f9 3b e5 11 8b bc
       -0.035544537 -0.03616133 0.007620257 -0.016976306
000160 bc f6 8b bc d6 da 69 bd ae ea 29 bd 79 24 24 bc
       -0.017085426 -0.057093464 -0.041483574 -0.010018461
000170 31 71 9e 3c 01 4f 0f 3d d0 9e 2c 3c 4b 22 14 bc
       0.019341083 0.034987453 0.010535911 -0.009041379
000180 69 8e 36 bd 8f a0 a0 3c d0 b9 e7 3c 31 00 e9 3c
       -0.044569407 0.01960781 0.028286844 0.028442474
000190 d9 41 9e 3b 02 ed f8 bb dc b4 0f 3b 05 a1 29 bc
       0.004829627 -0.007596613 0.002192787 -0.010353331
0001a0 80 fc ec bc 90 41 aa 3c 31 4b c0 bd 1b c0 83 3c
       -0.028928995 0.020783216 -0.093893416 0.016082814
0001b0 d4 85 ca bb d9 72 f7 bc d1 21 8d bc 94 db 8f bc
       -0.0061805043 -0.03020613 -0.017228039 -0.017560758
0001c0 2b 76 f0 bd d8 13 af 3d 49 11 41 bd eb 7b af bc
       -0.11741289 0.08548707 -0.047135625 -0.021421393
0001d0 8c db 7b 3d 94 2f d6 bb a9 bc 0d 3d 1b ff 02 bd
       0.061488673 -0.0065364335 0.03460375 -0.03198157
0001e0 0c 51 03 bd f6 e1 7e 3c 87 fc 14 bd 3a 58 ea bc
       -0.032059714 0.015556803 -0.03637364 -0.028606523
0001f0 f1 5f 89 bc 00 27 c4 bc 4a 58 ed bc 3f 86 82 3c
       -0.016769381 -0.023944378 -0.028972764 0.015933154

network_body._body_endoder.seq_layers.2.weight f4 [128, 128]
000000 4d 2c e0 3d 10 28 10 3e 32 d5 ef 3b 51 83 b0 3d
       0.1094595 0.14077783 0.007319116 0.086187966
000010 c1 ad e9 bd da 19 df 3d 99 4c de 3c 74 1d 6d bc
       -0.11410094 0.10893603 0.027136134 -0.014472354
000020 f2 a7 b8 3c b9 d6 1c bd d5 4e 04 bd 96 97 76 3e
       0.02254102 -0.038290713 -0.032301743 0.24081263
000030 da 0f d2 bd a8 38 e8 3d bf 66 ab 3c 91 8d 1a 3d
       -0.1025693 0.11338931 0.020923017 0.037732664
000040 23 74 ba 3d 06 52 a9 3d 42 e1 07 be 9c 3d fc 3d
       0.091041826 0.08267598 -0.13269523 0.123164386
000050 76 95 bd 3d 39 53 a3 bc ff 67 9f bd cb 0f 0c 3d
       0.09257023 -0.019937145 -0.077835076 0.03419475
000060 a3 96 d9 bd 28 1b 1f 3d 7a a7 fa 3c f5 8e f4 bd
       -0.10624435 0.038844258 0.030597437 -0.119413294
000070 f6 ad 4b be fe 56 14 3c bc 25 26 3d c5 59 eb 3d
       -0.1989058 0.009053944 0.04056333 0.114917316
000080 0c 27 16 be a7 9a a9 3d 3e 8f 40 be 7d 3f d3 3c
       -0.14663333 0.08281451 -0.18804643 0.02578711
000090 e9 81 16 3c 56 4d fa 3d 5d da c7 3d a3 2d 30 3d
       0.009186246 0.12221782 0.09758446 0.043012273
0000a0 85 9f 9b bc b5 ca 83 bd 4a cd fd 3d f6 83 d8 3c
       -0.018996963 -0.06435148 0.123926714 0.026430111
0000b0 08 5a 95 3d 07 fe f1 bd f5 2d cb 3d d0 6a e7 3d
       0.07292563 -0.1181603 0.09920875 0.1129967
0000c0 94 5f 0a 3d 03 4f bb 3d 34 24 11 be 2a 0c 9c 3d
       0.033782557 0.0914593 -0.14173967 0.076195076
0000d0 2f c4 63 3d c0 4f e6 3d b9 98 37 3e fe bc 1d be
       0.055607017 0.1124568 0.17929353 -0.15404126
0000e0 80 6c 70 3d 91 bb f3 bd f2 68 a7 3d 25 fc 84 3d
       0.058697224 -0.1190101 0.081743136 0.06493405
0000f0 90 ba 9b 3b 43 ab 5b bd 9c 95 2a be 73 48 ac 3c
       0.0047524646 -0.053630125 -0.16658634 0.02103064
000100 03 bf a0 3d 07 1e e4 bd e0 9a 11 be e4 dc 35 bd
       0.078489326 -0.1113854 -0.14219236 -0.04440011
000110 0f 09 bd bd 0d 07 ab bd 21 05 5b bd ed 6e fb 3d
       -0.092302434 -0.08350954 -0.05347169 0.12277017
000120 46 c1 a6 bd e5 71 63 3c 7c 6d 65 be 56 c3 8b 3d
       -0.08142333 0.013882135 -0.22405046 0.06824367
000130 a4 d7 88 bd 7c fd 77 ba 13 39 d7 bd b0 b4 04 bd
       -0.06681755 -0.00094600744 -0.10508933 -0.03239888
000140 7f 30 1b 3d 5f 96 19 bd 30 89 39 3d fd 6c 83 3d
       0.037888046 -0.03749692 0.045296848 0.06417272
000150 f0 49 e6 3b a8 fd 25 bd 94 ec 87 3b 5e 16 07 3e
       0.007027857 -0.04052511 0.0041480754 0.13192126
000160 55 6b 97 bd 69 7a 8f bd 22 37 b4 bc b6 95 78 be
       -0.07393519 -0.0700577 -0.021998946 -0.2427586
000170 73 2a 89 be a2 2b 9e bd 65 75 b8 3c bb dd 56 3e
       -0.267902 -0.07723166 0.022516916 0.20983021
000180 6d b9 f7 bc 47 b7 21 bd e6 c2 27 bd dc 8e f7 bc
       -0.030239785 -0.039481428 -0.040957354 -0.030219488
000190 20 2e 9a bd 2b dd b0 3d 1a 54 26 3d 04 1d 3b be
       -0.07528329 0.086359344 0.04060755 -0.18272787
0001a0 a3 33 a5 bd 1c 9c f2 3d 5a e6 ef 3c 7a 9d 3b 3d
       -0.080664895 0.11846182 0.029284645 0.04580448
0001b0 b7 fd ce bd 65 c9 0c be ab 8a c0 bd 5f eb b1 3d
       -0.10106986 -0.13748701 -0.09401449 0.086874716
0001c0 c0 1c ba bd 9f af 8a bd 45 2c d3 bd 38 b7 2f be
       -0.09087515 -0.06771778 -0.10311178 -0.17159736
0001d0 9f bf de bd 9f d9 84 bc c6 85 31 3c 95 2d 51 bb
       -0.108763926 -0.016217051 0.010835117 -0.0031918038
0001e0 d5 7c fd bd 40 84 e5 3b 1b 35 97 bd 27 76 b5 3d
       -0.123773254 0.007004291 -0.07383176 0.088604264
0001f0 b9 be 11 be b0 9a 14 3c a0 cf ec 3d b2 1b 0c 3e
       -0.14232911 0.0090700835 0.11563039 0.1368244
000200 47 d1 c6 bc 10 74 bd 3b a8 25 23 3d 5a f7 72 3d
       -0.024269713 0.005781658 0.039830834 0.059317924
000210 0f bb 90 3c c0 d1 09 3c a6 38 ba 3d fb da 8c bc
       0.017667321 0.008411825 0.09092836 -0.017194262
000220 95 4b 43 be 5e 80 c4 3d 3d 9a 33 3e af 32 f0 bc
       -0.19071801 0.095947966 0.17539306 -0.029321043
000230 34 57 4b 3d 24 db 4c bd 1f 5b da 3c 1b 44 1a be
       0.04964371 -0.050013676 0.026654778 -0.15065043
000240 e4 50 5c 3d ec 6d fa 3d 43 09 ad 3d 45 27 0a 3e
       0.05378808 0.12227997 0.08449032 0.13491543
000250 06 00 ac 3d 77 53 11 bd 94 81 61 3e 91 43 01 be
       0.08398442 -0.03547999 0.22022086 -0.12623431
000260 ce 99 83 bc 90 85 c0 3c c3 39 5a bd a2 c7 07 be
       -0.01606455 0.023501188 -0.053277742 -0.13259748
000270 c5 e9 ec bd 92 7f 5e bd 90 bb a0 bd ce 40 98 3d
       -0.115680255 -0.05432088 -0.07848275 0.074342355
000280 5e ba 8f 3c cb 83 4c bd ba 97 e4 bc 0b 03 5a 3d
       0.017544921 -0.049930375 -0.02790438 0.05322556
000290 98 51 1d 3e c3 98 77 bd 7d 48 5f bd 59 09 87 3d
       0.15363157 -0.06044842 -0.05451249 0.0659358
0002a0 82 2a 86 39 48 54 ff bb 9a fe a3 3c 11 30 23 3e
       0.00025590142 -0.0077920295 0.020018864 0.15936305
0002b0 33 37 c4 3b 18 6d 97 3d 37 11 9b bd 5c 34 ac 3d
       0.0059880256 0.07393855 -0.07571643 0.08408424
0002c0 04 4e 57 3d 7e 79 cc bd 20 97 ae bc 5a ae 13 be
       0.052564636 -0.0998411 -0.021312296 -0.14421979
0002d0 51 fb b8 bd 91 65 78 bb 88 8e aa 3d f2 3a d6 b9
       -0.0903231 -0.0037902335 0.08327967 -0.00040861178
0002e0 aa 92 ca bd 8b a0 1d bd 4f 86 2e bd f9 e2 79 3b
       -0.09891255 -0.038483184 -0.042608555 0.003812967
0002f0 e3 31 cf 3c 69 5a 04 3e 6b 74 a4 bb 69 ad cb 3c
       0.025292343 0.12925114 -0.005018761 0.024862962
000300 92 88 09 bd 32 e3 b8 3d fe 4d 5d 3d ad 41 4e 3e
       -0.03357751 0.09027709 0.054029457 0.20142241
000310 9c 50 0c be cc 54 56 bc c3 aa 45 bd d6 35 58 be
       -0.13702625 -0.013081741 -0.048258554 -0.21114287
000320 3b 52 d7 bd 2d 2f 22 be ad e6 91 3c f0 5a fa bd
       -0.10513731 -0.15838309 0.01781019 -0.12224376
000330 4a 84 34 3d 05 21 7a bd 50 d6 20 bc d8 67 07 bd
       0.044071473 -0.061066646 -0.009816721 -0.033058017
000340 15 7f 79 bd 41 f5 25 3d 3c ea 01 be 18 64 ec 3b
       -0.06091221 0.040517095 -0.1268701 0.0072140805
000350 cb 86 28 bc 6f c3 90 3c 80 a3 82 3d ce be 06 bd
       -0.010286043 0.017671315 0.063788414 -0.03289681
000360 12 be 22 be 10 e6 f6 bc 09 21 0e bd 41 f5 c4 bd
       -0.15892819 -0.030139 -0.034699474 -0.09617091
000370 d8 31 ac bd 77 0e 02 be 8b f4 4b bc 6d 8d 6c bd
       -0.084079444 -0.1270083 -0.01244844 -0.05775206
000380 80 e4 ba bd 15 ae a9 3d b2 d8 75 be b8 31 f3 3c
       -0.09125614 0.08285157 -0.24008444 0.029686794
000390 a1 32 be bd dc 6b 52 3d af eb 5b 3d 2b 90 53 bd
       -0.092870004 0.051372394 0.053691562 -0.05165116
0003a0 1e fb ce 3d 96 36 54 bc da b3 3d 3e 76 3c e9 bd
       0.101064906 -0.012952467 0.18525639 -0.11388485
0003b0 5e f8 0e bc 25 33 9d bd f5 7d e5 bd 78 3d 71 3d
       -0.008726208 -0.07675771 -0.11205665 0.05889651
0003c0 5e 36 ab bd 8e 7d 8b 3d bd bf 9a 3d f6 15 ec bd
       -0.08359979 0.06811057 0.075561024 -0.11527626
0003d0 d0 d9 27 bd 4f 9a 34 3c c6 4f ae bd 10 d1 e6 3d
       -0.040979207 0.011023118 -0.08511309 0.11270344
0003e0 a3 93 83 bd 85 8c c5 3d 71 78 31 bd 78 09 e9 bd
       -0.06424644 0.096459426 -0.043327753 -0.11378759
0003f0 3c 1e c5 bd 08 68 33 bd ed 5a fb 3a 3c d1 31 bc
       -0.096249074 -0.043800384 0.0019176878 -0.010853108

network_body._body_endoder.seq_layers.2.bias f4 [128]
000000 6e e1 ce 3c 4b 0c 8a b9 1b b0 2c 3d b3 e6 8e 3b
       0.025253978 -0.0002633057 0.042160135 0.0043609976
000010 b6 dd a5 bb 9d 0a e0 3b 03 d8 b8 3d 35 23 37 3d
       -0.0050618304 0.0068372027 0.09025576 0.04471131
000020 27 bf 32 bd 74 38 6d 3b 78 55 16 bc 46 a0 00 bc
       -0.04363933 0.0036196979 -0.009175651 -0.007850712
000030 61 1b f3 3c 04 66 56 3d 11 8f 0b 3c 2c ac b0 bc
       0.029676141 0.052343383 0.008517996 -0.021566473
000040 6d d9 79 3b a0 bf 09 bd e1 31 93 3c 59 76 69 3a
       0.003812398 -0.033630013 0.01796812 0.000890588
000050 40 ce 68 3b ac e7 8d bb a5 ed dd 3c e0 c4 98 3c
       0.0035523325 -0.004330596 0.027090857 0.018648565
000060 76 aa 1b 3d 43 27 0b bd 04 78 2e 3d 12 34 7b bc
       0.03800436 -0.03397299 0.042594925 -0.015332239
000070 6e c6 2b 3d fc b6 8a bc d8 af 08 3d fd 0f cf 3c
       0.041937284 -0.016932957 0.033370823 0.025276178
000080 b0 6a d4 bb f6 48 b4 3c 5d d1 4a 3c 12 ed a4 bc
       -0.0064824447 0.022007447 0.012379018 -0.020132575
000090 2c 5f ec bb 13 d8 21 bd 0f ef 71 3b 74 b3 88 3c
       -0.007213494 -0.039512705 0.0036916172 0.016687132
0000a0 3c db f6 bc d4 1a 48 bc 0d e4 36 bb a0 b2 97 3d
       -0.030133836 -0.012213428 -0.0027906925 0.07407117
0000b0 ae 80 3e 3d f0 f1 65 bc 58 10 6e 3b 0b 11 10 bc
       0.046509437 -0.014034733 0.003632566 -0.008793126
0000c0 a0 11 1d 3d 8b 38 b4 bc e4 e3 d4 3b bc 29 0e bd
       0.038346887 -0.021999618 0.0064968932 -0.03470777
0000d0 ca b3 6b bd ca 14 0b bd 31 77 77 3c 6e a1 48 bc
       -0.057544507 -0.033955373 0.015104101 -0.012245519
0000e0 58 46 18 3d 13 16 e6 bc b8 2f 7b bc 6e 8d b2 3b
       0.03717646 -0.028086698 -0.015331201 0.0054489886
0000f0 26 3f 80 bb 5f c1 cd bb a0 cc b0 39 56 8c 2a bc
       -0.003913778 -0.006279155 0.00033721793 -0.010409435
000100 b8 cf 3d 3d 03 2f 68 bc 9b 60 24 3d f8 2a 2a bb
       0.046340674 -0.014171365 0.040131193 -0.0025965553
000110 a9 f7 3f 3b ab d9 3c bc b3 7b a1 3c d9 c1 a3 3c
       0.0029291904 -0.011526505 0.019712305 0.019989895
000120 bb 93 94 bb 21 28 49 3d df cc c1 3c 0f 1c b7 bb
       -0.0045342124 0.049110536 0.02365726 -0.0055880616
000130 ad 19 4c 39 91 88 c6 bc 27 28 12 bc ea 52 db bc
       0.00019464521 -0.024235042 -0.008920706 -0.026772935
000140 4d af 1e ba df 65 ca bc c0 88 4f 3b 3f 45 ed 3b
       -0.00060533435 -0.024706779 0.0031667203 0.007240921
000150 a5 b8 01 bc ce 63 b5 3b 0e 1b 87 3d 6b 54 80 bb
       -0.007917558 0.0055355793 0.06596957 -0.0039163134
000160 59 70 a1 bc b5 37 7e 3d 75 6e 53 bb aa 9a 10 bd
       -0.019706892 0.062064845 -0.0032261882 -0.03530375
000170 87 a1 51 3c f8 cb d7 bb 6a 0e 05 3d 4f b8 b7 3c
       0.012794859 -0.0065855943 0.03248445 0.022426752
000180 fa 6b 7b bc 09 ff 89 bc 16 fe 05 3c 8b 9c ce bc
       -0.015345568 -0.016845243 0.008178255 -0.02522113
000190 41 4c 85 bc 6c f2 fa bc ce 06 8d ba 3d 36 cb 3b
       -0.016271712 -0.030633174 -0.0010759474 0.006201534
0001a0 e3 77 3c 3d 79 31 2d 3d e9 e5 08 bd 15 c2 8e bb
       0.04601277 0.04228351 -0.033422384 -0.0043566325
0001b0 a5 90 6f bb 2c ed 64 39 5c 6e aa 3b 6a 98 3a 3d
       -0.003655472 0.00021832128 0.005201144 0.04555551
0001c0 7d 73 97 bb 14 6d 17 bb 2c a4 2c 3c f4 a7 2c 3d
       -0.0046219216 -0.0023105787 0.0105371885 0.04215236
0001d0 23 17 5e 3c e2 b5 b0 3c bb 94 ec 3b 53 54 16 3c
       0.013555321 0.021571103 0.0072198785 0.009175378
0001e0 09 2e 03 bd d7 6a e2 3c f8 46 11 bd 54 cc 82 bd
       -0.032026324 0.027638836 -0.03546807 -0.06386629
0001f0 24 dc c6 3c 8e b7 fe bc a9 ad c6 39 18 0e 3a bc
       0.024274893 -0.031093385 0.0003789489 -0.011355899

action_model._continuous_distribution.log_sigma f4 [1, 2]
000000 89 f4 32 be ed 96 2c be
       -0.17476095 -0.16854449

action_model._continuous_distribution.mu.weight f4 [2, 128]
000000 1c d8 11 bc 48 77 9e bc b2 ad 36 bb 69 4a 8a 3d
       -0.008901622 -0.019343987 -0.0027874527 0.06752474
000010 d0 a2 3e bc 4c 4d dd 3b 66 6b 04 3e f5 53 20 bc
       -0.011635497 0.0067535993 0.12931594 -0.009785642
000020 7a de d8 39 96 85 cc 3c 61 bf aa 3c ba c0 c1 3c
       0.00041364488 0.024966042 0.02084321 0.02365147
000030 c0 2a 92 bd 5d 09 d1 3d 71 e9 15 bd 74 50 14 bc
       -0.0713706 0.10206864 -0.03659958 -0.009052385
000040 75 06 ba 3b 1b 85 a9 3c 56 87 79 3d ab 16 73 bc
       0.0056770393 0.020693352 0.060920082 -0.014836947
000050 69 98 e6 3c 53 92 cc 3c 11 69 ac bc e1 19 96 bb
       0.028148847 0.024972117 -0.021046193 -0.0045807217
000060 00 ea 8f 3c a5 69 ea ba 52 a1 e0 bd 7c 04 ca bb
       0.017567635 -0.0017884268 -0.109682694 -0.0061650854
000070 73 cc 86 bd ae e9 2b bc 0b fc b4 bc 3f 62 58 bd
       -0.06581964 -0.010492725 -0.02209284 -0.05282807
000080 7e fe 1d 3a f8 1d 14 bc 60 de 2d bd 22 65 d1 ba
       0.0006026997 -0.009040348 -0.0424484 -0.0015975574
000090 65 df 8f 3a 21 be 8c 3b b3 da 97 bc cd cf 1c 3d
       0.0010976611 0.004295126 -0.018536901 0.03828411
0000a0 ab 41 4c bc 6d 7f 5a bc 2e 8e 4a 3d ae 1f 01 be
       -0.012466828 -0.013336045 0.049452 -0.12609741
0000b0 9c df f2 bd 67 ed b9 3c 01 99 23 bd e2 9e c1 bc
       -0.11859056 0.02269621 -0.039940838 -0.023635332
0000c0 92 fb 2f bd 79 17 1e bc dc b3 85 bc d7 3a af bb
       -0.042964526 -0.009649151 -0.016321115 -0.0053475904
0000d0 fa 48 a9 3b 44 61 90 3c 13 5d 49 bc cb 0b 73 bc
       0.00516617 0.017624505 -0.012290257 -0.014834355
0000e0 49 3b 9a bd 09 c6 17 3c ea 6b 83 bb 7e 7e f5 bc
       -0.07530839 0.009263524 -0.004010667 -0.029967543
0000f0 15 20 99 3c 51 ec 96 bc 69 83 6c bc 2a e5 c8 bb
       0.018692056 -0.018423231 -0.0144356275 -0.006130834
000100 48 35 69 bd 91 57 58 bc 3d ea 48 bd 80 76 56 3c
       -0.05693558 -0.013204471 -0.049051512 0.013089776
000110 39 ec 83 3d cb ec 6d bc da b5 56 3a ff cd 25 bd
       0.0644154 -0.014521788 0.000819055 -0.040479656
000120 9c 3a 6a 3d ec 85 a3 bd 6d 6c 91 bd 2e 24 d7 bb
       0.0571848 -0.07984528 -0.07100759 -0.0065655923
000130 81 58 fb 3c 2f e9 3a 3c de ca eb 3c e8 07 bf 3c
       0.03068185 0.011408134 0.028783258 0.0233192
000140 a9 2d 10 b8 0f dd 31 bc 57 79 ff bc e2 c6 4e bd
       -3.43748e-05 -0.010855927 -0.031185789 -0.05048264
000150 e4 b6 08 3c 43 38 cf 3c a5 16 c4 bd a0 04 01 3d
       0.008344386 0.025295382 -0.095746316 0.03149855
000160 b7 05 0e 3d 6f bd a8 bd b9 e5 e7 bc c4 2c 51 bc
       0.03467342 -0.082392566 -0.028307782 -0.012767021
000170 8f b6 69 3c 02 f1 81 3b 34 46 10 bd 36 f4 51 bd
       0.014264717 0.003965498 -0.0352232 -0.05125829
000180 36 ea 6e 3c 2e 04 da 3c 07 d0 b9 3d 32 94 a0 bb
       0.014582207 0.026613321 0.09072881 -0.0049004788
000190 17 34 5d bb 42 d0 93 3c 08 2a ce bc 12 58 85 3d
       -0.0033752972 0.018043641 -0.025166526 0.06510939
0001a0 73 51 28 bd 3e ee 40 bd 45 a9 c1 bb db 5b f4 3c
       -0.0410933 -0.047102205 -0.005910071 0.029828956
0001b0 85 67 bf 3c 5c 55 90 bc 61 1d 7f bc c3 ae 9d 3d
       0.023364792 -0.017618828 -0.015570969 0.07699349
0001c0 06 96 0c bb 65 7d b6 3c 54 19 b4 3c 87 58 cf 3c
       -0.0021451726 0.02227659 0.021984734 0.025310768
0001d0 dc a5 c8 3a 63 54 87 39 1a 1b a2 bc be 07 be 3a
       0.0015308219 0.0002581208 -0.019788314 0.0014498157
0001e0 40 ed 88 3c 4c 5f 9a bd b3 cf e5 ba 22 e5 11 3c
       0.016714692 -0.07537708 -0.0017533213 0.008904727
0001f0 80 6f 5c 3d 07 68 15 39 9c e2 4b bd ac f2 7d bd
       0.053817272 0.000142485 -0.04977666 -0.061999008
000200 3a f4 48 3d cb fe 0d 3d 31 58 90 3d 13 ae 6b 3c
       0.049061038 0.034666818 0.07048071 0.014384764
000210 48 c7 8c bc 6f 6f 71 3d 0d 0f ae 3d c5 62 a8 3d
       -0.017184868 0.058944162 0.084989645 0.08221964
000220 82 76 ff 3b c6 12 47 bd cb d2 55 3c ca c7 3b bd
       0.0077961097 -0.048601888 0.013050745 -0.04584483
000230 bb 35 d0 3b b9 d3 7b 3d 9a 8e dc bb 2b 4e a1 3c
       0.0063540614 0.06148121 -0.0067308666 0.019690594
000240 64 ec 7e 3d 7f b3 f7 ba 42 9d 1e bc 31 97 c4 3b
       0.06223716 -0.0018898098 -0.009681048 0.0059994687
000250 56 6c 1c bb 45 8e 65 bc 2b f0 b8 bd 22 d6 a4 bd
       -0.0023868284 -0.0140109705 -0.090301834 -0.08048655
000260 c0 56 bc 3d fe 4c aa 3b e6 05 0e bd 07 f9 12 3c
       0.09196234 0.0051971665 -0.034673594 0.008970506
000270 09 09 b5 3c 0e cc 04 bb fe 17 9c 3d 4c 77 11 3d
       0.022099035 -0.0020263228 0.07621764 0.03551416
000280 47 44 f0 bc 51 2f 99 bd 88 07 13 bc c9 6e 19 bc
       -0.029329432 -0.07479728 -0.008973964 -0.009364792
000290 23 00 3d 3d bd 44 76 ba ac d8 d3 bb fb 41 de bc
       0.04614271 -0.0009394398 -0.0064650383 -0.027131071
0002a0 5b fa 23 3b 13 2e 3a 3c 48 6c a7 bb 73 43 e2 3c
       0.002502105 0.011363524 -0.0051093437 0.027620053
0002b0 fb a4 d1 bc ac 2b ee bc b9 b8 20 3d 78 72 34 3b
       -0.025591364 -0.029073559 0.039238665 0.002753405
0002c0 ef fe 65 bd f5 a6 f1 ba 39 5a 4b 3b 70 ff 9f 3b
       -0.056151327 -0.0018436598 0.0031029119 0.0048827454
0002d0 63 a4 02 bc a0 05 e8 3b 2a 92 af 3d 95 82 00 3b
       -0.007973763 0.0070807487 0.085728005 0.0019609083
0002e0 36 0d fb 3a f9 1f c8 3a a8 8b 30 bb 49 26 d5 3c
       0.0019153717 0.0015268318 -0.002693871 0.026019232
0002f0 22 7c 0b bd e6 17 c6 bb 78 e9 fc 3c 58 dd 76 3c
       -0.03405393 -0.0060453294 0.030873045 0.015067421
000300 40 e0 90 bd 2f 3a 52 3b 60 d3 60 3c 6a 76 77 3c
       -0.07074022 0.0032078137 0.013722271 0.015103916
000310 40 2e 20 bd f3 8e 14 bc aa 94 97 3d e0 2f c7 3c
       -0.039106607 -0.009067285 0.07401402 0.02431482
000320 16 e0 dd 3c 0c 8f 5a bd 62 3e 60 3a 17 c5 64 ba
       0.027084392 -0.053359076 0.00085542176 -0.00087268784
000330 4a bf ec bc 50 b6 86 bc 13 fd 49 3d 05 6c 35 3c
       -0.028899807 -0.016444355 0.049313616 0.011073117
000340 30 ba cf 3c ea e3 7e bb 8b 9e 84 3c 33 01 20 3d
       0.025357336 -0.0038893172 0.01618888 0.039063644
000350 a3 6d 6b bc 2a 99 ff bc c2 8f 81 3b 0e 56 1a 3d
       -0.014369401 -0.031200964 0.003953905 0.037679724
000360 e6 da 26 3c 3a 3e d7 bb 46 c8 b8 bc f3 be b0 bb
       0.010184025 -0.0065686973 -0.022556435 -0.0053938567
000370 ca c8 80 bd d6 41 70 3c db 6d 0f bd 52 3e 81 bd
       -0.062882975 0.014664134 -0.035016876 -0.06310715
000380 08 41 b1 3c 6b e6 87 3c d9 6c 02 3d df 4d 44 bc
       0.021637455 0.016589364 0.031842086 -0.011981457
000390 6c d3 f4 3b ff d5 fe b9 3e a8 80 3c ed b0 80 bc
       0.0074714925 -0.00048606095 0.015705224 -0.015709365
0003a0 53 43 a4 3d 30 e2 89 bd 3b 11 a1 3c 12 05 5c ba
       0.080206536 -0.06732595 0.019661536 -0.00083930895
0003b0 3f ff b1 bc 6e ed 20 3d 40 07 32 bd 0d 75 9b 3c
       -0.021728156 0.03928893 -0.043463945 0.018976713
0003c0 91 47 86 3a 50 a4 f4 bc 9e b4 06 bd ce b7 81 3d
       0.0010244717 -0.029863507 -0.032887094 0.06333886
0003d0 51 ac 31 3d 46 9a 91 3d c8 92 81 3d 5a f4 1a bd
       0.043377224 0.071095034 0.063268244 -0.037830688
0003e0 66 0e 2c 3c 27 5b a6 3b 03 ce 0f 3c fe 2a b6 3a
       0.01050148 0.005076784 0.008777144 0.0013898311
0003f0 0a 70 c7 bd b1 34 4a 3b 64 51 3a bc 81 25 ef 3c
       -0.09738167 0.003085416 -0.011371944 0.029192688

action_model._continuous_distribution.mu.bias f4 [2]
000000 56 d3 d9 bb cb ae af bb
       -0.0066475077 -0.005361413

onnx::Div_51 f4 [8]
000000 52 73 42 3d eb 37 3b 3d 56 62 12 3f a0 25 33 3e
       0.04747326 0.045707624 0.571813 0.17494822
000010 48 e4 1c 3f ef 0c ea 3e 70 12 16 3f c3 f8 e7 3e
       0.6128583 0.45712993 0.58621883 0.45306978
