Project/Assets/ML-Agents/Examples/DungeonEscape/TFModels/DungeonEscape.onnx (onnx, 653744 bytes, 6 tensors)

action_model._discrete_distribution.branches.0.bias f4 [7]
000000 3a f9 d5 3b 23 75 aa bb 0e 96 90 bb 0c 65 ac 3c
       0.0065299543 -0.005201952 -0.004412419 0.021044277
000010 ad 62 3c 3c dc 70 55 3c d4 65 41 bc
       0.0114981355 0.013027396 -0.011804063

action_model._discrete_distribution.branches.0.weight f4 [7, 256]
000000 5e 23 4c bd 23 51 42 bd 4c 44 79 bd 3b 9a 0e bd
       -0.049838416 -0.04744066 -0.06085615 -0.034815054
000010 09 93 24 3c 55 63 01 3d a7 91 97 3c c9 fe a5 3b
       0.010044822 0.03158887 0.01850207 0.005065773
000020 58 5b fa 3c 9f 6b 08 be 24 f7 78 bc 04 e9 12 bd
       0.030561134 -0.13322304 -0.015195642 -0.035866752
000030 67 f5 ad bd 78 ee df bd 35 d5 15 bd 6d 03 55 be
       -0.084940724 -0.10934156 -0.036580283 -0.20802088
000040 72 e8 76 3d fd 1b 07 bd 27 02 80 bd 1b 96 65 bc
       0.06028027 -0.032985676 -0.062504105 -0.014012839
000050 dc c2 a9 bd cf 4f 18 bd ea e5 44 bd 46 21 06 3d
       -0.082891196 -0.037185486 -0.048070826 0.032746576
000060 7f 92 63 3c ef 30 77 bd a8 23 8f bd 23 3a c6 3c
       0.013889908 -0.0603494 -0.06989223 0.024197644
000070 12 75 e1 3d 3d f8 d4 bc 6a 6b e9 3c 2d 0d da 3d
       0.110086575 -0.025997275 0.028493602 0.10647044
000080 5a ac e9 3c 4c 16 45 3b 07 0d f5 3d 14 7a 4b 3d
       0.028524566 0.0030073104 0.119653754 0.04967697
000090 68 ec a9 bd 86 af 81 3d 2b 4c 3f bd 84 f7 1f bd
       -0.08297044 0.063323066 -0.0467035 -0.03905441
0000a0 4a ec f3 3a 06 05 21 bd 1c 25 0b 3d 3d d0 80 3d
       0.0018609848 -0.03931143 0.033970937 0.06289718
0000b0 44 de d7 3c 22 8a 13 3d 91 c6 b2 3a 7a c2 49 3d
       0.026351102 0.036020406 0.00136395 0.049257733
0000c0 1f 71 52 3c ee 1c 47 3d 0a 6b 96 3c 23 bd 90 bc
       0.012844353 0.048611574 0.018361587 -0.017668312
0000d0 5a 1a 28 3d b0 62 0b bd 4e 37 92 bd 1f 4a dd bd
       0.041040756 -0.034029663 -0.07139455 -0.10805153
0000e0 6c ae 9f bd 70 d1 40 3d ac a5 09 be 9b 11 d8 3c
       -0.0779694 0.047074735 -0.13442105 0.026375582
0000f0 40 fb 08 3d 31 ce c9 3c fc d7 a0 bd 67 16 32 3c
       0.033442736 0.024634453 -0.07853696 0.010869599
000100 01 d4 99 bd 40 09 e1 3d 94 73 81 bd 35 f3 10 bc
       -0.0751114 0.109880924 -0.06320873 -0.008847048
000110 31 3c f5 3c c6 ea f5 bc 91 24 04 bd 4e f9 35 bd
       0.029935928 -0.030019175 -0.032261435 -0.04442721
000120 41 3a fe 3c 10 92 8d bd 87 6b 9b bd a5 ea 68 bd
       0.031033637 -0.06912625 -0.075888686 -0.0568644
000130 ca a1 7f bd 1c 6f a0 bd 7a 4d 60 bd 99 af 40 3c
       -0.062410153 -0.078336924 -0.054761387 0.011760616
000140 6d 7d b1 bd 99 4d 10 be 1e fc 90 bd 5f a9 25 bd
       -0.08666501 -0.14092101 -0.070793375 -0.040444728
000150 50 e9 18 bd de 5f b5 bc 26 c0 76 bd 29 e9 92 bd
       -0.03733188 -0.02214044 -0.06024184 -0.07173378
000160 4b 74 a2 bc 93 bd 80 bc 75 6b 59 bd 1c 5c 63 bd
       -0.019830843 -0.015715396 -0.053080995 -0.055507764
000170 ce 37 a1 bd 1a ee 4a bd 9c 10 01 3c 4b ae 44 bd
       -0.07871972 -0.049543478 0.007877495 -0.04801778
000180 2d 81 66 3c f1 9b 7d bd 65 b7 e2 bd 48 5d d4 3c
       0.014068884 -0.061916295 -0.11070136 0.025923386
000190 4c db 12 3c c8 57 21 bd 73 d5 27 3d f0 36 c7 bd
       0.008963417 -0.039390355 0.040975045 -0.09727275
0001a0 a7 14 63 3d 52 bc a7 3c b5 cf fd bc bc 1e 8e bb
       0.055439617 0.02047554 -0.030982831 -0.00433716
0001b0 27 b5 10 bd 81 57 c7 3c 5d a4 78 3d 72 53 59 bc
       -0.03532901 0.024333717 0.060703624 -0.013264524
0001c0 87 a0 c8 bd d6 9e b3 3d 77 9b 60 3c f2 7c fb bc
       -0.09796243 0.0877053 0.013708941 -0.030699227
0001d0 09 3f f9 bb 66 6c 48 3c 4f ee 6d bd d0 3c 6a 3d
       -0.0076063913 0.012232875 -0.058088597 0.0571869
0001e0 56 14 85 3d 3c 15 5b bd c7 14 44 bc 4b de af bd
       0.064980194 -0.053487048 -0.011967844 -0.08587321
0001f0 48 02 be bd 48 36 29 3e c9 9f b9 bc 8a 57 17 3c
       -0.09277779 0.16524613 -0.0226592 0.0092371795
000200 d5 59 95 bd d2 73 df bc b5 e5 ce bd fd 20 24 bd
       -0.07292525 -0.027276907 -0.10102407 -0.040070523
000210 29 44 14 bd b5 02 a2 3d 49 3f bc bc f4 1c 20 3d
       -0.036197815 0.079106726 -0.022979395 0.03909011
000220 b2 0e d2 bd 21 c8 4b bd e1 a3 a5 3d 21 ba e1 bc
       -0.10256709 -0.049751405 0.08087898 -0.027554573
000230 06 58 86 3d e6 20 4e bd 28 0c 9b bd d3 4f db bc
       0.06559758 -0.050324343 -0.07570678 -0.026771462
000240 e6 44 bf bb 33 50 e8 3b ee 84 d1 bc 13 9d a5 bc
       -0.0058370708 0.0070896386 -0.025576081 -0.0202165
000250 8d ba c2 bb 9f 4e b7 bd d4 c2 39 bc f6 8b 16 bd
       -0.0059426487 -0.08950543 -0.011337955 -0.03675457
000260 72 83 9c bd bc 6b dc bc f0 94 ce bd b7 1c 46 3d
       -0.07642259 -0.02690684 -0.10087001 0.04836723
000270 66 90 36 39 e2 58 ea bd a6 33 06 bd 91 c4 fe bc
       0.00017410665 -0.11442734 -0.0327641 -0.03109959
000280 bc 26 a4 bd eb 75 bf 3c 88 2c d2 bd 35 0f 48 bc
       -0.080152005 0.023371657 -0.102624 -0.012210657
000290 9d b7 9e bb eb 4b af bd 7f 44 89 bd 4e 22 0c bd
       -0.0048436658 -0.08559402 -0.06702518 -0.034212403
0002a0 4a de 87 bd e7 d4 48 3c 47 ed 82 bd 44 70 d3 39
       -0.06634195 0.012257791 -0.06392913 0.000403287
0002b0 53 8f 3c 3c 7a 17 8b bc de 35 b7 bd 3b 0e 18 bd
       0.0115087805 -0.016978968 -0.08945821 -0.037122946
0002c0 22 d8 d4 bc 3c 4e 9d bd d5 7b 83 bd a2 9f a1 bd
       -0.025981966 -0.07680938 -0.064201035 -0.07891776
0002d0 36 12 2b bc a3 c2 94 bc 65 69 70 3d 42 94 d0 bc
       -0.010441354 -0.018159216 0.058694262 -0.02546132
0002e0 e3 3c 7e 3d db 8d e0 bd b6 31 86 bd c0 cf 22 bd
       0.062069785 -0.10964557 -0.0655245 -0.039748907
0002f0 e5 e9 a0 bd 82 dc e9 3c 1e a1 ca 3d 82 08 8a bc
       -0.07857112 0.02854753 0.09894012 -0.01684976
000300 c0 cc 60 3c 0b 76 10 3d 84 f0 bc bb 57 11 f1 3c
       0.013720691 0.035268825 -0.0057659764 0.029427214
000310 17 3b 26 bd 7c fa 96 bd 07 e4 d3 3c aa db 54 3d
       -0.040583696 -0.07371995 0.025865568 0.0519673
000320 ab 86 c6 bc 39 b0 85 3c 69 29 16 be 9d 6c b7 3c
       -0.024234137 0.016319381 -0.14664234 0.022390658
000330 e9 d3 ae 3c f2 ef 86 bd e8 99 1f bd d6 d6 64 3d
       0.021341281 -0.06588735 -0.038965136 0.055868946
000340 cd 30 cf bd 10 4d e3 bd d9 f3 13 3e 9c 3c 37 3d
       -0.1011673 -0.11098683 0.14448489 0.044735536
000350 40 a3 a9 bd b6 6c 49 bc c7 31 03 be a5 10 4b bd
       -0.082830906 -0.012293985 -0.12811957 -0.04957642
000360 53 eb 0b bd 74 3c 4f bb 2b 69 72 bd 7b c0 81 3d
       -0.03415997 -0.0031621726 -0.059182327 0.06335541
000370 d4 c6 3a bb ac 98 af bd d4 3c 58 bd ed e5 b8 3d
       -0.0028499858 -0.08574042 -0.052792385 0.0902823
000380 48 07 16 3d c7 07 65 bc 91 79 02 be 80 f7 8b bd
       0.036628038 -0.013978905 -0.12741686 -0.06834316
000390 52 bd 02 3d 7a cb 15 bd 86 b4 04 be 8e 70 2b 3d
       0.03191883 -0.036571003 -0.12959489 0.041855387
0003a0 51 af 92 3d 22 37 2e bd aa f9 73 3c 8f 72 c8 3d
       0.07162345 -0.042533047 0.0148910675 0.09787475
0003b0 76 f8 9d bd 38 01 77 bd 11 54 3e bd ce 6f 9b 3b
       -0.07713406 -0.060303897 -0.04646689 0.0047435528
0003c0 63 23 15 bd 38 bb e3 3c 90 66 e4 bb 56 1b bd bc
       -0.0364107 0.027799234 -0.006970234 -0.023084324
0003d0 c6 c9 ca bc 41 94 eb 3c b6 ca d5 bc a9 93 94 bd
       -0.024754416 0.028757216 -0.026097637 -0.072547264
0003e0 4d d0 f4 bb 37 00 b6 3d cb c2 59 3c c1 6d bc bd
       -0.0074711205 0.0888676 0.013291071 -0.092006214
0003f0 35 b3 c9 bd a8 48 13 bd 3d 4a 34 bb 68 91 33 3d
       -0.09848634 -0.035957962 -0.002751007 0.043839842

network_body.linear_encoder.seq_layers.0.bias f4 [256]
000000 4a 0a c6 bb dc 89 b1 bc 47 d1 86 3b 4a 83 1f bd
       -0.006043707 -0.021672182 0.0041143033 -0.038943566
000010 fa a8 83 3b 48 aa 0c bc af cf e7 3b cf 87 3e 3c
       0.0040179463 -0.00858552 0.0070743184 0.011629059
000020 81 fb 22 3c 00 b2 d6 3b 98 26 a0 bc ea a6 af bc
       0.0099476585 0.006551981 -0.019549653 -0.021441896
000030 a4 07 be ba 04 49 d8 b8 4b cd d8 3c a2 bf ff bb
       -0.0014498127 -0.00010313283 0.026465079 -0.007804827
000040 1c e4 bf bc 6e 7a 81 3a 20 9e 66 bc 2c 44 84 bc
       -0.0234242 0.0009878406 -0.014075786 -0.016145788
000050 43 9e cb bc a0 dc 90 3c 5c 8b 2c bb cd 73 4a bc
       -0.024855739 0.017683327 -0.0026328182 -0.012356711
000060 0a ad 52 3c 86 ee 2b ba cd 5c 51 bc f2 5e 2c bc
       0.012858639 -0.0006558675 -0.012778473 -0.010520684
000070 7d 2b dd bc 87 8f 05 bc d0 7d 9a bc 29 78 18 3d
       -0.026998276 -0.008151895 -0.01885882 0.03722397
000080 e3 a5 d3 3b 20 f1 62 ba 6c 17 d8 3c 0f a5 a8 bc
       0.006458984 -0.0008657146 0.026378356 -0.020586519
000090 3c 68 08 bd c7 7e eb bb 61 10 b4 bb da 14 9b 3b
       -0.03330253 -0.007186744 -0.0054951166 0.0047327103
0000a0 e1 75 bf 3c fe 2e 93 bc 29 92 5e bc d2 5b 13 3d
       0.023371639 -0.017966744 -0.013584652 0.03597624
0000b0 3b 7e 6a bd d4 1d b5 bb 8f 68 52 bd a4 1a 0a 3c
       -0.05724929 -0.0055272374 -0.051369246 0.008429203
0000c0 ab bf de bc 09 ab 29 bd f2 26 03 bd 1c 46 c6 bc
       -0.027191004 -0.041422877 -0.032019563 -0.024203353
0000d0 95 fb 8a 3b 02 6b 61 bd e3 a2 ac bc 8b 07 99 bc
       0.0042414167 -0.05503369 -0.021073764 -0.018680355
0000e0 90 b0 fa bc 12 e2 c7 ba 49 72 5b bc 12 e7 b6 3a
       -0.03060177 -0.0015249869 -0.013393947 0.0013954362
0000f0 fc d5 2e bd 20 83 7f 3c 81 f9 f4 bc 5c a5 e0 3b
       -0.04268454 0.0155952275 -0.029904129 0.00685565
000100 74 e3 6c bc 3a 3c 9f 3c 43 64 ab bc bc 46 6c 3b
       -0.014458526 0.019437898 -0.020921832 0.0036052903
000110 fa ae e6 bc 09 d6 25 bc 6b ee 37 bc e5 83 f4 bc
       -0.028159607 -0.010121831 -0.011226277 -0.029848048
000120 06 89 e6 bc 42 ff be bc e4 86 b0 3c d6 04 cc bc
       -0.02814151 -0.023315076 0.021548696 -0.02490465
000130 bb 31 44 3b cc 7c 92 bc 23 dc c7 3c ca 8a 19 3d
       0.0029936868 -0.017881773 0.024396962 0.037485875
000140 35 0d 0d bc 01 c9 69 bc e6 f3 28 bd 8e 86 64 3c
       -0.008609106 -0.0142691145 -0.041248225 0.013948096
000150 44 cc a5 bc c5 36 3d bc 50 58 73 bc 89 89 c1 3c
       -0.020239003 -0.011548703 -0.014852598 0.023625152
000160 53 c1 dd 3b 84 ba 9b bc 4c a3 14 bd d5 d5 1b bc
       0.006767431 -0.019009836 -0.036288545 -0.009511431
000170 ed 39 e7 bc 97 62 e9 3b 2d af e6 ba 08 18 c2 bb
       -0.028225863 0.0071223485 -0.0017599814 -0.005923275
000180 60 bc df bc 73 97 e9 bc b1 7e ee 3b 7c c9 66 3c
       -0.027311504 -0.0285146 0.0072782864 0.014086124
000190 20 25 bf 3c f8 a7 ba bc f2 5e 9e bc 8a 44 4a bd
       0.023333132 -0.022785172 -0.019332383 -0.04938177
0001a0 1a 87 36 bc 8c 64 16 3c 00 d9 07 bd 4d 9b 1a bc
       -0.011140609 0.009179246 -0.03316593 -0.009436441
0001b0 e6 fd d5 ba d4 48 b4 bc 5b dd 5d 3b ee 2e 0d 3c
       -0.0016326278 -0.022007383 0.0033853862 0.008617146
0001c0 d8 3c d8 3a 0c 39 19 3c f2 78 b7 3a 96 f4 b2 3c
       0.0016497625 0.00935198 0.0013997837 0.021845143
0001d0 c4 8b 70 bc 2e e4 84 3c 04 77 7e bb 6e 56 2c 3c
       -0.01468176 0.016222086 -0.0038828263 0.010518653
0001e0 a9 83 4a 3c 8e 19 96 3b 6b a0 9c 3c a8 ff 79 3c
       0.012360492 0.004580683 0.019119462 0.015258707
0001f0 dc 34 36 3c ad f6 47 3c f8 07 9c 3b 72 69 7e bc
       0.011121001 0.012204808 0.004761692 -0.01552807
000200 6c 1b 63 3c f1 e8 6c bc bc f9 2b 3c 3e 81 76 bb
       0.013861518 -0.014459834 0.010496553 -0.0037613655
000210 5c c3 85 bb b2 65 03 3c 29 55 1d 3b 40 76 58 bc
       -0.0040821265 0.0080198515 0.0024007058 -0.013211787
000220 66 e1 45 bc 5b 90 00 3b 2d b7 45 bd 50 a5 90 bc
       -0.012077665 0.0019617293 -0.048270393 -0.017656952
000230 be f6 b4 bb 35 6a 08 bc 2c fb 2b 3c c2 b3 ae 3b
       -0.005522578 -0.008326103 0.010496896 0.0053314874
000240 e9 35 ac 3b 5a cb 71 3b e8 ba 02 3c 68 47 e1 3c
       0.00525545 0.0036894889 0.007979132 0.02749987
000250 7d 99 ae bc 7f 9a 9c 3b b8 b0 05 3b c8 07 09 bc
       -0.021313423 0.0047791596 0.0020399522 -0.008363672
000260 7e 6b 56 bd 86 47 20 3c f1 fd f8 3b ce a6 03 3c
       -0.052348606 0.0097826775 0.0075986315 0.008035375
000270 e9 13 ee bc aa 18 4d 3c 04 26 f0 ba 2e 3a 70 3b
       -0.029062228 0.012518087 -0.0018321876 0.0036655772
000280 0a cf 59 bc 8c 6d f9 bb 5d f3 bc bc c2 e3 fe bc
       -0.013293991 -0.007611936 -0.023065263 -0.031114463
000290 bd 63 b4 bc 92 0a 7a bc 7b cf 17 bc 32 d5 ab bc
       -0.022020215 -0.015261309 -0.009265776 -0.020975683
0002a0 a9 8a 44 bc 51 1c 42 bb 0c 79 92 bc 26 41 81 bc
       -0.01199595 -0.0029618929 -0.017879985 -0.015778136
0002b0 5a 19 21 3d d7 bb 42 3d e3 c3 ec bc c3 7f 34 bc
       0.039330818 0.04754242 -0.028902 -0.011016789
0002c0 68 11 e5 bc 1d 21 8b bc 9e d8 66 bc 44 ad d8 3b
       -0.027962402 -0.016983563 -0.0140897315 0.0066124517
0002d0 6f 23 2a bc 2f f7 d6 ba 60 7a 85 bc 04 89 e4 bc
       -0.010384425 -0.0016400571 -0.016293705 -0.027897365
0002e0 80 fd 2f bc 17 d3 b8 bc 70 1b 93 bc 35 2e 2a bc
       -0.010741591 -0.022561593 -0.01795742 -0.010386993
0002f0 9c cd a8 bc 68 09 9c 3c 58 55 0a bd 40 4a ad bc
       -0.020605855 0.019047454 -0.033772796 -0.02115357
000300 ba e0 01 3c a5 d4 44 bc 8a f8 2a bd b7 ce ec bb
       0.007927114 -0.012013589 -0.04174093 -0.0072267908
000310 43 44 9d bc 4b 45 ba bb 6b 98 9c bc 18 62 26 bc
       -0.019197589 -0.00568453 -0.019115647 -0.010155223
000320 42 de d1 bb 24 b4 ff bc 34 ce b2 bc 7f 43 8a bc
       -0.006404669 -0.031213827 -0.021826841 -0.016877888
000330 ca 71 ae bc 4f a9 9a bb d4 84 b0 3c fb 8b 0f 3d
       -0.021294493 -0.00471989 0.021547712 0.035045605
000340 38 32 2e bc 9f 9a 6a 3c 12 24 d2 bc 88 85 00 bc
       -0.01063209 0.014319091 -0.025651965 -0.007844336
000350 99 86 9c bc 8f 80 87 3c db 6d 9b 3c 56 f0 bd bb
       -0.01910715 0.016540794 0.018973282 -0.0057964725
000360 52 91 93 bc 6a 1c 15 3c 58 5b bf 3b 35 df 06 bc
       -0.01801363 0.009101013 0.0058397464 -0.008231928
000370 a4 94 f0 bc d1 18 71 bb e0 1f 3e bc 6e f4 7f 3c
       -0.029367752 -0.0036788473 -0.011604279 0.015622241
000380 4a 10 ed bc 6f 60 e8 bc ab f0 ef bb 8d ed b3 bc
       -0.028938431 -0.028366296 -0.007322391 -0.021963859
000390 32 1f c1 bc 1e 94 fc b9 f7 9f 51 bc c6 86 62 bc
       -0.023574445 -0.0004817554 -0.012794486 -0.013826078
0003a0 b8 95 34 3b c2 f9 a6 38 b5 56 58 bc a5 48 90 bc
       0.002755506 7.962018e-05 -0.013204266 -0.017612765
0003b0 58 0b 06 bb a9 b9 74 bd fc aa b1 bb f2 b8 44 bd
       -0.0020453539 -0.05974737 -0.0054219943 -0.04802794
0003c0 4c 26 92 3c 08 b5 02 bc a0 c3 a5 3b 53 b9 c5 3c
       0.017840527 -0.0079777315 0.0050587207 0.024136221
0003d0 bf d7 09 bc 3c 93 f0 3c 0f 14 2d bc 36 fe ac bc
       -0.008413254 0.029367082 -0.010563864 -0.021117311
0003e0 95 24 b0 3b 6e 31 f8 bb f8 aa be 39 0a d8 ca bc
       0.0053754547 -0.007574252 0.00036367006 -0.024761219
0003f0 16 86 06 bc fb 9e 83 b8 04 4c c4 bc bd 9c 3c 3c
       -0.0082106795 -6.276179e-05 -0.023962028 0.011511979

network_body.linear_encoder.seq_layers.0.weight f4 [256, 371]
000000 92 8e b3 bd ab 26 83 bd d8 ef 39 3c 13 3c 81 bd
       -0.087674275 -0.0640386 0.011348687 -0.063102864
000010 86 68 e8 3d d5 f8 0e be 55 78 3b 3d 44 8a 0d bd
       0.11348061 -0.1396211 0.045769054 -0.03455569
000020 02 78 18 3d 54 c9 49 3d 46 04 a0 3a 3d 55 f1 3d
       0.037223823 0.049264267 0.0012208305 0.11783836
000030 1d 7c fa bc e6 1b 5b 3c 2f 14 82 3d a0 ad b6 bd
       -0.03057676 0.013373351 0.06351506 -0.08919835
000040 74 16 f0 3c 0f 3c 79 3d bc 0a bb bc 72 98 b5 3c
       0.029307581 0.060848292 -0.022832267 0.022167418
000050 6f 07 24 3d 58 50 a8 bd 4c ff 21 3d 4e 34 94 be
       0.04004615 -0.08218449 0.03955011 -0.28946155
000060 66 2b 03 3c 60 b9 f8 bd 59 4c 5e ba 71 93 9c 3c
       0.008005952 -0.121447325 -0.00084800046 0.019113274
000070 55 26 ff bd 1b 66 03 be a4 f2 f9 3c 8c 13 1b bd
       -0.12458483 -0.12831919 0.030511208 -0.03786044
000080 bd 30 72 bc 56 2e 8c bd c2 f1 cb bd 1f fd b5 3d
       -0.014782128 -0.068447754 -0.09958221 0.0888617
000090 ff 24 4e bd cb 33 94 3d 62 bc 7d 3d f5 19 d0 3d
       -0.05032825 0.07236441 0.061947234 0.10161201
0000a0 e6 be 4e be be 47 98 bd 6e e1 fc bc 57 aa 94 3d
       -0.2019001 -0.07435559 -0.030869212 0.07259052
0000b0 44 a7 2e 3e c9 00 a8 3c 89 45 f7 3c b2 1c 53 be
       0.17055994 0.020508187 0.030184524 -0.20616415
0000c0 09 45 f5 bc 03 ad 24 be db f6 47 bd 1c 5f 03 3d
       -0.029940145 -0.16081624 -0.048819404 0.032073125
0000d0 4b 27 21 bd 4b 11 8f bd 08 b4 bc bd 57 91 a9 3d
       -0.039344113 -0.0698572 -0.09214026 0.082796745
0000e0 20 38 50 be 86 47 b8 bd 44 6d 1a bd 46 c2 be bd
       -0.2033391 -0.08998017 -0.03770186 -0.093143985
0000f0 eb 7c 69 bd bc 7c b3 bd 70 91 63 3e 1f e0 8c 3c
       -0.057003897 -0.087640256 0.22223449 0.017196713
000100 33 50 93 3d 4e ea c1 3c ae 48 00 bd 65 db 97 bc
       0.07193031 0.023671295 -0.031319313 -0.018537233
000110 e5 a5 01 3e 13 5f bd 3d dd 63 57 3d 5d 62 7f bd
       0.1266094 0.092466496 0.05258547 -0.062349666
000120 df 02 12 be 95 22 97 3c 83 14 c3 3c 7a 44 56 3d
       -0.14258908 0.018449107 0.023813492 0.052311398
000130 67 a5 1b bc 96 77 c8 bc 73 e0 aa 3b 03 ff 88 3d
       -0.009499884 -0.024471086 0.0052147447 0.066892646
000140 94 2f 20 3e e9 63 0a 3d 5d 95 94 bd 4d 6c 32 bd
       0.1564315 0.033786688 -0.07255051 -0.043560315
000150 b0 aa 46 3d d5 5a 0a 3e b0 36 ed 3c 72 19 73 bd
       0.048502624 0.13511212 0.028956741 -0.05935044
000160 68 24 2b be 00 05 1e 3b 5a 6b 51 3d 97 a2 0a 3d
       -0.16713107 0.0024111867 0.05112777 0.033846464
000170 b2 bf 76 bd f0 8b ca 3c d3 85 9b bd d4 0a bc 3d
       -0.06024141 0.02472493 -0.07593884 0.09181753
000180 0b 7a 90 bd a9 ae 10 be cd 00 6e bd d4 e8 7c bd
       -0.07054528 -0.14129128 -0.058106232 -0.06174548
000190 a7 e1 f4 3d de 57 1e 3d de b4 ab 3d 97 b4 f1 bd
       0.11957102 0.038658015 0.08384107 -0.11802023
0001a0 50 ad 28 be bc 54 a9 3c e7 bd 9d bd bd 4d 8b bd
       -0.16472363 0.020670287 -0.077022366 -0.06801937
0001b0 99 f3 9d bb 96 de d3 bc 5e e4 1c 3e 9b d3 86 3d
       -0.004820299 -0.025862973 0.1532149 0.06583329
0001c0 9b cd 8c 3a f4 f0 3e bd 7b 43 e7 3c ba 84 6f 3d
       0.0010742428 -0.04661651 0.02823042 0.058476187
0001d0 1e 11 63 3e d8 b5 7b 3d 07 f5 5f 3c c4 29 1b be
       0.22174498 0.061452717 0.013669259 -0.15152651
0001e0 2a ab c6 3c 0f 22 89 bd 56 eb 5e bb a9 61 54 bd
       0.02425154 -0.06695949 -0.0034014783 -0.05185095
0001f0 33 80 33 3e a7 d3 a6 3d 79 20 87 3c de 78 19 3d
       0.17529373 0.08145838 0.016494976 0.037468784
000200 a5 67 e6 3d 11 ba d4 bd df 5f 45 bc d2 c9 f4 bc
       0.112502374 -0.10387052 -0.012046783 -0.029881392
000210 d0 6f 89 be 4a 9d d5 3d ac df 57 3e 65 96 4b bd
       -0.2684312 0.10430391 0.21081418 -0.049703974
000220 73 e9 54 bc 88 aa 45 3e 27 c4 e8 3d bd bd 77 bd
       -0.012995112 0.19303334 0.11365538 -0.060483683
000230 51 e3 c5 bd ce eb 97 3d 76 43 b1 3a 76 26 5b 3c
       -0.09662498 0.07418023 0.0013524133 0.013375869
000240 89 c2 e9 3c d0 b9 8b 3d 32 65 01 3d aa a0 b7 bc
       0.028535144 0.0682255 0.031590648 -0.022415478
000250 8e cd cd 3b 8f f4 f0 bb de 76 1b 3e 95 ee 38 bd
       0.0062806075 -0.0073533724 0.15182063 -0.045149405
000260 d1 9a 59 bd 3e 86 cc bb 80 09 a1 3c 1f c3 a5 3d
       -0.05312616 -0.006241589 0.01965785 0.08093857
000270 4a c5 1d 3e 7e 2f 9e bd 9e d8 54 3d 21 cf ad 3d
       0.15407291 -0.07723902 0.051964395 0.08486772
000280 60 12 bf bc 8b 23 58 bd 1e 09 91 bd 65 8d 3b 3c
       -0.023324192 -0.05276827 -0.07081817 0.011447285
000290 e1 eb d8 bd 87 d4 f4 3b 85 15 56 3e 69 43 94 3c
       -0.10591865 0.0074716243 0.20906647 0.01809855
0002a0 d5 71 2c bc 2c 7b 9b bd a4 4f 45 bd 7f dc 5c 3d
       -0.010525187 -0.075918525 -0.048171654 0.05392122
0002b0 60 ea 51 bb 41 b6 b6 3c 15 d0 2b 3d d4 54 b1 bb
       -0.0032030568 0.022303702 0.04194649 -0.0054117236
0002c0 b7 9d 4d bd f8 55 3d 3d dc 27 ad bd 6b da c2 3c
       -0.050199237 0.046224564 -0.08454868 0.02378579
0002d0 0b 3a 1d bc 8f c0 78 3d 11 26 31 3e d0 3c 34 3e
       -0.009596358 0.060730513 0.17299677 0.17601323
0002e0 81 8a 62 3c 33 be af bc 6b 57 3a 3c 53 be 89 3c
       0.013826967 -0.021452999 0.011373381 0.016814386
0002f0 46 bc b4 3d 8a ec 9a bd b9 eb 0b bd 05 61 ba bd
       0.08824973 -0.075646475 -0.03416035 -0.09100536
000300 ec ac 6e 3c 73 42 b2 3c 57 0e b3 3c c4 18 81 3b
       0.014567595 0.021760201 0.021857424 0.00393972
000310 d9 6c 93 bd a5 00 9d 3d 38 43 69 3c 09 69 a6 3d
       -0.071984954 0.076661386 0.014237218 0.081255026
000320 20 61 65 bd c1 91 c3 bb 61 f0 37 bd 0d 5a 6d 3d
       -0.05600083 -0.005968303 -0.044906978 0.057947207
000330 20 4c 83 3e 45 f2 7b 3d 55 75 ec bd 2c d2 ba 3d
       0.25644016 0.061510343 -0.11545817 0.09122118
000340 ac 59 76 bd 8c 9f e2 bb 3d 78 30 bd 18 b1 d7 bd
       -0.06014411 -0.006915992 -0.04308342 -0.10531825
000350 e7 11 02 bd e0 11 b3 bc 75 d1 79 bc 7d 7a b0 bc
       -0.031755354 -0.02185911 -0.015247692 -0.021542782
000360 20 93 40 bc a8 a0 94 bc 7b fa 5c 3c 7e 5e ed 3d
       -0.011753827 -0.018143013 0.013487454 0.115902886
000370 1e 51 fb 3d 1e ec 32 3d ac 15 d8 3c 8f 57 c5 bc
       0.12271331 0.04368221 0.026377521 -0.024089603
000380 c2 4c 15 be 5e 6d a1 bd fa 3d 46 3d 1d 45 e5 bd
       -0.14580062 -0.07882188 0.04839895 -0.11194823
000390 8d 31 a4 3d ea 95 5d 3d 3b ca 91 3d cc 60 f0 3d
       0.080172636 0.054098047 0.071186505 0.117372125
0003a0 c6 0e 22 bc e5 4d cf bd 76 88 cb 3d 2d 46 a0 bd
       -0.009891218 -0.10122279 0.09938137 -0.07825885
0003b0 3d 76 19 3e 37 61 50 3d 32 8c 2c 3e 81 1e d7 3c
       0.1498651 0.05087396 0.16850355 0.026259663
0003c0 06 72 fb 3b c6 e9 27 3c e1 87 b1 3d 6c db c2 bd
       0.0076735048 0.010248607 0.08668495 -0.09514508
0003d0 77 90 ee 3d 75 99 6a bc 87 13 38 be 08 0b 72 3d
       0.11648648 -0.014318814 -0.17976199 0.05909255
0003e0 4f 41 20 bd f8 6f 5b bc 47 c9 1c bd 1b 60 95 be
       -0.039124783 -0.013393395 -0.03827789 -0.29174885
0003f0 9e 23 0a bd e6 20 a7 3e 9b 39 dc 3e f3 f6 44 be
       -0.033725373 0.32642287 0.430127 -0.19234829

network_body.linear_encoder.seq_layers.2.bias f4 [256]
000000 9e 5f 93 3d 5c 10 5a ba d9 79 c8 bc 1c 1f 35 bd
       0.07195972 -0.0008318478 -0.024472164 -0.04421912
000010 ff 95 26 bd da b1 47 bc 21 4f b7 bc 3e d8 e5 bc
       -0.04067039 -0.012188399 -0.022376599 -0.028057214
000020 1b ea bf 3c cc 5d 95 bc 95 7a cd 3c 2a 6a 6a bc
       0.02342706 -0.018233202 0.025082866 -0.014307538
000030 58 09 1c 3b 4a 51 30 bd ea 6c 33 bd 71 20 37 3d
       0.002380928 -0.043046273 -0.04380504 0.044708673
000040 21 eb d0 bb f3 1d 9d bd b3 df a1 bd c5 38 96 ba
       -0.006375686 -0.07671728 -0.07903995 -0.001146101
000050 3b e8 f4 3c 52 e9 38 3d d3 b0 98 3c 7d 66 9f bc
       0.029895892 0.045144387 0.018639004 -0.01945805
000060 66 80 fb 3b 3c b1 05 bc 8e 32 f7 bc db 9d 88 bc
       0.0076752184 -0.008159932 -0.030175474 -0.016676834
000070 df bf d8 3c 24 4d 2c bd e4 ba 12 bb 6f e7 1a bc
       0.026458679 -0.042065755 -0.0022389228 -0.009454592
000080 d8 f8 19 b8 d3 38 d2 bc a4 4f 4c 3c 0c a3 06 bc
       -3.6709796e-05 -0.025661862 0.01247016 -0.008217584
000090 48 8d 08 3c 01 ba 35 3d 78 25 88 bc 9b e8 0b 3d
       0.008334465 0.04436684 -0.016619429 0.034157377
0000a0 dc 76 49 3b b9 8c 55 bd b6 8f c0 3c a5 c4 19 3a
       0.0030741012 -0.052136157 0.023506027 0.0005865789
0000b0 cb 54 3c bc fc 94 dc 3c 6a 04 e5 ba 6f 0d 97 bc
       -0.011494826 0.02692651 -0.0017472629 -0.018439023
0000c0 80 30 e8 3c c5 8a 18 bd 92 07 2b 3c d5 df 50 bd
       0.02834344 -0.037241716 0.010438817 -0.050994713
0000d0 5a 39 98 3c f5 c1 31 bd de 66 0c 3b c5 3f 1e 3c
       0.018582035 -0.043397862 0.0021423618 0.0096587585
0000e0 1a 33 8b bd f2 77 f1 3c af 58 91 bc e6 09 eb bd
       -0.06796856 0.02947614 -0.017742483 -0.11476497
0000f0 e6 c1 02 bc b4 4c 13 bd b2 75 23 3b 2e 4c 5a bc
       -0.007980799 -0.03596182 0.0024941978 -0.013323827
000100 e4 6d 79 bc e4 5a 82 3a aa e4 fd 3c cb 92 ed ba
       -0.015223954 0.00099453 0.030992825 -0.0018125413
000110 16 bf d5 bb 69 02 2f bd b3 5e b2 3b 85 e4 ca bc
       -0.0065230234 -0.042726908 0.005443418 -0.02476717
000120 51 71 d0 39 72 75 39 b9 55 6d eb b9 1c 5a 92 bc
       0.0003975728 -0.00017686727 -0.00044904152 -0.017865233
000130 c9 36 36 bc fe 68 8a 39 c3 91 03 bc bd f2 46 bc
       -0.01112146 0.00026399636 -0.008030358 -0.012142834
000140 02 af 0c bd 19 74 64 bc 21 0e 41 bd ef af 15 bc
       -0.034346588 -0.013943695 -0.047132615 -0.009136184
000150 0f 42 3e bd 02 b9 c9 bb 2e 34 66 3c b3 3e 14 3c
       -0.046449717 -0.006156088 0.014050527 0.009048152
000160 f5 42 ab bb 4f a8 a8 bd 79 92 95 3b 17 be 0f bc
       -0.0052264878 -0.08235227 0.00456458 -0.008773348
000170 7b a9 99 bc 75 2e cb 3c 7a 0e 24 bd 38 0a 89 3b
       -0.018757572 0.024802426 -0.04005287 0.0041821264
000180 5a aa bb 3a db 44 92 3c e8 16 db bc 2f 93 53 3b
       0.0014317736 0.017855098 -0.026744321 0.0032283773
000190 3d f8 06 3d 11 fb e6 3a cd 38 9b 3b d7 e9 e5 ba
       0.032951582 0.0017622431 0.004736996 -0.0017541003
0001a0 53 a0 3a bb f9 7b 91 3d 71 97 31 3c fb fc 9f bc
       -0.0028476908 0.07103724 0.010839329 -0.01952981
0001b0 05 12 2e 3d ac 8c 00 3d 46 73 aa 3c d6 2e 52 3c
       0.042497654 0.031384155 0.02080692 0.012828549
0001c0 ff 52 c7 3c c8 c7 8e bc 0f f5 26 3d 88 87 09 3b
       0.024331568 -0.017429247 0.04076105 0.0020985324
0001d0 77 7e cc 3b a6 ee d6 bc e0 41 48 bb 0a fa a7 bb
       0.0062406617 -0.026236843 -0.0030556843 -0.0051262425
0001e0 d5 d2 09 3c 5a 53 cf 3c 11 f3 43 bc dd bc e1 bc
       0.008412083 0.0253083 -0.011959807 -0.027555877
0001f0 48 9c 6a bd fe e7 17 bc 39 58 7f 3c 67 62 38 bc
       -0.057277948 -0.00927162 0.015584999 -0.01125393
000200 cd f3 6c bd 54 c6 3b bd 6e a5 36 bb 90 fd 02 bd
       -0.057849694 -0.045843437 -0.00278696 -0.031980097
000210 fb 29 24 3c 36 01 c5 3b 7f 3b b8 3b 7b 4e 89 3c
       0.010019775 0.0060121072 0.005622327 0.016761055
000220 dc 92 62 3c ef 07 ab 3c 4f 43 eb 3c c3 72 2a bc
       0.013828959 0.020877806 0.028718619 -0.010403338
000230 fc 91 4c bb 05 8c 97 3c 02 ea 9d bc 5f 27 fc bc
       -0.0031214943 0.018499384 -0.019276623 -0.030780492
000240 e1 ed 45 3d 17 6c f7 3b 35 ea 81 3a cf b4 9f 3c
       0.048322562 0.007550727 0.0009911718 0.019495396
000250 ff 03 fc 3b ec 69 68 bb 5a 6c c3 bc c1 31 68 3d
       0.007690906 -0.0035463525 -0.023855377 0.056688074
000260 d0 5d 4f bc 6f 27 61 bc a6 50 2c bc 92 e2 ed 3a
       -0.012656644 -0.013742312 -0.010517275 0.0018149188
000270 cf 96 d2 3c cb 57 4c 3d fb 94 e2 bb 76 4f f6 3b
       0.025706677 0.049888413 -0.0069147325 0.0075167967
000280 bd 03 8a 3c d3 7f 1f 3d 38 78 0c ba bd aa 28 3d
       0.016847486 0.038940262 -0.000535849 0.041178454
000290 00 82 87 3c c6 fc eb 3c 40 39 fc ba f8 60 7e bd
       0.016541481 0.028807055 -0.0019243136 -0.062104195
0002a0 64 5e 57 bc 13 b8 b6 3c da 5b 75 3c ce 88 10 bd
       -0.013145063 0.02230457 0.014975512 -0.035286717
0002b0 c8 80 ea bc ad c3 2b bd 38 a8 eb bc 32 33 c9 bc
       -0.02862586 -0.041934658 -0.028766736 -0.024560545
0002c0 d1 f8 2d 3c 38 dd 21 3d b3 aa 61 bd 85 5d bd 3c
       0.0106184045 0.03951761 -0.055094432 0.023115883
0002d0 f4 a8 97 3c 68 04 6b bd 72 3b ac bb 3f e1 b8 bc
       0.01851318 -0.05737725 -0.00525611 -0.022568343
0002e0 9a d4 b8 bb cc 8c 36 3d a2 81 a7 bc ec ff 93 3a
       -0.0056405785 0.044567868 -0.020447556 0.0011291481
0002f0 44 6a 14 3c 66 39 df bc c9 67 99 bd ad 42 9a bd
       0.009058539 -0.02724905 -0.074904986 -0.07532249
000300 04 fc 61 bd 0f f5 f3 bc 13 77 90 bd c3 27 54 3d
       -0.05517198 -0.029779939 -0.070539616 0.051795732
000310 65 e6 18 3a d2 d3 fd 3c 20 64 8b 3c c6 47 10 bc
       0.00058326713 0.030984793 0.017015517 -0.008806175
000320 d4 9b cb bc 1c 49 30 bd 15 ab 72 3d f9 a4 ad 3c
       -0.024854578 -0.043038473 0.059245188 0.02119683
000330 ff 81 2a 3d 54 18 c0 3c e2 22 82 3d 29 36 ec bc
       0.04162788 0.0234491 0.063543096 -0.02883442
000340 b0 f9 44 3a 7d c6 8f bc e4 14 cf bc 7f 7b 6c 3c
       0.0007514013 -0.017550701 -0.025278516 0.014433741
000350 e7 c8 06 bd 1b c7 68 bd 4c 09 12 bd bd c7 c9 ba
       -0.03290644 -0.056830507 -0.035653397 -0.001539461
000360 e4 ea 5d bd 4d ea bb 3c 71 08 38 bd 1a 09 92 bc
       -0.054179087 0.022938872 -0.044929925 -0.017826606
000370 91 fe a2 bd 8f 23 10 bd 8c 8a 9e 3c f4 db 35 bd
       -0.07958711 -0.03519016 0.019353174 -0.044399217
000380 b8 85 1c bd 92 1c d8 3c 19 1e 10 bd fb 82 50 bd
       -0.03821346 0.02638081 -0.035184953 -0.050906163
000390 69 a5 a4 3b 1b af 2a bd 39 3f 5b 3b d9 38 1d bc
       0.0050246012 -0.0416709 0.0033454432 -0.009596073
0003a0 22 b6 14 3d dd 4a 5f 3c 6e 21 f1 bd 0c 28 0b bd
       0.036306508 0.013628689 -0.11773954 -0.03397374
0003b0 bb 9e d8 3c 5e c0 8e bc ff f6 3e bb c2 34 16 3c
       0.026442876 -0.017425712 -0.002913892 0.009167852
0003c0 bc 5d ff 3c f7 36 71 bd 38 6e 64 3c 46 4b aa bc
       0.031172626 -0.05889031 0.013942294 -0.020787846
0003d0 b1 84 a4 3c d1 a2 c0 3b 9c bd b5 3c 78 08 1b 3d
       0.020082803 0.005878784 0.02218514 0.037849873
0003e0 74 9e 1e 3a 0a d7 8c 3c 4b 60 c1 3c fc 31 0d 3c
       0.0006050833 0.017192382 0.023605486 0.008617874
0003f0 d0 c1 44 3c 10 6b d1 bc 24 2a 5e 3d b4 1e 19 bd
       0.012009099 -0.025563747 0.054239407 -0.037382796

network_body.linear_encoder.seq_layers.2.weight f4 [256, 256]
000000 ea 26 90 3c a8 56 6a 3d 6e e4 32 3c 29 ca 05 be
       0.01759668 0.057211548 0.01091872 -0.13065399
000010 dc c9 f0 3c e3 35 58 bd a7 c1 be 3c c1 ab 8a 3d
       0.029393129 -0.052785765 0.0232857 0.06771041
000020 34 8c 7a 3d 7a a5 b9 3d fb a8 66 3d 39 d4 b6 bd
       0.061168864 0.09064765 0.056313496 -0.08927197
000030 79 d0 87 bd 9c 61 84 3d 8d 24 3a 3d 1f bd 07 bc
       -0.0663156 0.0646393 0.045445014 -0.008284836
000040 5b 8b 9f 3d 2e 85 13 be a0 b7 50 3e dd 20 f9 3d
       0.07790252 -0.14406273 0.20382547 0.12164471
000050 20 37 94 3c f7 00 19 3d 32 ae 65 bd ca 53 fe 3d
       0.018092692 0.037354436 -0.05607433 0.12418325
000060 ff 29 54 be 3e b9 84 3d 1e a5 f3 3c 66 06 ca 39
       -0.20719145 0.06480645 0.02974182 0.0003853321
000070 f9 68 ee bd a6 5c e8 3d 60 75 2e bd 03 d3 75 bd
       -0.11641116 0.11345796 -0.042592406 -0.06001569
000080 0c d9 31 bd 26 be 2c be 55 30 1c 3e 90 bd 52 bc
       -0.043419883 -0.16869411 0.15252812 -0.012862578
000090 16 8e a1 bd af e1 e8 3d c2 94 35 be 44 ef d9 3c
       -0.07888429 0.11371171 -0.17732528 0.026603349
0000a0 6f 53 3e bd 5f 61 42 be 0b af a8 3d 27 69 3a bd
       -0.046466287 -0.18982457 0.08236512 -0.045510437
0000b0 77 6a 65 bd a2 2b 5d 3c a2 e1 8b bc e7 8e 71 bc
       -0.056009736 0.013499172 -0.017075364 -0.014743543
0000c0 70 c5 b3 3c 87 31 cb 3c 35 58 15 3d aa 09 38 3d
       0.021944731 0.02480389 0.036461074 0.04493109
0000d0 4f 55 a1 bd 7f d4 de bd 74 6e d8 bd dc 4f 8c bd
       -0.078775994 -0.10880374 -0.10567942 -0.068511695
0000e0 88 b8 5c bd 3b 05 de 3d 9d 96 2c be ff f8 1b bc
       -0.05388692 0.108408414 -0.1685433 -0.0095198145
0000f0 08 e9 31 be 59 49 a9 bd f6 fc bb bc 35 2c 0f be
       -0.1737405 -0.08265943 -0.02294777 -0.13981707
000100 17 12 23 3e e2 74 0e 3e dc 62 99 bd d0 a9 3f 3d
       0.1592487 0.13911775 -0.07489559 0.046792805
000110 21 b1 c0 3d 6b 58 15 bd 7c f7 71 bd 71 6f d8 bc
       0.09408785 -0.036461275 -0.05907391 -0.026420327
000120 94 6c 7e 3d e1 4c 61 3d 56 16 2c be f8 e1 8d bd
       0.062115267 0.055004958 -0.16805395 -0.06927866
000130 f3 32 bf bd 75 2e 18 3d 39 21 cb 3d bf bb 09 bd
       -0.0933589 0.03715368 0.09918446 -0.033626314
000140 20 4e f8 3d f2 1d 45 be d6 c0 80 3d a4 06 25 be
       0.12124276 -0.19249704 0.062867805 -0.16115814
000150 23 0d 6f 3d 84 c7 d0 bd 55 4f 80 bd 66 0b 65 3d
       0.058362138 -0.101943046 -0.062651314 0.055919074
000160 12 2f 42 bd 58 1f 15 be 68 b3 ca bd b7 09 d5 bd
       -0.04740817 -0.14562738 -0.098975 -0.104022436
000170 a2 97 9d be a5 d2 52 bc 7a 29 af 3d e4 7c fa bd
       -0.3077975 -0.012867604 0.08552833 -0.12230852
000180 63 78 df 3d a8 78 0f 3c 29 6b 87 3e c9 e2 cb 3a
       0.10911634 0.008756794 0.26448944 0.0015555258
000190 4e e3 03 be fd 35 93 bd 3a c3 d5 bd a3 5d f1 bd
       -0.12879679 -0.07188032 -0.10437627 -0.11785438
0001a0 df c2 97 3d 2f 95 e9 3d 3e 5b c8 3c 6e c0 2a bd
       0.074102156 0.11405408 0.02445757 -0.04168742
0001b0 c8 a6 99 bd a6 f5 0e be aa 96 1f be 1c 82 c9 bd
       -0.07502514 -0.13960895 -0.15584818 -0.098392695
0001c0 cc fc 0c 3e 3f a2 e0 bc 8a 21 ef bd 59 44 83 3d
       0.1376831 -0.027421115 -0.11676319 0.06409521
0001d0 d3 72 30 3d b4 30 bb 3d 6f 22 31 bd 55 c5 22 3e
       0.043078255 0.09140149 -0.04324573 0.15895589
0001e0 5c 4d 1f 3c 13 ed 40 be 54 28 8c 3d 5d 07 60 be
       0.009723034 -0.18840437 0.068436295 -0.21877809
0001f0 c1 85 ed 3c 2a 67 c2 3d 01 ea 39 3e e3 80 8a 3e
       0.028994443 0.09492333 0.18155672 0.27051458
000200 dd 63 7b 3d 0e 61 66 3c 31 ff 6e bd 67 d2 e9 bb
       0.061374534 0.014061226 -0.05834884 -0.0071356776
000210 b2 da 9f 3d 01 53 f1 bc c2 22 99 3d 9e 59 fa 3b
       0.07805385 -0.029458525 0.07477333 0.0076400777
000220 61 11 72 3d e1 3f ee bd 4b 32 f2 bd cb 48 16 3e
       0.059098605 -0.11633278 -0.11825999 0.14676206
000230 f2 fb a3 bd bb 79 4b 3c dd ea c5 bd 14 20 43 3d
       -0.08007039 0.0124191595 -0.09663937 0.047638014
000240 8d 2f 94 be a0 e0 fa 3c e5 98 66 bd ee 01 20 bd
       -0.28942528 0.030624688 -0.056298155 -0.03906434
000250 d8 61 a4 3b 84 56 95 3e 37 f2 d2 3d f1 97 8e bc
       0.0050165467 0.2916757 0.10300105 -0.017406436
000260 b7 d9 01 bd 70 1e 76 3d 2a 4f 0f 3e 09 20 e8 3d
       -0.03170177 0.06008762 0.13995042 0.11334235
000270 27 22 f1 3c f3 95 ed 3c de e0 ae 3d b4 75 18 3e
       0.02943523 0.029002165 0.08538984 0.1488865
000280 33 f7 84 3d de d5 65 3e d5 21 e2 bd 64 95 8f bd
       0.06492462 0.22444865 -0.11041609 -0.07010916
000290 5f 03 82 bd 88 b6 49 be e6 12 1f 3e ec d6 f3 3d
       -0.06348299 -0.19698536 0.15534553 0.119062275
0002a0 5a c4 b2 3c ad b1 56 3e f8 6a a5 bc e9 46 0e bd
       0.021822143 0.20966215 -0.020192608 -0.034735594
0002b0 67 65 e8 3d d8 cc 20 be 12 54 31 3d 4b 20 07 3d
       0.11347466 -0.15703142 0.043293066 0.03298978
0002c0 72 3e ee bd a0 3a 62 bc 7c 20 83 3d 07 6b bc bd
       -0.11633004 -0.013807923 0.0640268 -0.09200101
0002d0 5d 2f c7 bd 60 ab 9d 3e f5 2a 15 3e 5d a5 f3 bc
       -0.09725831 0.3079481 0.14567168 -0.029741937
0002e0 b4 47 91 3c f9 95 0b 3e 7d c0 82 3d 51 96 46 3e
       0.017734386 0.13631429 0.063843705 0.19393279
0002f0 e6 d2 05 3e 0c 15 81 3d 30 4a dc 3c 7a a4 e3 bd
       0.13068733 0.063028425 0.026890844 -0.11115356
000300 03 40 64 bc e0 31 9f 3d 6c c6 1c 3e b1 bf 69 3d
       -0.013931277 0.07773185 0.15310067 0.057067577
000310 70 dc 19 3c bb ad 96 bd 36 81 bc bd d1 ae 04 3e
       0.009390935 -0.07357355 -0.092043325 0.12957312
000320 15 3e ce 3d dc 4b cc 3d 2b 54 98 bd bc ff ae 3d
       0.10070435 0.099754065 -0.07437929 0.08544871
000330 8c 51 1f 3e 96 39 57 bd fd 85 26 3d a1 b5 34 3d
       0.15558451 -0.052545153 0.040655125 0.044118527
000340 6d 61 21 3d 55 70 aa 3d 73 8a e9 3b 40 3d a9 bd
       0.039399553 0.08322207 0.0071271 -0.08263636
000350 a4 48 1f 3d 76 8b 55 3d 9f 8b 30 3d 13 90 22 bd
       0.038887635 0.052134953 0.043101903 -0.03968818
000360 cd e0 ba bd a4 6b 3f 3b c2 b8 58 3e dd a4 f1 bd
       -0.091249086 0.0029208446 0.2116423 -0.11799023
000370 b9 dc f5 bd b4 97 d2 3c 21 9b 32 be ad c4 7a bc
       -0.1200499 0.025707103 -0.1744199 -0.01530568
000380 15 07 95 39 27 fa fd 3c 21 1f 4c 3e 25 50 42 3d
       0.0002842477 0.031003071 0.1993375 0.047439713
000390 da ba e7 3b b5 b8 06 3d 01 7a 96 bc ec f6 76 bd
       0.007071835 0.032890994 -0.018368723 -0.060294077
0003a0 d8 a8 3a 3e 93 24 be bd 4a 62 e9 3d 42 11 b8 bd
       0.18228471 -0.0928432 0.113957 -0.08987667
0003b0 80 3f 2b 3d 3e d8 74 bd 42 e3 a2 3b ec 0a b0 3c
       0.041808605 -0.059776537 0.004970939 0.021489583
0003c0 16 b8 b1 bc fb e9 3f 3c d0 22 29 3d 07 0d 1e 3e
       -0.021694224 0.0117135 0.041292965 0.15434657
0003d0 5c c9 79 3d 2a e1 1c be 22 1a 40 bc ce 32 cc bb
       0.060983047 -0.15320268 -0.011724981 -0.0062316423
0003e0 fe 6b 0d bd d9 56 15 3d 08 54 59 bc 10 61 28 be
       -0.034526818 0.036459778 -0.0132646635 -0.16443276
0003f0 5b 3c 81 bd 47 af 0f bc 00 fa d8 3d 4c 14 11 3c
       -0.0631034 -0.008769817 0.10594559 0.008854937
