Project/Assets/ML-Agents/Examples/GridFoodCollector.onnx (onnx, 621416 bytes, 13 tensors)

action_model._continuous_distribution.log_sigma f4 [1, 3]
-0.09600094 -0.08432971 -0.15355049
00000000: 249c c4bd 0eb5 acbd 573c 1dbe

action_model._continuous_distribution.mu.bias f4 [3]
0.02597284 0.010381458 0.007848297
00000000: fec4 d43c fe16 2a3c 2596 003c

action_model._continuous_distribution.mu.weight f4 [3, 256]
-0.06243365 0.042168844 0.03374978 -0.0060177613 -0.08046383 0.035033975 0.03475743 -0.06461163
-0.1262686 0.0025294991 -0.07154409 0.018386647 0.02299199 -0.04540805 0.019368522 -0.06652832
-0.0029339478 0.035984594 -0.07632143 0.024915883 0.0055549582 0.0103394175 -0.08942628 -0.055756185
-0.062316045 -0.048300598 -0.02720437 0.054777972 0.027671892 0.046242308 -0.07184664 -0.07622712
-0.040593334 0.030823309 -0.014863724 -0.019518435 0.03684033 -0.0528172 0.0065733497 -0.07775842
-0.061727453 0.046048522 -0.017053185 -0.05372499 0.02676425 0.008610944 0.020053243 -0.060767796
0.06058827 0.019699074 -0.02480943 -0.04826268 0.031188803 0.0050788014 -0.0651994 0.015555724
-0.11958791 0.03905426 -0.06695745 0.0048521194 -0.025554994 -0.06538334 -0.10258225 -0.0047618467
-0.04436364 -0.08349471 0.046531744 -0.036712706 -0.064440005 0.041972592 0.011973024 -0.07032659
-0.0008833778 0.017822415 0.01194272 -0.04557658 0.015308825 -0.04716088 -0.04730728 -0.06222936
0.022096502 0.0348982 -0.055569742 -0.052398168 -0.06780904 -0.00951831 -0.09670583 0.037550174
0.059615057 0.042665157 -0.030964363 0.036535267 0.031075435 -0.06610796 -0.072850615 -0.07810504
-0.0014611742 0.020932954 -0.09759789 0.023963679 -0.12658358 0.049899768 0.034547094 -0.0023094022
-0.034166586 -0.00084412296 -0.014499054 0.041969676 0.066875316 -0.05003741 -0.06404865 -0.088090144
0.034290742 -0.084615126 0.034617115 0.0051057236 0.045911778 0.038957678 -0.05270809 0.008517595
0.03526296 -0.06069762 0.022643171 -0.039530974 -0.047415182 0.01709857 -0.0016515258 -0.020676153
0.020701258 -0.08502772 -0.0738697 -0.0670429 0.060235783 -0.037560947 -0.047270373 -0.0952632
-0.09155923 -0.083371475 -0.06689768 0.039587464 0.03834299 -0.07858788 0.058496136 -0.07690163
-0.01218172 0.027391247 0.006852098 -0.012071303 -0.056010265 -0.013823208 0.03218679 -0.068132825
0.027712202 0.019242205 -0.044612944 -0.07380636 0.03319985 0.02215273 -0.008278187 -0.0022377402
0.028963907 0.032103326 -0.028681943 0.03681916 0.022188412 0.03044211 -0.03753935 -0.10573091
-0.0029027942 0.0024334693 -0.063293666 -0.058173764 0.014622912 -0.049206834 0.042129207 0.0507752
0.023359038 -0.063307256 0.0049568405 0.05692335 0.04357067 -0.016080374 -0.046224877 0.05095521
0.03879952 -0.021435061 -0.03598181 0.019158276 0.014851693 -0.014334189 -0.06394384 -0.058277696
0.02235477 -0.014524939 -0.09635123 0.010347563 -0.06603535 0.05552446 -0.06597095 -0.027641648
0.0031044523 -0.0068636406 -0.013603791 0.009657548 -0.045892183 0.026185723 0.04212306 -0.0362314
-0.056396298 -0.035251975 -0.077913694 0.020088421 -0.0138407685 -0.043961372 0.03169835 0.031418268
-0.07541492 0.034583718 -0.015489913 -0.02344226 -0.012085932 0.03535962 -0.07405522 0.032918565
0.033273503 -0.06321299 -0.044744674 -0.05348188 -0.044118214 0.045220748 -0.093717426 0.044461403
0.05178946 -0.06704246 0.031856146 -0.016818328 0.02871861 -0.0051579326 0.016669998 -0.030125296
0.022025943 0.048210457 -0.02550222 0.009689783 0.046915982 -0.06391899 -0.054870237 -0.03516743
0.004319928 0.027185284 0.04688794 0.05336814 0.050937105 0.014836042 -0.053658597 0.015397703
00000000: 6dba 7fbd 3db9 2c3d 363d 0a3d a430 c5bb
00000010: 38ca a4bd c97f 0f3d cf5d 0e3d 1a53 84bd
00000020: 8e4c 01be f4c5 253b b585 92bd 989f 963c
00000030: b359 bc3c cbfd 39bd bcaa 9e3c 0040 88bd
00000040: 7a47 40bb 9564 133d 694e 9cbd 651c cc3c
00000050: 5e06 b63b a966 293c 2025 b7bd 9960 64bd
00000060: 1c3f 7fbd d9d6 45bd b3db debc de5e 603d
00000070: 2ab0 e23c 9368 3d3d 5524 93bd f71c 9cbd
00000080: 3245 26bd 2a81 fc3c fa86 73bc 20e5 9fbc
00000090: e3e5 163d d956 58bd 4165 d73b ce3f 9fbd
000000a0: edd5 7cbd 609d 3c3d 1fb3 8bbc bc0e 5cbd
000000b0: b340 db3c eb14 0d3c b346 a43c a7e7 78bd
000000c0: 682b 783d f45f a13c 253d cbbc 17af 45bd
000000d0: a97f ff3c 136c a63b 4387 85bd 6fdd 7e3c
000000e0: 82ea f4bd 5cf7 1f3d fd20 89bd 87fe 9e3b
000000f0: b558 d1bc b3e7 85bd a516 d2bd 4409 9cbb
00000100: a6b6 35bd 46ff aabd 1298 3e3d 1060 16bd
00000110: 1ff9 83bd 74eb 2b3d 812a 443c 6307 90bd
00000120: 7b92 67ba 5000 923c 66ab 433c 82ae 3abd
00000130: ded1 7a3c c42b 41bd 47c5 41bd 37e4 7ebd
00000140: b903 b53c 6af1 0e3d 199d 63bd 769f 56bd
00000150: 77df 8abd b0f2 1bbc b50d c6bd 36ce 193d
00000160: eb2e 743d a9c1 2e3d faa8 fdbc 01a6 153d
00000170: e991 fe3c 9c63 87bd b432 95bd 89f5 9fbd
00000180: df84 bfba 967b ab3c 67e1 c7bd 7a4f c43c
00000190: 209f 01be b363 4c3d 4181 0d3d 5759 17bb
000001a0: 43f2 0bbd 2248 5dba 718d 6dbc 65e8 2b3d
000001b0: edf5 883d 07f4 4cbd f02b 83bd 9b68 b4bd
000001c0: 7374 0c3d b24a adbd adca 0d3d ea4d a73b
000001d0: fd0d 3c3d 1692 1f3d 70e4 57bd 628d 0b3c
000001e0: e56f 103d 119e 78bd 2c7e b93c 3beb 21bd
000001f0: 6c36 42bd 4d12 8c3c 0378 d8ba 0961 a9bc
00000200: af95 a93c 0323 aebd ff48 97bd ca4d 89bd
00000210: ccb9 763d 82d9 19bd 949e 41bd 5a19 c3bd
00000220: 6883 bbbd aabe aabd a701 89bd 7726 223d
00000230: 8a0d 1d3d aff2 a0bd a599 6f3d 9a7e 9dbd
00000240: d695 47bc 9c63 e03c 9087 e03b b7c6 45bc
00000250: 056b 65bd bd7a 62bc 4cd6 033d 3989 8bbd
00000260: b304 e33c d4a1 9d3c 10bc 36bd ca27 97bd
00000270: 91fc 073d a479 b53c 3ca1 07bc 0da7 12bb
00000280: b745 ed3c c77e 033d 65f6 eabc b0cf 163d
00000290: 79c4 b53c bb61 f93c ddc2 19bd 7389 d8bd
000002a0: ce3c 3ebb d77a 1f3b 1ca0 81bd 9d47 6ebd
000002b0: f094 6f3c 1b8d 49bd ad8f 2c3d a8f9 4f3d
000002c0: 745b bf3c 3ca7 81bd fe6c a23b 7528 693d
000002d0: 2977 323d fdba 83bc 4c56 3dbd 69b6 503d
000002e0: 3fec 1e3d 9598 afbc aa61 13bd d1f1 9c3c
000002f0: 8454 733c f2d9 6abc fdf4 82bd 98b4 6ebd
00000300: 5a21 b73c 02fa 6dbc cb53 c5bd d388 293c
00000310: 8b3d 87bd 9e6d 633d c71b 87bd bd70 e2bc
00000320: 1174 4b3b 64e8 e0bb 6fe2 5ebc b13a 1e3c
00000330: 71f9 3bbd 7183 d63c 3b89 2c3d 6067 14bd
00000340: ceff 66bd 6064 10bd 3791 9fbd 7990 a43c
00000350: 64c4 62bc d710 34bd 21d6 013d 71b0 003d
00000360: 2373 9abd a8a7 0d3d 67c9 7dbc fc09 c0bc
00000370: 1304 46bc 40d5 103d 43aa 97bd 9ed5 063d
00000380: cc49 083d d075 81bd 3146 37bd d10f 5bbd
00000390: 4db5 34bd 6439 393d ecee bfbd 291d 363d
000003a0: 2f21 543d 8f4d 89bd 977b 023d 97c6 89bc
000003b0: 4a43 eb3c e003 a9bb 858f 883c 53c9 f6bc
000003c0: c06f b43c 5478 453d 08ea d0bc e5c1 1e3c
000003d0: f92a 403d f6e7 82bd 9dbf 60bd b90b 10bd
000003e0: 2f8e 8d3b acb3 de3c 920d 403d 8d98 5a3d
000003f0: 6da3 503d df12 733c 1ec9 5bbd a646 7c3c

action_model._discrete_distribution.branches.0.bias f4 [2]
0.007859919 -0.007859924
00000000: e4c6 003c e9c6 00bc

action_model._discrete_distribution.branches.0.weight f4 [2, 256]
-0.022514053 0.035188355 0.012209177 0.03131206 -0.031511962 0.047282446 0.042018734 0.00079828984
-0.033103123 0.005247523 -0.026618196 0.037711337 0.04346403 -0.03567249 0.03441765 -0.02726988
0.058601856 0.01614774 -0.045863498 0.04370989 0.033365108 0.02918999 -0.041745305 0.015441335
-0.052592833 -0.023382504 -0.04337623 0.0033790986 0.046316855 0.04399068 -0.02937976 -0.02328021
-0.051311076 0.036620714 -0.037152 0.0015760983 0.04921864 -0.039656974 0.03812105 -0.045597844
-0.026486456 0.06176139 0.032427818 -0.053300835 0.040215228 0.022182226 0.033907983 -0.00051093125
0.055857304 0.027928066 0.019262897 -0.034396 0.016647987 0.023247927 -0.03433669 0.06605974
-0.034005973 0.05000964 -0.012921439 0.04032782 -0.03437757 -0.013550857 -0.032939807 0.01806469
-0.03758876 -0.049475092 0.018226424 -0.041852407 -0.010217656 0.0443864 0.02119215 -0.022068324
0.025124663 -0.0053178696 0.02308555 0.0070198243 0.022786254 -0.04948134 -0.046534177 -0.026915042
0.033918858 0.053378068 -0.04509582 -0.046065014 -0.05462816 -0.0246884 -0.04225374 0.024814233
0.05244617 0.065906726 0.01223569 0.030190172 0.03034272 -0.06183093 -0.071295984 -0.03665444
0.03889235 0.047414955 -0.027590433 0.048872784 -0.036071647 0.04173431 0.03855984 0.0065462384
-0.03150604 -0.029854994 0.030568207 0.04178835 0.04200807 -0.047087777 -0.0327865 -0.01566957
0.05576584 -0.018526971 0.049086142 0.049103927 0.03519126 0.019966882 -0.022686103 0.04151922
0.040538553 -0.050713956 0.051394325 -0.08394155 -0.027147874 0.036836207 0.03185626 0.009756926
0.055627827 -0.017697457 -0.051143326 -0.01757239 0.057222992 -0.033991903 -0.07301961 -0.06969989
-0.04478309 -0.006510509 -0.029995047 0.057532344 0.05541253 -0.005822164 0.037311718 -0.00062241295
-0.0027482836 0.044060115 -0.011485738 -0.02612742 -0.046396837 -0.025105366 0.01742865 -0.011573873
0.049173046 0.045689482 0.0035591943 -0.02927601 0.03431877 0.038945545 -0.037192963 0.021044934
0.03430246 -0.016992968 -0.002059438 0.029716516 0.022172526 0.029233221 -0.020877305 -0.036114156
0.05581538 0.02726985 -0.034725394 -0.017219605 0.04990836 -0.031470377 0.03874848 0.06204191
0.018599557 -0.008506245 0.03509039 0.055236436 0.004656826 -0.03526139 0.018589195 0.065309085
0.019994205 -0.055897947 0.02098957 -0.003567462 0.0063207643 -0.0150523065 -0.03520366 -0.024953963
0.012805304 -0.016731469 -0.053566907 -0.05756285 -0.032055907 0.034860864 -0.017896654 0.029734414
0.03848673 -0.0036707097 0.011190405 0.03716233 -0.025625486 0.056834277 0.060091354 -0.0043769875
-0.061942704 -0.050425846 -0.03234525 -0.009780625 -0.021489976 -0.010925548 0.052222695 0.037301343
-0.030283757 -0.016374765 -0.042083763 -0.042936794 0.01525454 0.014115359 -0.019848013 0.043823294
0.047858793 -0.031499334 -0.044201486 0.018620957 -0.005161527 -0.0012726577 -0.0321947 0.03510106
-0.015407423 -0.024303852 0.038033333 0.035153512 0.010028049 0.047747143 0.035022955 -0.026740452
0.043289356 0.019411018 0.020725902 0.025280925 0.047693558 -0.0632461 -0.058937 -0.04559147
0.00072581274 -0.0051208436 0.022496803 0.03950732 0.031304467 0.009447535 -0.04362825 0.037150286
00000000: 646f b8bc aa21 103d 0009 483c 1341 003d
00000010: b012 01bd 3dab 413d d61b 2c3d 5344 513a
00000020: 2497 07bd 6af3 ab3b 670e dabc 3477 1a3d
00000030: 5707 323d 511d 12bd 86f9 0c3d 1565 dfbc
00000040: 8008 703d 4448 843c 5ddb 3bbd 2409 333d
00000050: daa9 083d d91f ef3c 20fd 2abd a7fd 7c3c
00000060: 956b 57bd aa8c bfbc 46ab 31bd de73 5d3b
00000070: beb6 3d3d 922f 343d d3ad f0bc 24b6 bebc
00000080: 902b 52bd 9aff 153d b22c 18bd 1595 ce3a
00000090: 7c99 493d 5a6f 22bd d124 1c3d cec4 3abd
000000a0: 20fa d8bc 83f9 7c3d 08d3 043d fa51 5abd
000000b0: b9b8 243d 80b7 b53c 19e3 0a3d 04f0 05ba
000000c0: a1ca 643d 66c9 e43c 39cd 9d3c d2e2 0cbd
000000d0: 5c61 883c 7072 be3c a1a4 0cbd 544a 873d
000000e0: d949 0bbd e9d6 4c3d 71b4 53bc c92e 253d
000000f0: 7fcf 0cbd 6a04 5ebc e4eb 06bd 67fc 933c
00000100: acf6 19bd 65a6 4abd 954f 953c 6e6d 2bbd
00000110: f567 27bc 84ce 353d 299b ad3c a1c8 b4bc
00000120: 3dd2 cd3c 8641 aebb e81d bd3c 8e06 e63b
00000130: 3daa ba3c f2ac 4abd 9f9a 3ebd ef7c dcbc
00000140: 80ee 0a3d f6a2 5a3d 65b6 38bd abae 3cbd
00000150: c7c1 5fbd 543f cabc 4212 2dbd 3847 cb3c
00000160: ccd1 563d 1bfa 863d 3478 483c 6151 f73c
00000170: 4c91 f83c 6e42 7dbd a103 92bd f722 16bd
00000180: 964d 1f3d 2f36 423d 5505 e2bc d42e 483d
00000190: ddbf 13bd 99f1 2a3d ecf0 1d3d d481 d63b
000001a0: 7a0c 01bd 7692 f4bc 2d6a fa3c 432a 2b3d
000001b0: a710 2c3d 1ddf 40bd 234b 06bd 785d 80bc
000001c0: b96a 643d e0c5 97bc 8d0e 493d 3321 493d
000001d0: b624 103d 9691 a33c 35d8 b9bc 0f10 2a3d
000001e0: c10b 263d 70b9 4fbd db82 523d 8ce9 abbd
000001f0: 3865 debc 90e1 163d b67b 023d 84db 1f3c
00000200: 01da 633d 42fa 90bc aa7b 51bd f9f3 8fbc
00000210: a862 6a3d 183b 0bbd 4e8b 95bd d1be 8ebd
00000220: 796e 37bd 1c56 d5bb 2cb8 f5bc 09a7 6b3d
00000230: 40f8 623d dac7 bebb 2cd4 183d 6d29 23ba
00000240: 8c1c 34bb 6178 343d ad2e 3cbc 2c09 d6bc
00000250: 9c0a 3ebd c5a9 cdbc 87c6 8e3c 58a0 3dbc
00000260: ad69 493d e524 3b3d 5f41 693b 3ed4 efbc
00000270: d791 0c3d 5d85 1f3d a657 18bd 6d66 ac3c
00000280: bc80 0c3d d634 8bbc a3f7 06bb 0d70 f33c
00000290: 28a3 b53c 827a ef3c e206 abbc 70ec 13bd
000002a0: ab9e 643d 0565 df3c 373c 0ebd 2110 8dbc
000002b0: b56c 4c3d 15e7 00bd bab6 1e3d a81f 7e3d
000002c0: 195e 983c c75d 0bbc f1ba 0f3d 9a3f 623d
000002d0: 4a98 983b 3f6e 10bd 5e48 983c c5c0 853d
000002e0: e3ca a33c 3ff5 64bd 52f2 ab3c 15cc 69bb
000002f0: 6a1e cf3b f39d 76bc b731 10bd 416c ccbc
00000300: 56cd 513c 6f10 89bc f968 5bbd 06c7 6bbd
00000310: 0e4d 03bd 44ca 0e3d 019c 92bc 9695 f33c
00000320: 43a4 1d3d 4a90 70bb f657 373c 8737 183d
00000330: 8aec d1bc 0fcb 683d 5a22 763d d56c 8fbb
00000340: a2b7 7dbd 558b 4ebd 747c 04bd ea3e 20bc
00000350: bf0b b0bc 1201 33bc 77e7 553d 4bc9 183d
00000360: a415 f8bc 5f24 86bc 0660 2cbd 7ede 2fbd
00000370: 2eee 793c 1b44 673c 4d98 a2bc 0e80 333d
00000380: 9507 443d 7205 01bd 9e0c 35bd fa8a 983c
00000390: 0722 a9bb 4ecf a6ba 97de 03bd 21c6 0f3d
000003a0: 6a6f 7cbc df18 c7bc d7c8 1b3d 21fd 0f3d
000003b0: b04c 243c 8292 433d 3b74 0f3d cb0e dbbc
000003c0: 2e50 313d db03 9f3c 5ec9 a93c f119 cf3c
000003d0: 525a 433d 2c87 81bd ec67 71bd 1fbe 3abd
000003e0: 7844 3e3a c0cc a7bb 374b b83c 6dd2 213d
000003f0: 1d39 003d d5c9 1a3c 89b3 32bd e62a 183d

network_body.linear_encoder.seq_layers.0.bias f4 [256]
-0.0116019575 0.027941048 0.014106403 0.021406982 0.0011319233 0.02377167 0.028595908 0.017683875
0.0029078168 0.011887792 0.008591229 0.02018527 0.018522646 -0.014019199 0.019023234 0.007623174
-0.0029845915 0.024260918 0.0036439223 0.014989835 0.015292205 0.021525146 -0.0014760224 0.0023356935
-0.00045660135 -0.008772126 0.017958999 0.023115601 0.024452522 0.029783633 0.00080691604 0.00051843515
0.0048078587 0.02210577 0.0357648 0.012538314 0.022171877 -0.0018083997 0.02210264 0.0078026536
0.0058628786 0.024267413 0.015410224 -0.00037687516 0.022652345 0.017180715 0.01654168 -0.016157882
0.032119893 0.013331988 0.0028864124 -0.0052735107 0.01774574 0.0074247243 -0.022616748 0.01630158
0.008182442 0.032981962 -0.014519553 0.010089755 0.006595301 0.013694697 -0.0086632 0.02996853
0.00088425464 -0.008925122 0.018649608 0.007873986 0.0025247193 0.026775949 0.015081345 -0.003171149
0.0051181447 0.024032447 0.012079617 0.011446521 0.013372395 0.0040756087 0.006336384 0.0061034793
0.018336551 0.023953656 0.012373951 0.015014461 -0.00058456906 0.025684042 -0.012554467 0.032756403
0.02608396 0.024076378 0.00514763 0.024230078 0.01764593 -0.011486522 0.000629869 0.0014409143
0.014375687 0.016161883 0.012158272 0.00963398 0.0011548563 0.02561864 0.022551479 0.014106945
0.012228531 0.017674113 0.0131505085 0.02203119 0.035850693 -0.0015387554 -0.0055170287 0.0037428262
0.029320413 -0.0032795328 0.025135534 0.0060062013 0.02558772 0.027790373 -0.0012780896 0.0040167794
0.024319666 0.009914164 0.015002835 -0.010150557 -0.009611397 0.019252481 0.00523315 0.013004185
0.021840964 0.008925109 -0.001133161 0.0008109656 0.03228113 -0.0004917492 0.017066522 -0.005803605
-0.0031823954 -0.0014858283 0.015995277 0.0187343 0.02224894 -0.0025429248 0.02841563 0.011956894
-0.0036656305 0.029244833 0.023015112 0.015622589 0.003960755 0.017792022 0.03515188 -0.0022582796
0.021151587 0.018744286 0.012204616 8.342756e-06 0.022923192 0.00969433 0.018731538 0.019360092
0.025234602 0.022126772 0.0040473114 0.022233702 0.022451557 0.010060356 -0.012630042 0.0040803594
0.01230137 0.020589756 -0.0074369074 -0.011248166 0.013877652 0.0017069113 0.022752602 0.020381998
0.020807661 0.01495736 0.018955657 0.029332489 0.028599996 0.010629757 0.01339085 0.030465353
0.01687057 0.015277701 0.011040404 0.021199051 0.015413485 0.01624712 0.00088020175 -0.008119352
0.016176362 -0.005734856 -0.0066574127 0.01707454 -0.0028454273 0.033229664 -0.0045344047 0.0011167147
0.01622929 0.0074132136 0.0053718057 0.0109050665 0.010998214 0.020283503 0.031136457 0.012865564
0.011138121 -0.010587701 -0.010810777 0.032570507 0.0161683 -0.0135244075 0.022070112 0.022493504
-0.010840342 0.0327396 0.003913186 0.022332216 0.014745391 0.024997668 0.0034641884 0.02737969
0.020193923 -0.0015351536 -0.004815982 0.008791865 0.012809755 0.022177877 -0.0009960968 0.02706659
0.014139877 -0.003018021 0.029053345 -0.0007419197 0.027238788 0.008403999 0.020829542 0.015693752
0.01949515 0.029050795 -0.0075644003 -0.0020831432 0.022104127 0.009860756 0.010105637 0.008223814
0.021484824 0.022469861 0.02665062 0.027376175 0.023463404 -0.0050539267 0.007835113 0.015466186
00000000: 2316 3ebc a0e4 e43c 8b1e 673c b25d af3c
00000010: 0b5d 943a cebc c23c f741 ea3c c6dd 903c
00000020: 1291 3e3b 03c5 423c 3ac2 0c3c 945b a53c
00000030: cebc 973c c8b0 65bc 9dd6 9b3c d2cb f93b
00000040: 2399 43bb d5be c63c dfce 6e3b ed97 753c
00000050: 288c 7a3c 8155 b03c 1877 c1ba 6f12 193b
00000060: ff63 efb9 f7b8 0fbc c01e 933c ee5c bd3c
00000070: a850 c83c cefc f33c 3887 533a 98e7 073a
00000080: 3e8b 9d3b 2917 b53c 1c7e 123d 806d 4d3c
00000090: cca1 b53c d307 edba 9810 b53c 67ad ff3b
000000a0: 641d c03b 74cc c63c 2a7b 7c3c 5497 c5b9
000000b0: 6991 b93c 92be 8c3c 6b82 873c 895d 84bc
000000c0: 2690 033d 696e 5a3c f729 3d3b 6acd acbb
000000d0: 845f 913c 1a4b f33b c246 b9bc e48a 853c
000000e0: a60f 063c 1818 073d 6be3 6dbc 804f 253c
000000f0: 651d d83b b95f 603c 18f0 0dbc 9080 f53c
00000100: 53cd 673a ad3a 12bc 10c7 983c e401 013c
00000110: c375 253b 3c59 db3c bf17 773c 0dd3 4fbb
00000120: 1cb6 a73b b2df c43c 96e9 453c 308a 3b3c
00000130: e417 5b3c af8c 853b 71a1 cf3b b2ff c73b
00000140: 8936 963c 753a c43c 1dbc 4a3c 37ff 753c
00000150: c43d 19ba 5767 d23c 40b1 4dbc 942b 063d
00000160: 07ae d53c d33b c53c 73ad a83b 287e c63c
00000170: 338e 903c f731 3cbc cb1d 253a 10dd bc3a
00000180: 0088 6b3c ed65 843c 7d33 473c d7d7 1d3c
00000190: 8c5e 973a 2fde d13c e1bd b83c d120 673c
000001a0: 2d5a 483c 4dc9 903c 3b75 573c c17a b43c
000001b0: 2dd8 123d 10b0 c9ba 31c8 b4bb 344a 753b
000001c0: 5d31 f03c 6eed 56bb 09e9 cd3c abcf c43b
000001d0: 579d d13c a3a8 e33c 9285 a7ba 309f 833b
000001e0: 093a c73c 056f 223c 73ce 753c 864e 26bc
000001f0: 1f79 1dbc 61b7 9d3c d87a ab3b 810f 553c
00000200: d2eb b23c 9f3a 123c 9386 94ba fb96 543a
00000210: 3839 043d bbe8 00ba 17cf 8b3c 2b2c bebb
00000220: bc8f 50bb 20c0 c2ba 8708 833c ad78 993c
00000230: 6943 b63c 33a7 26bb e5c7 e83c d9e6 433c
00000240: 133b 70bb dc92 ef3c 308a bc3c e3f5 7f3c
00000250: 39c9 813b 93c0 913c 6bfb 0f3d a5ff 13bb
00000260: 1846 ad3c 9e8d 993c dff5 473c ddf7 0b37
00000270: 6bc9 bb3c f8d4 1e3c e272 993c 0e99 9e3c
00000280: ccb8 ce3c 3443 b53c 4f9f 843b 7423 b63c
00000290: 54ec b73c 31d4 243c 3cee 4ebc 89b4 853b
000002a0: af8b 493c d9ab a83c 4db1 f3bb 3a4a 38bc
000002b0: 175f 633c 70ba df3a aa63 ba3c 26f8 a63c
000002c0: d474 aa3c b70f 753c e548 9b3c b04a f03c
000002d0: 8a4a ea3c 6f28 2e3c 4c65 5b3c 7a92 f93c
000002e0: 2634 8a3c 534f 7a3c d0e2 343c a2a9 ad3c
000002f0: d788 7c3c ae18 853c 57bd 663a 0807 05bc
00000300: 4a84 843c 75eb bbbb 6d26 dabb e8df 8b3c
00000310: 597a 3abb d41b 083d 5895 94bb ba5e 923a
00000320: 4af3 843c 8bea f23b f905 b03b 2aab 323c
00000330: da31 343c 9729 a63c e211 ff3c 16ca 523c
00000340: aa7c 363c 0978 2dbc af1f 31bc a768 053d
00000350: 6273 843c 7a95 5dbc 61cc b43c 4c44 b83c
00000360: b19b 31bc f519 063d 2f3a 803b 0df2 b63c
00000370: a796 713c e9c7 cc3c 7007 633b 5f4b e03c
00000380: ba6d a53c 3537 c9ba 63cf 9dbb c10b 103c
00000390: 02e0 513c 61ae b53c 768f 82ba c1ba dd3c
000003a0: f1aa 673c fdc9 45bb 4801 ee3c 637d 42ba
000003b0: e123 df3c edb0 093c b7a2 aa3c 2f90 803c
000003c0: 4bb4 9f3c effb ed3c cade f7bb 5885 08bb
000003d0: b713 b53c 028f 213c 1d92 253c 2dbd 063c
000003e0: f100 b03c b712 b83c 6752 da3c 0044 e03c
000003f0: 5336 c03c 699b a5bb d95e 003c e365 7d3c

network_body.linear_encoder.seq_layers.0.weight f4 [256, 256]
0.03137738 0.02468266 -0.08864494 -0.04833036 0.09944392 -0.009802256 -0.1579942 0.02719961
0.102964215 0.006989552 0.090056404 0.0769388 -0.025801308 0.07236553 0.06527858 -0.008105374
-0.00041493995 -0.11127001 -0.028184537 0.053649306 0.0076893317 -0.12017681 0.11305827 -0.08093191
0.038140807 -0.048389755 0.11464597 -0.011316769 -0.102848075 -0.1212493 -0.07398946 0.031149691
-0.014750729 -0.013792217 0.086488076 -0.1358907 0.06846971 0.043511815 -0.051634762 -0.12757337
0.103740744 0.1564308 0.016082449 0.0045794733 -0.048000295 0.1264199 -0.020713616 0.054903753
-0.01057469 -0.0051303306 0.075318344 0.06881982 -0.14623834 -0.016369546 0.01726111 -0.047704823
-0.0052560517 0.014473581 -0.09470095 -0.08324922 -0.053860128 -0.057038274 -0.04334744 0.03559754
0.024961267 0.031998593 -0.05423583 0.05060118 0.0076274746 -0.03673903 -0.024216339 0.020737236
-0.042908877 0.046395425 -0.06903852 0.008060933 -0.020791877 0.09474004 -0.08300305 -0.05416479
0.0144068375 0.011398805 -0.06863787 0.09872729 -0.046067446 -0.023005579 0.049942616 0.096241765
0.022038035 -0.015211563 -0.08206313 0.18051368 0.09302561 -0.1110682 -0.038078547 -0.076061025
0.073020205 -0.13674442 0.08117817 0.034818754 0.022799531 -0.052891232 -0.059689257 -0.13257514
-0.0019516314 0.090389386 -0.118102364 0.06062508 0.0022736026 0.011535653 -0.0014744522 0.1091931
0.007014698 0.0012697157 -0.20268258 -0.01517522 -0.026959497 -0.026318114 -0.09633559 -0.04383642
-0.010661432 -0.08691377 -0.114782326 -0.06084313 0.040724985 -0.0989728 -0.040857825 -0.0813383
-0.01895447 0.10010474 -0.0644271 -0.07413947 -0.045990024 0.03356719 0.067007214 0.02727136
-0.021041093 0.1209644 0.073364295 -0.07970551 -0.05112896 -0.024735838 0.12192675 -0.054983873
-0.0012290541 -0.027026035 -0.005911245 -0.049845856 0.079234675 0.009502464 0.06965943 -0.0264196
0.060451996 -0.0515255 0.036955696 -0.009444837 0.030054016 0.021791944 -0.07702296 0.041120708
0.009560947 -0.020409742 0.04594732 -0.13668476 0.03809618 0.04990009 0.08942178 0.047964536
0.030729761 -0.08869483 -0.12759438 -0.0031947172 -0.08191322 -0.01442205 0.047118828 -0.01587061
0.027997382 -0.011995807 0.023340372 0.099573106 0.01771532 0.07286324 0.04245516 0.04008627
-0.17149429 0.014463091 0.06085726 -0.020525075 -0.05721558 -0.09120998 -0.07447179 -0.07652656
-0.009597658 -0.079075776 -0.024298517 0.11883914 0.05998086 -0.08475314 -0.05639615 -0.037161615
0.0002738852 0.033367254 -0.100724205 -0.055012476 0.004169232 0.11563567 -0.11148674 -0.090108424
-0.012760701 0.011528394 -0.14832582 0.035816744 -0.009820216 -0.04678005 -0.07652708 0.010185261
0.058443055 -0.1124691 -0.05520434 -0.03892783 -0.026882641 0.034769557 -0.04589156 -0.02787418
-0.17127916 -0.04794023 -0.09243509 -0.04351109 -0.05060479 0.015334466 -0.049229283 0.0070631783
0.087200336 0.01436832 -0.096405596 0.024485655 -0.011458326 -0.10288749 -0.06525618 0.06729691
-0.08341548 -0.10058663 0.057795495 -0.03450377 -0.036548648 -0.0956368 -0.12453304 -0.07748816
-0.039612126 0.030055268 -0.048666894 0.08975655 -0.049177613 -0.036171474 0.015489415 -0.015160056
00000000: 9185 003d 4a33 ca3c 7a8b b5bd 0ef6 45bd
00000010: 41a9 cb3d a499 20bc 3bc9 21be b7d1 de3c
00000020: e7de d23d 9d08 e53b 7e6f b83d 1792 9d3d
00000030: 445d d3bc 6134 943d c7b0 853d 67cc 04bc
00000040: 4c8c d9b9 88e1 e3bd 42e3 e6bc 60bf 5b3d
00000050: caf6 fb3b 421f f6bd 188b e73d a1bf a5bd
00000060: 8939 1c3d 5634 46bd 82cb ea3d f869 39bc
00000070: 03a2 d2bd 8e51 f8bd c987 97bd a32d ff3c
00000080: 0bad 71bc c0f8 61bc a920 b13d ef26 0bbe
00000090: d939 8c3d 7239 323d f97e 53bd 98a2 02be
000000a0: 0776 d43d 652f 203e 57bf 833c 680f 963b
000000b0: f59b 44bd 3874 013e 9aaf a9bc c2e2 603d
000000c0: 7741 2dbc 551c a8bb 8140 9a3d 68f1 8c3d
000000d0: 81bf 15be 6d19 86bc 2c67 8d3c 2266 43bd
000000e0: f53a acbb 9922 6d3c 92f2 c1bd 917e aabd
000000f0: 709c 5cbd f7a0 69bd 168d 31bd bace 113d
00000100: 927b cc3c f510 033d 6426 5ebd 2f43 4f3d
00000110: e5ef f93b aa7b 16bd 5861 c6bc 23e1 a93c
00000120: 38c1 2fbd 2109 3e3d 1164 8dbd 0112 043c
00000130: ba53 aabc 1107 c23d 81fd a9bd e6db 5dbd
00000140: a80a 6c3c 0ec2 3a3c 0392 8cbd 8931 ca3d
00000150: 38b1 3cbd 3276 bcbc a190 4c3d 671a c53d
00000160: 1c89 b43c eb39 79bc b710 a8bd 94d8 383e
00000170: 3684 be3d b977 e3bd 40f8 1bbd e2c5 9bbd
00000180: 9e8b 953d bb06 0cbe be40 a63d 1c9e 0e3d
00000190: 15c6 ba3c 7aa4 58bd b97c 74bd c7c1 07be
000001a0: e2cd ffba 121e b93d a7df f1bd 0152 783d
000001b0: b900 153b 0900 3d3c 6842 c1ba a2a0 df3d
000001c0: 8ddb e53b 976c a63a 068c 4fbe 7ca1 78bc
000001d0: 2ada dcbc 1699 d7bc 984b c5bd d18d 33bd
000001e0: 49ad 2ebc d9ff b1bd ff12 ebbd a536 79bd
000001f0: 3ecf 263d 40b2 cabd 895a 27bd b294 a6bd
00000200: 6846 9bbc b703 cd3d 5bf2 83bd 6fd6 97bd
00000210: 0960 3cbd c07d 093d 143b 893d 3068 df3c
00000220: 5f5e acbc 2fbc f73d 0540 963d a43c a3bd
00000230: 9a6c 51bd d0a2 cabc bbb4 f93d c536 61bd
00000240: 3618 a1ba b465 ddbc 1eb3 c1bb 2b2b 4cbd
00000250: ca45 a23d 39b0 1b3c 9aa9 8e3d eb6d d8bc
00000260: 839c 773d 670c 53bd db5e 173d 85be 1abc
00000270: d733 f63c 0585 b23c 37be 9dbd 306e 283d
00000280: 85a5 1c3c 5532 a7bc 4233 3c3d 17f7 0bbe
00000290: bd0a 1c3d 0964 4c3d c422 b73d 7676 443d
000002a0: fbbc fb3c a3a5 b5bd 1aa8 02be 765e 51bb
000002b0: 1ec2 a7bd 764a 6cbc acff 403d 1503 82bc
000002c0: c45a e53c 108a 44bc 4f34 bf3c fcec cb3d
000002d0: b81f 913c 5339 953d 76e5 2d3d 8031 243d
000002e0: 339c 2fbe 9af6 6c3c 7645 793d 3424 a8bc
000002f0: e25a 6abd 4ccc babd aa84 98bd f5b9 9cbd
00000300: 7f3f 1dbc 7bf2 a1bd af0d c7bc ef61 f33d
00000310: 7eae 753d 0e93 adbd a6ff 66bd c736 18bd
00000320: 4098 8f39 1aac 083d 7e48 cebd c354 61bd
00000330: 0e9e 883b 65d2 ec3d 2953 e4bd c48a b8bd
00000340: 4212 51bc 97e1 3c3c b9e2 17be 94b4 123d
00000350: f9e4 20bc 709c 3fbd 3bba 9cbd 15e0 263c
00000360: fc61 6f3d 3356 e6bd f21d 62bd ca72 1fbd
00000370: fc38 dcbc 866a 0e3d caf8 3bbd 6458 e4bc
00000380: ce63 2fbe fa5c 44bd 9c4e bdbd af38 32bd
00000390: f846 4fbd 693d 7b3c a5a4 49bd 3c72 e73b
000003a0: 1796 b23d 1a69 6b3c 4c70 c5bd 2496 c83c
000003b0: b4bb 3bbc adb6 d2bd 08a5 85bd f6d2 893d
000003c0: bcd5 aabd 5d00 cebd f8ba 6c3d d353 0dbd
000003d0: 09b4 15bd 3add c3bd 2e0b ffbd 1db2 9ebd
000003e0: 5340 22bd 7736 f63c f056 47bd 48d2 b73d
000003f0: 776e 49bd 8a28 14bd 51c7 7d3c e261 78bc

network_body.processors.0.conv_layers.0.bias f4 [16]
0.04035438 0.0037590223 0.03984972 -0.02170254 0.022991894 0.08463592 0.018397773 0.08188528
-0.00015705256 0.06548695 0.03882514 0.05030674 0.010190127 0.039840292 0.08359954 0.060330052
00000000: a24a 253d ee59 763b 7639 233d 86c9 b1bc
00000010: 7f59 bc3c 9955 ad3d edb6 963c 78b3 a73d
00000020: 7aae 24b9 061e 863d 1c07 1f3d 710e 4e3d
00000030: 7ef4 263c 932f 233d 3c36 ab3d a51c 773d

network_body.processors.0.conv_layers.0.weight f4 [16, 5, 8, 8]
0.015816467 0.04794328 -0.012711859 0.093826085 -0.034566864 -0.08181886 -0.0082112225 -0.0778086
0.011654679 -0.010195629 0.060780607 0.061696596 0.08887356 0.01658572 -0.03148338 -0.04212788
-0.033912554 0.013735099 0.10393238 0.083264835 0.07012592 -0.009984085 -0.034412786 -0.05325298
0.06660993 0.10482745 0.16016977 0.0674252 0.07584182 0.020856466 -0.03075822 0.010779771
0.012497502 0.1353596 0.13834101 0.111570075 0.058465905 0.03492973 -0.01823849 -0.03566284
0.02752083 0.09664238 0.099436946 0.14844032 0.11914138 0.044844143 -0.036111433 -0.07753622
0.07889366 0.083333865 0.028321367 0.06251399 0.021874266 0.014319787 0.0012453714 -0.061557274
0.09073901 0.04589174 0.031963002 0.055303458 0.0845333 0.0012293342 0.010285063 -0.07240124
-0.0026291749 0.015651606 0.012673116 -0.012658532 -0.025328383 -0.0031459206 0.042879984 0.056335893
-0.057811387 -0.054469943 0.029768579 0.0117334165 0.014210109 -0.032576606 0.025841977 0.054140937
-0.019547157 0.024680639 -0.046880413 0.028483301 0.016192459 -0.058500342 0.03178057 -0.024050608
-0.03393622 -0.002521626 0.019594753 -0.024003888 -0.008377263 0.027966605 0.046418086 0.039554965
-0.06421427 0.056302235 0.035266597 -0.015278638 0.028237494 -0.041325383 0.034525964 0.0542163
-0.016738556 0.024832664 -0.029064069 -0.028637124 -0.06350956 0.018186945 0.015348529 0.0724028
-0.1166564 0.00089673896 0.052911833 0.01229215 -0.039721955 0.0049393983 0.047084536 0.06918835
-0.032860883 -0.065904714 0.05986462 0.05110195 -0.035411123 -0.04929144 0.043452375 0.025090506
0.0013328637 0.02776985 0.011053988 -0.06284804 0.021846378 0.05412196 0.053027213 -0.035604425
-0.010919602 0.013040639 0.006804205 0.044212583 0.021961523 -0.02662502 -0.028435469 -0.017614685
0.05675475 -0.038852237 -0.050088298 -0.051470954 0.045890845 0.042863276 -0.00036678498 0.0346439
-0.022484291 0.022841323 -0.019042421 0.012329132 0.014174129 0.013565322 0.0049331505 0.01130519
-0.026070923 0.0032481696 -0.0068006488 -0.078073055 0.03677126 -0.00030854563 0.0077411337 -0.014208687
-0.032340255 -0.05242443 0.020268578 -0.07047161 -0.03960146 -0.012203175 -0.00044523188 0.023718202
0.00015873111 0.02292184 -0.052128565 0.0068553654 0.044723433 0.028395383 -0.017329196 -0.013237492
0.034289632 -0.07323697 0.04058024 -0.061718207 0.052190885 -0.013524998 0.06286886 0.016564028
0.042359065 -0.07986759 -0.01046656 -0.034615193 -0.04211626 0.03525769 0.014335769 0.005151229
-0.025718926 -0.036761094 -0.07476031 0.04844276 0.06870628 0.0033223596 -0.004531492 0.0681648
-0.027639357 -0.017061723 -0.009207815 0.030454839 0.037771657 0.07031137 0.016722448 -0.019989396
-0.011024002 -0.03779636 0.012408631 -0.018449645 0.047578022 0.04215546 0.09736983 0.022020955
-0.02803462 -0.0014979729 -0.06387542 0.02099817 -0.053409852 0.0710357 0.081328884 0.05273238
-0.051283974 -0.108572826 -0.04694344 0.008457128 -0.0073521337 0.011602787 -0.04771693 -0.042652857
-0.037683047 -0.017832415 0.014332941 -0.01001019 -0.0019731184 -0.053250056 0.018743029 0.036905013
-0.036029007 -0.043238632 -0.023684897 -0.048035804 -0.025899507 -0.03468 -0.024659134 0.06383269
00000000: 8991 813c 2c60 443d 6745 50bc e427 c03d
00000010: fc95 0dbd a590 a7bd 5d88 06bc 1e5a 9fbd
00000020: 44f3 3e3c 910b 27bc 16f5 783d 92b5 7c3d
00000030: 5703 b63d c7de 873c b7f4 00bd 498e 2cbd
00000040: e4e7 0abd 2e09 613c 80da d43d c186 aa3d
00000050: 2e9e 8f3d 4a94 23bc 6cf4 0cbd cc1f 5abd
00000060: c96a 883d c6af d63d 8b03 243e 3916 8a3d
00000070: f552 9b3d 2edb aa3c aaf8 fbbc a39d 303c
00000080: 53c2 4c3c b59b 0a3e 44a9 0d3e da7e e43d
00000090: f279 6f3d 7a12 0f3d e368 95bc 3313 12bd
000000a0: 5d73 e13c 71ec c53d 99a5 cb3d bd00 183e
000000b0: 6500 f43d 7eae 373d 95e9 13bd 4fcb 9ebd
000000c0: 0093 a13d f2aa aa3d 3602 e83c 5607 803d
000000d0: a931 b33c 8a9d 6a3c bb3b a33a 7b23 7cbd
000000e0: 60d5 b93d faf8 3b3d a3eb 023d e185 623d
000000f0: cb1f ad3d 9c21 a13a ae82 283c 1a47 94bd
00000100: 3c4e 2cbb cc37 803c e7a2 4f3c bb65 4fbc
00000110: 787d cfbc ca2b 4ebb eca2 2f3d 77c0 663d
00000120: a2cb 6cbd e01b 5fbd 3cdd f33c 843d 403c
00000130: 84d1 683c 0c6f 05bd 8eb2 d33c e3c2 5d3d
00000140: 5c21 a0bc 0d2f ca3c ad05 40bd d055 e93c
00000150: 0ca6 843c 0e9e 6fbd 582c 023d c805 c5bc
00000160: b500 0bbd dd41 25bb 2d85 a03c cda3 c4bc
00000170: ca40 09bc 391a e53c e420 3e3d 6304 223d
00000180: c582 83bd 2c9d 663d b573 103d 4153 7abc
00000190: 5152 e73c ce44 29bd 196b 0d3d e911 5e3d
000001a0: 4c1f 89bc df6d cb3c c517 eebc 6798 eabc
000001b0: 4d11 82bd cafc 943c 6678 7b3c eb47 943d
000001c0: 8de9 eebd 2213 6b3a 14ba 583d 0465 493c
000001d0: 7db3 22bd adda a13b b7db 403d 9fb2 8d3d
000001e0: 2299 06bd 0df9 86bd 9b34 753d 4750 513d
000001f0: 410b 11bd d2e5 49bd 1efb 313d 9b8a cd3c
00000200: 7cb3 ae3a 997d e33c c91b 353c 79b6 80bd
00000210: 2df7 b23c fdae 5d3d 1033 593d f2d5 11bd
00000220: 21e8 32bc 68a8 553c cff5 de3b 4118 353d
00000230: a7e8 b33c b71c dabc 80f1 e8bc ac4c 90bc
00000240: ab77 683d 8623 1fbd 6329 4dbd 35d3 52bd
00000250: 0af8 3b3d 6791 2f3d 0c4d c0b9 c3e6 0d3d
00000260: fa30 b8bc ba1d bb3c dafe 9bbc 2100 4a3c
00000270: 9b3a 683c 1641 5e3c 44a6 a13b 6739 393c
00000280: b092 d5bc 3edf 543b fad7 debb c4e4 9fbd
00000290: 769d 163d 4bc4 a1b9 56a9 fd3b 8dcb 68bc
000002a0: 3777 04bd 00bb 56bd 4a0a a63c 6b53 90bd
000002b0: 2435 22bd d3ef 47bc 036e e9b9 ad4c c23c
000002c0: 0f71 2639 95c6 bb3c c384 55bd f9a2 e03b
000002d0: eb2f 373d 6f9d e83c f5f5 8dbc 11e2 58bc
000002e0: 4973 0c3d 44fd 95bd 7737 263d 3bcc 7cbd
000002f0: 1cc6 553d f497 5dbc 64c1 803d 49b1 873c
00000300: b380 2d3d 9e91 a3bd ef7b 2bbc a9c8 0dbd
00000310: 1982 2cbd 5e6a 103d 93e0 6a3c a4cb a83b
00000320: 7fb0 d2bc cd92 16bd ef1b 99bd ea6b 463d
00000330: e1b5 8c3d f2bb 593b e97c 94bb fd99 8b3d
00000340: ef6b e2bc 07c5 8bbc 60dc 16bc 6d7c f93c
00000350: 74b6 1a3d 68ff 8f3d 84fd 883c cdc0 a3bc
00000360: 049e 34bc 5bd0 1abd 924d 4b3c b623 97bc
00000370: 2ce1 423d 34ab 2c3d d569 c73d 4a65 b43c
00000380: dca8 e5bc a157 c4ba 1ed1 82bd 5b04 ac3c
00000390: 4ac4 5abd 2a7b 913d c28f a63d e8fd 573d
000003a0: 250f 52bd 6e5b debd c447 40bd c48f 0a3c
000003b0: 2bea f0bb 9e19 3e3c d472 43bd c3b4 2ebd
000003c0: 8a59 1abd 4915 92bc b6d4 6a3c c801 24bc
000003d0: 6f4f 01bb bb1c 5abd fb8a 993c b629 173d
000003e0: 2793 13bd fe1a 31bd d406 c2bc 31c1 44bd
000003f0: 342b d4bc 9e0c 0ebd f401 cabc b7ba 823d

network_body.processors.0.conv_layers.2.bias f4 [32]
0.044633754 0.047851074 0.0048436145 0.020270616 -0.029398913 -0.020053616 0.056854196 0.0033641441
-0.04848315 -0.05977532 -0.007991802 0.065384194 0.050476097 -0.044058617 -0.03564261 -0.007998297
0.038736198 0.054992612 0.0051658084 -0.03222762 0.025766093 -0.017772546 -0.034633853 -0.033556223
0.0025486697 -0.004041582 0.03234611 -0.045763068 -0.062641256 -0.031080928 -0.0042259446 0.039237894
00000000: e2d1 363d 7dff 433d 2fb7 9e3b 900e a63c
00000010: fdd5 f0bc 7b47 a4bc f2df 683d f978 5c3b
00000020: 4496 46bd f7d6 74bd 0cf0 02bc 26e8 853d
00000030: 06c0 4e3d cf76 34bd fcfd 11bd 4a0b 03bc
00000040: d9a9 1e3d ef3f 613d f145 a93b 1c01 04bd
00000050: 6a13 d33c bb97 91bc 3adc 0dbd 4072 09bd
00000060: 9507 273b 3f6f 84bb 5b7d 043d 0e72 3bbd
00000070: 0f4a 80bd 6e9d febc cb79 8abb eab7 203d

network_body.processors.0.conv_layers.2.weight f4 [32, 16, 4, 4]
0.017299367 0.047746066 -0.0435623 0.004669086 -0.04843828 0.04232085 -0.006615235 -0.033760775
0.015339886 -0.011488411 0.063757375 -0.036484066 0.0047202534 -0.06898251 -0.016880343 0.055272464
0.006854097 -0.07394977 -0.030899074 -0.010546748 -0.060836777 0.044268977 0.05332991 -0.08670184
-0.0017680629 -0.008036452 0.018240055 -0.04957677 -0.04616789 -0.036867507 0.06082411 0.03467162
0.038799185 0.011896958 0.0284596 -0.06286575 0.057299502 0.039073262 -0.040286396 -0.09252034
-0.013377745 0.08997293 -0.032421328 -0.025200758 0.027863326 0.016863225 -0.039982807 0.039872266
-0.035470422 0.009210004 0.09169378 -0.02458304 -0.074793406 0.021390142 0.011517359 -0.047819536
0.0077908183 0.030222222 -1.4969204e-05 0.042228002 -0.040155284 -0.017358381 0.04551423 0.07623213
-0.040965106 0.013731501 -0.10041722 -0.022510365 0.005362163 -0.056837235 -0.017090686 -0.055290215
-0.033373915 -0.062933035 0.028238956 0.0189849 -0.118713185 -0.041497342 -0.003812801 0.047271673
-0.005118626 0.056208488 0.049188346 0.05249561 0.042440627 -0.01238204 -0.030265393 -0.024430675
-0.0113249095 -0.034033403 -0.009234192 0.058808055 0.061011244 0.020281816 0.022403065 -0.016820446
-0.055850573 -0.03259879 -0.011459076 -0.014273003 -0.014398008 0.043492876 -0.07751701 -0.021666538
0.010553289 0.022678118 0.011924965 0.07315892 -0.045159247 0.017771266 -0.020383686 0.07358996
-0.05272387 0.001250738 0.018114248 0.02722056 -0.049616694 0.028042668 0.013769365 -0.012530919
0.03165457 0.0036159388 0.0156080825 0.030005015 0.04984098 0.050411813 0.02984099 0.043554578
-0.041670963 -0.088578574 -0.062229607 -0.051075306 -0.057095848 -0.023810139 -0.0662211 -0.056671087
0.051829774 0.07399954 -0.04084942 -0.076449916 -0.061452687 -0.06987901 0.0600309 0.066295356
0.027254526 -0.002634277 0.084736556 0.040820364 -0.014739926 0.02548712 0.09739111 -0.04131034
0.052603763 0.0052994103 -0.00014635052 0.06818487 0.05836224 0.055099152 0.05405167 0.07642027
0.071709506 0.06664922 0.050951175 -0.015253862 0.019104412 0.08081392 0.0021192892 0.0054932605
0.078040965 0.07689505 -0.006165771 0.039847396 -0.0032884623 0.07304976 0.056037158 -0.027497804
0.020307977 -0.028270088 0.034179263 0.018315762 0.044666573 -0.06000416 0.0081865275 -0.040554345
0.014102503 0.0038883337 -0.03232893 -0.049867403 0.053426716 -0.0054742033 0.024276169 0.025024045
0.03270269 -0.043257594 0.06814522 0.059218574 -0.04001842 -0.028972216 0.041655622 -0.031057125
-0.016617183 -0.04030143 -0.028697921 -0.03191262 -0.028031202 0.008608741 -0.04812679 -0.015812837
-0.014425202 0.015289716 0.016215958 -0.029473966 0.0375523 0.048941955 0.031490944 0.042752977
-0.06483501 -0.016780535 -0.009331221 -0.0013503006 -0.0031327656 -0.03470568 -0.012214856 0.036803376
0.036494683 0.03392098 -0.05736238 -0.035687856 -0.03655149 0.07279273 -0.020207688 0.06195126
0.039505146 -0.05798815 -0.034343213 0.0524915 -0.0796235 0.076549806 0.03336891 -0.01923214
0.09698131 0.05293293 0.008026936 -0.015204777 0.0015522965 0.01486377 0.06678618 0.0015660445
-0.009874607 0.085364744 -0.016195305 -0.0111654205 0.045708362 0.042771194 0.0005853356 -0.048295673
00000000: 67b7 8d3c 6191 433d 626e 32bd 22ff 983b
00000010: 3867 46bd a158 2d3d 9dc4 d8bb bd48 0abd
00000020: 2554 7b3c e339 3cbc 3a93 823d 5170 15bd
00000030: 5bac 9a3b b446 8dbd a548 8abc 6165 623d
00000040: 5598 e03b fa72 97bd 0e20 fdbc 44cc 2cbc
00000050: fc2f 79bd 6353 353d 7770 5a3d bc90 b1bd
00000060: 59be e7ba 53ab 03bc 2b6c 953c 0311 4bbd
00000070: 8b1a 3dbd 6202 17bd b422 793d d403 0e3d
00000080: e5eb 1e3d 75eb 423c 1b24 e93c c2bf 80bd
00000090: e2b2 6a3d 490b 203d 5903 25bd 4e7b bdbd
000000a0: 542e 5bbc ba43 b83d 3acc 04bd d271 cebc
000000b0: a141 e43c bf24 8a3c 03c5 23bd 1a51 233d
000000c0: 6f49 11bd 8ee5 163c f3c9 bb3d 5f62 c9bc
000000d0: 492d 99bd 613a af3c 4eb3 3c3c 6bde 43bd
000000e0: 1f4a ff3b 9894 f73c 3e24 7bb7 45f7 2c3d
000000f0: de79 24bd 2a33 8ebc 216d 3a3d 971f 9c3d
00000100: 07cb 27bd 17fa 603c 8ba7 cdbd a867 b8bc
00000110: 15b5 af3b 29ce 68bd c401 8cbc fe77 62bd
00000120: 16b3 08bd 09e3 80bd 6255 e73c 3986 9b3c
00000130: e61f f3bd 1ef9 29bd 30e0 79bb f19f 413d
00000140: 26ba a7bb df3a 663d b879 493d a305 573d
00000150: 39d6 2d3d 0ade 4abc 21ef f7bc d722 c8bc
00000160: 1d8c 39bc 9c66 0bbd 024b 17bc b7e0 703d
00000170: ede6 793d 0d26 a63c a286 b73c 08cb 89bc
00000180: 92c3 64bd 4f86 05bd d9be 3bbc 50d9 69bc
00000190: 9fe5 6bbc 9625 323d 3dc1 9ebd 067e b1bc
000001a0: b4e7 2c3c 76c7 b93c ee60 433c 58d4 953d
000001b0: e7f8 38bd 0c95 913c b0fb a6bc 55b6 963d
000001c0: fcf4 57bd ceef a33a 5564 943c a7fd de3c
000001d0: e03a 4bbd bdb9 e53c e798 613c 7c4e 4dbc
000001e0: 39a8 013d 63f9 6c3b 0bb9 7f3c 14cd f53c
000001f0: 0e26 4c3d 9e7c 4e3d 1875 f43c 4966 323d
00000200: 2caf 2abd af68 b5bd 79e4 7ebd 5734 51bd
00000210: 56dd 69bd 7b0d c3bc ee9e 87bd f11f 68bd
00000220: 754b 543d 128d 973d b951 27bd c691 9cbd
00000230: d0b5 7bbd ba1c 8fbd f6e2 753d dcc5 873d
00000240: e244 df3c d6a3 2cbb 5c8a ad3d 4133 273d
00000250: bb7f 71bc 5dca d03c fe74 c73d 0835 29bd
00000260: 0b77 573d ada6 ad3b ab75 19b9 82a4 8b3d
00000270: 3f0d 6f3d a6af 613d 4965 5d3d 3b82 9c3d
00000280: 6fdc 923d 637f 883d 2eb2 503d 56eb 79bc
00000290: db80 9c3c c581 a53d c6e3 0a3b cf00 b43b
000002a0: f1d3 9f3d 277b 9d3d 3c0a cabb 0637 233d
000002b0: 3e83 57bb 1d9b 953d 3887 653d 1343 e1bc
000002c0: ea5c a63c ac96 e7bc 8eff 0b3d f00a 963c
000002d0: 4cf4 363d ecc6 75bd c920 063c 501c 26bd
000002e0: 2f0e 673c 6ad3 7e3b 576b 04bd c341 4cbd
000002f0: f9d5 5a3d f260 b3bb d1de c63c 3aff cc3c
00000300: 42f3 053d e02e 31bd b98f 8b3d 2d8f 723d
00000310: 5bea 23bd 2457 edbc 169f 2a3d 836b febc
00000320: c220 88bc 1d13 25bd e717 ebbc cfb6 02bd
00000330: b1a1 e5bc ad0b 0d3c 9920 45bd ec89 81bc
00000340: af57 6cbc b881 7a3c 54d7 843c 6373 f1bc
00000350: 71d0 193d 5c77 483d a6fc 003d bf1d 2f3d
00000360: 38c8 84bd 5577 89bc fae1 18bc 92fc b0ba
00000370: 164f 4dbb 8b27 0ebd d220 48bc 23bf 163d
00000380: 737b 153d baf0 0a3d d1f4 6abd 6e2d 12bd
00000390: 04b7 15bd 5b14 953d 988a a5bc 9bc0 7d3d
000003a0: 26d0 213d fb84 6dbd 78ab 0cbd 5401 573d
000003b0: a511 a3bd 25c6 9c3d d7ad 083d b98c 9dbc
000003c0: 239e c63d 33d0 583d 6983 033c 751d 79bc
000003d0: 6d76 cb3a 2c87 733c 31c7 883d bc43 cd3a
000003e0: 1bc9 21bc b6d3 ae3d 04ac 84bc 2bef 36bc
000003f0: b138 3b3d d930 2f3d 3571 193a afd1 45bd

network_body.processors.0.dense.0.bias f4 [256]
0.029826194 0.0065990672 0.008224637 0.025284253 -0.013939426 0.020251373 0.014926834 0.015667398
0.0124903405 0.022245595 0.0058301846 0.0052106213 0.01256501 0.0051997993 0.028019493 0.029665018
-0.010603037 0.037134096 0.02916204 0.0010698998 0.011021433 0.026206398 0.011192508 0.020577926
0.020863384 0.017554231 0.008898661 0.011457378 0.040116414 0.025326224 0.01766632 -0.004121331
-0.004172175 0.008322353 0.014003386 0.026813349 0.017645493 0.0036472266 0.010318152 0.02227786
0.0020505623 -0.003209572 0.02927808 0.015642991 0.030345717 0.016926972 0.037499543 0.025865816
0.00987702 0.019846428 0.013767528 0.015017388 0.0011013232 0.020469353 0.021482538 0.034996293
0.0009264386 0.015090685 0.016676182 0.002592846 0.012442979 0.017385174 0.018047778 0.012439274
-0.010622641 0.009289501 0.0071194926 0.01287604 0.016851924 0.0066535934 0.012993208 0.014522181
0.02052735 0.0069720317 0.02655981 -0.008101401 0.026381068 0.017363202 0.025191016 0.037462838
0.012267749 0.013014463 0.015805557 0.015512656 0.027342962 0.019251848 0.021314552 0.0052216966
0.031527556 0.023387464 0.016915523 0.019921616 0.014856531 0.017428271 0.0021344076 0.019609386
0.004660705 0.030082716 -0.0020963412 -0.0030032974 0.0029077176 0.0063158004 -0.01850176 0.016909359
0.02198296 0.02178554 0.008503843 -0.0065390235 0.012453044 0.013939549 0.021052504 0.0047676256
-0.00078119716 -0.020166876 0.027024629 -0.00097399077 0.018498462 0.024414893 -0.0052421996 -0.0049827415
0.010345121 0.0020192096 0.022984775 0.009258405 0.01635494 0.021359488 0.024002241 0.008055702
0.02835852 0.006784994 0.016246036 0.021193705 0.0092069125 0.011804049 -0.0006758353 0.012141005
0.02395885 -0.0018193888 -0.009356113 0.027078755 0.026700305 0.018386586 0.009442912 0.01615678
0.0033193717 0.024557196 8.316804e-05 0.028062483 0.014427267 0.016897447 -0.0029093036 -0.0051539806
-0.0074812057 0.013157064 0.033662602 0.020136133 -0.01605672 0.01719711 -0.011574824 0.009249543
0.007932394 0.050611157 0.003187142 0.0070962314 0.021398934 0.017274147 0.0064204508 0.03375001
0.031009518 0.00994378 0.007381828 0.008720253 0.025490781 0.004934243 0.016145628 0.035159137
0.0031320432 0.026714358 0.018531073 0.0236186 0.0057549644 0.0129282465 0.030631294 0.010385287
0.0021701963 0.018275307 0.0172141 -3.678766e-05 0.01340623 0.022518137 0.0047847624 0.0067352233
0.028529098 0.019350372 0.02234496 -0.006592272 0.011764377 0.018423026 -0.0063446383 0.021903163
0.025980864 0.0165557 0.009449475 0.032228366 0.00029217804 -0.002972837 0.011294883 0.013121425
0.008857464 0.022954471 0.029272292 0.05092258 0.025124546 0.016382087 0.0150244115 0.021910219
-0.0064679203 0.03341288 0.025167845 0.024021523 -0.016866915 0.011973949 0.023004526 0.029595887
0.020842338 0.017755736 0.02920339 0.024321934 0.037092652 0.0011503454 0.0071687 0.031114535
-0.003627194 0.028115505 0.02402165 0.013380786 0.038138643 0.00787567 0.0038756912 0.012667383
0.0255222 0.032545645 0.03738716 -0.014772667 0.014890353 0.019829981 0.0056907805 0.015697218
0.00039289665 0.0065255635 0.008036448 0.015402239 0.009431077 0.040441226 -0.009671378 -0.019259997
00000000: 1056 f43c fd3c d83b a1c0 063c ec20 cf3c
00000010: 3162 64bc 35e6 a53c ae8f 743c ea58 803c
00000020: 49a4 4c3c 653c b63c 220b bf3b dcbd aa3b
00000030: 79dd 4d3c 1463 aa3b 2389 e53c 0d04 f33c
00000040: 5cb8 2dbc ec19 183d 3be5 ee3c e13b 8c3a
00000050: 3e93 343c cdae d63c c860 373c 0a93 a83c
00000060: b0e9 aa3c e4cd 8f3c b0cb 113c bab7 3b3c
00000070: 1c51 243d f178 cf3c f5b8 903c 3b0c 87bb
00000080: beb6 88bb 7a5a 083c 756e 653c aba7 db3c
00000090: 488d 903c 4f06 6f3b 770d 293c 0f80 b63c
000000a0: ba62 063b af57 52bb 96d8 ef3c bb25 803c
000000b0: 9597 f83c 6faa 8a3c 1f99 193d 8ce4 d33c
000000c0: 39d3 213c fa94 a23c 3391 613c 7e0b 763c
000000d0: 465a 903a 58af a73c 26fc af3c 4658 0f3d
000000e0: 3edc 723a ec3e 773c 7d9c 883c bdec 293b
000000f0: a3dd 4b3c 5a6b 8e3c efd8 933c 19ce 4b3c
00000100: 960a 2ebc fe32 183c a24a e93b 07f6 523c
00000110: 0c0d 8a3c 6306 da3b 77e1 543c 71ee 6d3c
00000120: f928 a83c a475 e43b f593 d93c bdbb 04bc
00000130: 1c1d d83c 463d 8e3c 645d ce3c a272 193d
00000140: abfe 483c 9d3a 553c a87a 813c cc28 7e3c
00000150: 59fe df3c 0db6 9d3c db9b ae3c c41a ab3b
00000160: 0a23 013d 1197 bf3c 6c92 8a3c a832 a33c
00000170: cf68 733c bcc5 8e3c 6be1 0b3b dda3 a03c
00000180: d4b8 983b 0770 f63c c562 09bb f8d2 44bb
00000190: 688f 3e3b c6f4 ce3b 0191 97bc 7f85 8a3c
000001a0: 9c15 b43c 9777 b23c b453 0b3c 4e45 d6bb
000001b0: da07 4c3c b562 643c 4d76 ac3c be39 9c3b
000001c0: 41c9 4cba 0135 a5bc c162 dd3c 6a53 7fba
000001d0: 168a 973c be01 c83c c2c6 abbb 4446 a3bb
000001e0: 957e 293c b754 043b 914a bc3c 91b0 173c
000001f0: ccfa 853c 18fa ae3c 59a0 c43c 10fc 033c
00000200: 2050 e83c a854 de3b 6816 853c 6c9e ad3c
00000210: 97d8 163c c565 413c 8a2a 31ba 11eb 463c
00000220: 5a45 c43c 8f78 eeba 624a 19bc 44d4 dd3c
00000230: 99ba da3c 779f 963c 72b6 1a3c 395b 843c
00000240: d189 593b 2c2c c93c 806a ae38 4be3 e53c
00000250: 5860 6c3c 846c 8a3c 04aa 3ebb b9e2 a8bb
00000260: e724 f5bb ba90 573c cce1 093d 88f4 a43c
00000270: 6289 83bc f4e0 8c3c 55a4 3dbc 658b 173c
00000280: dff6 013c a54d 4f3d 5fdf 503b 8187 e83b
00000290: d14c af3c 8382 8d3c a562 d23b 733d 0a3d
000002a0: ac07 fe3c 3ceb 223c 43e3 f13b 64df 0e3c
000002b0: 0bd2 d03c 6eaf a13b d643 843c 0703 103d
000002c0: f742 4d3b 12d8 da3c 7ace 973c cb7b c13c
000002d0: 2494 bc3b ffd0 533c 7bee fa3c 0d27 2a3c
000002e0: da39 0e3b 19b6 953c 9604 8d3c 734c 1ab8
000002f0: cea5 5b3c f577 b83c 7fc9 9c3b 26b3 dc3b
00000300: dbb5 e93c ac84 9e3c c70c b73c fc03 d8bb
00000310: 60bf 403c e3eb 963c afe6 cfbb 436e b33c
00000320: d2d5 d43c d29f 873c f9d1 1a3c e401 043d
00000330: 792f 9939 eed3 42bb 2c0e 393c 3ffb 563c
00000340: e61e 113c 040b bc3c 72cc ef3c 3294 503d
00000350: fed1 cd3c ba33 863c f328 763c 0f7d b33c
00000360: d9f0 d3bb f2db 083d cc2c ce3c c9c8 c43c
00000370: 7c2c 8abc 622e 443c fd73 bc3c 1373 f23c
00000380: 8dbd aa3c 7a74 913c f33b ef3c cb3e c73c
00000390: 77ee 173d 30c7 963a 6ae7 ea3b e9e3 fe3c
000003a0: 38b6 6dbb 7d52 e63c 0dc9 c43c 163b 5b3c
000003b0: 4437 1c3d f408 013c 4fff 7d3b db8a 4f3c
000003c0: ef13 d13c 954e 053d 4723 193d 0e09 72bc
000003d0: abf6 733c 7c72 a23c ba79 ba3b 7497 803c
000003e0: b2fd cd39 65d4 d53b 4eab 033c ac59 7c3c
000003f0: ce84 1a3c b3a5 253d b374 1ebc 24c7 9dbc
