Project/Assets/ML-Agents/Examples/PushBlock/TFModels/PushBlockCollab.onnx (onnx, 642733 bytes, 12 tensors)

action_model._discrete_distribution.branches.0.bias f4 [7]
0.035326175 0.0050044376 0.03996408 -0.026852295 -0.08313835 0.006454007 -0.024319874
00000000: 2eb2 103d 44fc a33b 60b1 233d 58f9 dbbc
00000010: 7044 aabd 227c d33b 793a c7bc

action_model._discrete_distribution.branches.0.weight f4 [7, 256]
0.03405559 0.0356787 0.025649903 -0.018451288 0.0036498078 -0.018170886 -0.033583615 0.02124203
-0.053295195 -0.056651156 -0.053751 0.080782816 -0.031552564 -0.025704894 -0.015097413 0.0109482
0.0032111101 0.034048025 -0.13865763 0.059724424 -0.028808074 -0.041768275 0.047254927 0.022662599
0.028991627 0.062011365 0.026463302 0.017095132 -0.055639986 0.017778294 -0.011536541 -0.14740548
0.06543298 0.040133428 -0.065571904 -0.009413851 0.03107965 0.0491832 0.0363558 0.015686784
-0.10079772 -0.03675583 -0.08360191 0.021944575 0.026844358 -0.013320651 0.050438873 -0.029380795
0.10666294 -0.0425007 0.04295034 0.005283469 0.03399374 -0.003960242 -0.15307444 -0.058359813
-0.00095870876 -0.026178189 0.041234076 -0.032569073 0.066212915 0.045127634 -0.1055357 0.031513717
0.008000467 -0.011963069 0.058252204 0.06742927 -0.018039972 -0.016175333 -0.013517454 -0.00509526
0.025353363 0.0012308325 -0.013464991 0.01981687 -0.017396297 -0.039628115 0.031404708 0.12670802
-0.019794729 0.012237612 0.024317216 0.07141472 0.07053842 0.020480016 -0.0046613356 0.025767315
-0.0052493038 -0.015176399 -0.030302713 -0.019394103 0.015855685 -0.16287678 -0.03067651 -0.055427704
-0.007370218 0.032586843 0.0074106953 -0.05579196 -0.042729355 0.01233875 -0.04227682 0.06846533
-0.011603055 0.025098149 0.14710622 0.039082207 -0.09345192 0.06243886 0.03440599 -0.046771307
0.04763343 -0.11266146 -0.024302928 0.024547383 0.035026494 -0.12080369 0.056798384 -0.083830036
0.040741444 0.03818367 0.07978853 0.075995885 -0.018112121 0.044321597 -0.06864025 -0.016415162
0.04495033 -0.044313 0.041685056 0.012274832 0.061055917 0.054635122 0.024131242 -0.04773269
0.03914673 0.08164849 0.06335084 0.0049758847 -0.16953322 0.039000817 -0.058432475 0.04445658
0.01087038 -0.043622505 0.058809716 -0.074842796 0.07439588 -0.05021822 0.020783514 0.01079878
-0.096652485 0.09240266 0.07853653 -0.00254214 0.1058212 -0.09694028 -0.049727708 0.06403356
0.019300573 -0.07869118 -0.010693213 -0.16081993 -0.0643647 -0.028147746 -0.021754725 0.028322544
-0.013014741 -0.009994323 0.019425176 0.08178413 0.010292754 -0.0038223737 0.008123954 0.04068868
0.07832495 -0.012889268 -0.009109311 0.058340468 0.0227191 -0.006656445 0.07205313 0.0480906
-0.036463637 0.027866337 0.03996265 -0.007026091 -0.08814559 0.020129165 0.019495204 0.06436458
-0.04044005 0.10071846 -0.1929117 0.103695855 -0.018930187 0.009449512 0.06491405 0.016889364
-0.043344658 0.14282118 0.025987139 -0.030228036 0.029026961 -0.0007634146 -0.016632978 0.0122389635
0.0673571 0.08120479 -0.004020986 0.064593926 -0.01739342 -0.036297433 0.05011219 -0.046427302
0.05071041 0.04569091 0.02347159 -0.07359521 -0.04327489 0.037364274 0.03628319 0.06929957
-0.04712874 0.038000375 -0.01702257 0.045379367 0.022176355 -0.07350792 0.048295476 -0.071485266
0.056941785 -0.0042105517 0.08731443 0.01748907 0.036530018 0.02410748 0.014945197 -0.022139557
0.020462621 -0.048365846 0.0030265558 0.06795812 -0.012923728 -0.079851285 -0.045413654 0.023203623
-0.07921117 0.0402559 0.043926805 -0.010593008 0.07646971 0.03836414 -0.0066709076 0.04479737
00000000: e07d 0b3d d423 123d bf1f d23c 2827 97bc
00000010: 9d31 6f3b 1cdb 94bc f98e 09bd c403 ae3c
00000020: 104c 5abd 0b0b 68bd 022a 5cbd 7671 a53d
00000030: 433d 01bd 1293 d2bc 245b 77bc 1460 333c
00000040: 7d71 523b f175 0b3d 44fc 0dbe 99a1 743d
00000050: e9fe ebbc 3615 2bbd 628e 413d eaa6 b93c
00000060: d97f ed3c a1ff 7d3d 91c9 d83c 170b 8c3c
00000070: c1e6 63bd c9a3 913c c303 3dbc 76f1 16be
00000080: ba01 863d f362 243d 904a 86bd 8e3c 1abc
00000090: c09a fe3c 5374 493d d2e9 143d 9281 803c
000000a0: 096f cebd 488d 16bd 7a37 abbd 1cc5 b33c
000000b0: b3e8 db3c dc3e 5abc fe98 4e3d feaf f0bc
000000c0: 1972 da3d 3715 2ebd b2ec 2f3d f320 ad3b
000000d0: 053d 0b3d ebc4 81bb 8cbf 1cbe b30a 6fbd
000000e0: db51 7bba a473 d6bc 10e5 283d 2667 05bd
000000f0: a39a 873d c1d7 383d 1a23 d8bd 8714 013d
00000100: 6414 033c c000 44bc dd99 6e3d 5b18 8a3d
00000110: 90c8 93bc 2282 84bc 5078 5dbc 24f6 a6bb
00000120: dbb1 cf3c e353 a13a 449c 5cbc fd56 a23c
00000130: ae82 8ebc 1751 22bd 39a2 003d bfbf 013e
00000140: 8e28 a2bc 4480 483c e634 c73c e141 923d
00000150: 7276 903d b5c5 a73c 1ebe 98bb fa15 d33c
00000160: 5a02 acbb 6ea6 78bc 653d f8bc 62e0 9ebc
00000170: c8e3 813c 2cc9 26be 4e4d fbbc 2908 63bd
00000180: df81 f1bb c879 053d 6bd5 f23b 1c86 64bd
00000190: fa04 2fbd 7828 4a3c 752a 2dbd 8d37 8c3d
000001a0: bd1a 3ebc a29a cd3c 03a3 163e aa14 203d
000001b0: b863 bfbd e4bf 7f3d 4ced 0c3d 4593 3fbd
000001c0: 461b 433d 0dbb e6bd ef16 c7bc 9817 c93c
000001d0: f177 0f3d ed67 f7bd 6ca5 683d 15af abbd
000001e0: 80e0 263d 7b66 1c3d 2b68 a33d bba3 9b3d
000001f0: df5f 94bc 908a 353d 4293 8cbd 1779 86bc
00000200: d61d 383d 8c81 35bd f3bd 2a3d 611c 493c
00000210: c515 7a3d 14c9 5f3d e2ae c53c 5a83 43bd
00000220: 5258 203d 5337 a73d 16be 813d bf0c a33b
00000230: 1e9a 2dbe 52bf 1f3d e456 6fbd 1a18 363d
00000240: ae19 323c 83ad 32bd 75e2 703d 2e47 99bd
00000250: de5c 983d 9fb1 4dbd 3042 aa3c 5eed 303c
00000260: bdf1 c5bd 9b3d bd3d c3d7 a03d 089a 26bb
00000270: c9b8 d83d a088 c6bd 48af 4bbd 0724 833d
00000280: 3c1c 9e3c d728 a1bd 9632 2fbc fbad 24be
00000290: a4d1 83bd 1a96 e6bc f736 b2bc ae04 e83c
000002a0: c83b 55bc 3bbf 23bc 8c21 9f3c 707e a73d
000002b0: f0a2 283c ca80 7abb 551a 053c 2ca9 263d
000002c0: d568 a03d 822d 53bc 383f 15bc 6af6 6e3d
000002d0: 681d ba3c 4f1e dabb 9790 933d a6fa 443d
000002e0: e55a 15bd f247 e43c e0af 233d 203b e6bb
000002f0: ad85 b4bd ebe5 a43c 68b4 9f3c 94d1 833d
00000300: 77a4 25bd 7b45 ce3d a58a 45be 7e5e d43d
00000310: 7b13 9bbc 20d2 1a3c a8f1 843d 905b 8a3c
00000320: 2b8a 31bd b73f 123e fbe2 d43c c9a0 f7bc
00000330: f3c9 ed3c e31f 48ba e241 88bc ef85 483c
00000340: 85f2 893d b24e a63d 7ac2 83bb d249 843d
00000350: a57c 8ebc 9eac 14bd 7142 4d3d 8e2a 3ebd
00000360: b8b5 4f3d 6426 3b3d 7e47 c03c 16b9 96bd
00000370: 0341 31bd 480b 193d af9d 143d efec 8d3d
00000380: 110a 41bd 48a6 1b3d eb72 8bbc b7df 393d
00000390: 30ab b53c 528b 96bd 7ad1 453d de66 92bd
000003a0: ca3b 693d abf8 89bb e8d1 b23d 3d45 8f3c
000003b0: 80a0 153d 0d7d c53c b3dc 743c 045e b5bc
000003c0: 3aa1 a73c 441b 46bd 2e59 463b a02d 8b3d
000003d0: 0bbe 53bc 1289 a3bd ab03 3abd 8615 be3c
000003e0: 7739 a2bd 5fe3 243d 98ec 333d 4c8e 2dbc
000003f0: 279c 9c3d b723 1d3d a197 dabb 727d 373d

network_body.linear_encoder.seq_layers.0.bias f4 [256]
0.08413418 -0.0063021523 -0.039725143 -0.055505842 -0.011027892 0.022919225 0.07498488 -0.011068801
-0.00014587026 -0.00020986746 0.037511397 0.012767353 -0.005870535 0.009830733 0.040198863 0.056353148
0.011254443 0.01808675 0.018383699 -0.018072534 -0.017758895 -0.0216118 -0.035477545 0.006086795
-0.08744634 -0.030660583 0.0004777057 -0.021615632 -0.038293414 0.036798637 0.010915402 -0.022111174
0.0059151016 0.045136783 0.034739535 0.0060573644 -0.014116018 0.068034284 -0.04002094 -0.0445213
-0.009424109 0.010065006 0.028977938 0.014417033 0.0044153193 0.04526864 0.0010077489 -0.0396104
0.03358257 0.019272095 -0.031989068 -0.0076635703 -0.041775405 0.053552702 0.0049372735 0.00093585683
0.030740919 -0.014501557 -0.015849153 -0.0032390088 -0.02528698 0.02486894 -0.040863644 -0.012897311
0.04601907 -0.012776555 0.03501227 0.006906871 0.01843129 0.01842234 -0.024270894 -0.008709153
0.029475825 0.05021894 -0.029835265 -0.034568477 -0.025130773 0.065300435 0.00031712116 -0.076148205
0.0020332763 -0.056422953 0.049874734 -0.010601082 0.022041814 0.039477907 -0.046270862 0.016176008
0.022039145 0.009515776 0.013954172 0.03886604 0.03727476 -0.033413284 -0.034490865 -0.031084467
0.0016043959 -0.04210641 0.030438835 -0.0129715875 -0.004682 -0.018080344 0.006404494 -0.03148964
0.018397076 0.0750598 -0.003520313 -0.013262236 0.062788986 -0.011675311 0.004712448 0.0062160958
-0.010985128 -0.0051656403 0.0347374 -0.019864485 -0.002218162 -0.05788273 -0.0041459207 0.006275363
-0.049180787 -0.0145265935 -0.008627215 -0.007180338 0.0149787 0.028236803 -0.04185422 -0.0223115
0.04577628 -0.037034415 0.004930471 -0.024043769 0.03987639 -0.01994672 0.07036657 0.0289089
0.016955463 0.04538024 -0.01272261 0.0015369621 -0.018518278 0.04584686 0.016726477 -0.031278912
-0.013565085 -0.022881083 0.06301923 0.026226081 0.039228577 -0.04121124 0.07191024 0.039575458
0.06549943 0.024372363 -0.011872017 -0.027428662 0.063894436 0.0025289648 -0.015043503 -0.029638872
0.011395839 -0.0059098713 0.057039108 0.008501148 -0.0007590527 -0.029647464 -0.05423185 0.069064766
0.056987688 0.012361269 0.04848993 0.0006841196 0.027925124 0.061261028 -0.031352926 0.015855039
-0.009873403 0.0072545856 -0.033871807 0.009005307 0.039543595 0.0039762324 0.028879752 -0.018744467
0.0402964 0.01124322 -0.028897177 -0.031750917 0.036836196 -0.001450042 0.031854853 0.014276983
-0.03225332 0.047802556 0.025187414 0.0008105446 -0.007990668 0.058658175 -0.02390747 0.020945108
-0.031760555 0.03855458 0.034859918 -0.028298292 -0.006286643 0.077258475 0.024773909 -0.044060487
0.055809196 -0.02473397 -0.005499319 0.00795477 0.024827272 -0.01731005 -0.027884707 -0.0065968684
0.037885476 0.04088099 -0.012032366 0.05719721 0.011775422 -0.014025946 0.04889974 -0.02918082
0.012509703 -0.026304102 0.008505114 0.01579009 0.07485609 0.041070573 -0.03758374 0.07431488
0.009449847 -0.0048331097 -0.012413971 -0.0032967844 -0.009923073 0.012843705 0.015416908 -0.006453578
-0.010449243 -0.058967736 -0.006884979 -0.008422164 0.057600107 0.04368374 0.014649221 -0.05109031
0.032485455 -0.04303622 -0.0057560056 -0.039298058 0.04499812 0.018463833 -0.0034560228 -0.0026539941
00000000: 8a4e ac3d 4982 cebb d5b6 22bd 185a 63bd
00000010: 55ae 34bc 19c1 bb3c ac91 993d eb59 35bc
00000020: c0f4 18b9 de0f 5cb9 8da5 193d 292e 513c
00000030: 9e5d c0bb 1511 213c 90a7 243d 8fd2 663d
00000040: 8e64 383c aa2a 943c 6999 963c da0c 94bc
00000050: 1a7b 91bc 3b0b b1bc e750 11bd bd73 c73b
00000060: 1117 b3bd e72b fbbc 9374 fa39 4413 b1bc
00000070: 8ed9 1cbd 2bba 163d 84d6 323c 7e22 b5bc
00000080: 78d3 c13b 59e1 383d 0b4b 0e3d db7c c63b
00000090: df46 67bc 8f55 8b3d ffec 23bd f75b 36bd
000000a0: 9467 1abc b2e7 243c 2463 ed3c 6b35 6c3c
000000b0: 62ae 903b 9c6b 393d 7116 843a 843e 22bd
000000c0: e08d 093d 83e0 9d3c f806 03bd b01e fbbb
000000d0: b01c 2bbd 145a 5b3d dac8 a13b 4a54 753a
000000e0: 61d4 fb3c f097 6dbc 15d6 81bc 8d45 54bb
000000f0: a426 cfbc f2b9 cb3c a360 27bd 3e4f 53bc
00000100: 7e7e 3c3d c154 51bc 0769 0f3d 0953 e23b
00000110: 37fd 963c 72ea 963c c1d3 c6bc d6b0 0ebc
00000120: 4977 f13c 60b2 4d3d 1669 f4bc ad97 0dbd
00000130: 0ddf cdbc 3cbc 853d 4843 a639 97f3 9bbd
00000140: b740 053b c11b 67bd 7349 4c3d 29b0 2dbc
00000150: 0991 b43c 96b3 213d 8486 3dbd 8c83 843c
00000160: 708b b43c 0fe8 1b3c 0aa0 643c ff31 1f3d
00000170: 6bad 183d 5edc 08bd 4b46 0dbd daa4 febc
00000180: 984a d23a c577 2cbd dd5a f93c c886 54bc
00000190: 766b 99bb 3b1d 94bc cadc d13b 48fb 00bd
000001a0: 77b5 963c f4b8 993d 0db5 66bb d949 59bc
000001b0: 8397 803d ce49 3fbc e16a 9a3b 64b0 cb3b
000001c0: f7fa 33bc 8844 a9bb ce48 0e3d d8ba a2bc
000001d0: 955e 11bb 7116 6dbd 81da 87bb 8fa1 cd3b
000001e0: cb71 49bd f300 6ebc 2a59 0dbc 0a49 ebbb
000001f0: 3969 753c de50 e73c 556f 2bbd 9bc6 b6bc
00000200: e97f 3b3d 66b1 17bd ca8f a13b 70f7 c4bc
00000210: 6d55 233d 4e67 a3bc 591c 903d 5cd2 ec3c
00000220: 2fe6 8a3c a1e0 393d 7e72 50bc e473 c93a
00000230: a5b3 97bc ebc9 3b3d f705 893c 511e 00bd
00000240: 1740 5ebc 1c71 bbbc 3a10 813d 14d8 d63c
00000250: 25ae 203d 1ecd 28bd ad45 933d e019 223d
00000260: 9124 863d 8da8 c73c d982 42bc 13b2 e0bc
00000270: 16db 823d fdbc 253b 0679 76bc 38cd f2bc
00000280: 9db5 3a3c 98a7 c1bb d7a1 693d 6648 0b3c
00000290: 2afb 46ba 3ddf f2bc 3722 5ebd d471 8d3d
000002a0: ec6b 693d ec86 4a3c 609d 463d 7d56 333a
000002b0: 3bc3 e43c d8ec 7a3d ed6b 00bd 6de2 813c
000002c0: 0ec4 21bc e0b7 ed3b 2abd 0abd ff8a 133c
000002d0: 77f8 213d 0e4b 823b 3b95 ec3c ff8d 99bc
000002e0: d70d 253d 7c35 383c c6b9 ecbc 400d 02bd
000002f0: 8de1 163d 560f beba 3c7a 023d 02ea 693c
00000300: 0f1c 04bd 9dcc 433d d655 ce3c ba7a 543a
00000310: 4aeb 02bc 8e43 703d 99d9 c3bc 1395 ab3c
00000320: 5b17 02bd 68eb 1d3d 46c9 0e3d d2d1 e7bc
00000330: 2f00 cebb b139 9e3d a7f2 ca3c c578 34bd
00000340: 2f98 643d e59e cabc a233 b4bb b954 023c
00000350: 9062 cb3c cecd 8dbc 786e e4bc 8b2a d8bb
00000360: cd2d 1b3d d372 273d 6723 45bc 9f47 6a3d
00000370: b3ed 403c 15cd 65bc 184b 483d 9d0c efbc
00000380: 7ff5 4c3c b37b d7bc 0959 0b3c 385a 813c
00000390: 264e 993d 9e39 283d 68f1 19bd 6632 983d
000003a0: 88d3 1a3c 105f 9ebb f863 4bbc dd0e 58bb
000003b0: 6394 22bc 676e 523c 3397 7c3c 8978 d3bb
000003c0: 4d33 2bbc 2788 71bd 649b e1bb 1efd 09bc
000003d0: 17ee 6b3d b9ed 323d 4903 703c 1344 51bd
000003e0: 780f 053d bf46 30bd e09c bcbb 00f7 20bd
000003f0: f34f 383d 7741 973c 717e 62bb a2ee 2dbb

network_body.linear_encoder.seq_layers.0.weight f4 [256, 266]
-0.06438048 -0.103050664 -0.062290717 -0.0901379 -0.034351353 0.102404036 0.0029581098 -0.09116782
0.07301597 0.16351281 -0.03541356 0.033988107 -0.11506073 -0.12950067 -0.016464507 -0.022054045
-0.011183811 0.03836502 0.050937735 -0.1584079 0.057885468 -0.056429107 -0.15024346 0.18342404
0.09564447 0.099568956 -0.10625248 -0.0012454623 -0.019845901 -0.1282907 0.23425594 -0.1795476
0.05737708 -0.053512316 -0.061553888 -0.072952546 0.020175323 -0.058247417 0.013402174 -0.050898314
-0.007832829 0.058414802 -0.09111121 0.036274944 0.01741801 -0.15168892 -0.041320775 -0.03233051
0.20037356 0.031669766 -0.19196084 -0.027423212 0.22746086 -0.117654 0.12138734 -0.124522
0.1476175 0.006648084 -0.009879613 -0.021870274 0.14898552 -0.14086963 0.08069334 0.006747462
0.08309371 0.025311675 -0.008321572 0.08718164 0.060457423 0.21336414 0.06394358 -0.0028602488
-0.016213864 -0.15655504 0.061661143 0.2488957 -0.017401036 0.013877373 -0.023938071 0.041384153
-0.16475631 -0.05605125 0.018248156 0.04185219 -0.10407059 -0.06412024 0.0015227795 0.11464461
0.09923919 -0.0018060427 0.054078776 -0.033002578 0.014223689 -0.060965348 0.031000404 -0.17071563
-0.18171477 -0.043465804 0.023249755 -0.020058658 -0.13906957 -0.24402754 0.1007004 -0.26343963
0.15305765 0.2876332 0.25654677 -0.17133717 -0.17808057 0.12756859 0.06374126 0.05915743
-0.15839218 0.24809884 0.2672199 -0.03251927 0.028932108 -0.10300371 0.12200402 -0.24078023
-0.11073608 -0.13543238 0.025615772 -0.069275126 0.18358491 0.06788415 0.027906971 0.024725704
0.08736683 0.09430118 0.077166386 0.15124391 0.019641036 0.018264422 -0.06168414 0.11570495
0.00937977 0.12761876 0.06439436 0.11645023 -0.021855425 -0.16921589 -0.10587844 -0.10014788
-0.06146426 0.086720444 -0.116830975 -0.20570973 -0.08026852 -0.03459161 -0.067252494 -0.090975694
-0.049417105 -0.064681716 0.03181514 0.21929882 -0.04336199 -0.08729081 -0.12378958 0.0895677
-0.0021903936 0.0015788843 -0.38148558 -0.04925147 -0.07391703 -0.110945545 -0.047477253 -0.26715618
-0.109232135 -0.1178452 -0.21600589 -0.10681575 -0.006930005 0.08565228 0.029127682 0.027022926
-0.12756573 0.004482367 -0.24911466 0.059338994 -0.052844528 -0.039980292 0.0003793123 0.02665032
0.08660019 -0.07611524 -0.021603629 -0.10752771 -0.069448225 -0.162292 -0.0058522793 -0.09638191
-0.099293076 -0.11129054 -0.049186323 -0.07446921 0.087102264 -0.08599664 0.008347917 0.15828064
-0.05845431 0.16012482 0.16049084 -0.06572533 0.1790451 -0.008495928 -0.055205468 0.05543258
-0.2982734 0.06504373 0.052388005 -0.052761376 -0.00947508 -0.090678975 -0.11075676 -0.031368993
-0.03670149 0.072325714 0.086567 -0.03902836 -0.11821183 0.07856968 -0.07973533 0.006939092
-0.06923126 -0.32058933 0.052465744 0.092332326 -0.03348788 -0.101084016 -0.05052296 0.18016276
-0.12971078 -0.12767659 0.17700842 -0.00058988563 -0.118868046 -0.14024135 -0.12683001 -0.011906827
0.013146123 0.017542493 0.16642489 0.12883939 0.14520213 -0.017109914 0.0679263 -0.10283577
0.043143928 0.13138533 -0.09263312 0.09806602 0.1753344 0.020960141 -0.07802788 -0.056489367
00000000: ead9 83bd 3a0c d3bd 8d24 7fbd 389a b8bd
00000010: 01b4 0cbd 35b9 d13d d9dc 413b 32b6 babd
00000020: 6689 953d e76f 273e cf0d 11bd 1d37 0b3d
00000030: f6a4 ebbd d39b 04be 93e0 86bc afaa b4bc
00000040: 4e3c 37bc a424 1d3d 16a4 503d ae35 22be
00000050: 5019 6d3d 3522 67bd 6cd9 19be 83d3 3b3e
00000060: 3fe1 c33d cfea cb3d e69a d9bd c83e a3ba
00000070: df93 a2bc a35e 03be cae0 6f3e 53db 37be
00000080: 3b04 6b3d bb2f 5bbd ee1f 7cbd 2568 95bd
00000090: b846 a53c d894 6ebd cb94 5b3c c07a 50bd
000000a0: 4455 00bc 5c44 6f3d 8498 babd 0995 143d
000000b0: 37b0 8e3c 5754 1bbe f93f 29bd ff6c 04bd
000000c0: ba2e 4d3e 28b8 013d 6291 44be a5a6 e0bc
000000d0: 80eb 683e 95f4 f0bd ed99 f83d 6405 ffbd
000000e0: 0b29 173e 2cd8 d93b 1ade 21bc 4a29 b3bc
000000f0: a98f 183e 2140 10be 8d42 a53d d019 dd3b
00000100: 092d aa3d 6e5a cf3c 3457 08bc 4a8c b23d
00000110: 34a2 773d 217c 5a3e daf4 823d 0373 3bbb
00000120: f0d2 84bc f74f 20be 6590 7c3d 84de 7e3e
00000130: 9e8c 8ebc ec5d 633c c619 c4bc 6e82 293d
00000140: e1b5 28be ff95 65bd 287d 953c 346d 2b3d
00000150: f622 d5bd 7951 83bd 0098 c73a cbca ea3d
00000160: eb3d cb3d bdb8 ecba b581 5d3d b62d 07bd
00000170: 7a0a 693c cdb6 79bd 8ff4 fd3c 14d0 2ebe
00000180: 7013 3abe 3309 32bd 4576 be3c 0e52 a4bc
00000190: 4168 0ebe 5be2 79be 033c ce3d 8fe1 86be
000001a0: 25bb 1c3e a944 933e 195a 833e 0373 2fbe
000001b0: c15a 36be 57a1 023e c78a 823d 104f 723d
000001c0: 8f31 22be 9f0d 7e3e 0cd1 883e ed32 05bd
000001d0: 0703 ed3c 9cf3 d2bd 3edd f93d 188f 76be
000001e0: 99c9 e2bd c9ae 0abe 2bd8 d13c 1ee0 8dbd
000001f0: affd 3b3e d806 8b3d 299d e43c 8f8d ca3c
00000200: 61ed b23d fa20 c13d 6909 9e3d afdf 1a3e
00000210: 3de6 a03c 459f 953c 82a8 7cbd b8f6 ec3d
00000220: 9bad 193c 7eae 023e 31e1 833d 757d ee3d
00000230: 260a b3bc ee46 2dbe ccd6 d8bd 551a cdbd
00000240: f3c1 7bbd 7d9a b13d 1445 efbd 92a5 52be
00000250: d263 a4bd efaf 0dbd adbb 89bd 7751 babd
00000260: 9769 4abd d977 84bd 9850 023d df8f 603e
00000270: 589c 31bd 86c5 b2bd 6485 fdbd 456f b73d
00000280: b58c 0fbb 91f2 ce3a 1452 c3be e9bb 49bd
00000290: d061 97bd 6b37 e3bd 8277 42bd b2c8 88be
000002a0: 19b5 dfbd d358 f1bd a630 5dbe 37c2 dabd
000002b0: 1815 e3bb 766a af3d 2d9d ee3c 2f5f dd3c
000002c0: 97a0 02be d2e0 923b ea17 7fbe 720d 733d
000002d0: 8173 58bd 60c2 23bd 6fde c639 c651 da3c
000002e0: 715b b13d 4fe2 9bbd 18fa b0bc 7d37 dcbd
000002f0: df3a 8ebd e02f 26be 7ac4 bfbb e163 c5bd
00000300: 2b5a cbbd 4bec e3bd 9977 49bd 5083 98bd
00000310: ac62 b23d 021f b0bd b4c5 083c 5214 223e
00000320: c96d 6fbd c3f7 233e b657 243e 009b 86bd
00000330: 9957 373e 8132 0bbc 211f 62bd 460d 633d
00000340: 4bb7 98be a635 853d ce94 563d 501c 58bd
00000350: 5e3d 1bbc e6b5 b9bd 71d4 e2bd c67c 00bd
00000360: 4d54 16bd 811f 943d 0a4a b13d 34dc 1fbd
00000370: 0b19 f2bd 24e9 a03d 474c a3bd 5361 e33b
00000380: 1ec9 8dbd 4924 a4be 52e6 563d bb18 bd3d
00000390: 962a 09bd 2305 cfbd 2af1 4ebd 967c 383e
000003a0: e7d2 04be a7bd 02be b241 353e 8ea2 1aba
000003b0: 1771 f3bd 6e9b 0fbe badf 01be da14 43bc
000003c0: d662 573c 46b5 8f3c 496b 2a3e 79ee 033e
000003d0: deaf 143e 172a 8cbc f21c 8b3d 8f9b d2bd
000003e0: b0b7 303d e089 063e 6fb6 bdbd d6d6 c83d
000003f0: dc8a 333e 9ab4 ab3c 15cd 9fbd 6561 67bd

network_body.linear_encoder.seq_layers.2.bias f4 [256]
0.064626716 0.016061354 0.0074665486 0.04322407 0.06690408 -0.09302799 -0.026152967 -0.06676733
0.058210734 -0.13185677 0.014500999 0.05647318 -0.0040421938 -0.020095315 0.03443982 -0.09800815
-0.052589912 -0.00028805507 -0.05714859 -0.068788335 -0.005135183 -0.0845361 0.0003668247 0.10596974
-0.04305558 0.0042797676 -0.11441504 0.06656918 -0.020935994 -0.0023190714 -0.05918386 0.011481188
0.046222422 -0.05239331 -0.03219561 -0.055913623 -0.077229686 0.0027315302 0.023386074 0.06696799
-0.005954425 0.03646007 -0.08514464 -0.049717758 -0.11269395 -0.010876177 0.037059136 -0.08131936
-0.0322683 0.0043685585 -0.033564176 -0.048817437 -0.04716607 0.011431739 -0.021020126 -0.041951153
0.027737357 -0.051774163 0.02553732 -0.012591102 0.026382748 -0.01826764 0.007013129 -0.031106621
0.03771912 0.06327476 -0.03412917 0.094996616 -0.06875815 0.030704284 -0.018353924 -0.054164216
0.05520476 -0.046079963 0.072249226 -0.08177011 -0.060491394 0.037622288 -0.0031950327 0.042074755
0.04915233 -0.13120393 -0.04331442 -0.008825777 0.064932324 -0.001681321 0.0705144 -0.026054418
-0.012180777 0.0137933055 -0.09839726 0.03614412 0.10000957 -0.007260197 -0.008065315 -0.027559368
-0.036101263 -0.03959486 0.042056452 -0.028064137 -0.015768917 0.036523666 -0.029980447 -0.018490331
-0.008764292 -0.07251365 0.044505402 -0.07697382 -0.104832076 0.007842424 -0.08571017 -0.14535046
0.029264053 -0.0006034988 -0.11807343 0.01765523 -0.0055709607 -0.046888422 -0.0010076275 0.023543049
0.035967633 -0.04703395 -0.0052706944 -0.13072442 -0.062361106 0.054513354 -0.005234775 -0.07186226
-0.036207203 -0.015825251 0.013866022 -0.021452874 -0.019104708 -0.09952955 0.036491986 0.092155375
0.061910313 -0.0049754055 -0.02339069 0.031068427 0.028461719 -0.038331583 0.007823363 -0.0016870593
-0.048383277 0.021797528 0.014017526 0.026505932 0.0005752669 0.0026066615 -0.023670798 0.035761654
-0.036642205 0.012702797 0.010308991 0.042043407 0.0111964615 -0.1385703 -0.027851794 -0.024456488
-0.05629784 -0.04254107 0.044091966 -0.055550702 -0.031368073 -0.068824545 -0.0126987435 -0.09623698
0.021609979 -0.07327894 -0.042198967 -0.014939084 -0.028540006 0.037730686 -0.05208995 -0.06480842
0.044595055 -0.00070488406 0.060886126 -0.02482375 -0.024551965 -0.009412087 0.033079475 0.002225157
0.029382287 -0.06921213 -0.025909157 0.0044164215 0.06166828 0.019983275 0.060305625 -0.022335568
0.034176994 -0.062367793 -0.053347338 0.021541378 0.08257722 0.04215302 0.011982338 -0.05468981
-0.02221014 -0.00052357797 0.0044389297 -0.0013568088 -0.026288046 0.030927237 -0.050087284 -0.053002723
0.014729609 -0.09450389 -0.04797698 0.03340414 0.065118015 -0.06413023 0.039808273 -0.08640375
-0.031235673 -0.034914356 -0.05378303 0.0003509583 0.0018732428 -0.06186442 0.078019135 -0.06454733
0.010008006 -0.064201005 0.0146233225 0.0045742407 -0.051689904 0.015474789 -0.007847004 -0.025963262
0.06202394 -0.009121651 0.035376225 -0.14238903 -0.09026991 -0.03843326 -0.07115326 0.010334322
0.04117159 -0.08069796 -0.012190435 -0.0075057307 0.021609714 0.036066003 -0.024772523 -0.124401264
-0.00035529802 -0.0047688377 -0.11806591 -0.031467933 -0.017137207 0.037336186 -0.130005 -0.021510983
00000000: 035b 843d 1a93 833c f3a9 f43b b90b 313d
00000010: 0205 893d 7585 bebd bf3e d6bc 4fbd 88bd
00000020: 616e 6e3d 7605 07be 9995 6d3c 6c50 673d
00000030: 6174 84bb ee9e a4bc c510 0d3d 7fb8 c8bd
00000040: 8568 57bd 1906 97b9 a414 6abd e6e0 8cbd
00000050: 0a45 a8bb 4321 adbd 6152 c039 aa06 d93d
00000060: 0c5b 30bd 4b3d 8c3b 6f52 eabd 6c55 883d
00000070: f681 abbc 90fb 17bb c66a 72bd 981b 3c3c
00000080: b953 3d3d 5e9a 56bd 8bdf 03bd af05 65bd
00000090: 992a 9ebd 7903 333b 2794 bf3c 8326 893d
000000a0: 561d c3bb 2857 153d 5060 aebd d9a4 4bbd
000000b0: 16cc e6bd fe31 32bc 52cb 173d c48a a6bd
000000c0: c42b 04bd 2026 8f3b 977a 09bd cbf4 47bd
000000d0: 3631 41bd 304c 3b3c 6632 acbc f9d4 2bbd
000000e0: 7439 e33c 2511 54bd a433 d13c e94a 4ebc
000000f0: a220 d83c 05a6 95bc 64ce e53b 50d3 febc
00000100: 5d7f 1a3d 3396 813d 07cb 0bbd 968d c23d
00000110: 13d1 8cbd 8d87 fb3c f85a 96bc 4cdb 5dbd
00000120: 631e 623d 58be 3cbd 67f7 933d 1677 a7bd
00000130: d3c5 77bd d419 1a3d c163 51bb 9456 2c3d
00000140: f453 493d 535a 06be 766a 31bd fe99 10bc
00000150: 3dfb 843d c55f dcba db69 903d 1370 d5bc
00000160: e291 47bc 51fd 613c 8184 c9bd db0b 143d
00000170: d1d1 cc3d f2e6 edbb 6224 04bc 2fc4 e1bc
00000180: ebde 13bd 382e 22bd 6343 2c3d c3e6 e5bc
00000190: d12d 81bc d799 153d 8e99 f5bc 0979 97bc
000001a0: 1b98 0fbc 0982 94bd 4c4b 363d 73a4 9dbd
000001b0: 33b2 d6bd 837d 003c d088 afbd c0d6 14be
000001c0: 2bbb ef3c 1e34 1eba 7cd0 f1bd b3a1 903c
000001d0: 9b8c b6bb 130e 40bd 5e12 84ba 5add c03c
000001e0: cc52 133d aca6 40bd cab5 acbb 9fdc 05be
000001f0: 5c6e 7fbd 6549 5f3d 7a88 abbb 852c 93bd
00000200: 014e 14bd f5a3 81bc 502e 633c f0bd afbc
00000210: 7a81 9cbc 26d6 cbbd 9f78 153d f5bb bc3d
00000220: ab95 7d3d ba08 a3bb d59d bfbc 3783 fe3c
00000230: 8d28 e93c 9401 1dbd 902d 003c 5120 ddba
00000240: 8b2d 46bd bb90 b23c c4a9 653c f822 d93c
00000250: 82cd 163a 86d4 2a3b 43e9 c1bc d07a 123d
00000260: 2316 16bd 641f 503c 0be7 283c b535 2c3d
00000270: 5d71 373c 5fe5 0dbe 7229 e4bc f958 c8bc
00000280: 9098 66bd 8c3f 2ebd c799 343d 2289 63bd
00000290: cf7b 00bd e2f3 8cbd 640e 50bc e517 c5bd
000002a0: 6907 b13c 4513 96bd d3d8 2cbd 0fc3 74bc
000002b0: bbcc e9bc 7e8b 1a3d 455c 55bd 47ba 84bd
000002c0: 4ea9 363d f8c7 38ba bb63 793d 2d5b cbbc
000002d0: 3421 c9bc 2735 1abc 587e 073d f1d3 113b
000002e0: 1fb3 f03c 17bf 8dbd 713f d4bc a1b7 903b
000002f0: e197 7c3d f7b3 a33c 0803 773d 15f9 b6bc
00000300: 2dfd 0b3d 5f75 7fbd bd82 5abd 8b77 b03c
00000310: 3f1e a93d a5a8 2c3d 9151 443c 6c02 60bd
00000320: 0af2 b5bc b940 09ba 7174 913b f3d6 b1ba
00000330: 075a d7bc 1e5b fd3c 5328 4dbd 6219 59bd
00000340: 7554 713c 418b c1bd 8383 44bd c8d2 083d
00000350: 985c 853d b656 83bd 000e 233d 73f4 b0bd
00000360: f4e1 ffbc 5b02 0fbd 984b 5cbd d300 b839
00000370: 9987 f53a 8c65 7dbd 7fc8 9f3d 6431 84bd
00000380: 9ff8 233c d17b 83bd a996 6f3c 83e3 953b
00000390: cbb8 53bd f889 7d3c b890 00bc e8b0 d4bc
000003a0: d10c 7e3d fa72 15bc a9e6 103d 6ece 11be
000003b0: 6edf b8bd 326c 1dbd cdb8 91bd 4a51 293c
000003c0: 8ba3 283d f944 a5bd 64ba 47bc a2f2 f5bb
000003d0: db06 b13c f2b9 133d bfef cabc 17c6 febd
000003e0: 4b47 bab9 e943 9cbb 8acc f1bd 85e4 00bd
000003f0: 5463 8cbc d4ed 183d 0820 05be cd37 b0bc

network_body.linear_encoder.seq_layers.2.weight f4 [256, 256]
0.16159123 -0.112042636 -0.04580191 0.06974815 0.046235546 0.009281838 0.09130317 -0.052942175
-0.24060515 0.045347676 0.14157096 0.06374555 -0.21479627 -0.21564493 0.004205445 -0.14277437
0.042336505 0.042656414 0.04188259 0.043267604 -0.074861854 -0.086789735 -0.052745134 -0.17473121
-0.0724649 -0.16699024 -0.075657465 -0.27312157 -0.2203509 0.0114178145 -0.0775989 0.028036725
0.09349955 0.004153066 0.028460879 -0.06126194 0.0023441224 0.081567146 0.024159744 -0.0036085637
0.025993653 0.0038514766 -0.0017793269 -0.035917085 -0.052474573 0.0016640668 0.04185295 -0.15125765
0.07769112 0.027985454 -0.022026382 -0.11042228 0.009312555 -0.030727537 -0.087963246 -0.07095858
-0.06698238 -0.044468585 -0.13080329 0.07218312 0.06128838 -0.026746469 0.03477386 -0.002873055
-0.13291633 -0.010799217 0.103155285 -0.008711178 -0.010365673 -0.03067837 -0.011794878 -0.12630391
0.12437112 0.08951578 -0.15187125 -0.06375276 0.010768639 0.084118076 -0.093215786 -0.1708769
0.17691144 0.004399313 0.04539497 0.062456947 -0.0012083453 0.098280765 -0.06778217 -0.03331015
-0.047426917 -0.04298178 0.03767818 0.04869405 0.0067935307 -0.13159238 -0.0773874 0.07894527
0.0097526135 0.022535391 0.018157478 -0.01778586 -0.024433132 -0.052754495 -0.17427294 0.04391285
0.08884691 0.065022156 0.14989473 0.066020936 -0.13229816 -0.14283744 0.06372996 0.0512586
-0.12017395 0.024591953 -0.01355996 0.014700558 0.08146475 -0.05107175 -0.029445069 -0.048271973
-0.099824704 -0.106864944 -0.21759292 -0.028378269 0.1168144 -0.07095915 -0.10989741 -0.04652114
0.039296556 0.09409809 -0.101106636 -0.076671585 0.11438693 -0.12943219 -0.09318256 -0.18336873
0.004907891 -0.06844362 -0.07997279 -0.02706098 -0.004389473 0.0694929 0.027569685 -0.02028962
-0.025305308 -0.14477338 0.06311022 -0.053635918 0.01874151 -0.10889367 0.04554293 -0.07834062
-0.27019343 0.10617427 -0.08981875 -0.039449044 -0.019823879 -0.13134387 -0.07385698 -0.069435395
-0.16795947 -0.058263436 0.038520962 0.06415628 -0.15155452 0.041266963 -0.10528349 -0.032287456
0.053874467 0.03636772 -0.015684715 0.022363763 -0.08870344 -0.02719734 -0.06609018 -0.028744746
-0.08327551 0.022285126 -0.014323028 -0.06421136 0.03929455 -0.01235489 0.0213992 -0.12932596
-0.11546291 0.024701184 0.072193794 0.11674624 -0.1010367 0.11685449 -0.03373994 -0.12795949
0.04973321 0.045095086 -0.1421505 0.03821414 0.014561263 -0.024419146 -0.020294761 0.06804795
-0.028064247 0.11158562 0.1138488 -0.025960859 0.05403526 0.11487986 0.07489073 -0.08546757
-0.1592719 0.0105599575 0.07889 -0.09125477 0.0032369532 -0.15142561 -0.22747073 -0.07522395
-0.08833909 0.04498227 -0.011588736 0.051969487 -0.0016044594 -0.31213644 0.20427997 -0.06635989
-0.05215887 -0.05621377 0.025585739 0.001829415 -0.021492979 0.09269179 -0.11734916 -0.018587366
-0.0017771617 0.02149892 0.08506285 -0.012082208 0.06663833 -0.041738644 -0.21679902 -0.022636266
0.05991256 -0.16075768 -0.08162875 0.10288826 0.24269925 -0.13919975 0.020901404 -0.15820706
0.049278907 -0.04618335 -0.048180267 -0.018013364 -0.055079915 -0.044852845 -0.08715229 -0.07005941
00000000: 2c78 253e 9c76 e5bd c99a 3bbd 1ed8 8e3d
00000010: 7c61 3d3d da12 183c 28fd ba3d e5d9 58bd
00000020: 3261 76be 7cbe 393d faf7 103e 078d 823d
00000030: 8ef3 5bbe 06d2 5cbe d4cd 893b 7233 12be
00000040: 0b69 2d3d 7eb8 2e3d 148d 2b3d 5f39 313d
00000050: 2c51 99bd d1be b1bd 480b 58bd bdec 32be
00000060: 7a68 94bd 7dff 2abe 4df2 9abd 97d6 8bbe
00000070: aba3 61be c911 3b3c 2cec 9ebd 46ad e53c
00000080: b17c bf3d 7116 883b ca26 e93c cded 7abd
00000090: d99f 193b ad0c a73d a8ea c53c a77d 6cbb
000000a0: a4f0 d43c 0e69 7c3b 4e38 e9ba cb1d 13bd
000000b0: 94ef 56bd d11c da3a 006e 2b3d 49e3 1abe
000000c0: 861c 9f3d c041 e53c ac70 b4bc 1425 e2bd
000000d0: b093 183c 51b8 fbbc 1326 b4bd bb52 91bd
000000e0: 0f2e 89bd b124 36bd 4cf1 05be bed4 933d
000000f0: 8609 7b3d 691b dbbc 096f 0e3d dd49 3cbb
00000100: 381b 08be 33ef 30bc 1443 d33d 54b9 0ebc
00000110: c9d4 29bc 3451 fbbc 4e3f 41bc d055 01be
00000120: 49b6 fe3d 0d54 b73d 2384 1bbe cf90 82bd
00000130: f26e 303c 1946 ac3d ebe7 bebd 5bfa 2ebe
00000140: 4628 353e 1d28 903b 13f0 393d dbd2 7f3d
00000150: 5761 9eba 6d47 c93d 61d1 8abd 3970 08bd
00000160: ba42 42bd aa0d 30bd 6f54 1a3d 6a73 473d
00000170: 449c de3b 27c0 06be 497d 9ebd 0fae a13d
00000180: 6dc9 1f3c 249c b83c febe 943c a7b3 91bc
00000190: fe27 c8bc 1915 58bd 9b74 32be f6dd 333d
000001a0: 5ef5 b53d 562a 853d 017e 193e fc35 873d
000001b0: 2b79 07be fa43 12be da84 823d 8af4 513d
000001c0: c31d f6bd 1075 c93c 982a 5ebc 9cda 703c
000001d0: fed6 a63d 9c30 51bd c936 f1bc d5b8 45bd
000001e0: e570 ccbd 02dc dabd aed0 5ebe 8b79 e8bc
000001f0: 633c ef3d 0853 91bd e511 e1bd f38c 3ebd
00000200: 6df5 203d 80b6 c03d ff10 cfbd fe05 9dbd
00000210: b243 ea3d df89 04be 7fd6 bebd 03c5 3bbe
00000220: 60d2 a03b 2b2c 8cbd c6c8 a3bd fdae ddbc
00000230: 91d5 8fbb 4b52 8e3d d2d9 e13c 6b36 a6bc
00000240: 144d cfbc 793f 14be ee3f 813d 56b1 5bbd
00000250: cc87 993c a503 dfbd 398b 3a3d 0c71 a0bd
00000260: cb56 8abe e571 d93d e5f2 b7bd 5295 21bd
00000270: b065 a2bc 027f 06be 5442 97bd 2534 8ebd
00000280: 91fd 2bbe a4a5 6ebd 28c8 1d3d 5e64 833d
00000290: 1c31 1bbe 8c07 293d df9e d7bd da3f 04bd
000002a0: 79ab 5c3d 52f6 143d 3b7d 80bc 3634 b73c
000002b0: 26aa b5bd f5cc debc 4a5a 87bd 1a7a ebbc
000002c0: 5a8c aabd 4c8f b63c 22ab 6abc 3f81 83bd
000002d0: 52f3 203d 2a6c 4abc 604d af3c 066e 04be
000002e0: d177 ecbd 235a ca3c 57da 933d a718 ef3d
000002f0: 54ec cebd 6851 ef3d e432 0abd d007 03be
00000300: 0db5 4b3d a0b5 383d e78f 11be 6e86 1c3d
00000310: 5d92 6e3c a90a c8bc 3341 a6bc b95c 8b3d
00000320: fee6 e5bc 0087 e43d 8f29 e93d deab d4bc
00000330: 1454 5d3d 2246 eb3d 5060 993d 9f09 afbd
00000340: 2c18 23be ac03 2d3c 1591 a13d c8e3 babd
00000350: 1023 543b 510f 1bbe 16ee 68be 040f 9abd
00000360: 20eb b4bd 543f 383d afde 3dbc f5dd 543d
00000370: b94c d2ba 59d0 9fbe c52e 513e b2e7 87bd
00000380: 8aa4 55bd 6940 66bd 2f99 d13c fbc8 ef3a
00000390: 0b12 b0bc 31d5 bd3d c254 f0bd 8844 98bc
000003a0: a7ef e8ba 811e b03c 6e35 ae3d 74f4 45bc
000003b0: ad79 883d 24f6 2abd 9000 5ebe b16f b9bc
000003c0: df66 753d a99d 24be f92c a7bd 14b7 d23d
000003d0: 2786 783e 618a 0ebe 6c39 ab3c 0801 22be
000003e0: aed8 493d c12a 3dbd ac58 45bd c390 93bc
000003f0: 7a9b 61bd 9eb7 37bd e67c b2bd 4f7b 8fbd

network_body.processors.1.conv_layers.0.bias f4 [16]
0.029622678 0.007894341 -0.0314826 -0.03024692 0.018666063 0.020460961 0.023929182 0.018286262
-0.007041274 0.01019162 0.04194348 -0.022188101 -0.007556508 -0.006912722 0.010763443 0.012890652
00000000: 42ab f23c 4457 013c e6f3 00bd 64c8 f7bc
00000010: 92e9 983c bf9d a73c 2207 c43c 12cd 953c
00000020: 7dba e6bb c1fa 263c edcc 2b3d d2c3 b5bc
00000030: 959c f7bb 1d84 e2bb 2759 303c 5033 533c

network_body.processors.1.conv_layers.0.weight f4 [16, 7, 8, 8]
0.07681174 0.061314907 0.04285125 -0.08601348 0.02956055 0.017576756 0.084369786 -0.004006567
0.08560918 -0.033537764 0.02819929 -0.023151161 -0.016433718 -0.044588275 0.043918673 -0.016855052
0.03323306 0.06261726 0.013230412 0.022847766 0.020546816 0.00937819 0.036478184 0.04601583
-0.023587756 0.072597474 0.0043492774 0.01966334 0.050500076 0.023490433 0.0418443 -0.028266707
-0.023293534 0.056605544 0.020412331 0.052607734 0.020028811 -0.01847491 -0.046627484 -0.13450265
-0.10187623 -0.019001322 -0.031528715 0.0017022381 0.014838938 -0.03647017 -0.05921029 -0.1304257
0.025003476 0.05522408 0.06013571 -0.0134200435 0.041127034 -0.08679727 -0.10311998 -0.036435902
-0.13854131 -0.05817643 -0.012479501 0.017378457 -0.087678485 0.026341291 -0.08580322 -0.10853368
0.010215825 0.007125105 0.081909046 0.14945816 0.034193646 -0.011957859 -0.07058502 0.045237157
-0.0122498255 0.08965302 -0.005500287 0.121865794 0.047792826 0.11483321 -0.14907536 -0.21435948
-0.0012863285 0.013022244 0.031050565 -0.08966102 -0.10304633 0.02049993 -0.03041423 -0.2983839
-0.011093382 0.036114156 -0.014584308 -0.04055953 -0.063429706 -0.052503698 -0.028961621 -0.0048150355
0.033942107 0.023457725 -0.019481331 0.009467312 0.034810856 -0.08405964 0.10690856 0.02890412
0.05983736 0.010268998 -0.032174088 -0.02336086 -0.10883158 0.045569055 -0.08100617 -0.068730235
0.013331593 -0.024024557 -0.07873505 -0.01055077 -0.15536913 -0.10596604 -0.06749568 -0.11273478
-0.0910986 -0.016292477 0.0014708674 0.00059603 -0.2296828 -0.11006691 -0.0033961898 -0.14465979
-0.0024405303 0.13804907 -0.010714941 -0.065254934 0.056597393 0.01599529 -0.009432437 -0.0013935529
-0.043596156 0.06910476 0.059810873 0.039927058 0.10554791 -0.022731164 -0.083434716 -0.052894726
0.0071483995 0.03491088 0.050143152 -0.030124651 0.16672173 0.07721022 -0.065083146 -0.05316901
-0.1246739 0.062153306 -0.09057467 -0.054213535 0.009401193 -0.0113763455 -0.034859143 0.060575433
-0.025703844 0.05209519 0.13022485 0.09731468 0.038097255 0.119443424 0.015454571 0.015189977
-0.041189022 -0.07781349 0.021896845 0.078598976 -0.06417873 -0.135153 -0.07318213 -0.11847017
0.012593771 -0.0511365 0.1221087 0.19492458 0.09101634 0.05356794 -0.048790477 -0.033164065
-0.00936392 0.11006855 0.14665863 0.07992492 0.08983574 -0.05187942 -0.10017244 0.0061123427
0.002341594 0.07636689 0.03772705 0.05011252 0.011663789 0.06767529 0.018994791 0.05257261
0.019397154 0.011285229 0.01939269 -0.041098572 0.067441665 -0.0007432487 -0.0032933543 0.047324225
0.04630629 0.04131709 -0.06146067 -0.047292545 -0.0037709398 -0.0014697242 0.030480461 0.0366498
-0.012510497 -0.07520458 0.058190577 0.074844606 -0.039851233 0.022228831 0.0006389711 -0.09604545
-0.080169104 -0.049682077 -0.006890812 -0.04949222 -0.108298935 -0.0020366937 -0.07723447 -0.018610686
0.017388435 0.03732201 -0.02831741 -0.09354456 -0.06529568 -0.032320578 -0.008205999 0.031871453
-0.058635447 -0.014625764 -0.011831629 -0.05924394 0.049460668 0.012229287 -0.051197525 0.019536076
0.04029531 -0.09001517 -0.067967124 -0.0802821 0.03818553 0.07521048 0.012379827 0.016566746
00000000: 794f 9d3d 5725 7b3d cb84 2f3d d627 b0bd
00000010: f728 f23c 21fd 8f3c 11ca ac3d 8549 83bb
00000020: de53 af3d e55e 09bd 3302 e73c 81a7 bdbc
00000030: 01a0 86bc 32a2 36bd 11e4 333d 9b13 8abc
00000040: 641f 083d 7a3d 803d 5fc4 583c 3d2b bb3c
00000050: cc51 a83c fba6 193c 266a 153d 187b 3c3d
00000060: 1c3b c1bc fcad 943d 6284 8e3b 0315 a13c
00000070: 2bd9 4e3d 026f c03c ee64 2b3d 958f e7bc
00000080: 15d2 bebc 37db 673d c337 a73c 357b 573d
00000090: 7613 a43c b258 97bc 76fc 3ebd 10bb 09be
000000a0: 7ca4 d0bd a9a8 9bbc 4124 01bd a21d df3a
000000b0: 041f 733c bf61 15bd 7d86 72bd 518e 05be
000000c0: 17d4 cc3c a532 623d dd50 763d bedf 5bbc
000000d0: d274 283d c4c2 b1bd 9130 d3bd d03d 15bd
000000e0: c6dd 0dbe 694a 6ebd d276 4cbc 445d 8e3c
000000f0: c790 b3bd b1c9 d73c 99b9 afbd e846 debd
00000100: 4760 273c b679 e93b eebf a73d 8f0b 193e
00000110: a30e 0c3d e5ea 43bc e18e 90bd 994a 393d
00000120: 7eb3 48bc 019c b73d c03b b4bb c694 f93d
00000130: 69c2 433d ad2d eb3d 36a7 18be 0d81 5bbe
00000140: 069a a8ba 405b 553c c15d fe3c 32a0 b7bd
00000150: f409 d3bd 78ef a73c 4327 f9bc c6c5 98be
00000160: 04c1 35bc 70ec 133d 05f3 6ebc c021 26bd
00000170: 6fe7 81bd 1e0e 57bd ec40 edbc 72c7 9dbb
00000180: e106 0b3d 6a2a c03c 5097 9fbc c91c 1b3c
00000190: d495 0e3d 7627 acbd e0f2 da3d 55c8 ec3c
000001a0: 0518 753d 4d3f 283c fac8 03bd 465f bfbc
000001b0: 17e3 debd 9ea6 3a3d 90e6 a5bd 70c2 8cbd
000001c0: c16c 5a3c 26cf c4bc d83f a1bd 23dd 2cbc
000001d0: 1619 1fbe b904 d9bd 2d3b 8abd 7ee1 e6bd
000001e0: e791 babd cd77 85bc 1fca c03a e53e 1c3a
000001f0: f831 6bbe c36a e1bd 9c92 5ebb b221 14be
00000200: 4ef1 1fbb bc5c 0d3e b88d 2fbc 61a4 85bd
00000210: abd2 673d 8e08 833c 828a 1abc e0a7 b6ba
00000220: e291 32bd cc86 8d3d 3ffc 743d 8e8a 233d
00000230: 8129 d83d b536 babc d2df aabd 24a8 58bd
00000240: 1f3d ea3b b6fe 0e3d e862 4d3d f9c7 f6bc
00000250: 1ab9 2a3e 6420 9e3d 504a 85bd bfc7 59bd
00000260: 0855 ffbd 7794 7e3d 367f b9bd 030f 5ebd
00000270: 7607 1a3c da63 3abc 76c8 0ebd f21d 783d
00000280: de90 d2bc c461 553d aa59 053e eb4c c73d
00000290: de0b 1c3d c19e f43d 2b35 7d3c 62df 783c
000002a0: d2b5 28bd ae5c 9fbd 0361 b33c 80f8 a03d
000002b0: 2370 83bd 8c65 0abe 83e0 95bd 7da0 f2bd
000002c0: 1b56 4e3c 8274 51bd 2014 fa3d 4f9a 473e
000002d0: c666 ba3d 0e6a 5b3d 86d8 47bd 0bd7 07bd
000002e0: 216b 19bc 9f6b e13d ae2d 163e adaf a33d
000002f0: cdfb b73d 847f 54bd 3527 cdbd 0c4a c83b
00000300: 6e75 193b 3e66 9c3d ae87 1a3d c942 4d3d
00000310: 7a19 3f3c 5899 8a3d f79a 9b3c 6156 573d
00000320: c8e6 9e3c aee5 383c 6bdd 9e3c fa56 28bd
00000330: db1e 8a3d 93d6 42ba 51d5 57bb 0cd7 413d
00000340: aaab 3d3d 1c3c 293d 2fbe 7bbd d4b5 41bd
00000350: df21 77bb c3a3 c0ba 29b2 f93c 1a1e 163d
00000360: d4f8 4cbc dc04 9abd 3e59 6e3d 2148 993d
00000370: 0c3b 23bd 3d19 b63c a080 273a 7ab3 c4bd
00000380: b32f a4bd 6f7f 4bbd 52cc e1bb 5bb8 4abd
00000390: d5cb ddbd 0d7a 05bb 1b2d 9ebd 7075 98bc
000003a0: 3172 8e3c f7de 183d eaf9 e7bc 4a94 bfbd
000003b0: beb9 85bd 9562 04bd 7472 06bc a48b 023d
000003c0: b92b 70bd e7a0 6fbc 73d9 41bc c6a9 72bd
000003d0: 4597 4a3d 595d 483c 7fb4 51bd 1f0a a03c
000003e0: b20c 253d e059 b8bd 5932 8bbd f16a a4bd
000003f0: 6e68 1c3d f407 9a3d c2d4 4a3c fcb6 873c

network_body.processors.1.conv_layers.2.bias f4 [32]
0.05945756 -0.01906209 0.033555727 -0.05525596 0.044330914 -0.027915588 -0.01203815 -0.01821847
-0.035280086 0.013555202 0.101402834 -0.0053448775 -0.015057107 0.07434546 -0.038705513 -0.029027976
0.05982298 0.06365755 -0.030613523 0.029617019 0.042707723 -0.07168595 -0.018135251 -0.014357757
-0.018107748 -0.10193468 -0.040000737 -0.01634875 -0.0710783 -0.05235042 0.050186016 -0.053918406
00000000: c589 733d 1a28 9cbc bb71 093d 1354 62bd
00000010: 5594 353d 3baf e4bc a93b 45bc e73e 95bc
00000020: da81 10bd a316 5e3c 4aac cf3d 1524 afbb
00000030: 16b2 76bc 6f42 983d ac89 1ebd 14cc edbc
00000040: f108 753d e45e 823d 36c9 fabc 649f f23c
00000050: 4bee 2e3d 15d0 92bd 6190 94bc cc3c 6bbc
00000060: b356 94bc 21c3 d0bd d0d7 23bd d0ed 85bc
00000070: 8091 91bd 656d 56bd da8f 4d3d 8cd9 5cbd

network_body.processors.1.conv_layers.2.weight f4 [32, 16, 4, 4]
-0.12749754 -0.1662436 -0.18617542 -0.039346885 -0.038114816 -0.023621855 -0.056670483 -0.042079963
-0.106070675 0.007057777 -0.09293191 -0.08586269 0.10218894 -0.039623898 -0.016246624 -0.16742505
0.058555644 0.056584343 0.041672383 -0.01789351 -0.018251657 -0.022173371 0.0077228695 0.04853008
-0.07094987 0.01413585 0.14894202 -0.032969527 0.055493217 -0.08357457 0.045061335 -0.0910268
0.06475059 -0.008089306 0.025660357 -0.17106296 -0.024239019 -0.17150567 -0.15292478 -0.11984421
0.118984655 -0.029399607 -0.165434 -0.034243163 -0.0024557929 -0.039549578 0.16915613 0.028196814
-0.02411941 -0.09158646 -0.22709256 -0.07118729 0.123754576 0.0024113844 -0.057265237 -0.054627333
0.038338073 -0.013587767 -0.03067113 0.0960537 -0.06962755 -0.1481998 0.0069957413 0.087976135
0.23056126 -0.20149516 0.02534252 0.037822466 0.09261413 0.09905089 -0.056637116 -0.17428969
-0.051883083 0.04554894 0.03703271 -0.014326684 0.0465099 -0.08696189 0.008831452 -0.008808575
-0.16936749 -0.029811723 -0.040906224 -0.035630595 0.06897212 -0.03365113 -0.029105036 -0.0669698
0.087047435 0.05821264 -0.049760636 -0.03263388 -0.048365112 -0.11476839 -0.1543405 0.047247358
0.11299366 -0.117317006 0.101434976 0.13750252 -0.09813707 -0.13963796 0.06387392 0.1856094
0.04226672 -0.08429692 0.037330683 -0.01893922 -0.059237976 -0.19317633 -0.05151005 -0.12645875
0.023305494 0.23912458 -0.015479494 -0.05062922 0.080051735 -0.0901996 -0.040722564 0.046290915
0.1298121 0.049668808 -0.1392266 0.06710867 0.041548878 0.08031059 -0.16033302 0.12984541
-0.14798792 -0.10429968 0.16556114 -0.02114076 -0.11359839 0.17924178 -0.04577179 0.0073059388
-0.039106026 -0.03356404 0.09985081 0.0045786803 0.09054452 -0.19608018 -0.019232864 -0.0064831516
0.010068603 0.059810955 -0.0838223 -0.086839184 -0.11005632 0.012250567 0.07750005 -0.23668206
-0.015886001 0.13048293 0.20846474 -0.02619002 0.16046417 0.12552416 0.17455442 0.051218312
-0.11731813 0.015838187 0.07837777 0.058199853 -0.00471005 0.029498193 0.08935838 0.09395855
0.1071322 -0.16670012 -0.21449426 0.04314184 -0.14564654 -0.021175696 -0.007321645 0.010573769
-0.053094074 -0.16486654 -0.16676715 -0.14674012 0.011921952 -0.120129846 -0.006501449 -0.13506399
-0.086406 -0.053660918 -0.0027051643 0.052205928 0.035962358 0.0354686 0.060834166 -0.053763617
-0.13583109 0.031091252 -0.073548846 -0.006825614 -0.025369156 0.017816495 0.038666386 0.026940443
0.085754335 -0.053524077 0.11695069 -0.07671567 -0.03282652 0.11207982 0.13589457 0.14062782
-0.1976786 -0.08470131 -0.16254474 -0.103624694 -0.17978072 -0.12962838 -0.09211122 -0.083737575
-0.07910733 -0.045211807 -0.09495904 0.0038329237 -0.059089106 0.009787182 -0.11863644 -0.050876286
0.0008616824 -0.014268569 -0.15027991 -0.045374844 -0.017846262 -0.0870306 -0.20775297 -0.06820552
0.026358439 0.060014542 0.0139550455 -0.073183395 -0.076428756 -0.008916159 0.0954885 -0.0809885
0.06678532 -0.017128078 -0.078103535 -0.14554733 -0.06988799 0.005094515 -0.09335269 0.0143127
-0.09244761 0.044570077 -0.04269984 0.08440093 -0.22933611 -0.05465004 -0.088272944 -0.01825423
00000000: b78e 02be c33b 2abe c5a4 3ebe 332a 21bd
00000010: 481e 1cbd 9f82 c1bc 4f1f 68bd 0a5c 2cbd
00000020: 953b d9bd ed44 e73b 1653 bebd c7d8 afbd
00000030: 6f48 d13d ab4c 22bd a417 85bc 7971 2bbe
00000040: 0bd8 6f3d fcc4 673d a9b0 2a3d 6995 92bc
00000050: 8084 95bc eea4 b5bc 2010 fd3b 7ac7 463d
00000060: 2a4e 91bd 0d9a 673c 4284 183e 0e0b 07bd
00000070: db4c 633d 2529 abbd 3c92 383d 426c babd
00000080: f59b 843d 0289 04bc ab35 d23c 212b 2fbe
00000090: e890 c6bc 2f9f 2fbe 5098 1cbe e270 f5bd
000000a0: 3aae f33d 72d7 f0bc 8867 29be 8f42 0cbd
000000b0: 5ef1 20bb bdfe 21bd 4437 2d3e 01fd e63c
000000c0: 1296 c5bc af91 bbbd f48a 68be a4ca 91bd
000000d0: 0a73 fd3d 5108 1e3b f48e 6abd e9c0 5fbd
000000e0: 6208 1d3d 3a9f 5ebc 0642 fbbc cdb7 c43d
000000f0: e498 8ebd b0c1 17be 883c e53b d52c b43d
00000100: 4018 6c3e bf54 4ebe 1e9b cf3c bbeb 1a3d
00000110: 7aac bd3d 31db ca3d 52fc 67bd ff78 32be
00000120: 5b83 54bd 8691 3a3d 9caf 173d 78ba 6abc
00000130: 2a81 3e3d 1319 b2bd cbb1 103c d751 10bc
00000140: ac6e 2dbe b737 f4bc 498d 27bd 63f1 11bd
00000150: 4141 8d3d c4d5 09bd af6d eebc 7627 89bd
00000160: ed45 b23d 6170 6e3d cfd1 4bbd 1aab 05bd
00000170: 7f1a 46bd b10b ebbd 700b 1ebe 7286 413d
00000180: 3869 e73d e643 f0bd 24bd cf3d 76cd 0c3e
00000190: 17fc c8bd 41fd 0ebe 54d0 823d 6410 3e3e
000001a0: de1f 2d3d dda3 acbd 0fe8 183d 6c26 9bbc
000001b0: 85a3 72bd 04d0 45be 34fc 52bd 677e 01be
000001c0: 2aeb be3c 13dd 743e b49d 7dbc 9660 4fbd
000001d0: 2af2 a33d 91ba b8bd b4cc 26bd 8b9b 3d3d
000001e0: 77ed 043e 8571 4b3d 6b91 0ebe 4570 893d
000001f0: 282f 2a3d e179 a43d 572e 24be 32f6 043e
00000200: 258a 17be 129b d5bd dc88 293e 632f adbc
00000210: 46a6 e8bd 288b 373e 337b 3bbd a866 ef3b
00000220: a42d 20bd 727a 09bd 957e cc3d c108 963b
00000230: 686f b93d 3ec9 48be 3d8e 9dbc 9e70 d4bb
00000240: c8f6 243c 55fc 743d 07ab abbd bed8 b1bd
00000250: 3565 e1bd 9ab6 483c 59b8 9e3d c85c 72be
00000260: 5c23 82bc 519d 053e c877 553e 748c d6bc
00000270: b850 243e 6889 003e 65be 323e 4bca 513d
00000280: 7d44 f0bd 16bf 813c 8684 a03d f862 6e3d
00000290: c356 9abb 32a6 f13c 8701 b73d 576d c03d
000002a0: 2068 db3d 70b3 2abe 62a4 5bbe 7fb5 303d
000002b0: 5e24 15be a778 adbc 69ea efbb 9a3d 2d3c
000002c0: 2c79 59bd c6d2 28be 02c5 2abe 0b43 16be
000002d0: 4a54 433c a306 f6bd 1b0a d5bb 374e 0abe
000002e0: a1f5 b0bd 8dcb 5bbd 2049 31bb e2d5 553d
000002f0: 444d 133d 8647 113d 3f2d 793d 3d37 5cbd
00000300: 4e17 0bbe 15b3 fe3c c7a0 96bd 66a9 dfbb
00000310: fad2 cfbc e6f3 913c a560 1e3d 34b2 dc3c
00000320: f89f af3d 103c 5bbd d883 ef3d 1b1d 9dbd
00000330: 1a75 06bd 1b8a e53d f227 0b3e bd00 103e
00000340: 426c 4abe e177 adbd 2172 26be 2f39 d4bd
00000350: 7018 38be 4dbd 04be cfa4 bcbd 9b7e abbd
00000360: 0603 a2bd 0430 39bd e379 c2bd ca31 7b3b
00000370: 6b07 72bd 6b5a 203c a9f7 f2bd a763 50bd
00000380: 87e2 613a b7c6 69bc fae2 19be f9da 39bd
00000390: 5332 92bc 193d b2bd 32bd 54be 56af 8bbd
000003a0: a7ed d73c cfd1 753d b4a3 643c 2de1 95bd
000003b0: ae86 9cbd 1515 12bc 7a8f c33d 4cdd a5bd
000003c0: bec6 883d 2f50 8cbc bff4 9fbd 5c0a 15be
000003d0: 6f21 8fbd e4ef a63b b22f bfbd d17f 6a3c
000003e0: 2c55 bdbd 1d8f 363d 07e6 2ebd 65da ac3d
000003f0: 16d7 6abe b8d8 5fbd 72c8 b4bd e589 95bc
