Project/Assets/ML-Agents/Examples/PushBlock/TFModels/PushBlock.onnx (onnx, 489350 bytes, 6 tensors)

network_body._body_endoder.seq_layers.0.weight f4 [256, 210]
000000 b5 a1 6a 3c f7 18 48 bd dc ae e5 3d 6d d2 16 bd
       0.0143207805 -0.048851933 0.112149924 -0.03682177
000010 3d bb 2c 3e 6e 2b 02 3e 97 b9 ca bd 20 79 c8 3d
       0.168683 0.1271188 -0.0989868 0.09788728
000020 8c bc a5 bb 73 28 b9 bd 98 52 a3 3c 0b 6e 5f 3d
       -0.005057877 -0.09040918 0.019936845 0.054548305
000030 80 57 a9 3d 3f 5b e4 bd 99 88 92 3d 87 5f ac 3d
       0.082686424 -0.11150216 0.0715496 0.08416658
000040 61 7a 19 be 8d 9a 7e 3c 73 c0 6d bd 79 28 a4 bc
       -0.1498809 0.015539777 -0.058044862 -0.02003883
000050 a6 ea 32 3d 0b 01 19 3d f1 90 83 3d 9c 98 3c 3c
       0.04368081 0.03735451 0.0642413 0.011510994
000060 33 41 9b 3b 57 a1 9e 3d 3e ee d6 bd 64 1d 06 bc
       0.004737997 0.07745617 -0.1049466 -0.008185718
000070 49 f2 bd bc e6 69 88 bd b9 84 ff bd a1 53 d8 3d
       -0.02318682 -0.066608235 -0.12476487 0.10562826
000080 d7 87 b4 bd 3e a6 18 bd fa 59 ec bd 43 2d 40 3d
       -0.08814972 -0.037267916 -0.11540599 0.046918165
000090 b7 9f 08 3d f7 71 70 3d f0 86 cf bd ee 48 70 bc
       0.03335544 0.058702435 -0.10133159 -0.014665825
0000a0 d0 a7 46 3d 03 42 dc bc 7b f8 06 3b 50 0c bc 3c
       0.048499882 -0.026886946 0.0020594883 0.02295509
0000b0 17 7e 00 be 51 d5 ae bd d3 f3 95 bd f5 f9 28 3e
       -0.125481 -0.085367806 -0.073218964 0.16501601
0000c0 c2 d0 e3 bd 55 9e 22 bd 88 71 d7 bc f5 55 38 bd
       -0.11123802 -0.03970178 -0.026299253 -0.04500385
0000d0 c9 d0 1f be ee 45 0a bd 25 17 2b 3d 7d 8d 1c bd
       -0.15606989 -0.033758096 0.04177012 -0.03822087
0000e0 55 df d1 bd 7f a3 4c 3d 34 c2 82 bd 1c 02 bb bd
       -0.10247675 0.04996061 -0.063846976 -0.09131262
0000f0 f3 3f bb bd b8 53 21 bc 27 b9 81 3d c2 2f 29 3e
       -0.09143057 -0.00984662 0.06334143 0.16522124
000100 3f ed 07 bc ef 0f 1b 3d 3f 5a b1 3c a5 66 9e bd
       -0.00829631 0.037856992 0.021649478 -0.07734422
000110 2f a3 07 bd 4a 6c f6 bc e0 f2 90 3d 02 a1 0a 3e
       -0.03311461 -0.030080933 0.07077575 0.13537982
000120 af dc 62 bd b9 07 d8 bc 1f a2 c4 bb ea ee d7 3d
       -0.05538624 -0.02637087 -0.0060007717 0.10543616
000130 2c ed fe 3c 0c 65 82 3d 17 4a d9 3d 37 c9 66 3d
       0.031118952 0.063669294 0.10609835 0.056344237
000140 d8 8e 23 bd ef 5b 8e 3d 80 eb 7f 3d 44 1f 0c bd
       -0.03993115 0.06951129 0.06248045 -0.034209505
000150 ff f4 85 bd 52 69 1f 3d 1b 57 ac 3d ea 97 f9 bb
       -0.0654087 0.0389188 0.084150515 -0.0076169865
000160 96 13 36 39 cb 9e e1 3d da 37 c9 bc a4 3f 07 3d
       0.00017364169 0.110166155 -0.024562765 0.033019677
000170 03 8f f7 3c 75 ca 59 3c ca e8 95 bd 09 0c 38 3d
       0.03021956 0.013292898 -0.073197916 0.044933353
000180 cb af f8 bd 50 51 d4 3d d4 45 f1 bd b1 e3 9f 3c
       -0.12142905 0.10367072 -0.11780897 0.019517751
000190 4d f3 90 3d 0e 36 b2 3d 5f 43 d7 bd ee 1f 98 3d
       0.07077656 0.08701716 -0.10510897 0.07427965
0001a0 8e 4a 13 be d9 29 6d b9 80 d0 8a 3d 6a dc 6e be
       -0.14383909 -0.00022617671 0.067780495 -0.23326269
0001b0 d3 c5 84 3b 9e ac f7 bd 69 ba 2d 3e b6 87 f6 3d
       0.004051903 -0.12093471 0.16965641 0.120376036
0001c0 f7 0f 8d bd 8e 98 98 bd 22 fe 97 bc c9 f9 be bc
       -0.06887811 -0.074509725 -0.018553797 -0.023312466
0001d0 33 79 68 3d fd c5 17 bc eb 13 f7 3c 26 14 a6 3d
       0.05675621 -0.009263513 0.030160865 0.08109312
0001e0 5f 7c a6 3c a5 e0 cf 3d 48 61 45 ba 18 a3 9d bc
       0.020322977 0.101502694 -0.00075294496 -0.019242808
0001f0 67 cf c2 3c b5 0e 08 be 28 94 ea 3c c5 32 d0 bc
       0.023780538 -0.1328686 0.0286351 -0.025414834
000200 5c 8d e3 3d 29 75 12 3e f3 b0 eb 3c 74 a7 ce bd
       0.111109465 0.14302506 0.0287709 -0.10090533
000210 20 c6 1c 3e d4 79 eb bd 76 49 65 3e 03 5b 7a bd
       0.15309954 -0.11497846 0.22391304 -0.06112195
000220 de e9 3c bc 16 d7 62 3d a0 7e 5d bc ab 2d d6 bd
       -0.011530368 0.055380903 -0.013518959 -0.10457929
000230 cf 43 65 3d 65 94 9c 3c 88 9c bb bd 61 4e bd bd
       0.05597287 0.019113729 -0.09160715 -0.09243465
000240 e3 f0 98 3c e3 1d 7b 3e 3c b5 07 be 24 cd 17 be
       0.018669551 0.2452312 -0.13252729 -0.14824349
000250 cf e5 a2 3d 89 d5 a4 bb 09 df 51 bc af c7 eb 3c
       0.07953989 -0.005030338 -0.012809523 0.02878174
000260 3e 91 ad bc 35 58 6f 3c 09 60 cc 3d ee 9c 85 3c
       -0.021187421 0.014608433 0.09979255 0.016310181
000270 02 7e 1e 3e 06 c1 35 be 8a e6 90 bc 52 f1 0b 3e
       0.15477756 -0.17749414 -0.017688055 0.13666275
000280 d0 b1 7a 3b 70 be 37 be ea 7f ee 3c 42 c9 8a 3c
       0.0038252957 -0.1794374 0.029113729 0.01694167
000290 3d b2 ca 3d 67 6a 68 bd 89 2f 93 3d 0d da 48 3d
       0.098972775 -0.0567421 0.07186801 0.049036074
0002a0 89 5c 5d 3b 13 18 22 3d a4 39 e4 3d 29 ad 16 be
       0.003377708 0.03957374 0.111438066 -0.14714493
0002b0 d6 d3 ae 3c 5c 90 3e 3c 44 38 4c bd cf c1 10 3d
       0.021341246 0.011631098 -0.049858347 0.03534108
0002c0 74 d6 89 3b 3a 99 62 bd f3 47 87 bd 62 bc 16 3c
       0.004206473 -0.05532191 -0.0660552 0.009200187
0002d0 9e f1 33 3d 98 7f ee bc 08 c7 18 be 18 95 06 bd
       0.043931596 -0.029113576 -0.14919674 -0.03285703
0002e0 4a 74 d7 bc 48 5e 0c 3d a3 a9 47 bd 13 26 18 3e
       -0.026300568 0.0342696 -0.048745763 0.14858274
0002f0 bd fb 11 3e 54 a7 f0 3c f4 00 77 3d 1e 26 87 bb
       0.14256187 0.029376663 0.060303643 -0.004124417
000300 0b 39 aa bd 8c 39 d7 3b 2e 18 1d bd 02 9b 36 bc
       -0.08311661 0.0065681394 -0.038353138 -0.011145355
000310 c4 de 5d be e8 8a c2 bd 0f e1 5d be ed 90 a2 bc
       -0.2166701 -0.094991505 -0.21667884 -0.019844497
000320 32 6f 12 3e fe ca 82 bd 0c 74 a7 bd 4d fe 13 bc
       0.1430023 -0.06386374 -0.08176431 -0.009032798
000330 19 9b 8a bc 87 ba 43 bd ff 66 11 be 2f 23 ba 3a
       -0.01691966 -0.04778531 -0.14199446 0.0014201159
000340 19 01 c3 3d da 8d 32 3e f5 27 ae bd 4d 5f 30 bd
       0.09521694 0.17436925 -0.08503715 -0.043059636
000350 f8 fc d0 3d 87 5c ec bc 66 3b 45 3c 36 3d 1a bb
       0.102045 -0.028852714 0.0120380875 -0.002353502
000360 d5 73 85 be 31 79 0c be 70 5d 2f bd b9 72 88 3c
       -0.26064935 -0.13718106 -0.04281372 0.016656267
000370 30 c6 27 3d a4 8a 93 bd 62 89 83 bd 88 7c c0 3d
       0.04096049 -0.07204178 -0.06422688 0.093987525
000380 e7 50 e4 bc a8 e7 09 be 1b ed 03 bd b9 7f 94 bc
       -0.027870608 -0.13467276 -0.032208543 -0.01812731
000390 1a 12 73 bd ea f3 8b 3d 12 66 91 3c 4b 4d 92 3d
       -0.059343435 0.06833632 0.017748866 0.07143649
0003a0 82 8e 39 3b e6 e7 e6 bd b0 d6 1d 3c 21 cb 97 bd
       0.00283137 -0.112747 0.009633705 -0.07411791
0003b0 d5 57 ce bd 1e 4c b9 3c 88 8a 88 3d 1d 7c 8a bc
       -0.100753464 0.022619303 0.06667048 -0.016904885
0003c0 6e 8e 09 3d dd ec ab bb 12 17 b5 bd 70 26 5e bd
       0.033583097 -0.005246742 -0.08842291 -0.054235876
0003d0 d7 d6 cf 3c 5b 88 00 be 05 b8 3a bd 46 b3 6b bd
       0.025370998 -0.12552015 -0.04558565 -0.057544015
0003e0 95 5b ec bb af f0 05 3d 9a c0 1b bd 1d a1 af 3d
       -0.007213066 0.032700237 -0.038025476 0.08575652
0003f0 42 67 da 3d 4a 8b 29 be 98 06 6b 3d a7 e0 50 bd
       0.10664226 -0.16557041 0.057379335 -0.050995495

network_body._body_endoder.seq_layers.0.bias f4 [256]
000000 cc 1b 56 bc d6 92 10 3b f4 72 3a 3c f0 8d 83 3c
       -0.013068151 0.0022060177 0.011379946 0.016058892
000010 32 08 e0 3c 4a e6 00 3c 11 94 dd 3c cf 45 e5 3b
       0.027347658 0.007867405 0.027048143 0.006996847
000020 9d 93 8b ba 4e 7c 50 bb a9 83 11 3a 58 ab c8 bb
       -0.0010648851 -0.0031812373 0.000555093 -0.0061239414
000030 8a f7 9b 3a 6f 60 16 3c 4a a6 94 39 52 55 b4 3b
       0.0011899334 0.009178265 0.00028352655 0.005503335
000040 ec ca 7d bc 74 58 b8 3b 63 8c 32 bc 28 60 49 bc
       -0.015490275 0.005625779 -0.010897729 -0.012290992
000050 ec 6f 98 3c 7d 2f 8e 3b 84 22 0f 3c 5f c7 66 3a
       0.018608056 0.004339157 0.0087362565 0.00088035123
000060 15 e2 08 3c 2f 55 a9 3b f6 43 e3 b8 d4 47 01 3c
       0.008354683 0.0051676254 -0.00010836862 0.00789066
000070 22 f5 41 3b 5c 89 31 bc 32 15 cb 3c d7 95 18 3c
       0.0029595573 -0.010835972 0.02479038 0.009313068
000080 3c e4 0f 3d 5a ab 80 bb 34 4a 9e 3c 39 06 87 3c
       0.03512977 -0.0039266767 0.019322492 0.01648246
000090 a3 72 cc 39 51 c9 00 3d b7 ec da 3b d6 22 a4 3a
       0.00038995323 0.03144199 0.0066810506 0.0012522589
0000a0 59 3c 92 bb 03 10 7c bc fb 6f 91 3c e1 86 c6 ba
       -0.0044627604 -0.015384677 0.017753592 -0.0015146398
0000b0 b6 5b 30 3c eb df 87 3b 73 ef d9 3c ce da 7c bc
       0.010764053 0.004146566 0.026603436 -0.0154330265
0000c0 ea 34 0d 3c 95 17 22 bc ef d7 c1 3c 3c 1a eb 3c
       0.008618573 -0.009893318 0.023662535 0.028699033
0000d0 3c 9b 91 3c 9d 6e 34 3c 30 0b 1f bc 5a 8c 5d bb
       0.017774217 0.0110127 -0.009707257 -0.003380558
0000e0 fb 37 96 bc 89 c2 2e 3b 23 ec f9 bb fc 6e 31 3c
       -0.01833724 0.0026666245 -0.0076270266 0.010829683
0000f0 86 45 71 3b bc 2a 1a 3c 17 4a be 3c 70 93 0e 3c
       0.003681512 0.009409603 0.023228688 0.008702144
000100 57 ea c9 3c 1b 4a ef 3c 4e ad 0a 3d 75 d7 93 b9
       0.024647875 0.02921014 0.033856682 -0.00028198553
000110 1d a0 38 3c 0d 11 00 3c c0 f3 87 bb e5 7c 13 3d
       0.011268643 0.007816565 -0.0041489303 0.03600778
000120 70 cb a5 bb b0 1f 1b 3b 7c 22 17 3d 30 da 16 3d
       -0.005059652 0.002367001 0.03689812 0.036829174
000130 13 aa f5 3b d2 49 75 3b a9 b8 4d 3c c7 63 1e 3a
       0.007497081 0.0037428034 0.012556233 0.00060420897
000140 ca 53 96 3a c7 00 48 3c 92 b3 91 3c e1 97 fc bb
       0.0011469063 0.012207217 0.017785821 -0.007708535
000150 56 b1 19 3b 2e 64 af 3b 56 85 6b 3c 96 dc 24 3d
       0.0023451648 0.0053525185 0.0143750515 0.04024943
000160 a0 d6 72 3c e8 6c 38 bb 94 c3 ae 3b a6 01 97 3c
       0.014821678 -0.0028141085 0.0053333733 0.018433403
000170 1a 06 55 3c 85 46 8f 3c 68 f8 ac 3c 34 0b 9f 3c
       0.013001943 0.017489681 0.021114543 0.019414522
000180 40 cc cf 3a 67 e0 6a bd 39 1f 21 3c 12 9e 4b 3b
       0.0015853718 -0.057342913 0.009834104 0.003106956
000190 08 17 52 3a f4 fb 3b 3c 80 01 2a 3c f7 9b 07 bc
       0.0008014296 0.0114736445 0.010376334 -0.008276931
0001a0 d1 18 94 3b 08 44 86 bb ce 50 45 3b db 70 1a 3c
       0.00451956 -0.0040974654 0.0030107978 0.009426321
0001b0 5f e5 b3 bb e9 31 0d bc 2b c9 0f bb b0 1c 94 3c
       -0.0054899896 -0.008617857 -0.0021939974 0.018080086
0001c0 df 37 8b 3c 92 f7 06 3c e3 3a b3 3c 1e 45 d7 3b
       0.016994415 0.008237736 0.021878665 0.0065695187
0001d0 43 77 31 3c d7 76 17 bc b7 d3 f8 3b e3 0c 80 3c
       0.010831657 -0.009244642 0.0075935978 0.015631145
0001e0 e5 a4 44 3c 64 b9 d8 3c ae f6 82 3c 42 d4 cc 3b
       0.012002205 0.026455589 0.015986767 0.006250889
0001f0 86 8c 9c 3c 76 57 3c 3a c3 06 8d 3c 38 45 4b 3c
       0.019109976 0.00071846636 0.017215138 0.01240664
000200 57 07 3a 3b 58 20 a2 3b ad fd a0 bb 46 5b 86 3b
       0.0028385723 0.0049477033 -0.004913053 0.004100236
000210 97 ae 81 3c 6d d2 ff 3b 81 b6 c2 3c c6 c5 7b 3c
       0.015830321 0.007807067 0.023768665 0.015366977
000220 6f 3a ed 3b 45 3d e6 bb e2 1c b4 3c 9e ab dc 3b
       0.007239632 -0.007026347 0.021986429 0.0067343256
000230 c8 88 e7 3c e8 6e 2a 3a eb be f6 3b 61 37 29 3c
       0.028263465 0.00065015117 0.0075300834 0.010328145
000240 61 c3 b2 bb bd be d9 bb 17 aa 07 3c a5 ea 05 3c
       -0.00545542 -0.006645052 0.008280299 0.008173619
000250 c9 a7 bc 3c 35 24 aa 3a d6 ef b8 bb ac 2b 94 3c
       0.023029225 0.0012980761 -0.005643825 0.01808723
000260 03 55 7f 3c db b8 b8 3c 33 62 d1 3c 04 30 0d 3c
       0.015584233 0.022549083 0.02555952 0.008617405
000270 8c bc 43 3c f4 ed ba 3c a3 ba 8a 3c c0 30 64 bb
       0.011946809 0.022818543 0.016934698 -0.0034819096
000280 df 1a 89 3c f9 59 de 3b e0 3d 37 3c 5d 75 ca 3c
       0.016736446 0.006785628 0.011184186 0.024714166
000290 e2 70 b6 bc 8d 40 2d 3c 50 df 2f 3c 53 1e 19 3c
       -0.022270624 0.010574472 0.010734394 0.009345609
0002a0 d4 ef 59 bc 8a e9 3a bc fd 0d e0 3b 13 f8 80 3b
       -0.013301808 -0.011408219 0.006837605 0.0039358228
0002b0 5e ba 81 3c 3a 0a 91 bb 2b 59 ae ba f2 01 59 bb
       0.015835937 -0.004426268 -0.0013301721 -0.0033112732
0002c0 27 ad 7a 3c 84 ea 42 3c 8f 4f 40 bc 14 2c f6 ba
       0.015300072 0.011896733 -0.011737718 -0.0018781447
0002d0 60 34 61 3c 5b 17 17 bb cb 79 bc 3b 1d 19 95 3c
       0.013745397 -0.0023054692 0.0057518235 0.018200452
0002e0 61 b6 15 3d ef 6c 10 3c 80 e8 fa 3b 33 33 11 bc
       0.036550883 0.008815034 0.0076571107 -0.0088623045
0002f0 85 a1 04 bb 5b 27 52 bc 23 c1 a0 3c 6b a1 91 b4
       -0.0020237875 -0.012826766 0.019623345 -2.7125802e-07
000300 5e a9 13 3c bb 8c 0f 3a 40 90 aa 3b cf 38 80 bb
       0.009012548 0.00054759876 0.005205184 -0.003913022
000310 c3 e4 27 3c f5 33 b3 bb 87 d8 60 3c 0c e3 bd 3b
       0.010247412 -0.0054688402 0.013723499 0.0057948884
000320 6a c8 31 3c 53 a6 5e 3c bb ba c9 3c ee 11 3b 3b
       0.010851005 0.0135894595 0.024625173 0.0028544622
000330 4e bd 24 3a 49 4a da 3b f5 46 3a 3c 28 2a 8c 3b
       0.0006284312 0.0066616875 0.011369457 0.0042774864
000340 22 85 a1 3c e8 2a df 3a b3 78 a5 3b 3d d2 fa 3c
       0.019716803 0.0017026337 0.005049789 0.030617828
000350 4f 3f ff 3b d5 92 0d 3c 64 28 17 3c 59 ca 37 3b
       0.0077895294 0.0086409645 0.0092259385 0.0028044193
000360 e3 98 55 bc db 2d 74 3c a3 57 6d 3b fb e3 bf 3b
       -0.013036939 0.014903511 0.0036215566 0.005856035
000370 17 72 9d 3c f3 14 3a 3c bc 16 7c 3c 4a a5 0f 3c
       0.019219441 0.011357534 0.01538628 0.008767435
000380 7e 4c b9 3b d7 2a 04 bc 4c 67 2e 3a a2 b0 10 3c
       0.0056548705 -0.008066854 0.00066529657 0.008831175
000390 09 f8 e8 3a 1f 42 57 3b 17 0f c7 bc c2 80 c2 bb
       0.0017774116 0.0032845808 -0.024299188 -0.0059357593
0003a0 6f a8 42 bb a2 e1 4c 3a 4c 25 1a 3b a2 c4 c3 3a
       -0.0029702445 0.00078156043 0.0023520766 0.001493592
0003b0 18 13 1c 3b 31 5f 2c bc 43 51 99 3c d8 53 b4 3b
       0.0023815092 -0.010520742 0.018715506 0.005503159
0003c0 65 8b 13 bc a2 70 97 3c bb 52 d5 3c a9 e9 1f 3b
       -0.009005402 0.018486325 0.026040426 0.0024400747
0003d0 0e c1 0d 3c 8b 70 76 3c 98 fc 28 3b 99 ae 25 3d
       0.008651985 0.015041481 0.0025785323 0.040449712
0003e0 3d ac 36 3c 10 c3 16 bc 89 b1 07 bd 6a 4a 91 3b
       0.011149463 -0.00920178 -0.033128295 0.0044339197
0003f0 b4 19 e9 3b ad 0a 93 bd 64 86 df 3c 08 c4 42 3b
       0.0071136598 -0.071797706 0.027285762 0.0029718895

network_body._body_endoder.seq_layers.2.weight f4 [256, 256]
000000 18 45 94 bd d3 e3 ac bc 8f bd c4 bd af b1 39 bd
       -0.07239741 -0.021104729 -0.09606468 -0.045335468
000010 be ce 9d 3c 21 fb e8 3d c6 7c e2 3d 0b a2 a6 bd
       0.019263621 0.11376024 0.11058955 -0.08136376
000020 fd 66 66 bc 2b b2 b4 3d 74 73 40 be f7 e9 21 bd
       -0.01406264 0.08823045 -0.18794042 -0.039529767
000030 8e ca e9 3d 00 2d 8f 3d 8b 1a 01 3e 38 2d e8 3d
       0.11415587 0.06991005 0.12607782 0.1133675
000040 57 13 1c 3e 20 79 fe 3d d5 61 c1 bc 18 11 01 3b
       0.15241753 0.124254465 -0.02360622 0.0019694027
000050 64 12 89 3d e3 42 28 3e 33 1f 53 3c d4 7b 0b be
       0.06692961 0.16431765 0.012885856 -0.13621455
000060 08 22 10 3e 7e fb f6 bd 63 25 b2 3d a1 03 90 3c
       0.14075482 -0.12059687 0.08698537 0.017579855
000070 99 5a 7b bc b1 f8 69 3d f9 c0 28 3d 80 9c 0e bd
       -0.015341424 0.057121936 0.041199658 -0.03481722
000080 71 cf 0e bd 1f c2 ce 3d 48 56 61 3c d5 1e 05 bd
       -0.0348658 0.100956194 0.013753481 -0.032500107
000090 d9 18 a7 3d 91 70 fb 3d c9 45 bb 3d 9c 48 c7 3d
       0.08159036 0.1227733 0.0914417 0.09730646
0000a0 1e c5 00 3d 6c 91 06 be 55 2d 73 bd 0d 34 ca 3d
       0.031437986 -0.13141412 -0.059369404 0.09873209
0000b0 f5 59 5a 3b 6b c2 09 be 4e 41 c8 3d 32 a6 d6 bd
       0.0033317779 -0.13453071 0.09778081 -0.10480918
0000c0 55 b6 89 bd bf 6f 01 bd af cd b0 3d 16 ae 1e 3e
       -0.0672423 -0.03160071 0.08632981 0.15496096
0000d0 4d 51 56 bd 31 aa f4 3a 23 e4 9c bd 6d ab 7d 3d
       -0.05232363 0.0018666444 -0.07660701 0.061931062
0000e0 b7 a6 40 3d df 36 f5 bc 42 5d 35 bd f6 3f 6a be
       0.04703399 -0.029933391 -0.04427839 -0.22875962
0000f0 7a ae 97 3c bf 6c 33 be d9 24 e6 3d 3c f2 89 bd
       0.018515814 -0.17521952 0.11237497 -0.06735656
000100 82 5c 43 bd 65 1c 5b bd a7 19 7e 3d ac 72 18 3c
       -0.047695644 -0.053493876 0.062036183 0.009304684
000110 67 1a 02 bd 38 76 d6 3c b7 91 ab bd 4e a2 2a 3c
       -0.03176346 0.026179418 -0.08377402 0.010414673
000120 c9 d8 09 3d 06 39 06 3e 57 03 15 bc e5 7b 81 bc
       0.033654008 0.1310769 -0.009095035 -0.015806148
000130 5a b2 13 bc 52 f9 51 3d 7f 80 74 3c 6a b3 61 bd
       -0.00901469 0.05126316 0.014923214 -0.055102743
000140 d0 61 f6 3d 57 b7 00 3e 11 a6 9e ba fa 25 1c bd
       0.12030375 0.12569939 -0.0012103935 -0.038122155
000150 3c ba ff bd a6 61 5f bd a0 74 29 3d 1c 44 84 bd
       -0.12486693 -0.054536484 0.041370988 -0.06458303
000160 b5 14 dd 3d 41 40 b4 bd 08 25 4d bd fd be 9c bd
       0.10794965 -0.08801318 -0.050084144 -0.076536156
000170 a2 72 20 bc 09 96 e1 3c 30 04 df 3d cd fd c9 bd
       -0.009792956 0.027537363 0.108894706 -0.09862862
000180 4a 75 8d 3d e9 69 47 bd d5 60 00 be 12 f1 a1 3c
       0.06907137 -0.04868499 -0.12536938 0.019768272
000190 81 8c 17 be 72 cd 57 bd a0 7e 79 bc fe 86 9b 3d
       -0.14799692 -0.052686162 -0.015227944 0.07594107
0001a0 a1 bf 9c bc 46 fc 28 bd 9e 92 3d bd 57 a4 f9 bd
       -0.019134345 -0.04125621 -0.046282403 -0.121895485
0001b0 3f 59 15 be df f2 60 bd ab aa 9c bc b6 a3 9a bb
       -0.14584826 -0.05491912 -0.01912435 -0.004719223
0001c0 48 84 bf 3c 7b f1 af bd 26 2d ea bc 60 98 3b bb
       0.023378506 -0.085909806 -0.028585982 -0.0028624758
0001d0 ba 0a 74 ba 16 cf b7 bd 61 a8 58 3c 2d 39 c1 3c
       -0.000930946 -0.089750454 0.013223738 0.023586834
0001e0 f5 18 12 bc e4 7f a8 3d 55 4d 99 3c 5a b1 33 be
       -0.008917083 0.08227518 0.018713633 -0.17548123
0001f0 ef 0c 86 bb d9 54 33 bc 6e 01 64 bd 08 55 28 3e
       -0.0040908973 -0.010945522 -0.055665426 0.16438687
000200 b9 b0 a6 bd 1c 2c c4 bd 23 04 57 3e be cd 30 be
       -0.08139176 -0.09578726 0.20997672 -0.17265984
000210 37 19 b7 3c 47 c2 02 3c 90 bb ce 3b bc d6 ac bc
       0.02235089 0.00798089 0.0063089803 -0.021098487
000220 1d a2 0b 3e 57 1e 13 3e dc ff 4d bd 25 5d 42 bd
       0.1363606 0.14367042 -0.050292835 -0.04745211
000230 80 f2 49 bd 67 cf bb bc 6c 61 2f bd 92 05 88 3c
       -0.04930353 -0.022926046 -0.042817518 0.016604219
000240 9f 51 62 3d 64 c4 e3 3d 7b 5d 95 3c ec 74 25 3d
       0.05525362 0.11121443 0.018233052 0.04039471
000250 70 a5 e9 3d ef 60 0f bd 07 6a 5b 3c c8 48 4c be
       0.11408508 -0.035004552 0.013391978 -0.19949639
000260 62 9e d0 bd 81 93 b6 3c 8b 3d 21 be 3f b9 4f 3d
       -0.10186459 0.022287132 -0.15746133 0.050713774
000270 ca 42 90 3c bf c2 86 bd 23 f3 ce bc e4 39 34 bd
       0.017609973 -0.065801136 -0.025262421 -0.04400052
000280 c9 ef 00 bd cf df fa bb 65 4f 11 bd 72 13 da bd
       -0.031478677 -0.0076560746 -0.035476107 -0.1064824
000290 6a e5 25 3d c8 4f 02 bc 2a c6 fa 3c 60 3d 0e be
       0.04050199 -0.007953592 0.03061207 -0.138906
0002a0 fe 89 d2 bb d5 aa 68 3c 13 17 09 3d 60 d5 09 bd
       -0.0064251414 0.014200886 0.03346927 -0.033650756
0002b0 2b 29 cd 3c 5e 0d 15 3d 7c 42 a1 bd 49 fb 83 3d
       0.025044044 0.0363897 -0.07874009 0.06444413
0002c0 f9 3b 73 3d f0 e6 8b 3d de a6 a2 bd 62 83 0a bc
       0.059383366 0.06831157 -0.07941984 -0.008454176
0002d0 88 1d 61 3d 46 57 bc bd f6 b7 90 3c e4 3e b9 bd
       0.054959804 -0.091963336 0.017665844 -0.090451986
0002e0 10 e2 f3 3d 07 e8 ac 3d dc c9 89 bd 20 a6 04 be
       0.119083524 0.08442693 -0.06727955 -0.12953997
0002f0 d4 72 55 bb 9c a5 bc bc f5 fe 29 bd 29 e5 ba bc
       -0.0032569664 -0.023028187 -0.04150291 -0.02281435
000300 96 1a 0f 3d 71 05 7e 3d f6 1e 46 bd 14 39 04 3d
       0.034937464 0.062016908 -0.04836937 0.032280996
000310 f3 e1 a8 3d a1 4f 8a bd 98 9c ac 3d c5 57 77 3d
       0.082462214 -0.06753469 0.084283054 0.060386438
000320 bf d7 2d bd 08 67 b9 bc 89 59 89 bd 39 f4 e9 39
       -0.04244208 -0.022632137 -0.067065306 0.00044623183
000330 bc b6 08 3e 6b d0 0d be 09 be e7 3c 62 43 cd 3c
       0.13350958 -0.13849036 0.028288858 0.025056545
000340 d9 98 a6 3c ed d5 dc bc a4 07 9c 3d 97 17 fa bd
       0.020336555 -0.026957477 0.07618645 -0.12211531
000350 d5 09 6e 3d 2d 56 07 3e 6e ac 96 3d b2 fb 2b 3d
       0.058114845 0.13216467 0.07357107 0.041988082
000360 ce 9c fe bb 6a 3f 73 bd 98 a8 62 3d 3f 98 93 3d
       -0.0077701574 -0.05938665 0.055336565 0.07206773
000370 2a 92 9c 3c 02 ee af bd 4a 84 56 3d 3f 21 0c 3e
       0.019112665 -0.08590318 0.052372254 0.13684557
000380 b1 d3 80 bd 6c 69 22 bd 01 17 8c bb 8c e7 25 be
       -0.06290377 -0.03965132 -0.004275203 -0.1620161
000390 a5 5f cf bd 21 ca b2 bd e7 c2 2d bd f0 a8 e6 3d
       -0.101256646 -0.08729959 -0.0424222 0.11262691
0003a0 87 df 16 bb 05 1a 1e bd e7 f9 3c 3e 51 df 84 bd
       -0.0023021416 -0.038599033 0.18454705 -0.06487907
0003b0 f2 7b 3c 3e 9b 60 00 3d c1 9a 5a bc 21 2e d3 bd
       0.18406656 0.03134213 -0.01334256 -0.10311533
0003c0 a8 90 94 3d 03 c2 fb bd 80 75 b9 3d 89 7c 8c bd
       0.072541535 -0.12292864 0.090556145 -0.06859691
0003d0 9c 53 2d bb da 28 f2 3d dd 56 17 be d1 6c 73 3d
       -0.002644754 0.11824198 -0.1477923 0.059429947
0003e0 62 8f 01 bd 61 8b de bc 31 e1 4a bc 7c 8b b7 3d
       -0.03163088 -0.02716607 -0.012382791 0.089621514
0003f0 85 51 71 bd 4e 74 e4 bd 31 95 a6 bc e2 c0 5c bd
       -0.058915634 -0.11154996 -0.020334812 -0.053894885

network_body._body_endoder.seq_layers.2.bias f4 [256]
000000 74 19 34 3b 4a f3 22 3c 48 03 50 bc f7 84 fd 3b
       0.0027480992 0.0099457 -0.012696095 0.007736798
000010 25 be 31 3c 61 5f 8e 3b ae 4e 33 3c e2 ae 6b bc
       0.010848557 0.004344866 0.010944052 -0.014384957
000020 c6 e4 a8 3a 8f b2 38 3b ff ae 91 3b 6b e1 2b bd
       0.0012885563 0.00281826 0.00444591 -0.041963022
000030 7b b7 28 3c 14 35 5d bb de 32 69 bc f6 52 82 bc
       0.010297651 -0.003375356 -0.014233319 -0.0159087
000040 29 94 92 ba 5a 0e 6e 3a 9a e9 9d bc 43 08 ad 3c
       -0.0011183071 0.0009081118 -0.019276429 0.021122104
000050 cf 3b ef 3c 6f f1 d8 bc 81 48 0c bc 6b 56 e1 ba
       0.029203324 -0.026482312 -0.008562208 -0.0017191892
000060 46 1d 12 bb bd 30 1d 3c 44 49 d3 bb 9d 7e 6a bc
       -0.002229528 0.00959414 -0.006447943 -0.0143124135
000070 5e 10 9c 3c a6 a8 fc 3b cc f7 0c 3d 90 c1 b9 bb
       0.019050773 0.007710534 0.034416005 -0.0056688264
000080 25 10 5c bc a8 45 61 3c c1 e8 82 bb 70 5d 82 bb
       -0.0134315835 0.0137495175 -0.0039950316 -0.003978424
000090 eb 03 c6 bc 1d 82 b1 3a 50 5e b9 bb cc ca 81 3c
       -0.02417179 0.0013542805 -0.005656995 0.015843771
0000a0 62 82 83 ba 1c 10 1f 3c 27 91 ee bc 3d 2d 73 3b
       -0.0010033364 0.009708431 -0.029121948 0.0037105822
0000b0 ad da c9 bb 15 c1 54 3b 47 b1 03 3d c6 41 57 bc
       -0.0061601014 0.0032463719 0.032151487 -0.01313824
0000c0 f6 82 c3 3c b1 47 8a 3c a0 01 0b 3c 1b b0 85 ba
       0.023866158 0.016879888 0.008484274 -0.0010199578
0000d0 3e 95 a5 bb 2c 94 3b 3c 44 bb 05 3c b4 b4 34 bc
       -0.0050531914 0.011448901 0.008162323 -0.011029411
0000e0 51 ee d1 bc 90 43 c0 3c 59 24 9c bb 6d 4d df bb
       -0.025626333 0.023469716 -0.004765075 -0.00681465
0000f0 5f fe 08 3c 60 8b 79 ba 21 a3 2e 3c 49 07 84 3c
       0.008361428 -0.00095193647 0.01065901 0.016116755
000100 41 e2 c1 3c 10 ef ae bc 6d 87 86 bc 68 a2 f1 b9
       0.023667457 -0.021354228 -0.016421998 -0.00046088104
000110 cd 90 92 3b 3d 3a 6a 3c 4c 7a da bb 4e 70 b9 3b
       0.004472828 0.014296112 -0.006667411 0.0056591397
000120 c6 88 ce bc 66 a4 97 bc 6f 51 d4 3c 9a 47 47 3a
       -0.025211703 -0.018511008 0.025917737 0.0007601917
000130 a6 ec 19 bb c7 e4 d2 3b d9 95 52 3b 45 c2 5e bc
       -0.0023487 0.006435964 0.0032132773 -0.013596122
000140 50 46 06 3c 49 3d 9c 3c 4e 67 9a bb 1d 02 86 3b
       0.008195475 0.019072192 -0.004712022 0.0040896074
000150 d9 68 ed 3c cf 27 78 3c 31 e6 5a 3b 5e e1 64 bc
       0.02898066 0.01514621 0.0033401365 -0.013969747
000160 5c 66 7c bb 9b d5 07 3d df a7 cf 3c 2c 8f 81 3c
       -0.003851316 0.033162694 0.025348602 0.01581534
000170 b5 94 af bc 67 2a c8 3c 0c b7 ad 3c 1e a5 37 bc
       -0.021433214 0.024434282 0.021205448 -0.011208801
000180 79 ec 2b 3c 64 69 08 3c c7 e3 44 bd 20 5b c2 3c
       0.010493391 0.008325908 -0.048068788 0.023725092
000190 89 be 02 3c 47 74 b6 bb 78 0d 06 3c 9e 77 7a 3c
       0.007979997 -0.0055680606 0.008181922 0.015287308
0001a0 62 36 89 3a a1 fc 9d bc ba cf 6b bc 94 26 d5 bc
       0.0010468478 -0.019285502 -0.014392788 -0.026019372
0001b0 03 66 82 3c e4 af 0d bd 2c 69 1b ba 1a 57 96 3c
       0.015917784 -0.03459157 -0.00059284526 0.01835208
0001c0 1b 54 f5 3c 89 d2 93 3b 82 2f 04 3a 96 d1 d3 bb
       0.029947331 0.0045111817 0.00050424796 -0.0064641936
0001d0 dd f6 4a 3b 54 13 1c 3b 0c ee 1e bc e2 cc a5 3c
       0.0030969896 0.0023815231 -0.0097003095 0.020239297
0001e0 3a 6f e6 3b 77 5d 97 bc 66 6d b4 ba 13 d4 ee 3b
       0.007032302 -0.018477185 -0.0013765513 0.007288465
0001f0 f1 95 02 3c d9 7f 1b bc 75 78 63 bc d2 b5 08 3b
       0.007970319 -0.0094909305 -0.0138837 0.0020860326
000200 99 9f c9 3b 44 85 03 3c 45 1b 20 bc 1a 8b 43 3c
       0.0061530587 0.0080273785 -0.009772127 0.01193502
000210 36 10 a5 3b e1 d9 35 3c 7a 30 a5 3c 25 9d 63 bc
       0.005037333 0.01109931 0.020164717 -0.013892447
000220 5b 56 d0 bb 8f f2 51 3c 16 cc 81 3c 4e 25 8d bc
       -0.0063579506 0.012814178 0.015844386 -0.017229702
000230 a2 a8 2b 3c ad ff db 3a 31 81 30 bc 82 a6 39 bb
       0.010477217 0.0016784571 -0.010772989 -0.0028328006
000240 76 04 35 bc bc 12 2b 3c 18 4a 05 bd 62 6c 1d bd
       -0.011048427 0.010441478 -0.032541364 -0.03843344
000250 29 99 f1 3c ba fe 7c bc b9 e4 f0 3b 91 4f ae bb
       0.029491978 -0.015441591 0.0073514846 -0.0053195436
000260 a4 4c 4b 3c 16 69 06 3b 12 46 c3 3c c0 43 8e bc
       0.012408409 0.0020509413 0.023837123 -0.01736629
000270 1a 20 dc bb 72 7a 45 bc 8c 3b a1 3c 3f 9d 7b bc
       -0.006717694 -0.012053119 0.019681714 -0.015357315
000280 03 f1 f6 3c 9c b8 ad 3b 3b cc 5d 3c 6f 78 c5 3b
       0.03014422 0.005301548 0.013537462 0.0060263197
000290 5c e2 03 bc f4 fb a8 3c ea ed 91 bb c8 87 d1 ba
       -0.008049574 0.020627953 -0.0044534104 -0.00159859
0002a0 26 6f 9a 3b 17 10 07 3d 55 34 9e bc 99 ca cc bb
       0.004712957 0.03297433 -0.019312063 -0.0062497375
0002b0 98 1e d7 ba ff 49 99 bc 60 42 2f bb a3 66 06 3c
       -0.0016412316 -0.018712042 -0.0026742443 0.008203181
0002c0 50 1e d0 bb e5 ba 36 bd 09 de 34 bb 7c 9f c2 bc
       -0.00635127 -0.04461183 -0.0027598164 -0.023757689
0002d0 f7 2e 9c 3a c0 e0 cd bc 97 5d 83 3c 69 53 91 bc
       0.0011915852 -0.025131583 0.016035838 -0.017739968
0002e0 50 e6 7c 3a f5 0f 6b ba 38 e3 b2 bc 7c 5e 57 3c
       0.00096473563 -0.00089669164 -0.021836862 0.013145085
0002f0 e6 27 b3 bb 12 ee b1 3c a4 d1 1b bb 4c 76 39 bb
       -0.0054674027 0.021719966 -0.0023776079 -0.002829927
000300 c9 90 bc bc a1 ea 2e 3d c6 00 03 3c 33 2c bb bc
       -0.023018258 0.04270423 0.00799579 -0.022848224
000310 7c 75 ed 3c 71 44 a9 3b e1 1a 2a 3d 79 e9 4f bc
       0.028986685 0.0051656296 0.04152954 -0.012689942
000320 a3 f5 19 3a 2d 54 d7 bb e1 39 33 bc cd 37 e8 bb
       0.00058730895 -0.006571314 -0.010939092 -0.00708673
000330 3a 16 59 3c 27 62 12 bc 47 c6 6c 3b fa 93 08 3c
       0.013249928 -0.008934534 0.0036128925 0.008336062
000340 5a 83 a6 3c b2 d9 eb 3b 2c 12 10 bb 16 25 9b 3c
       0.020326305 0.007197582 -0.0021983488 0.018938582
000350 44 9d e3 bb 2c 09 db bc 59 c1 ad 3b 24 02 cb bc
       -0.0069462378 -0.026737772 0.00530259 -0.024781294
000360 2e 50 06 3d da 72 1b 3c ac ee 45 3a c1 9f f2 3c
       0.03279131 0.009487832 0.00075505185 0.029617192
000370 c0 32 18 bd 57 77 a8 bc f4 ae ab bc e8 be 87 3c
       -0.037157774 -0.020564718 -0.020957448 0.016570523
000380 d4 da a9 3b 7c 0c 01 bc 39 a2 a8 3c 06 22 5c 3c
       0.005183557 -0.007876512 0.020585166 0.013435846
000390 b6 a0 02 bd c5 ac 29 bb 09 67 31 3c f5 b9 09 bc
       -0.031891547 -0.0025890332 0.010827788 -0.008406152
0003a0 73 67 1b bd 6f 8a a0 bb 28 8b 43 ba b7 9e df bb
       -0.037940454 -0.004899315 -0.00074593956 -0.00682434
0003b0 40 ac f7 ba 40 ef ff 3c 8a 2a 8a bb fb 94 c5 3c
       -0.0018895939 0.031242013 -0.004216497 0.024118891
0003c0 80 85 b1 3c 80 07 30 bb 67 ce e1 3b 3d 2d 55 bc
       0.021670103 -0.002685994 0.00689106 -0.013011274
0003d0 84 31 60 3b b8 85 8c 3c 06 db 3f 3b a4 70 95 3b
       0.00342092 0.017153606 0.0029274835 0.004560547
0003e0 21 47 b5 3c 28 e4 d6 3a 38 2b dc 3c 54 65 0d 3d
       0.022128643 0.00163949 0.026876077 0.034520462
0003f0 e0 de ba 3b cb 4d 1f 3b dc 9c fc 3b 9e 54 18 b9
       0.0057028383 0.0024307843 0.007709129 -0.00014527372

action_model._discrete_distribution.branches.0.weight f4 [7, 256]
000000 8f 7b 19 3c 89 df 86 b9 c4 ff 5c bc b1 7f d7 bc
       0.009367838 -0.00025725018 -0.013488714 -0.026306005
000010 08 78 1d bd 48 24 d3 3c 59 a9 9e 3c c5 4b 83 3d
       -0.03844455 0.025774136 0.01936786 0.06410936
000020 19 3e c9 bb 45 da 8a bd 19 f5 5f 3c 50 b3 71 3d
       -0.006141436 -0.06779913 0.013669276 0.059008896
000030 ac cb e5 bc 11 57 2a bc 46 55 44 3a 4f 35 9a 3c
       -0.02805122 -0.010396735 0.00074895134 0.018824248
000040 a0 a4 1e bd c7 a8 bd 3c 9f 2e 9b bc 03 4a a5 bc
       -0.038731217 0.023151768 -0.01894313 -0.020176893
000050 a8 4c 71 bd 87 33 aa 3c f7 75 cc bc 67 db 9d 3d
       -0.058910996 0.020776523 -0.024958594 0.07707863
000060 9b ea c5 bb b0 ad 76 bc 53 3b 5a 3c 24 2a 1a bc
       -0.00603993 -0.015056059 0.013319808 -0.009409461
000070 75 15 89 bc 85 2a b1 bc 18 87 61 bd cf b1 d2 bc
       -0.016733864 -0.02162672 -0.055060476 -0.025719551
000080 a9 9a 7e 3d 5f 28 c9 bc 7f 57 8f 3a e1 28 15 bd
       0.062159214 -0.024555383 0.001093611 -0.03641594
000090 06 6a ec 3c 09 a4 5c 3c 09 d5 c2 3c f3 bc 73 bc
       0.02885915 0.013466843 0.023783224 -0.014876592
0000a0 2b 6e 6f bc fa 35 ca bb 53 29 7b bc 80 77 59 bc
       -0.014613668 -0.0061709853 -0.015329677 -0.01327312
0000b0 42 21 bc 39 a8 8f 76 3c 04 81 22 bd 6a 13 f2 3c
       0.00035882933 0.015048899 -0.03967382 0.029550273
0000c0 db 5e 31 bd 30 67 32 bd 0f 1d 81 bc 34 fb 31 3d
       -0.04330335 -0.04355544 -0.015760927 0.043452457
0000d0 60 28 7d bc 54 8a 0b bd 3c 28 84 bc 29 e7 13 3d
       -0.015451521 -0.034067467 -0.016132466 0.036109123
0000e0 fc fe 06 3d c8 d3 c3 3b 1d 74 a7 bc 47 fb 03 3d
       0.032958016 0.005976174 -0.02044111 0.03222206
0000f0 bc 16 96 bd 12 2d 30 bd 3b fe 02 3c 9b eb 3b bd
       -0.07328555 -0.043011732 0.007995184 -0.045878988
000100 c9 08 5c bd 50 04 e3 3c f6 ca 5b 3c b0 96 4f 3d
       -0.053719316 0.027712017 0.013415089 0.050680816
000110 24 35 2d bc ee 97 96 bd 9c 53 61 bc 93 cc c3 bb
       -0.010571752 -0.07353197 -0.013752844 -0.005975315
000120 49 cb e9 3c 2b a3 c4 bb e9 47 3a 3d 26 47 a6 bc
       0.028539317 -0.0060008965 0.045478735 -0.020297598
000130 d3 10 8d 3b 5c 08 01 bd 62 ac 31 bd e1 55 5c 3c
       0.004304984 -0.031502113 -0.043377288 0.0134482095
000140 ae 3b 84 bc 50 2d a8 ba b5 15 1e bb d0 fb 50 bd
       -0.016141739 -0.0012830887 -0.0024121825 -0.051021397
000150 87 55 17 bc 11 2d 4d 3b 06 97 0b bd e1 c2 50 3c
       -0.0092367 0.003130738 -0.034079574 0.012741775
000160 cb 29 8d bd 5e b3 50 bd b1 54 42 bd ff 1a 85 bd
       -0.06892737 -0.050952308 -0.04744405 -0.0649929
000170 bb 08 01 3d 45 24 4d 3c ce 69 3d 3c a5 71 99 3c
       0.031502467 0.012520854 0.01156087 0.018730948
000180 ac 29 24 3c 3f 11 3e bc ef 99 62 3c 3f ae 8d ba
       0.010019701 -0.0116007915 0.013830646 -0.0010809376
000190 1f 3e 82 bc f3 ff df bb d8 0f 78 bd a9 4d 68 bc
       -0.015898762 -0.0068359314 -0.060561985 -0.014178672
0001a0 f5 e1 39 bd 85 c6 4a bc ff 47 2a 3d 54 02 93 3c
       -0.045381505 -0.012376432 0.041572567 0.017945446
0001b0 3a 30 07 bd 25 be 14 3c 70 ad a8 3b f9 8c 65 bd
       -0.033004977 0.009078537 0.0051476285 -0.056042645
0001c0 35 12 01 bc 91 59 a4 3c 5f 01 b4 3c 25 be 4f bc
       -0.007877876 0.02006224 0.02197331 -0.012679611
0001d0 bb e7 3f bc c9 3d c6 3c 82 e3 d5 bb 2f 7b f5 bc
       -0.011712964 0.024199383 -0.006527365 -0.029965965
0001e0 a9 99 bc ba 64 50 84 3c 2c f2 b3 3c 81 78 11 3d
       -0.0014389056 0.016151614 0.021966062 0.035515312
0001f0 a6 ac 23 3c a1 4f 3d 3d 7f 9c 37 3d 71 fe 14 bc
       0.009989893 0.04621852 0.04482698 -0.009093867
000200 6d a1 12 3d 7c 5e be 3c 6d da 33 bc b0 23 56 bd
       0.03579848 0.023238413 -0.01097737 -0.052280128
000210 70 8d d7 bc 99 86 dd bc 43 07 fc 3b 81 08 99 3c
       -0.02631256 -0.02704172 0.0076912954 0.018680813
000220 46 dd 70 3c 26 79 29 bd 71 70 6b bc 26 83 d4 3c
       0.014701193 -0.0413753 -0.01437007 0.025941443
000230 69 81 5d 3c ae 33 e1 bc 85 5f 33 3d 6b be b6 bb
       0.013519623 -0.027490463 0.043792266 -0.005576899
000240 da c3 ae bb 36 b7 79 bd 0b c7 5a 3d ff 7f 16 3c
       -0.005333406 -0.06096574 0.05341248 0.00918579
000250 0e de dd bc 17 35 13 3d 58 c1 a5 bb b7 79 8f bc
       -0.027083423 0.035939302 -0.0050584488 -0.017514093
000260 a3 3c a7 bc 0f a1 4d 3d 63 5e 3f bd 89 6d 15 3d
       -0.020414656 0.050202426 -0.046720874 0.036481414
000270 b3 4a 04 3d 0c 1c 5d bc 96 3a ec bc 1c 99 74 3d
       0.0322978 -0.013495456 -0.02883653 0.05971633
000280 28 2f 9b bd c0 bd 8a bc d0 39 3d bc c8 aa 5c 3d
       -0.07577354 -0.016936183 -0.011549428 0.053873807
000290 74 c4 f4 ba eb d6 56 bd b2 53 a1 3a e6 1b 2e 3b
       -0.001867427 -0.052451055 0.0012308268 0.0026566922
0002a0 64 89 2a bd cd 22 3f bd 61 ef 1b bd ef f8 0c 3d
       -0.041634932 -0.046664048 -0.038070086 0.03441709
0002b0 b0 fd bb bc 5b 40 82 3c cd ac 48 bd c9 08 4a bc
       -0.022948116 0.015899828 -0.04899292 -0.012331196
0002c0 83 6a de 3c 27 65 b9 3d af 54 f3 ba c6 c6 e6 bb
       0.027150398 0.090524964 -0.0018564666 -0.0070427386
0002d0 21 fe 2a bd f8 70 46 3d 5d ab b3 3a ed 3b 5a 3d
       -0.041746262 0.04844758 0.0013707686 0.053279806
0002e0 e0 29 ce bb bc ca 93 3b 6d 2a 06 bd fc 66 0b 3d
       -0.006291613 0.004510252 -0.032755304 0.03403376
0002f0 3c c2 88 bc 0d 32 60 bd 46 06 fc bc ee 2b 04 bc
       -0.01669418 -0.054735232 -0.03076471 -0.008067114
000300 4e a6 c1 3c 7d b3 ad bd ff 1b f3 bc ee c5 91 bc
       0.02363887 -0.084815 -0.029676436 -0.017794576
000310 7c 41 24 3c 75 6d b3 3c 39 f6 d7 bb 2e 9b 16 3d
       0.010025378 0.02190278 -0.0065906313 0.036769085
000320 9e 4a ae bb 6f c8 8f 3c 41 31 4a 3c 2c 5e 89 3b
       -0.0053189537 0.017551629 0.012340845 0.0041921344
000330 03 3c b4 3b 0a de 67 3d a9 5f 30 3d c9 15 13 3c
       0.005500318 0.056608237 0.04305998 0.008977362
000340 c4 15 2f bc 9c be 25 3b 0d 12 68 3d 35 0a 31 bb
       -0.010686342 0.0025290614 0.05665784 -0.002701414
000350 fa 0a a2 bc b7 81 46 3b 3e 3c bf bb 99 41 66 3c
       -0.019780625 0.0030289718 -0.005836039 0.014053726
000360 7f 40 51 bd cf ef 0c bd df 97 6e bd 22 23 85 bd
       -0.0510869 -0.034408387 -0.058250304 -0.06500842
000370 9d 82 ad 3d fd af f8 3c ca 06 1f 3d 5b 01 00 bd
       0.08472178 0.030357355 0.038824834 -0.031251293
000380 46 5b 4f bd e6 f4 6f b9 db 2b 51 bd 3f 17 26 3d
       -0.050624155 -0.00022884048 -0.051067214 0.040549513
000390 8a 7d a8 3d 83 41 f5 3c 67 2f 12 3c 74 d0 b9 bc
       0.0822707 0.029938465 0.008922434 -0.022682406
0003a0 51 93 61 3d 1f b9 15 bd 1b 3f 48 bd 55 0b 16 bd
       0.055072132 -0.0365535 -0.048888307 -0.0366319
0003b0 56 47 ad bc 6e 85 66 bd f9 d8 34 3d 99 2f f3 bc
       -0.02115218 -0.056279592 0.044152234 -0.029685782
0003c0 68 f7 b6 bc bc 75 d7 3b 57 5d 42 3c 84 ca b1 3b
       -0.02233477 0.0065753143 0.011863074 0.005425753
0003d0 8b d6 d2 3c 3e 35 30 bc e5 d6 62 bc 17 32 23 ba
       0.025737068 -0.010754881 -0.01384518 -0.00062254205
0003e0 ae 40 f4 bc 4d 11 d1 3c 1f cc f0 3b 63 00 0c bd
       -0.029815998 0.025520945 0.007348552 -0.034180056
0003f0 83 2a ab 3c 74 9a 99 bc 60 87 4d 3c 98 1b f8 bc
       0.020894295 -0.018750407 0.012544483 -0.030286595

action_model._discrete_distribution.branches.0.bias f4 [7]
000000 fe 4a 7d bd 43 5f f2 3c 81 1a 02 bc 2e 55 b1 bc
       -0.061839096 0.02958644 -0.007940889 -0.021647062
000010 42 9b 47 3c d1 30 cc 3c 08 26 dd bb
       0.012183012 0.024925621 -0.0067489184
