Project/Assets/ML-Agents/Examples/PushBlock/TFModels/PushBlockCollab.onnx (onnx, 638530 bytes, 12 tensors)

action_model._discrete_distribution.branches.0.bias f4 [7]
000000 b2 a1 39 bd 11 ae 31 3d 94 83 00 3e 3e 37 02 bd
       -0.04532022 0.043378893 0.12550193 -0.031790964
000010 6e ea 6e bd bd f0 5f bd 50 ee ba bc
       -0.05832904 -0.054672945 -0.022818714

action_model._discrete_distribution.branches.0.weight f4 [7, 256]
000000 f5 7e 42 bd cf e1 d6 3c 3d 4c 17 3d d1 03 2b bd
       -0.047484357 0.02623072 0.03693794 -0.041751686
000010 7b 44 42 3d 0f 13 cf 3b 47 49 a5 3b ff d7 2e 3d
       0.04742859 0.0063194106 0.0050441357 0.04268646
000020 1f 3a 95 3c 0b a7 8a 3c 4f ca da 3c 7e 6f 5f bd
       0.01821619 0.016925355 0.026707796 -0.054549687
000030 85 a8 aa bc e5 63 91 bd cc 4d 0d be b3 62 0d 3a
       -0.02083231 -0.070991315 -0.13799208 0.00053934305
000040 11 0b 06 3c fb 40 54 bd 1d 36 e3 bb 66 4a 33 3c
       0.008181349 -0.051819783 -0.006933941 0.010943031
000050 7a f9 35 bd ea 24 10 3d 7c ee 34 bd 3a 98 f0 bc
       -0.044427373 0.035191454 -0.04417275 -0.029369462
000060 9c 06 51 bd 23 6e c8 bd 30 ba 99 3d cf d5 21 bd
       -0.051031694 -0.09786632 0.075062156 -0.039510544
000070 f7 20 b4 3c d2 4f 5a 3d 56 90 ff bd 54 62 99 bc
       0.021988375 0.05329878 -0.12478702 -0.018723644
000080 d0 07 68 bd d9 49 db bc 32 e3 9d 3d a6 31 97 bb
       -0.056648076 -0.026768612 0.0770935 -0.004614073
000090 cf 26 0f 3d d8 d7 48 3d 04 18 1b bd f4 90 3c 3d
       0.03494912 0.04903397 -0.0378647 0.046036676
0000a0 62 0a 15 be ac 79 ee bd 2c fe 7c 3c 94 c8 30 3c
       -0.14554742 -0.11644301 0.015441459 0.010790009
0000b0 1f 89 20 3a 0e ba cc bb 19 39 2e 3c 4e 0f ca bd
       0.0006123948 -0.0062477654 0.01063373 -0.098662004
0000c0 25 af 5b 3d eb b9 1a 3d 27 7d 1c 3d 80 53 0d be
       0.053633828 0.03777496 0.038205292 -0.13801384
0000d0 84 21 b9 bd 94 33 ad 3c b3 69 84 3d 1c ca 9d bd
       -0.09039596 0.021142758 0.06465473 -0.07704565
0000e0 8e 48 09 bc 52 6c 6e bd 83 df 24 3d 45 f8 03 3d
       -0.008379115 -0.05820877 0.04025222 0.03221919
0000f0 aa b7 13 bd 12 7d c9 3d 9c 8f cf bd 13 75 44 3c
       -0.036063828 0.098383084 -0.10134813 0.011990803
000100 75 69 fa 3c 8a 34 c6 3c 7b c0 93 3d f3 78 92 bd
       0.030567864 0.024194974 0.07214447 -0.071519755
000110 1c 28 9b 3c a7 00 92 bb 07 8b a0 bd e5 0b a2 bc
       0.018940024 -0.004455644 -0.07839017 -0.019781062
000120 0f 99 c4 bc b3 05 e4 bd d2 b1 32 3c 7c 84 bb 3b
       -0.023998765 -0.111338995 0.0109066535 0.0057225805
000130 12 37 43 3c 2b 2c 67 3d d7 79 56 bd cb 24 58 3d
       0.011914985 0.056438606 -0.05236229 0.052769464
000140 30 7a 67 bd 84 83 8e bd 9b f8 2c 3b 5d 5c e0 ba
       -0.05651301 -0.06958678 0.0026393298 -0.001711737
000150 43 6f 0c 3d 25 cd ec bc 3a dd 72 bd f6 d2 33 3d
       0.034285795 -0.028906414 -0.05929301 0.04390236
000160 44 19 b1 3d b8 97 8f 3d 10 67 0f 3d f4 df 43 3c
       0.08647397 0.0701136 0.035010397 0.01195525
000170 35 ce 8e bd ca 7f 8c 3d 6b b4 30 3c 20 5f d4 bd
       -0.069729246 0.06860311 0.0107852025 -0.10369706
000180 68 d1 b4 3c c2 0f ab bc d4 e2 55 3d 31 ab 2a 3d
       0.022072509 -0.020881537 0.052218273 0.041667167
000190 99 b2 d9 3c f8 21 d2 bc fc 83 ba 3c 71 f5 e6 bd
       0.02657442 -0.025650963 0.022768013 -0.11277283
0001a0 23 4e 07 3e 6d a9 38 3a 8a 2d 10 bc 15 bd b8 3d
       0.132134 0.00070442894 -0.00879992 0.090204395
0001b0 62 fa 22 bc e6 e8 4d 3d 8a 02 56 3d 76 6f 11 3d
       -0.009947391 0.050270937 0.052248515 0.035506688
0001c0 ba 9b 0a bd 47 fc 00 be 1a ad 82 3d 2b 8b cb bd
       -0.03383992 -0.12596236 0.06380673 -0.099386536
0001d0 e1 bc 03 3d 6d 49 ef 3c 03 03 1f bc 2a cb 50 3c
       0.03216255 0.029209817 -0.009705308 0.012743751
0001e0 da d4 5b bb f5 60 47 3d 40 5f 1c 3d e4 ea 1b bc
       -0.0033543617 0.04867645 0.038176775 -0.0095164515
0001f0 49 e1 8f bc d0 62 8c 3d a4 94 db 3c 7e ea 32 3d
       -0.017563479 0.068547845 0.026804276 0.04368066
000200 5f 38 1b 3c 2e 79 9c bd 95 77 bd 3c 93 a5 4e 3c
       0.009473889 -0.07640301 0.02312831 0.012612718
000210 5f 26 da bc 97 d1 03 be cb ef 23 3d b3 76 09 bd
       -0.026629625 -0.12872921 0.040023606 -0.033560466
000220 4e 57 d0 bc 9e 6a d7 3c d8 53 65 3d 4a 00 bd 3b
       -0.025432255 0.026295956 0.055988163 0.0057678567
000230 cd 6f a3 3c d8 80 82 bd 07 fb a8 3c 8f cc 15 3d
       0.019950772 -0.06372231 0.020627512 0.036572035
000240 95 65 d4 3c ff d5 9d 3d b2 0e 83 3d 05 ca a4 3d
       0.025927344 0.07706832 0.06399287 0.08046345
000250 db 28 d9 bc bb b6 bd bc 43 0b 0f be 1a d2 68 3b
       -0.02650874 -0.023158422 -0.1396914 0.003552562
000260 fe 36 78 bc e8 02 c0 bd e6 c0 04 bd 8d 66 c7 bc
       -0.01514983 -0.09375554 -0.032410525 -0.024340892
000270 0e 8a 31 3d 22 d2 cd 3c 41 8b 39 3d 4e df ad bc
       0.04334455 0.025124613 0.04529882 -0.021224644
000280 9b 62 61 bd 85 e9 c5 bd c6 6d 23 3c 4f b3 de 3c
       -0.055025678 -0.09663681 0.0099749025 0.02718511
000290 24 c0 31 3d a8 7c 0d be 56 81 b7 bd 33 69 04 3c
       0.04339613 -0.13817084 -0.08960216 0.008081722
0002a0 85 5a b2 3c 09 11 c1 3d c1 68 15 bd 26 06 73 3d
       0.021771679 0.09427077 -0.036476854 0.059332035
0002b0 8c b5 49 bd 66 2b f8 bd ed 27 66 bd 55 2f a2 bb
       -0.049245402 -0.121176526 -0.05619042 -0.00494949
0002c0 a1 96 95 ba ca 1f 0f bd 59 40 7e 3d 6e 48 41 3c
       -0.0011412689 -0.034942426 0.062073085 0.011797054
0002d0 a8 17 16 bd 80 83 b7 3c c9 3e 43 3d de 49 92 3c
       -0.036643654 0.022401571 0.0476673 0.017857488
0002e0 53 b3 54 3c 0c b0 db 3a ce 29 c3 3c 27 6b d2 bc
       0.012982207 0.001676084 0.023823645 -0.02568586
0002f0 86 59 87 3d 16 cc d4 bd 68 c6 40 3d a2 3d db 3d
       0.06608872 -0.10390489 0.047064215 0.10705115
000300 32 81 84 bb 56 f8 3d 3d 8f 5c 66 bc 89 4e 29 3d
       -0.0040437216 0.04637941 -0.014060154 0.041334663
000310 a7 9d 06 3b cf 9d 5d 3d c6 71 22 be fb af f8 3c
       0.0020540745 0.054105576 -0.15863714 0.030357352
000320 de 6f 7f 3c b1 fc c3 bd ae 0f ad bd d3 04 25 3c
       0.015590636 -0.095696814 -0.08450256 0.010071951
000330 5c 1d 71 3c 49 68 92 3d 52 25 14 3d e5 46 62 3d
       0.0147164725 0.07148797 0.036168404 0.05524339
000340 f8 02 aa 3d 5e e2 84 bd ea a8 23 3d 09 24 7c 3c
       0.083013475 -0.064884886 0.03995601 0.015389451
000350 58 17 2b bc 84 1e 23 3d d8 1d 2d bc 8c d7 11 bd
       -0.010442577 0.039824024 -0.010566197 -0.035605952
000360 70 e2 db 3c 19 e3 9c 3c 81 e7 4e 3d ce 83 09 3b
       0.026841372 0.019151257 0.050513748 0.0020983103
000370 53 fa 41 bd dd 14 4c 3d db 69 c7 bc 41 8a 5a 3d
       -0.04735787 0.049824584 -0.024342468 0.053354505
000380 c6 5b 63 3d d5 c0 94 bd 94 f8 f5 bd 76 57 15 bd
       0.055507444 -0.07263342 -0.12010303 -0.036460362
000390 45 ac 52 bc b9 16 30 3c d4 29 98 bd cf a7 8a 3d
       -0.012858455 0.010747605 -0.07429853 0.06770288
0003a0 d6 1d d4 3b 27 19 05 bd 7c f3 08 bd d2 2d f0 bb
       0.0064732833 -0.03249469 -0.03343533 -0.007329681
0003b0 4f a1 1c bc ec a8 2d bd 26 85 20 bd 43 ee fb 3c
       -0.009559943 -0.042397425 -0.03918948 0.03075326
0003c0 fa 1f 34 3c bb f5 91 bc 5c bc cc bc 1e b6 be 3d
       0.010993952 -0.017817369 -0.02499216 0.0931208
0003d0 84 17 a6 3d 80 93 83 bd 95 92 e7 bc 46 ba 16 be
       0.08109954 -0.06424618 -0.028268138 -0.14719495
0003e0 c2 fe af bb 97 4e 40 bc df b3 ea bb 54 ad 4c 3d
       -0.0053709457 -0.011737487 -0.0071625556 0.049969986
0003f0 0c c5 2d 3c fb 53 f3 3a 59 8a f5 3b 20 ac b9 3c
       0.010606062 0.0018564457 0.007493299 0.022665083

network_body._body_endoder.seq_layers.0.bias f4 [256]
000000 01 50 76 bd 57 3b 5c bd 9c 22 6e bd ca b8 85 3d
       -0.06013489 -0.05376753 -0.058138475 0.06529386
000010 71 9c 7a 3d 17 37 a4 3b 7a 51 06 3d d6 c3 28 bd
       0.06118435 0.00501145 0.032792546 -0.04120239
000020 15 ba c2 3c d2 ca 81 bb 68 8d cd 36 1e 2c 30 3d
       0.023770371 -0.0039609456 6.125938e-06 0.043010823
000030 f1 30 b2 bc eb 2b 57 bc af bf ad 3c 64 b2 3b bc
       -0.021751853 -0.013133029 0.021209566 -0.011456106
000040 51 8a 5f 3d 52 99 13 3d c3 be 8d bc fd 1b 91 3b
       0.05457527 0.03603489 -0.017302876 0.0044283853
000050 d7 0d c7 3c 7b 9c f4 39 bb bf 25 3c 0f cf d2 bc
       0.024298592 0.00046655894 0.010116513 -0.025733499
000060 54 a7 f4 bc a8 07 15 bd 3d c6 8c bc 83 e2 a8 3c
       -0.029864945 -0.036384255 -0.017184371 0.020615822
000070 b1 70 df 3b 13 90 59 3d ca 77 ed 3c af 42 72 3a
       0.006818854 0.053115916 0.028987784 0.0009241504
000080 80 fb b0 bc 3b a1 06 bd b8 e9 14 bb 04 45 a7 3b
       -0.0216043 -0.032868605 -0.0022722315 0.005104663
000090 25 6a d8 bc 24 59 35 3d 41 7a e9 bb 74 e0 01 3c
       -0.026417801 0.044274464 -0.0071251695 0.007927049
0000a0 63 1f 0f 3c 52 c6 93 3c 8f f9 b2 bc f5 ec 87 3c
       0.0087355105 0.018038902 -0.021847514 0.016592482
0000b0 34 ed 7a bc 0e 95 05 bd f1 da 49 bd ed 14 e9 bc
       -0.015315343 -0.032612853 -0.049281064 -0.028452361
0000c0 fd 39 88 3c 91 94 de bb 79 21 25 3d fa 66 47 bc
       0.016629213 -0.006792613 0.040315125 -0.012170548
0000d0 54 d8 b7 bb 63 2a c3 bc 7c ba 8f 3c 11 2d c6 bc
       -0.005610505 -0.023823923 0.017544977 -0.024191411
0000e0 ec 95 74 3d 91 e7 b9 39 56 37 61 bc 75 b9 05 3c
       0.05971329 0.0003545848 -0.013746103 0.008161892
0000f0 c0 46 0f bd 33 3e a4 bc 00 26 b4 bc 1b e0 94 3c
       -0.03497958 -0.02004919 -0.021990776 0.018173268
000100 a3 ad 7f bc c2 22 df bb c5 ad 23 3d 46 6e 68 3c
       -0.015605363 -0.0068095634 0.03996064 0.0141864475
000110 64 60 2f bd bb f4 85 bb 42 66 9e bb e2 9d ff bc
       -0.042816535 -0.004088012 -0.0048339674 -0.031203214
000120 af 8b ac 3c cb 95 21 bd 7c 04 7c bb b3 6c 31 bd
       0.0210627 -0.039449494 -0.0038454821 -0.043316554
000130 d8 b2 3f bd 76 91 07 3d 3b 63 02 bd 0f 04 48 ba
       -0.046801418 0.033097707 -0.031832915 -0.00076299993
000140 3e 4e fc bc 97 39 2d 3d f0 25 2d bd bf 18 0e 3d
       -0.030799028 0.04229125 -0.04227251 0.03469157
000150 bd b4 7f bd d6 2b 27 3c 49 b4 00 3d 44 b3 c4 3c
       -0.062428225 0.010203322 0.031421933 0.024011262
000160 5a 17 ff 3c 46 66 6c bd c5 2f 27 bc 50 81 89 3c
       0.031139065 -0.057714723 -0.01020426 0.016785294
000170 56 da 1b bd 19 c5 50 3c a6 0e 58 bd 7b 8b 97 bc
       -0.03805002 0.012742304 -0.052748345 -0.018499127
000180 b0 5d cd 3b 8e 9f 55 bc 3b f1 56 bc 43 16 ea bc
       0.006267272 -0.013038529 -0.013119037 -0.028575068
000190 21 01 6e bd 21 ab b5 3c b7 a4 56 bc a6 b2 32 3d
       -0.058106545 0.022176327 -0.0131007945 0.043627404
0001a0 23 90 37 bd f6 df eb 3b b3 8b 6d 3c 14 3d a9 3b
       -0.044815194 0.007198329 0.014498639 0.005164752
0001b0 f1 fb cb 3c 13 0a 7c 3d fd bf 4e 3d 2c a0 a1 bc
       0.024900408 0.061533045 0.050476063 -0.019729696
0001c0 67 fd 04 3c 48 b5 57 3c 51 32 dc bc 11 2c 45 bd
       0.008117056 0.013165779 -0.026879461 -0.048137728
0001d0 74 03 87 3b 66 72 31 bc b4 7b 80 bc 2a e4 f2 ba
       0.0041202847 -0.010830497 -0.015683986 -0.0018531133
0001e0 8b c6 b7 bc c2 75 4c bd 62 5c c6 ba e1 40 75 3d
       -0.02243354 -0.04991699 -0.0015133733 0.059876326
0001f0 80 35 1c 3d d0 d4 fc bc 21 5a 99 bb 68 96 1f 3d
       0.03813696 -0.030863196 -0.0046799337 0.038961798
000200 ad 21 0a 3d 59 3d 06 3d b8 e1 73 3d 7d 05 b1 3c
       0.033723522 0.03277335 0.059541434 0.021609062
000210 a1 c8 3c bd 72 73 de bc d1 6d 89 3b e3 04 65 bd
       -0.046089772 -0.027154658 0.0041939993 -0.055912863
000220 54 be 28 bd 9b 00 2d bd a0 2e e7 bc 1c ea 57 3d
       -0.041197136 -0.042236906 -0.028220475 0.0527135
000230 f4 4f bb 3b 6e a3 8a 3c 28 ac f7 bb 77 33 29 3b
       0.0057163183 0.016923632 -0.0075583644 0.002581803
000240 a1 83 d4 3c 29 da a2 3c 16 d8 03 38 3c 6a 4b bc
       0.025941672 0.019879417 3.143408e-05 -0.012415465
000250 ee 94 40 bc 42 fa be 3c 54 c0 90 3c 89 ca 7d 3d
       -0.011754258 0.023312692 0.017669834 0.06196073
000260 97 74 b9 bc bc d7 d2 bb 23 e7 f3 bc 8f 51 15 bc
       -0.022638602 -0.006434409 -0.0297733 -0.009113683
000270 d0 3f 67 3a 99 b0 91 bb 05 98 fd bb 11 26 7d 3d
       0.00088214595 -0.004446101 -0.0077390694 0.06180388
000280 d7 c4 31 3d ce 96 f2 3c b9 8a 9b 3c 44 03 b6 bc
       0.04340061 0.029612925 0.018987047 -0.022218354
000290 dc 5b 8d bb 46 31 3a 3d 15 66 d2 3b 2f 6d f3 3b
       -0.004313929 0.045457147 0.0064208605 0.007428787
0002a0 4d ba 5a bb b7 af de 3b 23 42 f2 bc 66 42 d2 3b
       -0.0033375204 0.006795849 -0.029572552 0.0064166067
0002b0 9a 4b d9 bc 38 bc 8e 3b d7 1b 33 3c ec 6d cd 3c
       -0.026525307 0.0043559335 0.0109319305 0.025076829
0002c0 8b cc 16 bd 22 7c 1b bd e0 d9 15 bc 2f 09 f0 3b
       -0.03681616 -0.03796018 -0.009146184 0.0073253135
0002d0 3e a8 d4 bc 91 e3 fe 3c 42 d2 06 3d b4 b6 93 3c
       -0.02595913 0.031114371 0.03291536 0.018031456
0002e0 24 5d 84 3c aa 32 40 3c f2 65 22 3d 03 3a 9d bc
       0.016157694 0.011730829 0.039648004 -0.019192701
0002f0 71 3e c4 bc c8 f5 ff 3c 92 e5 b3 bc 0a 19 f7 bc
       -0.023955556 0.031245127 -0.021960054 -0.030163307
000300 a3 26 d4 bc 60 cf 4e bc bf d8 ec 3c 13 93 2b bc
       -0.02589733 -0.012622684 0.028911946 -0.010472077
000310 72 1d 06 bd 0b c4 07 3c f5 cf 07 3d 03 c6 21 3d
       -0.032742925 0.008286486 0.033157308 0.03949548
000320 da 09 0f 3d 4a fe 81 3d eb 51 37 3d 24 a3 bd 3b
       0.034921505 0.0634733 0.044755857 0.00578727
000330 f8 d1 1a bb 69 e5 ab bc 29 7c b2 3a cb e0 53 bc
       -0.0023623686 -0.020983415 0.0013617325 -0.012932013
000340 15 44 cc 3a 19 c5 46 3d 14 91 c4 3c 5c 78 18 3d
       0.0015584255 0.04852781 0.02399496 0.03722416
000350 02 df 96 3c ea b2 09 3c cc a9 ae 3c 57 67 ce bc
       0.018416885 0.008404473 0.0213212 -0.02519576
000360 32 ed 9e 3b 06 8a cf bc 02 8c d9 bc d9 26 34 bd
       0.004850053 -0.02533437 -0.026556019 -0.04398236
000370 e6 1a 45 3d 82 7a 6d 3b 63 a3 27 bd c8 f9 05 bd
       0.048121355 0.003623635 -0.040927302 -0.032708913
000380 b5 31 e0 3b 99 c8 38 3d 50 89 41 bd b2 84 77 3c
       0.006841863 0.04511318 -0.047250092 0.015107321
000390 49 04 07 3d cf a1 08 3c c0 0b 86 bc 80 06 04 bd
       0.03296307 0.008339359 -0.016363025 -0.03223276
0003a0 45 67 a5 bb 91 da 3a 3c 8b 86 a1 3c 74 8c a6 3b
       -0.005047711 0.011404649 0.019717475 0.0050826613
0003b0 95 bb 37 bd bb a6 ca bb f1 d0 67 bc d8 82 33 bc
       -0.044856627 -0.0061844266 -0.014148937 -0.010956489
0003c0 0a 11 fb 3c 67 4e 4c 3d 68 b0 93 bc 00 83 39 bc
       0.030647773 0.049879458 -0.018028453 -0.011322737
0003d0 3e 47 75 3d 5f 95 b6 bc d8 2b 8f 3c 12 e2 a8 bd
       0.059882395 -0.022288023 0.017476961 -0.082462445
0003e0 18 a6 8c bb 11 47 80 3d b9 e2 fd 3c 20 0a e2 3c
       -0.004292261 0.06263555 0.030991899 0.027592719
0003f0 c2 3a f7 bc 30 5f 2a 3d 4d 3c 17 3d 2b c5 0c bd
       -0.030179385 0.041594684 0.03692274 -0.03436772

network_body._body_endoder.seq_layers.0.weight f4 [256, 266]
000000 b7 76 39 3e 6e c0 10 3a 47 7f 5e 3c 5a 06 f2 3c
       0.18111692 0.00055218383 0.01358015 0.029544044
000010 6b a8 8f bc 44 73 aa 3e 43 cc 4d 3e 62 13 1d bd
       -0.017536363 0.33291066 0.20097451 -0.038348563
000020 6f f0 be 3d 5b 27 25 be c8 7a 4f 3d c4 62 b2 3b
       0.09323203 -0.16128294 0.050654203 0.0054439027
000030 a1 40 90 bd 5c c8 02 be 15 37 df 3d 65 14 a4 bd
       -0.07043577 -0.12771744 0.10899178 -0.080117024
000040 05 0b c7 bd ba b8 6c bd a6 6d b5 bd 6d fa 1f be
       -0.09718899 -0.057793356 -0.088588044 -0.15622874
000050 26 0a 65 bd cd 8a 93 3d 96 d3 bf bd 5a a5 a9 bd
       -0.05591788 0.072042085 -0.09366529 -0.082834914
000060 7e 8f 98 3d a6 d0 90 bd 9a cd 21 be ac 7e 5c be
       0.07449244 -0.070710465 -0.15801087 -0.21532696
000070 c0 2f 0d bc f0 e8 b9 3d 62 6c 14 bd c9 bd 12 be
       -0.0086173415 0.090776324 -0.036236174 -0.1433021
000080 6d 07 3c be c6 ad 6a 3c 80 6f 31 bd e7 a2 47 3d
       -0.18362208 0.014323657 -0.043319225 0.04873934
000090 28 55 9c bd 33 9b 2c 3d ca e8 26 bc a9 fb d7 bd
       -0.0763343 0.042140197 -0.010187337 -0.10546047
0000a0 65 98 2a bc 33 f3 ec bc 78 8f a2 ba 70 97 de bd
       -0.01041231 -0.02892456 -0.0012402376 -0.10868728
0000b0 19 e7 41 be cc 34 88 3c 46 4e d1 bd 56 52 fb bb
       -0.18935813 0.016626738 -0.102200076 -0.0076697273
0000c0 5b e6 94 bc 50 74 a5 bd 4d 0a a9 bd 75 5f e6 3d
       -0.018176248 -0.080788255 -0.08253918 0.11248676
0000d0 55 d0 91 bc 97 73 b6 3c ed b7 98 bc 68 e5 c1 3d
       -0.017799536 0.022271914 -0.01864239 0.09467584
0000e0 f1 77 9a bc a6 fb 39 bd 66 1a f5 3c 22 25 f2 bd
       -0.01885602 -0.045406006 0.029919814 -0.11823489
0000f0 ba 6c 4d bd 37 29 d4 3d 79 2f 03 3d 8c 5e d3 3c
       -0.050152518 0.103594236 0.032027695 0.02580192
000100 32 64 cd bc 57 94 ab 3c 8f 4c 11 3c 57 c7 76 3c
       -0.02507219 0.020944757 0.008868351 0.015062175
000110 56 29 eb bd 89 7d 47 bd f9 1a 11 3e 38 65 24 3d
       -0.114824936 -0.048703704 0.14170446 0.040135592
000120 3b 09 d7 3c 26 6c 05 bc 2b ec 80 3b 95 3d 35 bd
       0.026249519 -0.00814346 0.0039344034 -0.044248182
000130 73 b0 92 3c d3 0c 4e 3d 7e 1e 78 bd 90 38 1f 3c
       0.017906403 0.0503052 -0.060575955 0.009718075
000140 20 60 39 bd c7 c2 bd bc 3e 98 a5 bd 74 40 2c bd
       -0.045257688 -0.023164166 -0.080856785 -0.042053655
000150 fb 6f 30 bc 1a d9 f6 bd 08 8e 0b be 4e 5f 8f 3d
       -0.010768886 -0.120531276 -0.136284 0.070006
000160 79 3e 55 be 26 6c 1f be be e4 94 3c d5 be 8f 3c
       -0.20824613 -0.15568599 0.018175479 0.01754705
000170 a2 62 6a 3d ac 76 dc bc 9c cb ae 3b 9a 4e 11 be
       0.05722297 -0.026912056 0.0053343307 -0.1419014
000180 0f 9b 1b 3d 1d 2c f1 bd d9 16 52 bc 16 6e 44 be
       0.037989672 -0.11775992 -0.01282283 -0.1918262
000190 e1 41 96 bd f6 e7 ad be a6 9f 21 be c1 a5 a2 bd
       -0.07336784 -0.33966035 -0.15783557 -0.07941771
0001a0 46 8d 6b bd 39 c5 5a be 85 10 4c 3d ee ce ea bc
       -0.057507776 -0.21364297 0.04982044 -0.028663125
0001b0 12 45 01 be 29 2d a5 bd e2 54 59 3d 7c a8 a6 bd
       -0.12624004 -0.08065254 0.053059466 -0.081376046
0001c0 b6 c8 6b bc 0b 8b 13 be 79 1c 5c bd 79 96 82 bc
       -0.014391115 -0.1440851 -0.05373809 -0.015940892
0001d0 c1 2a 8e 3d c6 0a 49 3d c0 01 2a bc 35 ab 2e bd
       0.069417484 0.04908254 -0.010376394 -0.042643744
0001e0 80 15 19 be fe 9f ab bd 5d 5c 35 3c d4 73 b3 3d
       -0.14949608 -0.083801255 0.011069384 0.08762327
0001f0 6e 47 a0 3d f3 68 36 3d e4 c6 1d 3b 9c d9 9f bd
       0.07826124 0.04453368 0.0024074847 -0.078051776
000200 7b 33 37 3d 86 e2 ca 3d 36 53 e2 ba 7e b8 91 3d
       0.04472683 0.09906487 -0.001726723 0.07115267
000210 07 62 0e 3d 44 f6 ba 3c 33 77 9f 3d c0 5c 08 ba
       0.034761455 0.022822507 0.07786407 -0.0005201809
000220 55 9f 29 be 15 28 01 bb c9 02 b9 bd 62 92 1a bd
       -0.16564687 -0.0019707729 -0.09033734 -0.037737258
000230 01 d5 96 3d 41 9a d2 3c f5 ae 2e bc dd a0 53 be
       0.07364846 0.02570832 -0.01066183 -0.20666833
000240 b7 04 9c bb cc 2c fd 3d 72 9d c4 bd ce 29 50 3e
       -0.0047613042 0.1236206 -0.09600343 0.20328447
000250 85 f6 9d 3d 92 d3 93 3d 92 0f 52 bc 4c 7c bb 3c
       0.077130355 0.07218088 -0.012821095 0.022886418
000260 2d e5 cf bd f7 a8 13 3b a8 b8 c5 bd 12 98 7d bd
       -0.10151134 0.002253113 -0.09654361 -0.061912604
000270 a3 65 d0 bb ec 86 5a 3d 6f de 90 3d fb ba b1 3c
       -0.0063597723 0.053351328 0.07073676 0.021695605
000280 38 e8 98 bd 6f df 86 bd 3d 8d 3a bb 3a e7 1c be
       -0.07466167 -0.06585585 -0.0028465532 -0.15322581
000290 12 c6 58 be 69 98 c9 bc e7 31 a0 bd 2e af c6 3d
       -0.21169308 -0.024608808 -0.07822018 0.097013816
0002a0 47 cc 96 3d 1b b9 c6 b9 69 71 eb 3c 4f a0 c7 3c
       0.073631816 -0.00037903417 0.028740602 0.024368433
0002b0 c6 0e a1 be 96 3d 89 3d 85 b7 b4 bd 60 ee 05 be
       -0.31456584 0.067012 -0.08824066 -0.13079214
0002c0 ab c2 bb bd 2b 41 6f bc 1b 29 1c bd b0 49 b5 bc
       -0.09167989 -0.01460294 -0.03812514 -0.022129864
0002d0 2d d9 19 be 83 97 ed bd c4 68 3e be ad 77 ba bc
       -0.15024252 -0.11601164 -0.18594652 -0.022762144
0002e0 13 1e fa bc bd 4f a1 bd 07 cd f7 bc 24 6b b0 3d
       -0.030531919 -0.07876537 -0.030249132 0.086141855
0002f0 26 a3 31 bc ab 45 fa bd 17 0c 3b 3d c7 b3 06 be
       -0.01084212 -0.12220319 0.045665827 -0.13154517
000300 aa b7 89 bd 0c 17 c3 bc 29 21 26 be a3 e3 5e 3c
       -0.06724484 -0.0238147 -0.16223587 0.0136040775
000310 96 31 bd 3c 4f 8b 93 3d 63 d2 a4 bd 09 a4 73 bc
       0.023094933 0.072043054 -0.080479406 -0.014870652
000320 41 55 54 3d e9 05 62 bd ff 45 00 be f5 37 c1 bd
       0.051839117 -0.055181418 -0.12526701 -0.09434501
000330 70 2f 46 be 3a 50 a1 3d 5b 02 4a bd de aa 84 bb
       -0.19354033 0.0787663 -0.049318653 -0.0040486893
000340 f7 a1 21 be f7 4c 7a 3c e7 4c 08 3b f4 7f 8b 3d
       -0.15784441 0.015277139 0.002079779 0.068115145
000350 be ad 18 3d 10 c6 88 3d 10 06 c8 bd a3 3b 61 3c
       0.03727507 0.066784024 -0.09766781 0.013747129
000360 3f f4 9a bd 88 01 e4 3d b0 98 35 bc 3c e4 d8 bb
       -0.075661175 0.111331046 -0.011083767 -0.0066190045
000370 f2 1c 84 bc 0e 23 0c be 94 83 a0 3d 6e f0 5f bd
       -0.016127083 -0.13685247 0.078375965 -0.05467265
000380 b2 6e 38 bd e6 13 9c 3c d8 3e d4 bd 5b 67 ea bd
       -0.045027442 0.019052457 -0.10363549 -0.11445495
000390 b3 ac b5 bd 05 60 bc bd c2 2e d7 3c 60 f6 5b bd
       -0.088708304 -0.09198002 0.026267413 -0.05370176
0003a0 36 f3 8c 3d f5 2d 2c be 05 1a 34 be 6b f2 1e bd
       0.06882326 -0.16814406 -0.1758805 -0.038805407
0003b0 dc 50 a2 bc 43 d5 b3 3d 76 db dd 3c bb 87 08 be
       -0.019813947 0.08780911 0.027082186 -0.13333027
0003c0 31 17 fd bc e8 bc ea ba f1 d0 19 3e b6 41 bb bd
       -0.030894848 -0.0017909082 0.15021111 -0.09143393
0003d0 7c 7c 0e bd bd ea 84 bc 70 91 a5 bb 80 15 28 bd
       -0.034786686 -0.016225213 -0.005052738 -0.04103613
0003e0 24 d6 18 3d 07 7e 3a 3d 13 b3 eb bd 37 54 66 3d
       0.037313595 0.045530345 -0.11508765 0.056232657
0003f0 32 5b b5 3c 2b 96 e4 3c 85 49 20 bd ce e2 20 be
       0.022138212 0.027903637 -0.039132614 -0.15711519

network_body._body_endoder.seq_layers.2.bias f4 [256]
000000 f6 e9 4b 3b 24 af ee bc ed 18 ad bd 78 44 8a 3d
       0.0031114793 -0.029136248 -0.0845202 0.06751341
000010 0a 57 6a bd 7a e6 d2 bc 33 95 09 ba 03 a7 45 3d
       -0.057211913 -0.025744665 -0.00052483677 0.048254978
000020 d7 1d 0d 3c 7c 99 bc bc df 4c 79 bc 51 dd af bd
       0.008613071 -0.023022406 -0.015216081 -0.08587135
000030 5a 81 21 3d 35 e2 6b 3c 85 2b f5 3c 72 ba 0e 3d
       0.03943 0.014397194 0.029927978 0.034845777
000040 43 d5 7b bc d4 88 66 3d 4f 41 c9 3c 0a 12 34 bd
       -0.01537067 0.056282833 0.024567274 -0.043962516
000050 06 17 89 bd ea 74 78 bd f7 d8 98 3c be 34 19 3c
       -0.066938445 -0.060658373 0.018658144 0.009350954
000060 e1 66 31 ba 99 97 e2 bc bf 2c c0 bd a1 61 e4 bc
       -0.00067673443 -0.027660178 -0.09383535 -0.027878584
000070 e3 79 27 3d 2b d8 33 3d d6 18 e6 3b 9b 95 97 bc
       0.040887725 0.043907326 0.0070220036 -0.018503955
000080 3f 0c 13 bb c6 43 c1 3b d7 0f 38 bd 94 c5 57 bd
       -0.002243772 0.005897972 -0.04493698 -0.05267866
000090 d7 91 a1 3c 6c a7 c3 bc 07 ef 96 bc 1a 6b 8b bd
       0.019722862 -0.023883544 -0.018424524 -0.068075374
0000a0 7c 55 39 3c 05 45 09 3d d5 89 a5 bd 87 67 5c bd
       0.011311885 0.033513088 -0.0808293 -0.05380967
0000b0 80 72 1c 3c e7 19 94 bd e9 d7 a2 3d 50 54 59 3d
       0.009548783 -0.07231503 0.07951338 0.053058922
0000c0 af 58 eb bc 4d cb 24 bd 0c dd ee 39 e9 c4 04 bd
       -0.028728811 -0.040232945 0.0004555959 -0.03241435
0000d0 ce fd 04 bc 46 b1 5a bd 78 4e 49 bd 85 d5 b7 bc
       -0.008117152 -0.053391717 -0.0491471 -0.022440681
0000e0 b5 e1 0e bc 78 9d b6 3c f9 e2 54 bc d4 8f 69 bb
       -0.008720805 0.022291884 -0.012993568 -0.0035638707
0000f0 af 54 7c 3b 14 94 8c 3c 64 3e 84 bc 17 fe ff bc
       0.0038502624 0.017160453 -0.016143031 -0.03124909
000100 4c d0 1b bd c8 7d a9 3c 4d 24 86 bd 3e e7 27 3c
       -0.038040444 0.02068986 -0.065498926 0.0102480035
000110 5a c9 74 bb a6 b2 d1 3b b3 20 ab bd d5 7f 5f 3c
       -0.003735146 0.0063994704 -0.08355846 0.013641317
000120 52 74 27 bd 2f fb 48 bc 49 12 d8 bc 39 9e d4 3c
       -0.040882416 -0.012266918 -0.026375907 0.025954353
000130 fd 46 87 bd b4 bd f3 bc ab c8 9e bd 30 e3 92 bb
       -0.06605337 -0.029753543 -0.07753118 -0.0044826493
000140 05 fc b6 3c ca 35 03 3a 4b 6f 96 bd 81 7a 60 bd
       0.02233697 0.00050052686 -0.07345446 -0.05480433
000150 47 8d 39 bb 0c d2 df 39 e5 2c bc 3c 30 fd bd bd
       -0.0028312968 0.00042690372 0.022970626 -0.09276807
000160 da 55 3c bd ea 25 a9 bc c1 03 6e bd f9 c6 be bd
       -0.045980312 -0.020647962 -0.05810905 -0.09315295
000170 6e de 4b 3c dd 6a de bc b0 27 ae bd 27 49 23 bd
       0.012443168 -0.027150566 -0.085036635 -0.039864685
000180 f0 2b 01 be a1 b8 8c bb d8 12 03 3c e6 76 eb bc
       -0.12614417 -0.0042944704 0.008000098 -0.028743219
000190 f4 6c 43 3d 6f 71 25 3d 44 4b e6 bc bb db 08 3d
       0.047711328 0.04039138 -0.028112061 0.033412676
0001a0 6a 02 09 ba fa 5d a9 bd a9 9d 15 3d 95 46 74 bd
       -0.0005226495 -0.08269878 0.03652731 -0.059637625
0001b0 0e 9e 9b 39 f4 06 58 bc 29 1a 0b bd cb 96 09 3d
       0.00029681664 -0.0131852515 -0.033960495 0.033591073
0001c0 9b 7a 4e 3d 4a 12 04 3d bd b2 64 bd eb 82 f6 bb
       0.050409894 0.032244004 -0.05583452 -0.007522931
0001d0 aa be 98 bd 7d 36 82 3d 4c ff c1 bc 57 0a 66 bc
       -0.07458241 0.06358049 -0.023681305 -0.014040551
0001e0 91 69 9d bc 3b 26 12 bd 69 a1 82 bd cc c5 8d bd
       -0.019215377 -0.03568099 -0.06378443 -0.069224924
0001f0 e9 11 f9 bc 31 60 48 bd ac 84 03 be 05 10 54 bd
       -0.030404048 -0.04891986 -0.12843579 -0.05177309
000200 1e 75 73 bd f7 1c ca bd a4 1b 79 bc d2 40 54 3d
       -0.059437864 -0.09868806 -0.015204344 0.05181963
000210 a6 25 04 3d 12 a8 20 3d 96 47 c0 bd 13 13 36 3d
       0.032262467 0.039222784 -0.09388654 0.044451784
000220 69 31 0e bd b1 80 f3 3c d9 bd 78 bc 5c e0 b4 bd
       -0.03471509 0.02972445 -0.015181982 -0.08831856
000230 c7 56 04 bd 62 5c 9c 3b 2a 6c fa bc c0 7a 1e bc
       -0.03230932 0.004771755 -0.030569155 -0.009672821
000240 68 37 02 be f0 46 cf bc ae 35 d2 bc 51 28 b7 bd
       -0.12716448 -0.02530238 -0.025660362 -0.089432366
000250 0c d3 84 bc 93 28 5e 3d 94 55 1d bd 40 7d ae bd
       -0.016213916 0.054237913 -0.03841169 -0.08519983
000260 fe 21 a9 bc 37 e5 41 3d 61 dd a4 bd 23 a7 fd 3c
       -0.020646092 0.047337737 -0.08050037 0.030963486
000270 d7 83 b1 bd cf 35 f4 bd b7 a2 fa bc e6 e5 9a 3c
       -0.086677246 -0.11924326 -0.030595167 0.018908452
000280 87 b1 8f 3c 24 71 35 bd 43 7b a9 3c b7 9b 4b bc
       0.017540706 -0.044297352 0.020688659 -0.012427262
000290 c4 e3 ab bd bf 2e 4f 3c 2e 45 b6 bd 13 ce b6 bd
       -0.08393052 0.0126454225 -0.08899914 -0.08926024
0002a0 9b fd 39 bd c8 04 c8 bd 69 9f c3 bb bb 64 83 bc
       -0.045407873 -0.09766537 -0.005969931 -0.016039243
0002b0 e7 91 14 3c 3d c1 83 3d fa 5a fc bd 9e 15 5e 3c
       0.009067989 0.06433342 -0.1232204 0.013554959
0002c0 41 54 10 bd 0d 84 1e 3d 8b 51 30 bd 5c 72 5e 3c
       -0.0352366 0.038700152 -0.043046515 0.01357707
0002d0 14 94 d3 bb 15 86 0a 3d d7 f7 b6 bd a0 e6 10 ba
       -0.0064568613 0.033819277 -0.089339904 -0.000552753
0002e0 f0 a9 b8 bd 47 29 b9 bd 24 54 43 bd 80 95 a0 bc
       -0.09016788 -0.09041076 -0.047687665 -0.019602537
0002f0 dd 22 57 bc dc 28 aa bd 54 09 fe bb 16 63 15 bd
       -0.013130871 -0.083085746 -0.007752577 -0.03647145
000300 74 32 d2 3c 76 97 64 3c cc c2 22 bd d3 75 ff bc
       0.025658824 0.013952127 -0.039736554 -0.031184113
000310 40 eb 3b bd f0 e4 49 bd d2 fb c4 bc 8e 88 96 bc
       -0.04587865 -0.049290597 -0.024045859 -0.018375661
000320 c3 3d a4 bc ad e9 d5 3b 81 f3 a0 3a b3 19 95 bd
       -0.020048982 0.0065281005 0.0012279601 -0.07280292
000330 05 5c f2 bc 68 35 ff bc eb 3b 1d bd bd 7d 23 bd
       -0.029584894 -0.031153396 -0.03838722 -0.039914835
000340 89 0f d3 bd 21 56 86 bc c9 18 11 3c 40 b1 f7 bd
       -0.103056975 -0.016398491 0.008856007 -0.12094355
000350 0c 93 80 bd 70 63 b6 3b 5d a4 cb bc c4 19 1d 3d
       -0.06278047 0.005566053 -0.024858648 0.03835465
000360 74 8f 03 bc 85 22 17 bb a1 1f bb bc 58 84 86 3d
       -0.008029807 -0.0023061347 -0.02284223 0.06568211
000370 ec 7b ae 3c 6e 7b 93 3b 87 9d 8d bd 9b f9 04 bd
       0.021299325 0.004500798 -0.069148116 -0.032464605
000380 16 a3 94 bc 40 86 3a 3d f3 5e b0 3c ea 16 e0 bd
       -0.018144172 0.045538187 0.02152965 -0.109418705
000390 8c 97 33 3d 33 f1 96 ba ab 9c 85 bd 1f 5f c3 3d
       0.0438457 -0.0011515975 -0.06524023 0.09539627
0003a0 94 ee 90 3c 51 c7 72 bd 00 cf 98 3c 25 61 70 bd
       0.017691888 -0.059272114 0.018653393 -0.058686394
0003b0 ae 5c df 3b cc 2a dd bc 1a a5 7d 3d f9 af ab bd
       0.006816468 -0.026997946 0.06192503 -0.083831735
0003c0 33 c8 9d 3d 58 c3 da bd f6 ab 84 bd c8 ed 03 bd
       0.077042006 -0.1068179 -0.064781114 -0.032209188
0003d0 1f fb e5 bc 93 3a cc bd a7 b3 16 3d cc 49 cc bc
       -0.028073845 -0.0997211 0.036792424 -0.024937533
0003e0 a6 7b 2e 3c 17 08 8c bc e4 1c 1e 3d 60 b6 05 bd
       0.010649597 -0.017093701 0.03860177 -0.03264463
0003f0 0d 63 db bc 81 7d 27 3d 37 de 2a bc 4c ed b2 bc
       -0.02678063 0.040891174 -0.010428957 -0.021841668

network_body._body_endoder.seq_layers.2.weight f4 [256, 256]
000000 4a 52 4d bd 3a f7 0d 3c d3 b1 ee bc 38 95 68 bd
       -0.050127305 0.0086649 -0.029137528 -0.05678293
000010 f2 ad 47 bd 33 af cf bd 41 58 c4 3b 7c 66 1e bd
       -0.04874987 -0.101408385 0.005991966 -0.038671955
000020 b4 53 6d bd bd f1 94 be b9 06 ce bd 09 4f c9 3d
       -0.057941154 -0.29090682 -0.10059876 0.09829528
000030 89 45 ff bc 8e b4 13 bd 75 63 ca 3d c4 1a 22 be
       -0.031161087 -0.036060862 0.09882251 -0.15830523
000040 ce e7 8a 3d fa bd 04 be 68 cc 89 3d 78 c1 3c bd
       0.067824945 -0.12963095 0.067284405 -0.046082944
000050 29 e7 49 3c e9 b6 c1 bd d6 5b 4c 3c 6f fe f1 3d
       0.012323179 -0.094587155 0.012473067 0.118161075
000060 2f 06 d0 bc 83 8a e6 3c 85 cf 10 be 1e 03 1c bd
       -0.025393574 0.02814222 -0.14141662 -0.03808891
000070 24 8a 45 bd 1e 82 16 3e d3 1b 53 3d 7c ac 88 3d
       -0.048227444 0.14698073 0.051540207 0.06673524
000080 ca fb 2a be 16 1f cb bd 3a 71 d9 bd 5f 70 26 3d
       -0.16697612 -0.099180385 -0.106172994 0.04063451
000090 7e 2e 3e bd 06 99 89 3b 4e d2 6a 3d 27 08 50 3b
       -0.046431057 0.00419915 0.05732947 0.003174314
0000a0 9f 46 79 bd 81 23 9d bd f1 ce 1f 3e 04 71 d4 3d
       -0.060858365 -0.076727875 0.15606286 0.103731185
0000b0 b0 32 e4 bd a0 a6 63 bd 2b fb ca bd 1e e1 fe bc
       -0.111424804 -0.055578828 -0.09911188 -0.031113204
0000c0 51 cf db 3d 52 1e e6 39 fa a9 91 3d 69 b5 e7 ba
       0.10732902 0.0004389161 0.071124986 -0.0017677966
0000d0 db cc 92 bc 79 65 39 3c b0 d5 00 3e 25 7a 80 b9
       -0.017919948 0.011315697 0.12581515 -0.00024505067
0000e0 9c 62 0d be 82 31 92 bd 0c 48 15 3d a2 92 00 be
       -0.13807148 -0.07138349 0.036445662 -0.12555936
0000f0 52 8f 5b bd 33 86 e2 3d 67 28 a3 bd 28 fb d2 bd
       -0.053603478 0.11060753 -0.079666905 -0.103018105
000100 35 fc 6b bd 0f 47 49 bd 6a 47 90 bd 0c 68 84 bd
       -0.05761357 -0.049140032 -0.07044871 -0.06465158
000110 e7 62 ac 3d 9a 39 f2 bd bf f5 cf 3d d0 de 74 bd
       0.084173016 -0.11827393 0.10154294 -0.059782803
000120 8c 2b e9 bb e8 8b 0f 3b 0d 5e 14 be 25 a5 19 3d
       -0.007115787 0.002190346 -0.14489003 0.03751101
000130 f7 f6 cd bd 33 54 3b be 6c 32 2e be 1e cd fe 3d
       -0.100568704 -0.18293838 -0.17011422 0.12441467
000140 97 9e 80 bd f8 61 34 bd 7a fd d7 bd fb 2a 47 bd
       -0.062802486 -0.044038743 -0.10546394 -0.048624974
000150 f6 0f a9 bd 9c 53 c2 bd 9b c5 04 bd b2 dd 08 3b
       -0.082549974 -0.094886035 -0.032415014 0.0020884094
000160 64 fd 82 3e 00 60 b7 bd 2d 29 23 bd dc 65 20 3b
       0.25583947 -0.089538574 -0.03983419 0.0024474775
000170 84 12 59 be 59 ba 0d bd d2 c7 a1 bd e1 9d 16 3c
       -0.2119847 -0.034601543 -0.07899441 0.009192915
000180 03 2f bd 3d d2 aa 10 bc 52 57 d9 3c ef 6c 7e 3b
       0.092374824 -0.008829789 0.026530895 0.0038822254
000190 ea b3 94 bd c7 06 60 bd ae f6 50 bc 73 1e 21 bd
       -0.072608784 -0.054693963 -0.0127541255 -0.03933568
0001a0 15 0c 0d be 66 bd 7b be f9 d2 fc bc df d2 5b 3d
       -0.1377414 -0.24583969 -0.030862318 0.0536679
0001b0 b3 4c e8 bd 55 6f e5 bc 4a 47 0f be 4f 82 2c be
       -0.11342754 -0.028007189 -0.13992038 -0.16846584
0001c0 25 77 6c 3d ee c7 4a be 06 b5 8d bd f6 16 84 bd
       0.057730813 -0.1980283 -0.06919293 -0.06449692
0001d0 da 0f f9 bd 78 5f 07 bd 21 b3 5a 3d 22 46 d2 bd
       -0.121612266 -0.03305003 0.053393487 -0.10267283
0001e0 e5 c4 97 3d ae f8 9f bd 98 50 7d 3c 64 93 09 3d
       0.074106015 -0.07811104 0.01546111 0.03358783
0001f0 f2 7f ba 3d 8f 38 06 3d 40 4a c2 bc 83 82 54 be
       0.09106435 0.032768782 -0.023717046 -0.20752911
000200 93 7d 41 bd 60 14 ea bd 00 bd 6d bd 10 a2 3d bd
       -0.047238898 -0.114296675 -0.058041573 -0.046297133
000210 4c 18 ba bd 50 11 0f bd ce a2 6f 3d 27 98 9f 3a
       -0.090866655 -0.03492862 0.058504872 0.0012176082
000220 50 30 9c bb a2 4c 6e bc 83 ca 3f bd 36 09 f1 bc
       -0.0047665015 -0.014544638 -0.04682399 -0.029423337
000230 0a f6 36 be 3a 25 bf bd 47 a2 f6 bd 93 1e 45 be
       -0.17867294 -0.09333272 -0.12042671 -0.19249944
000240 7c 32 a9 3d ac 62 40 bb 42 cb c0 bc c2 88 10 be
       0.08261582 -0.0029355688 -0.02353442 -0.14114669
000250 1e d0 36 be f4 6c 8c 3d c4 02 be bd 08 91 10 bd
       -0.17852828 0.06856719 -0.09277871 -0.035294563
000260 95 59 82 bd 6a 62 a5 bc 89 e3 c1 bd 16 85 86 3d
       -0.06364743 -0.020188529 -0.09467227 0.06568353
000270 3d 72 c5 bd c7 8c 70 bd 06 c7 ad bd 64 db e1 bd
       -0.0964093 -0.058728006 -0.08485226 -0.110281736
000280 23 ee 69 be 4c de 21 bc 68 0b 22 be 1e 3c f4 3d
       -0.22844748 -0.00987966 -0.15824664 0.11925529
000290 2c 24 d0 bd 3d 4e 81 3d 09 63 ac 3d 38 76 44 3d
       -0.10163149 0.06313751 0.08417327 0.047964305
0002a0 fc d5 88 bd 35 b4 48 bc 58 9c 93 bc cd c8 66 be
       -0.06681439 -0.012249996 -0.018018886 -0.22537537
0002b0 98 19 f2 3c 52 27 58 3c 6e 5a cc bd e3 f1 dc bd
       0.02955322 0.013192968 -0.099781856 -0.10788324
0002c0 9a 13 3f bd 20 78 f9 bd 8f 54 a7 3b 88 bc ee bd
       -0.046649553 -0.12181115 0.0051065157 -0.11657053
0002d0 a1 d4 b8 bd 34 b1 47 bd db 28 55 bd bb 62 07 be
       -0.09024931 -0.04875298 -0.052040916 -0.13221256
0002e0 9c e7 22 bd 8f f0 4b bc 25 9a 99 bd 58 56 a3 bd
       -0.03977166 -0.01244749 -0.07500104 -0.07975453
0002f0 8c 59 3e bd 7a 13 09 be c5 0c 81 ba f7 56 99 3b
       -0.046472117 -0.13386336 -0.0009845725 0.0046795565
000300 84 67 3a bd ad 1a 89 bd 29 59 c3 bc c0 13 90 bd
       -0.045508876 -0.06694541 -0.023846226 -0.07035017
000310 29 a1 f3 bd a2 ca 09 bd 3f e9 3b bd 4e c4 85 bd
       -0.11895973 -0.03364051 -0.045876738 -0.06531583
000320 54 49 0f be 06 34 e8 3d f7 fb 8a 3b 85 fe 81 3c
       -0.13992816 0.11338048 0.0042414623 0.015868435
000330 23 d3 bd bc 95 43 b8 bd 08 86 d5 bc 53 94 1f 3d
       -0.023171967 -0.08997265 -0.026064888 0.038959812
000340 75 ce 06 3d 28 74 34 bd b5 11 76 b9 47 0f f1 bd
       0.032911737 -0.044056088 -0.00023466985 -0.11770492
000350 ab 6b 58 bd 39 38 03 bd 04 7f 0c be 37 b9 2e be
       -0.052837055 -0.03203604 -0.13720328 -0.17062841
000360 27 fe 1b be 8a 62 ae bc a3 c2 c0 bc 75 de 1f bd
       -0.1523367 -0.021287221 -0.02353031 -0.03903051
000370 4a a6 4d be d8 e3 64 3d c5 4f a1 bd 1c 96 ee bc
       -0.20082965 0.05588135 -0.07876543 -0.029124312
000380 21 ba b3 bd 61 0c e7 3c d0 07 c4 3c 78 06 68 bc
       -0.08775736 0.028204145 0.023929507 -0.0141616985
000390 49 16 0c be 42 72 e6 bd 03 ac 45 bd 1c f1 81 3d
       -0.13680376 -0.11252262 -0.048259746 0.06344816
0003a0 1d 34 76 be d2 8d 04 be 42 d8 1f be c2 24 60 bd
       -0.24043317 -0.12944725 -0.1560984 -0.054722555
0003b0 da dc 4f be f6 44 44 3c e3 a4 87 bd 31 dc 7d 3c
       -0.20299092 0.011979332 -0.066232465 0.015494392
0003c0 81 a7 9d bc 20 79 39 be cd a2 f0 3d c0 1f 91 bd
       -0.019244911 -0.18112612 0.11749802 -0.07086134
0003d0 9d bc 43 3d 2f ea 47 bc 0c f7 de 3c 21 a9 91 bd
       0.047787298 -0.01220183 0.02721741 -0.07112337
0003e0 f6 7b bb bc 38 f1 c7 3c 23 9a 1b be a4 c8 04 bd
       -0.022886258 0.024407014 -0.15195517 -0.03241791
0003f0 1f a3 0a bc 7f 9c 82 bd 87 25 91 bb 7d 27 92 bd
       -0.008461743 -0.063775055 -0.0044295224 -0.07136438

network_body.observation_encoder.processors.0.conv_layers.0.bias f4 [16]
000000 a2 f6 57 bd ee 7b 5a bd 09 8b bb bc 55 21 8f bd
       -0.05272544 -0.053340845 -0.022893446 -0.069887795
000010 f4 0c cd bd a2 03 e0 ba 3d db 8e bc 82 ca 6d bd
       -0.10012236 -0.0017090926 -0.017438525 -0.058054455
000020 0a b9 1e bd 6f b2 8e bd ac a8 6a bc 61 b9 a4 3b
       -0.038750686 -0.06967627 -0.014322441 0.0050269817
000030 d8 03 81 bd 50 4e ce bd 97 98 f2 3c 5e 92 b1 bd
       -0.06299561 -0.10073531 0.029613776 -0.086704955

network_body.observation_encoder.processors.0.conv_layers.0.weight f4 [16, 6, 8, 8]
000000 18 da 3f 3b f6 90 2a bd e3 0b 1c bd f1 1b e4 bc
       0.002927428 -0.04164215 -0.038097274 -0.027845355
000010 86 9f 93 3d db ab c5 3d 46 ad a4 bd fe a6 86 3d
       0.07208161 0.096519195 -0.08040862 0.0657482
000020 a2 dc 1b 3c 54 54 10 be 47 12 ae bd c0 75 4e bd
       0.009513052 -0.14094669 -0.0849958 -0.050405264
000030 e3 30 a1 bd 34 f8 8c 3d 2f 88 24 bd a8 c5 2d bd
       -0.078706525 0.068832785 -0.040168937 -0.042424828
000040 2b 1e 6d 3d 30 a2 33 bb b2 69 ab 3d 4a b0 52 3d
       0.0578901 -0.0027409904 0.08369769 0.051437654
000050 84 d5 b0 b9 fd 88 9e bd 29 93 03 bd e8 22 b3 3d
       -0.00033728417 -0.07740972 -0.032122765 0.08746892
000060 50 c6 ab bd 4c c4 93 ba ea 53 37 3d 0e 2d 2d bd
       -0.083874345 -0.0011273711 0.04475776 -0.042279296
000070 99 eb 65 3d 96 90 4f be c2 7d 9c bc 3a 62 8e bc
       0.056132887 -0.20269999 -0.019102935 -0.017380822
000080 11 22 41 bc 44 18 9a bd b0 3c 01 be 7b 15 b2 bc
       -0.011787907 -0.075241596 -0.12620807 -0.021738758
000090 57 18 86 3c 15 71 86 3d c1 15 ec bc 02 e1 f2 bb
       0.016369028 0.065645374 -0.028818967 -0.007412077
0000a0 fc ed a3 bc 8b a0 b6 3a ac 19 0e bc 84 0f 2a bb
       -0.02001094 0.0013933344 -0.008673113 -0.002594919
0000b0 43 27 9e bd 0b 36 73 3c 70 10 33 bd fa 34 3b 3d
       -0.07722332 0.014844428 -0.043716848 0.04570482
0000c0 32 ba 00 bd ac d2 4c bc 11 a8 57 bd f3 a1 e2 ba
       -0.03142757 -0.0125014 -0.052650515 -0.0017290696
0000d0 1c e7 93 3c b5 c6 7a bd 6c 75 39 bd 2f ad 43 bd
       0.018054537 -0.061224658 -0.045277998 -0.047772583
0000e0 e0 b0 0a be 86 d2 1f bb d0 28 49 3d 01 55 9f bc
       -0.13544035 -0.0024386956 0.049111187 -0.019449713
0000f0 55 3f e8 39 50 c5 b9 3d 97 43 a8 bc 97 4d b5 3d
       0.00044297674 0.090708375 -0.020540042 0.0885269
000100 95 34 24 3d 6c 9f 96 bd 49 f3 08 be 7f 1b 88 bd
       0.04008921 -0.07354626 -0.13374056 -0.066458695
000110 8d ff 6b bd c6 47 58 bd 73 a8 7f bd 3b b5 89 3d
       -0.05761676 -0.052802823 -0.062416505 0.0672402
000120 25 b3 2c bd b7 01 b5 bd 95 2b 27 bd c5 05 63 3d
       -0.042163033 -0.08838218 -0.040813047 0.055425424
000130 12 de c7 bb fc 0e 1d bd df 2e 11 be 8b 4e 94 bd
       -0.006099471 -0.03834437 -0.14178036 -0.072415434
000140 b8 11 ab 3c 79 86 fa bd f5 2d 6c 3d 78 17 00 3e
       0.020882472 -0.1223268 0.057661016 0.12508953
000150 af 8a cb 3d cb 9d f6 3c fe 3c e2 3c a9 60 a7 3d
       0.09938561 0.030104538 0.027616974 0.08172733
000160 c9 37 eb bd 20 f2 36 3d b6 89 2f bc b5 92 02 3d
       -0.114852495 0.044664502 -0.010713985 0.031878192
000170 85 a4 7c bd 0d 02 7a bd dc 1d 8b 3d 72 54 34 3e
       -0.061680336 -0.061037112 0.067928046 0.17610338
000180 b0 00 5c 3c 85 eb 71 3d fd 7e a3 bd 00 09 cd bd
       0.013427898 0.0590625 -0.079832055 -0.10011482
000190 ce d2 a8 bb c6 fc 3f 3d 79 6c 08 be d8 c9 3a 3c
       -0.005152083 0.046871923 -0.13322629 0.011400662
0001a0 cb 75 b8 3c 1c 69 2f 3d 9f 72 f3 3c ea 9c a3 3c
       0.022517106 0.04282485 0.029717742 0.019972283
0001b0 9a 7d 69 3d 53 13 97 3d 8f ea c9 bd 34 a9 2f be
       0.05700455 0.07376733 -0.098591916 -0.1715439
0001c0 c8 11 f6 3c 5e 85 71 3c 40 28 24 3d f7 83 9e 3c
       0.030037776 0.01474127 0.040077448 0.019350035
0001d0 59 fd d1 3c f2 e1 cf 3c 51 b7 ab bd 0a 26 8b 3c
       0.0256335 0.025376294 -0.08384574 0.016985912
0001e0 e3 fa de 3d 84 de f6 bd 8c f3 98 3d 7c 00 97 3d
       0.108876966 -0.1205416 0.07468328 0.07373139
0001f0 09 d7 3a 3d 7b e5 db 3d 32 e4 f3 3d cb 97 67 3d
       0.04561523 0.10737129 0.11908759 0.056541245
000200 22 76 b7 bc 5c 27 03 bd de 7d 2f bd 94 21 01 3d
       -0.022395197 -0.032019958 -0.042844646 0.031526163
000210 08 51 9d 3d 26 63 d3 bc 2d a4 34 3c 3f 13 c4 3c
       0.07681471 -0.025804114 0.011025471 0.023934959
000220 da 26 18 3d 22 46 0c bd 75 e9 1e 3c 46 e8 66 3d
       0.037146427 -0.03424657 0.009699215 0.056373857
000230 61 25 45 bd 87 de 24 3c 43 82 94 3d c7 e4 00 bd
       -0.04813135 0.01006282 0.07251408 -0.03146818
000240 f7 41 bf 3b c7 cf c5 bd cf 77 c4 bd 30 d0 2b bc
       0.005836721 -0.09658771 -0.09593164 -0.0104866475
000250 0a b9 95 3c f4 48 35 3c 3d 0a 0a 3d 2f 1b a6 bc
       0.01827671 0.011064757 0.03370117 -0.020276634
000260 e1 4e be bd 3d 6a 1e bd 5c 74 a6 bc 7c 64 5d 3d
       -0.09292389 -0.038675535 -0.020319156 0.054050907
000270 9b ea d9 3c c0 d0 81 bd 39 ba f4 3c 78 7b 98 bd
       0.026601126 -0.06338644 0.029873954 -0.07445425
000280 23 31 f7 bd a2 43 18 bd 48 d5 ad bd 60 0c 91 bc
       -0.12069919 -0.037173875 -0.08487946 -0.017706096
000290 b8 c0 ea 3c 82 8e 11 bd e3 cf 6a bd 4c 9f e2 3c
       0.028656349 -0.035536297 -0.057327162 0.02766385
0002a0 f0 b0 99 bd 1d a0 31 bd 20 3a 2e bd 70 19 cd bc
       -0.07504451 -0.043365587 -0.0425359 -0.025036544
0002b0 9a 77 74 3d ec 83 db bc ef 85 0d 3d e6 06 9f 3a
       0.059684373 -0.026796304 0.034551557 0.0012132793
0002c0 3b 23 90 3c ef 04 4e bd eb 22 fe bc 8a 30 7e 3b
       0.017594924 -0.050297674 -0.03102251 0.0038786256
0002d0 7a 0f b8 bc 2e 54 99 bc 0b 23 f1 3c e1 97 d3 bc
       -0.022468317 -0.018716898 0.029435655 -0.025829257
0002e0 04 45 bd b8 ec 5c a7 bd 0a 56 8c 3c 95 e5 c8 bb
       -9.0250775e-05 -0.0817202 0.01713087 -0.006130884
0002f0 80 f1 e1 3c 82 0a 6c 3d 58 02 10 bd 7e 86 94 bd
       0.027580976 0.05762721 -0.035158485 -0.07252215
000300 64 f2 20 3e e3 eb 12 3e 68 f5 52 3e 8e 7d f0 3d
       0.15717465 0.14347796 0.20601428 0.11742698
000310 78 b3 c7 bb ef 3a ff 3c 92 13 1c bd 7a 29 f6 bd
       -0.0060943924 0.031156031 -0.0381046 -0.1201963
000320 7b 40 d1 3c bc db de bb a6 ac 2f bd 28 a2 f1 bc
       0.025543442 -0.0068010967 -0.04288926 -0.029496267
000330 15 1d 6e bd 68 4c 80 3a 5b b7 02 bd 07 11 01 be
       -0.058133204 0.0009788396 -0.031913143 -0.12604152
000340 e6 42 49 3d 72 c3 df ba eb ac 33 be 06 ac 28 be
       0.049136065 -0.0017071797 -0.17546432 -0.16471872
000350 46 be bd bd 9a 50 0a bd 0b 61 65 bc fc f2 ad 3c
       -0.092648074 -0.033768274 -0.014000188 0.021234028
000360 a0 8a 84 3e 6b 5c fb 3d 17 bc 92 bd 1a b2 86 3c
       0.25887012 0.12273487 -0.071647815 0.016442347
000370 33 9e 07 bd 34 ea 49 3d ba 72 12 3e f2 15 be 3c
       -0.033109855 0.04929562 0.14301577 0.023203824
000380 a0 a7 58 3e 15 7f c6 3d cc 9a 26 3e ce 90 0d 3e
       0.21157694 0.09692208 0.16269988 0.1382477
000390 37 6c ff 3d dd ae a7 3c 01 b7 8c bc a1 87 87 3d
       0.12471812 0.020469123 -0.017177107 0.06617666
0003a0 82 76 b5 3d 91 a1 de 3d fa 4a 17 3d ea 2c 2f 3e
       0.08860494 0.1087066 0.036936738 0.17106977
0003b0 24 37 0a bc 6b cd 86 3d e4 a6 6e 3d fb d1 58 3d
       -0.008435998 0.06582149 0.058264628 0.052934628
0003c0 00 e4 82 3e 32 e9 14 3e 5e b2 bb bc 4f 34 4c 3d
       0.25564575 0.14542082 -0.0229122 0.049854573
0003d0 14 36 14 3d cb 7c 38 3d 33 1e c0 bc 10 e2 53 3e
       0.036184385 0.045040887 -0.0234519 0.20691705
0003e0 0a 70 31 bd e7 e4 57 3d f6 ce 04 3d 9e 81 03 3e
       -0.04331974 0.052708533 0.032423936 0.12842414
0003f0 8e 66 80 3d 2f 9d fd bc d8 ef 9b 3d 8b 76 2e 3e
       0.06269561 -0.03095874 0.07614106 0.17037408

network_body.observation_encoder.processors.0.conv_layers.2.bias f4 [32]
000000 b8 78 1a bc f4 d6 dd bc d2 7e 97 3c da 20 35 bc
       -0.009428196 -0.027080037 0.01849309 -0.011055196
000010 df 8a 75 3d c3 a5 ad 3d 82 0d a6 3c 6f a2 4d 3d
       0.05994689 0.08478882 0.020270113 0.050203737
000020 43 a6 b4 bb 6e 6a 42 3d c1 b6 1f 3d 3c 03 1d bd
       -0.005512984 0.04746478 0.038992647 -0.038333163
000030 79 91 2e bc 1c 0a 10 3d 96 17 7b bd 32 50 2f 3d
       -0.010654801 0.03516589 -0.06130179 0.04280109
000040 3f 3d 86 3a dc e0 6e 3a 57 04 4a bb 96 30 34 3d
       0.0010241641 0.0009112486 -0.003082534 0.043991648
000050 cd 90 0b 3d 08 a3 5e 3c 61 25 96 3c e9 fe 20 3c
       0.03407364 0.013588674 0.01832837 0.0098264
000060 7f 4f 9c 3d 3c a0 dd bc 0b 4c 3f bd eb f9 59 3d
       0.0763235 -0.027053945 -0.04670338 0.053216856
000070 3b 2f 0b ba 82 fc b2 bc 7d b8 93 3c 16 f4 c8 bb
       -0.0005309467 -0.02184892 0.018032307 -0.006132613
