Project/Assets/ML-Agents/Examples/GridWorld/TFModels/GridWorldColab.onnx (onnx, 920626 bytes, 8 tensors)

qnet.conv1.bias f4 [16]
00000000: 7899 5c3c c440 1c3d 0ead 94bd ad3e 9ebc
00000010: 0e27 9abd 6ae7 9f3d 7370 0a3d dcff 533d
00000020: 2afe 563d 5724 70bd f3e0 0f3d 344b 45bd
00000030: 04f1 27bd fecd d93c d429 5b3c 2c91 26bd
0.013464324 0.038147703 -0.0725957 -0.019316996 -0.0752698 0.078078106 0.033798646 0.05175768
0.052488483 -0.058628406 0.035126638 -0.048167422 -0.041001335 0.026587483 0.013376672 -0.04066579

qnet.conv1.weight f4 [16, 3, 8, 8]
00000000: 329b c1bc c2a6 66bd 36fb 573d 14f2 393d
00000010: 0046 97bc 7b71 8fbd 40fc 1b3d 0c2b d13c
00000020: 3801 503d c2bc 7dbd 047c fa3c 0c96 8f3c
00000030: 6f57 65bd 541f 683d d2ef 4dbd 50d8 87bb
00000040: a079 193c fc03 96bc b0e1 983c c199 14bd
00000050: c753 22bd d05f e83c f05b db3c 40fb f83a
00000060: 423e 8ebd 6e7e 803d d3de 82bd 26ee 61bd
00000070: 3e7b 843d b520 53bd f37a 8abd da80 863d
00000080: 36cb 403d 2e34 4c3d f1fe 52bd 4a08 473d
00000090: d8e4 90bc f804 edbc d024 99bb c063 d2bb
000000a0: 20e6 233c cf50 61bd 4668 1b3d 88e9 793d
000000b0: f820 5bbd 7ccd b4bc ec68 60bd 001f 4dba
000000c0: c077 b8bc bc16 093d 8835 873c 7091 853d
000000d0: fd5d 15bd aa49 c9bc c2df 99bc deb1 2cbd
000000e0: 6c16 323d 6002 243c f26a a9bc 1019 953c
000000f0: b8c6 0bbc 9048 563d 682e 113c 4889 c4bc
00000100: a6de 0abd 10c0 2cbd 6002 a7bb 09ba 26bd
00000110: 78ad 0ebd 7889 0d3c 9cda 25bd 5a60 d4bc
00000120: d0a5 c73c 8531 4ebd 248e a63c 586d 553d
00000130: 465a d9bc 50cb 6abd 304f 923c 508c 853d
00000140: 40b1 9f3c 03e9 22bd d0c2 65bd c683 11bd
00000150: 00d7 e839 2085 ea3c 80e3 883a e052 513c
00000160: 3457 623d 5aef 6cbd 00a2 27ba 7a15 56bd
00000170: b26d ccbc 50f4 a83b 6006 e73c 6690 eabc
00000180: 9cd4 a93c d0f0 d23c e451 fabc ecb6 503d
00000190: f074 ae3b 1498 a33c a5a1 8cbd d846 853d
000001a0: 4059 79bd 46db 70bd a029 eb3c 50b8 8bbd
000001b0: e0c3 cfbb 4085 d33b a4cf abbc 14b3 c03c
000001c0: 48ce 743d 80b7 863a 5a0a 02bd 2863 c53c
000001d0: 54ad 063d e805 51bd fe7e 5dbd b205 81bd
000001e0: 2685 b0bc 805b 54bd 146c 2d3d 0ec5 53bd
000001f0: f086 6f3c 8ea2 143d f46a 5f3d 961e 0d3d
00000200: 9fd3 2bbd a04b 6c3b 1043 053c 7003 bcbc
00000210: 22a6 573d ac79 6a3d eeaa 1f3d 3274 76bd
00000220: 80bc 323a 208b f43b 9805 67bd 031a 43bd
00000230: 827a 2fbd 2029 bfbb 09e8 10bd d86f b1bc
00000240: 731e 5cbd a409 13bd 2ad2 8ebc 164c 263d
00000250: 2140 08bd 7f26 83bd 8e21 81bd ccc2 c53c
00000260: 3d35 20bd 1847 473d 16c5 273d fcbb ef3c
00000270: e02d 5ebc 4876 4a3c 8c80 76bd a9e2 20bd
00000280: b06e 2e3d b9af 32bd a82d 3dbd a8fe 50bc
00000290: 7e88 b1bc c2e4 873d 44a3 4dbd 82c8 8bbd
000002a0: 1839 bdbc 38cc 303c 40b8 703d f24a 0abd
000002b0: b0ab cb3c 1c7f afbc bed6 e8bc bb98 88bd
000002c0: b046 15bd 4dda 56bd 580a 213d f40e 333d
000002d0: ec9d 30bd 6855 0c3c fe24 013d af9a 17bd
000002e0: 5880 023d c02d dd3b 4cf5 db3c c45d 2d3d
000002f0: b6ab 8cbd a68b 2f3d acf2 85bd e6dd c6bc
00000300: 8bd2 c13d 226b c03d 0635 163d a74c 88bd
00000310: 8a58 d6bc c941 1dbd 9621 a3ba 73cd 47bd
00000320: bb83 0b3d d40b 023d 5257 2e3c 0365 57bd
00000330: 3941 1ebc 857d 45bd fdea 04bd f514 5dbb
00000340: 277f 913d c789 153d 113a 69bb 98fd a4bb
00000350: 7197 463d ba3f a1bd a43d bbbd c96e 6ebd
00000360: cd5c fcba b293 bb3d 4d2e 303d 11de c7bc
00000370: 36bc c2bd 0b6d bfbc 9b88 74bd 1cad ebbb
00000380: 44c6 db3c 9a1a 353d 1cc3 863d 40da f0bc
00000390: 5a1d 9cbd 2534 ff3c c5b0 9ebd 30a3 1e3c
000003a0: f764 f33d a0eb f13c dd73 5abd a004 36bc
000003b0: 6f4d 0abd 05c1 433d 9002 8e3c 5f81 903d
000003c0: 8cef 813d 632e 373d 3939 063d 0a21 f83c
000003d0: a964 063d b778 e03c 989f 4dbd b1fc 683d
000003e0: 558b 833d cf7b aa3c 64b8 c03d 647d 033c
000003f0: dd2b d73d 645a 3eb9 aed8 f03c e791 b13c
-0.023633573 -0.056311376 0.052729808 0.04539688 -0.018465996 -0.070040666 0.03808236 0.025533222
0.050782412 -0.06194759 0.030576713 0.017527603 -0.055991586 0.0566705 -0.05027754 -0.0041456595
0.009367377 -0.018312447 0.018662304 -0.036279444 -0.039630678 0.028366 0.026777238 0.0018995777
-0.069454685 0.062741145 -0.063901566 -0.055158757 0.06468819 -0.051544864 -0.06761732 0.06567545
0.047068797 0.04985445 -0.051512662 0.04859189 -0.017687246 -0.028933033 -0.004673578 -0.0064205825
0.010003597 -0.055008706 0.03794124 0.06101373 -0.05349824 -0.022070639 -0.05478756 -0.0007824749
-0.022518039 0.033468947 0.016505018 0.065218806 -0.036466587 -0.024571259 -0.018783454 -0.042161815
0.043478414 0.010010332 -0.020680878 0.018200427 -0.008531265 0.052315295 0.008861162 -0.023991242
-0.03390374 -0.042175353 -0.0050967187 -0.04070476 -0.0348334 0.008638732 -0.040491685 -0.02592485
0.024371058 -0.050340194 0.02033145 0.05210623 -0.026532304 -0.0573228 0.017860025 0.06520903
0.0194937 -0.039773 -0.05609399 -0.03552606 0.00044410676 0.028627932 0.0010443777 0.012776107
0.055258945 -0.05784545 -0.00063946843 -0.052266575 -0.02495465 0.0051560774 0.028201282 -0.028633308
0.020731263 0.025749594 -0.030556627 0.050955698 0.0053239986 0.019969977 -0.06866769 0.06507653
-0.06087613 -0.058802865 0.028706372 -0.06822264 -0.006340489 0.0064550936 -0.020973034 0.023522891
0.059767038 0.0010278076 -0.031748153 0.024095133 0.032880142 -0.051031023 -0.054076187 -0.062999144
-0.021547865 -0.051845074 0.0423394 -0.051701598 0.014619574 0.036287837 0.054545358 0.034452997
-0.041949864 0.0036055818 0.008133665 -0.022950858 0.05264867 0.05724494 0.03898137 -0.060169406
0.000681825 0.007462874 -0.05640182 -0.04763223 -0.042841442 -0.00583376 -0.035377536 -0.021659777
-0.053739976 -0.035897866 -0.017434198 0.040599905 -0.033264283 -0.06403827 -0.06305228 0.024140738
-0.039113272 0.048651785 0.04095944 0.029264443 -0.013560742 0.012357302 -0.060181186 -0.03927866
0.04258603 -0.043624613 -0.04618612 -0.012756027 -0.02167153 0.06635429 -0.05020453 -0.06825353
-0.023098513 0.010790877 0.058769464 -0.03376288 0.02486214 -0.021422915 -0.02842271 -0.06669756
-0.036444366 -0.05245428 0.039316505 0.043715432 -0.043119356 0.008565284 0.03152942 -0.037012752
0.03186068 0.0067498386 0.026850365 0.04232575 -0.06868689 0.04285779 -0.065404266 -0.024275731
0.09463986 0.09395434 0.03667166 -0.06655245 -0.026165266 -0.038392816 -0.0012445922 -0.048779916
0.034061175 0.03174956 0.010640936 -0.052586567 -0.009659105 -0.048215408 -0.032450665 -0.0033734415
0.071043305 0.036508348 -0.0035587589 -0.0050351135 0.04848427 -0.07873483 -0.091426164 -0.05821112
-0.0019253731 0.0915903 0.043012906 -0.024397882 -0.09508555 -0.023367425 -0.05970059 -0.007192267
0.026827939 0.044214822 0.06580183 -0.029400945 -0.07622786 0.031152794 -0.0774856 0.009682462
0.11884492 0.0295313 -0.053333152 -0.011109501 -0.033765253 0.0477915 0.017335206 0.070559256
0.06344518 0.044721972 0.032769416 0.030289192 0.03281084 0.027401311 -0.05020103 0.05688161
0.0642306 0.02081099 0.0941017 0.008025501 0.10506413 -0.00018153485 0.029400196 0.021676017

qnet.conv2.bias f4 [32]
00000000: 508d f83c af53 7a3c 5f48 ffbc b5e7 2d3d
00000010: 60e0 a4bd df77 8abb 9038 81bd 61cd ce3b
00000020: 15dd c7bb 9b53 92bd 3ac7 d13c 66a2 153c
00000030: ce7f 81bd c7dd fcbb 0880 2e3d 4fec a5bb
00000040: e55e b0bd 1fbc 8abc 02ac c2bd d761 4fbd
00000050: 0181 88bd a0c1 4c3d edee 36bd d03f 69bd
00000060: 57ba 3fbd bf47 a3bd ca41 703a 5e57 adbc
00000070: 409f 64bd 1e10 9abd a3e3 adbb 5718 bebd
0.03034082 0.015278741 -0.031162439 0.0424573 -0.08050609 -0.0042257155 -0.063096166 0.006311104
-0.006099353 -0.07144853 0.025607694 0.009132957 -0.06323205 -0.0077168676 0.04260257 -0.0050635706
-0.0861185 -0.016935406 -0.09505464 -0.050630417 -0.066652305 0.049989343 -0.04466145 -0.056945622
-0.046808567 -0.07972669 0.0009165077 -0.021159824 -0.055815935 -0.07522605 -0.0053066774 -0.09281986

qnet.conv2.weight f4 [32, 16, 4, 4]
00000000: 149d 3d3d 546d be3c d434 c13c 209b b5bb
00000010: e892 173d b849 de3c 50c3 d5bc 9aaa 483d
00000020: 1eef 53bd 6079 3cbc 9238 3bbd 00dc d6ba
00000030: 848b 50bd 8c5c e63c 88f7 7e3d 68b4 62bd
00000040: 3543 623d 3f74 4bbd 4ff8 a4bc c968 c8bc
00000050: 66db 4abd 6c84 7abd 5f88 b23c e5c4 acbd
00000060: 9777 d6bb 0c61 63bd 4aab 1e3d ea9f e9ba
00000070: 3f7e c23c a1d4 3a3d 400f 58bc 7287 acbd
00000080: 75c0 433c 7374 8d3d 7cc8 363e a7bd 423d
00000090: 265e a33a fb12 b1bd aa17 2cbd 90f1 333d
000000a0: 6524 883d 641a ffbd f325 3fbd b894 cc3c
000000b0: eb04 01bd d962 e4bd 7d13 3fbd 3cf3 043d
000000c0: 14d3 ddbd 7c07 d6bd f38b a5bc 043f 4bbd
000000d0: d91a 1b3d f162 b83d fea1 1a3d 2e92 bfbc
000000e0: 6892 0fbe 33a8 70bd 42db 80bd 3589 403d
000000f0: 1e7a 9e3d 6f67 883d b21e ddbc 1ff0 673d
00000100: 1182 d2bd 1b4e 96bb b4c7 2f3d 978a f4bc
00000110: c577 2b3d b763 4cbd c29b b13d cf4c aa3c
00000120: be47 4a3d c6b0 1e3d 8e72 153d 028b 2a3d
00000130: b068 c23b 62a6 aebd a072 1d3d b6a2 66bc
00000140: 7b7f 073d abc1 37bd 814d c03c 2235 b53c
00000150: 893d 55bd ff22 e5bd a6e5 63bd 8fd2 8a3d
00000160: f107 e23d 6cb0 1abd a0e0 1fbd 888d 7cbd
00000170: a55a 46bb ac1b bb3c 96c1 7e3d de07 cebd
00000180: 27f9 14bd 15cc 93bd 2523 99bd 87b2 10bd
00000190: 201b b33d af1b e4bc 2423 b73d 9b1a 543d
000001a0: 4319 b9bd af93 d3bc 4dc0 b9bd 459c 843d
000001b0: eb6a 983b 1dbb d63d 28eb 263d 4847 f73b
000001c0: d638 1e3d a429 07bd 26a4 15bd 0c3c c2bc
000001d0: b4d9 9abc c834 0ebd 0064 53bc 5806 663d
000001e0: c23c 94bc 33dc 6fbd f633 dc3a 5fad 6a3d
000001f0: 5c44 0abd e07a f8bb 00e3 d23b 50f0 a43c
00000200: 5a26 48bd 5035 273d 5b1b 653c e1d3 5e3c
00000210: ad24 923b cf00 463c d3af 0e3d b8f7 f73c
00000220: a5a0 87bc 6739 0d3d 4b75 f0bc 6f3d e0bc
00000230: 2d91 84bd 7dcd dc3c d344 67bc a289 09bb
00000240: 98f6 f33b 2950 abbd 7aa3 50bd 9c90 b0bc
00000250: 1404 82bc 3161 86bd ba1c a43b 0f95 123d
00000260: 789f 473c 89eb 9cbd a7ea 88bd 476e 61bd
00000270: e000 2fbd e57f 62bd cc11 98bd ea23 f6bc
00000280: 8df1 9abc 880a 583c 8b02 a43d f210 093d
00000290: 8a4a 1bbd 29b3 c13d cdbc d93d a767 44bd
000002a0: ce60 ecbb 5525 c8bc 8ae7 5b3d 3493 733d
000002b0: edbc 82bd fdf3 89bd 667e d9bb 2278 b3bc
000002c0: 0029 dcbc 7acd 013d ccf7 4ebd 80a6 4e3a
000002d0: 94e5 9c3c 0485 033d 806e bc3b 305b 09bc
000002e0: f027 f8bc 7028 59bd ba15 663d 2c71 adbc
000002f0: c05c ccbb 58ff 3c3d b88a 363c e265 54bd
00000300: b796 c9bd 4018 b8bd 8e31 a8bc c7ea a03d
00000310: bac2 4cbd 37ec b73b 836c 1d3d bb03 33ba
00000320: 32f4 863b 1043 1cbd 0834 913d 30e9 263a
00000330: 22a5 993c 9a08 913c 4014 c33c 5863 823c
00000340: e57e 073b 1ebf 7abd d0b1 c6bc 2d99 4d3d
00000350: 9b3e 30bd 5cc9 683d 290f 50bc b3af 173d
00000360: 0aa8 92bc 6323 e3bc acb9 6bbd 1630 063d
00000370: 366b 733d ff0b 513d 40b7 063c 53ce 5f3d
00000380: c673 dabd 082e a2bd f87b 99bd af85 553d
00000390: 53d5 9a3d e975 dc3c 3414 053e eada 683c
000003a0: e7f2 aabd 166b adbc 038b 613a c5cb 443d
000003b0: 24b5 123b b24e 7d3c bf18 013d ab95 cdbb
000003c0: b6ee 7e3a 7afe cb3b b66d 213d 15ef 57bc
000003d0: 7ffc aebc 6d85 e8bc f7de 483d 024a 5a3d
000003e0: 130d e8bc 5919 acbc b699 073d bf2b 1abd
000003f0: c1f0 0cbd 3312 48bb 3a73 a03b a547 1f3d
0.04629238 0.023245491 0.02358476 -0.005542174 0.037005335 0.027134761 -0.026094109 0.048990823
-0.05174171 -0.011503547 -0.045708247 -0.0016392469 -0.050914302 0.028120302 0.062247783 -0.05534783
0.055239875 -0.049671408 -0.020137934 -0.024464028 -0.04952564 -0.061161444 0.021793542 -0.08435992
-0.006545018 -0.055512473 0.038737573 -0.0017824147 0.02374184 0.045612935 -0.01318723 -0.08424272
0.011947741 0.069069766 0.17849916 0.047544148 0.0012463972 -0.08646198 -0.042014755 0.043931544
0.06647567 -0.124562055 -0.04666705 0.024973258 -0.03149883 -0.11151666 -0.046649445 0.03245853
-0.108312756 -0.10450646 -0.020208335 -0.049620643 0.0378674 0.090032466 0.037752144 -0.023385134
-0.14020693 -0.058754157 -0.0629182 0.04700585 0.07738136 0.066603534 -0.026992176 0.05662548
-0.102787144 -0.0045869476 0.04291506 -0.029851241 0.041862268 -0.049899783 0.086722866 0.020788578
0.049384825 0.038742803 0.0364862 0.041636474 0.00593289 -0.08527829 0.038439393 -0.014076879
0.03308056 -0.04486243 0.023474457 0.022120062 -0.052060638 -0.111883156 -0.05563893 0.06778442
0.11036671 -0.037765905 -0.03903258 -0.061658412 -0.003026643 0.022840343 0.062196337 -0.10060094
-0.036370423 -0.0721666 -0.074774064 -0.035326507 0.08745408 -0.027845232 0.089422494 0.051783185
-0.090380214 -0.025827257 -0.090698816 0.064751185 0.0046514175 0.10484908 0.040751606 0.007546339
0.03862842 -0.032998696 -0.036533497 -0.023710273 -0.018902637 -0.034718305 -0.01290226 0.056158394
-0.018095378 -0.058559608 0.0016800154 0.057294246 -0.0337566 -0.007583007 0.006435752 0.020134121
-0.0488647 0.040822327 0.013983573 0.013600321 0.0044599385 0.012085154 0.034835648 0.030269489
-0.016556093 0.03447857 -0.029352805 -0.027373044 -0.064730026 0.026953453 -0.01411553 -0.0020986577
0.0074451678 -0.08364899 -0.050937153 -0.02155333 -0.015871085 -0.065615065 0.0050083073 0.035786685
0.012184016 -0.07662112 -0.066853814 -0.05503681 -0.042725444 -0.05529775 -0.074252695 -0.030046422
-0.018914009 0.013186105 0.080082975 0.033463426 -0.037912883 0.09458 0.10631714 -0.047950413
-0.0072136885 -0.024431864 0.05368761 0.059466556 -0.06383691 -0.0673599 -0.0066373823 -0.02190787
-0.02687502 0.0316901 -0.050529286 0.0007883087 0.01915244 0.032109275 0.0057504773 -0.008383557
-0.030292481 -0.05301708 0.056173064 -0.021172129 -0.0062366426 0.046141952 0.011141472 -0.051854976
-0.098432 -0.08989 -0.020531442 0.0785728 -0.049990393 0.005612876 0.038433563 -0.0006828864
0.004118466 -0.038149893 0.07090002 0.0006367145 0.0187555 0.017704297 0.023813367 0.015916511
0.0020675 -0.06121742 -0.02425471 0.050194908 -0.043028455 0.056832656 -0.012698927 0.037032794
-0.017902393 -0.027726835 -0.057550117 0.032760702 0.059428416 0.05103683 0.008222401 0.054640125
-0.10666613 -0.07918936 -0.07494348 0.052129444 0.075602196 0.026911693 0.12995988 0.014212349
-0.08347111 -0.021169227 0.0008603783 0.048045892 0.00223858 0.015460657 0.03151774 -0.0062739453
0.0009724902 0.0062254043 0.03941127 -0.01317956 -0.021360634 -0.028383935 0.04904076 0.053293236
-0.028326547 -0.02100818 0.033105575 -0.037639376 -0.03440929 -0.0030528426 0.0048965486 0.038886685

qnet.dense1.bias f4 [126]
00000000: 357d a73c 5adf a8ba 6317 c8bb 0b5a 353c
00000010: 21bf c33d 5420 613d 3598 63bc fb29 7a3c
00000020: ea0c 05bd ec4c aa3c 3c27 233d cce9 86bd
00000030: 6917 833c dcfd 3cbd 1aff c63c c6be e5bc
00000040: 383e b63c 1c2d 653d 2d46 09bd 6e47 10bd
00000050: f539 9abd 67c3 28bc a69a e63c 284d 8a3c
00000060: 2388 54bc 2cee 213d 40cf d4bb c3b4 fbbb
00000070: 1edd 473d ce50 fd3b 1564 173d 3e23 15bd
00000080: f54f 1dbd 2bc9 81bc 6310 97bd 5e4d 193b
00000090: 8a25 253c 7afd 5a3c b3b7 f5bd 05e2 cb3c
000000a0: a9ed f0bc 6648 493c 20b0 ddbb eae3 03bd
000000b0: fdd9 293c c403 0c3d d210 8cbc 9afb 853c
000000c0: 10bc 76bd 1a14 aabb 69f8 1ebd 7861 c03d
000000d0: 291f ecbc 44b5 803d 5771 08bd 7576 1c3d
000000e0: 6f97 3dbd bc90 40bc 485b 1a3c d194 c3bb
000000f0: b32d d13c d0eb 5c3d debd 1b3d 3384 a8bc
00000100: 240d 63bd f317 963c 16c9 303d 272b e33c
00000110: 450f 103c 5826 463d ad54 b7bc 73fd 2cbd
00000120: 88e8 ca3b edc8 3a3b 7cdb d33c 446f 073d
00000130: a6cc 9c3c 59cf a13d 76b3 093c 59e5 79bc
00000140: 7e9f a9bc 3dd0 633d 5e95 3f3d 7b45 1bbd
00000150: 8f90 2c3d e9b7 b03c 18f8 9bbc b929 ffbc
00000160: 4283 72bb 76fa b83d 7999 933c ac2b 5e3d
00000170: cd92 933c c5d3 c13c 9ee8 b7bc 7edf ccba
00000180: a167 0fbd f51e dfbc 3e33 233c 7904 bd3d
00000190: 9c01 cb3c 2a99 0a3b e183 1b3c ad56 3cbb
000001a0: b350 e5bc dd50 123b b406 34bd 0754 b13d
000001b0: fee2 3ebb 48ed c7bc 2179 6c3d 6575 b83c
000001c0: c2ac 6e3d d82a ca3d beb9 dcbc 6241 46bd
000001d0: 85e2 edbc 6fa2 60bd 0dca aabc d871 12bd
000001e0: 1022 823a a8f0 48bd 6612 e3bb 41af 643c
000001f0: d0a9 953d b734 39bd
0.020445446 -0.0012883947 -0.0061063035 0.011068831 0.09557939 0.05496247 -0.013891269 0.015268798
-0.03248302 0.020788632 0.03983234 -0.06587562 0.016002374 -0.046140537 0.024291564 -0.02804507
0.022246465 0.055951223 -0.03351419 -0.03522437 -0.07530586 -0.010300494 0.028149914 0.016882494
-0.012971911 0.03953378 -0.0064944327 -0.0076814606 0.04879486 0.00773058 0.03696068 -0.036410563
-0.03840633 -0.015842995 -0.073761724 0.0023392062 0.010079751 0.013366098 -0.119979285 0.024888048
-0.0294102 0.012285328 -0.0067653805 -0.032199778 0.010366914 0.03418328 -0.017097864 0.016355325
-0.060237944 -0.0051903846 -0.03881112 0.09393591 -0.028823452 0.06284574 -0.033311214 0.038198907
-0.046286996 -0.011753257 0.009421177 -0.005968668 0.025534486 0.053935826 0.03802287 -0.02057085
-0.055432454 0.018321967 0.04316052 0.027730538 0.008792703 0.04837641 -0.022379244 -0.042233896
0.0061922707 0.0028501109 0.025861494 0.033065096 0.019140553 0.079008766 0.008404603 -0.015252435
-0.020705935 0.055618513 0.046773307 -0.03790806 0.04213005 0.02157207 -0.019039199 -0.031147825
-0.0037004505 0.09032147 0.018017517 0.054240867 0.018014336 0.02366055 -0.022449788 -0.0015630571
-0.035010938 -0.027236441 0.009960948 0.09229369 0.02478104 0.0021148422 0.009491892 -0.0028738186
-0.027992582 0.002232603 -0.043951705 0.08658605 -0.0029126997 -0.024405137 0.057732705 0.022516916
0.058270223 0.09871453 -0.026944038 -0.048402198 -0.029038677 -0.05484241 -0.020848298 -0.0357531
0.0009928364 -0.049057633 -0.0069296835 0.013957799 0.0730778 -0.04521629

qnet.dense1.weight f4 [126, 1728]
00000000: 0bf1 a63d 4038 f03c d251 a8bc 0f45 933d
00000010: 3487 4fbc da0e 23bd 6a5f 153d f9ad 9ebc
00000020: aa6e 77bc 4a07 473d e2e9 393d 3c5b 613b
00000030: 405b 853d 9ab6 5e3c 2822 13bb 2c80 83bc
00000040: 4f02 f9bb 2631 bcbb 54fb 893d 7202 183d
00000050: 1c33 bcbb 0bbf 6b3c 94fb 243d 5ed4 6a3d
00000060: 3c34 3c3d 56ac c3ba c460 84bb 706b 6dbc
00000070: 9a56 143c 64e7 83bd 8dcf 283d cdf2 cfbb
00000080: 3e59 933c d8d2 a43d c33e fcbb 29b4 24bc
00000090: aa02 51bb 6b78 4b3d 1b31 253d a9c5 4d3c
000000a0: 497c 2dbd 4ede 09bd bc21 b2bb ea71 323d
000000b0: acaf 213c a3bb cdbb 6456 8d3c f50b 4cbc
000000c0: 9613 1a3c bf78 28b8 dcb8 72bc 801d 573d
000000d0: baba b03c ad32 c9bc 9d37 31bb 54b8 9cbc
000000e0: f73b f0bc c929 8f3d b3fc bbbc 7433 753d
000000f0: 3862 103d 40a6 c53b 90b3 05bd a106 fc3c
00000100: 6ff5 36bc d588 fabc e819 30bc a751 f63c
00000110: d66f c53b a41f 013d ba5e d03c a9d0 89bb
00000120: 7973 c7bb 7037 26bc 0dcd 013d 53d7 ddbb
00000130: e831 cbbd 0ae9 2abd d0f4 a5bc 867f 9e3c
00000140: 2de8 83bd 8cfd d03c 2341 fd3c 5b38 a9bc
00000150: 5180 b63d c2cb 8b3d dbd5 f3bc ccab 39bb
00000160: 3c7e f5bb e406 a83d 1d2c 0f3c 8b41 b23c
00000170: dfd3 283a d82f cc39 0a87 123d 46db 76bb
00000180: 44a1 6ebb f01d 8c3c 34df e73c 4334 2d3c
00000190: ea98 4cbc 3bb8 6f3d 1bf0 8a3d 7535 9dbd
000001a0: 3431 6bbc 0018 79bc 3c77 a43c 17c7 fd3c
000001b0: 1b56 d13c 8059 653d 8587 d3bc 8f98 523c
000001c0: 50ee f03b 228e c03c 4eb2 5c3d 6880 8e3c
000001d0: 6c32 893c 9c59 debc 521d 93bc 4eef 71bd
000001e0: 4c90 68bd ca2a 68bc 2c29 26bd 46b1 14bc
000001f0: 9800 ddbc dd2d 7c3c ac06 29bd 9086 613d
00000200: 3f98 1f3d 54f7 363d d6c1 de3c 1384 1abd
00000210: d0cc 153d 7e0a 7a3d 62dd 82bb c1da e8bb
00000220: eaf0 113d 1157 313d 5fef 4bbd 9e57 273d
00000230: 4252 25bd a667 dd3b 7847 4c3c aedf df3c
00000240: e70e 3cbd 9641 023c b489 c1bc 789c 01bd
00000250: 2ff1 12bd b3f0 7abd 3e8b ffbb 8be1 433b
00000260: a46d 32bc d919 fa3a 6c24 59bc 447f 593d
00000270: 78fe 893c d796 923d 7b0e cfbc 7fa7 f23b
00000280: 7d36 39bc 1430 9dbc 6468 96bc b501 09bc
00000290: 57b5 cbbd be27 6cbd 4fde d1bc 1ef4 ecbd
000002a0: e2fe e83c 65d7 25bd 185e 67bd 7de6 45bc
000002b0: 7943 8e3c 5c44 08bb df0d 223d cf2f 783d
000002c0: 94a1 873c 60a4 d5bc 18e5 b0bc 0f2f 70bc
000002d0: e6ec 173c 7154 313d 1798 44bc 8c25 233d
000002e0: 6609 1bbd 2467 24bd 97d2 0cbd 4b97 85bd
000002f0: 5b7e 5c3c aa02 b2bc ecdc 10bd e12d e7bd
00000300: 9035 13bd 1bb0 94bc a546 e93c 1b13 a8bd
00000310: ba43 16bd b108 12bd 97b1 4bbb c447 5f3d
00000320: f12e b53c 6d36 003d d22f 9d3b 71b7 3dbd
00000330: f1db c63c 8623 933c f98a b43c 6ee2 e73b
00000340: 6b9b 95bc cd5b a4bd fb6e 64bc 5c5c c2bd
00000350: 5aac b6bd 05b2 2fbd 49f6 9fbd 36c8 11bd
00000360: 4da5 9b3c 735f 30bc 8b7d b13c e7bd e73d
00000370: 8393 b63c c6cc b03d 67ba f03c 006e f23c
00000380: 025e 8dbd ef2d 45bc 4141 0abd b628 0dbd
00000390: 0464 71bc 52f4 34bc 7b32 bd3d 1e87 d5bc
000003a0: b135 a43d 38e2 d4bb ab80 033c 517e 0c3c
000003b0: 3b4e 7d3c c939 2d3c 9c51 3eba f947 f13d
000003c0: 409f dd3c 4ea3 e3bc e352 1f3d af4d d13b
000003d0: 8699 41bc 38b4 9d3d 4ffd 0c3c 3367 1cbd
000003e0: 373b 1b3d 1365 51bc c195 8a3d ed10 2ebc
000003f0: 2e2b 82bc 5f19 f0bd 55bf a1bd 5037 79ba
0.08151444 0.029323697 -0.020546827 0.07190906 -0.012666512 -0.039809085 0.036467947 -0.019370066
-0.015102068 0.048590936 0.045389064 0.0034386655 0.06511545 0.01359334 -0.0022450779 -0.016052328
-0.007599152 -0.0057431636 0.0673739 0.037111707 -0.0057433974 0.01438881 0.040278986 0.057331435
0.045948252 -0.001492868 -0.0040398557 -0.014490947 0.009053851 -0.06440619 0.04121356 -0.006346083
0.01798689 0.08048028 -0.0076979115 -0.010052719 -0.0031892457 0.049675386 0.040330034 0.012559333
-0.042354856 -0.033659272 -0.0054361504 0.04356567 0.009868544 -0.0062784716 0.017253108 -0.012454023
0.009404084 -4.0166775e-05 -0.014814582 0.052518368 0.021573413 -0.024560297 -0.0027041205 -0.019130863
-0.029325468 0.06990392 -0.022947645 0.059863523 0.03524992 0.0060317814 -0.032641947 0.03076488
-0.011166914 -0.030582825 -0.010748364 0.030068232 0.006025295 0.031524315 0.025435794 -0.0042057824
-0.0060867635 -0.010145053 0.031689692 -0.0067700534 -0.09921628 -0.04172615 -0.020258337 0.019347917
-0.064407684 0.025511526 0.030914849 -0.020656755 0.08911193 0.06825973 -0.02976506 -0.0028331159
-0.007491855 0.08204439 0.008738545 0.021759769 0.00064402627 0.00038945558 0.035773315 -0.0037667318
-0.003641204 0.017104119 0.028304674 0.010571542 -0.012487629 0.058525305 0.06784078 -0.07676212
-0.014354993 -0.015203476 0.020076387 0.030978722 0.025553754 0.055993557 -0.025821457 0.012853756
0.007352628 0.023505274 0.053880982 0.017395213 0.016747676 -0.027142338 -0.017958317 -0.05906611
-0.056778237 -0.014170358 -0.04056661 -0.009075468 -0.026977822 0.015391794 -0.04126613 0.05505997
0.038963553 0.044669464 0.027192038 -0.037723612 0.036572278 0.061045162 -0.003993676 -0.0071061556
0.035630144 0.043295924 -0.04978883 0.040855043 -0.04036165 0.0067567406 0.012468211 0.027328338
-0.04591265 0.007950207 -0.023625232 -0.03164336 -0.03587454 -0.061264705 -0.0077985814 0.0029889073
-0.010890398 0.001908119 -0.013253313 0.053099886 0.016844973 0.07157677 -0.02527546 0.007405221
-0.011304495 -0.019187964 -0.018360324 -0.008362223 -0.09946697 -0.05765509 -0.0256187 -0.11569999
0.02844185 -0.04048862 -0.05648622 -0.0120788785 0.017366158 -0.0020792698 0.03956401 0.06059247
0.016556539 -0.026079357 -0.021593615 -0.014659657 0.00927279 0.04329342 -0.011999152 0.03983073
-0.03785076 -0.040137425 -0.03438052 -0.065229975 0.01345786 -0.021729786 -0.035366938 -0.112880476
-0.035939753 -0.01815038 0.028476069 -0.08206769 -0.036685683 -0.03565282 -0.0031081194 0.0545118
0.02211711 0.031301904 0.0047969604 -0.04631752 0.024274798 0.017961275 0.022038924 0.007076553
-0.018262586 -0.08025322 -0.013942475 -0.094902724 -0.08919592 -0.042894382 -0.07810647 -0.035591327
0.01899972 -0.010764944 0.021666309 0.11315518 0.022287136 0.086328074 0.029385759 0.029593468
-0.06902696 -0.012034877 -0.033753637 -0.034462653 -0.014733318 -0.011044579 0.09238144 -0.026065405
0.08018053 -0.006496694 0.008026282 0.008575038 0.015460546 0.010572859 -0.00072600855 0.11781306
0.027053475 -0.02778783 0.038897406 0.0063874344 -0.011816388 0.077003896 0.008605315 -0.038184356
0.03789827 -0.012780446 0.067668445 -0.010624153 -0.01588973 -0.11723589 -0.07897822 -0.00095068384

qnet.dense2.bias f4 [5]
00000000: 11cd 2e3d 9ff4 253d 9422 db3d d632 69bc
00000010: 447e a0bc
0.042676035 0.040516492 0.10699955 -0.014233312 -0.019591458

qnet.dense2.weight f4 [5, 126]
00000000: a255 133d 59b4 b23d 1df8 883b 5a40 853d
00000010: deb4 9b3d ec89 8c3d 5144 133c 3e8f df3c
00000020: fd43 64bc 6b21 2f3c 2bfb e13d 6668 29bc
00000030: ecd2 8e3d 2a30 1ebd a817 4a3d d8af 373d
00000040: ed18 883d 4fc2 4d3d 5b1f 2bbd 0013 57bc
00000050: 8d63 863a ee32 7ebd 03d8 363d ce6e 533d
00000060: cff4 223e f3d6 893d 71f8 173d 45f4 c4bc
00000070: c2ec 883d 54ba dd3d 3c18 c73a e8b1 653d
00000080: 5930 9bbc 42f2 dcbc 7831 623d c43a 4bbb
00000090: 08db a43d c9e9 feb9 e33d 3dbd 2c96 4d3d
000000a0: 086a 22bc 020e b13d baaf fb3d f208 b13d
000000b0: cf9d 953c 5203 6f3d 0e7c d53d 8e23 a8bd
000000c0: d1ff 06be ba83 9cbd 3591 34bc 5c1f 08bc
000000d0: e0fa 6f3d fb32 e13d 5c1b 073d ea5e 873d
000000e0: 353e 19bd dc11 863c 9409 82bc 07ff 8b3d
000000f0: 91fa 723d 943c 0e3e 6901 f63c a198 9b3d
00000100: 6ec8 383d 4b61 b13d 8923 1d3d 01e5 c23d
00000110: bd47 873d 95d6 d73d 9e84 7e3d edc1 15bd
00000120: 4ae9 07bd fc1b ee3c 6503 c93d bcaa 47bc
00000130: b633 ad3d 5ebf 73bc 0713 d5bb c734 153d
00000140: 96eb 423d 9a6b 803d 6b54 333d 6b86 833d
00000150: 9e69 833d d59c 803d 55c6 eebd 4737 57bd
00000160: 75d7 16bc 1ad7 ca3d a87b ea3d c6af eb3c
00000170: 2943 053e 9e12 88bb f223 2b3d 6a2a c8bc
00000180: 96d7 093e e91e 28bd d61d a13d ad72 ef3d
00000190: 6f23 563d af8e 6a3d 9e62 953d 7a60 adbd
000001a0: f9cd a9bd d7f9 a3bd 3977 923d 56b0 ad3d
000001b0: ca44 523d 54f6 af3d d51f 7a3d b631 fe3c
000001c0: 3d83 d43d 6c77 f03c 52e6 563d fa3e 5fbc
000001d0: 61ac 6e3c d909 3abd 8f91 bbbd a762 11bd
000001e0: 5c6f 9b3d 3968 023d 6de9 07bc bb5c 2d3d
000001f0: 0532 1a3d fbc8 f4bc 17e8 babd 074b e03d
00000200: 328a 0abd 9192 a13d ae1b 783d a565 0ebd
00000210: b4ba 3cbe 9c8e 6cbd f569 fd3d 445e d43d
00000220: ea05 a93d a8e6 60bd 6bb5 883d 95b7 19be
00000230: 5e5e b73c abf6 36bd 1a18 2b3c 3c51 34bd
00000240: f22b d6bc a92b aebc b24d 1dbd 96af a6bc
00000250: b810 a1bd c0bd 5c3d 599b a9be f674 54bd
00000260: ba72 973d 6698 a5bd e8f9 bb3d baed e93d
00000270: 6f60 83bd 17f2 66bd 7353 a5bd c449 9d3d
00000280: d66a 6d3d e8f4 bd3d ba92 de3d a17c 803d
00000290: f067 933d 410e 9cbd 7dd1 2c3d ec20 adbc
000002a0: 6548 033e 37e9 efbb 811f 233d 76af 573d
000002b0: 486e 693d d259 abbc 9b17 bfbd cc50 31be
000002c0: 8a44 563d a3c5 013c 2b33 c13d 7b3e 133e
000002d0: 97f0 de3c c42b b0bc ec2a c5ba 80af f93c
000002e0: 6478 31bd dc4c cf3d 0ab4 c53d 520d f0be
000002f0: 0aa8 4a3a b293 27bc fb3b 7d3d e1dd a43c
00000300: abf4 05bd 9832 093e 3f18 9ebd f54a 013e
00000310: da1c d93c b8e9 443c 8128 19be 44a6 983d
00000320: 4aeb b53d d6ea e5bd 66f6 af3c bfa4 743d
00000330: f749 56be 6dc3 ff3d 1072 1b3d 20df 813d
00000340: 9b8e 903d 3430 74bd 8e3d 183e ed7f b73d
00000350: e510 e7bd ae8c 0fbd 1fd1 5fbd 2f47 683d
00000360: f9c0 df3d 690c 8d3d 6ca2 c33d 9623 0f3d
00000370: 0c71 84bd 3d54 dfbd 7729 a63d 4d1f e0bc
00000380: 3115 6d3d c8b2 bb3d 661d 32bd 78b8 25be
00000390: a30c 7e3d 7059 9f3c e911 50bd d49f c63a
000003a0: 19f9 ce3d 852a b83d 92e3 7abd 9fa2 36be
000003b0: dd43 a93d 6d6e f73d 1d1a d33c ce19 8e3c
000003c0: 2243 153d ce3d b93b 2d38 7f3d 7358 59be
000003d0: 078a 02bd 5e23 4e3d 38e1 8c3d c56c 9dbd
000003e0: f508 0dbe c3f5 b03d ac0f b03d 6651 52bd
000003f0: 956b 573d 7e3e f73d 7d74 dcbc dd9a 8d3d
0.035970338 0.08725805 0.004179968 0.06506415 0.07602857 0.06862244 0.008988456 0.027289983
-0.013932225 0.01068912 0.110342346 -0.010339832 0.06973824 -0.03862015 0.049338967 0.044845432
0.06645379 0.050234135 -0.04177795 -0.013127089 0.0010253057 -0.06206029 0.0446396 0.051619343
0.159137 0.067304514 0.037102167 -0.024042258 0.06685783 0.10826555 0.0015189718 0.056077868
-0.018943952 -0.026970986 0.05522296 -0.003101037 0.080495894 -0.0004862084 -0.046201598 0.050192043
-0.009912975 0.0864525 0.122893766 0.08644284 0.018263726 0.058352776 0.10424052 -0.082099065
-0.13183524 -0.07642312 -0.011020948 -0.008308258 0.058588862 0.10996052 0.032985076 0.066099
-0.03741284 0.016365938 -0.015873708 0.06835752 0.05932099 0.13890296 0.03002997 0.07597471
0.04511302 0.08661135 0.038363967 0.09516335 0.0660548 0.10538975 0.062138192 -0.036561895
-0.033181466 0.029066078 0.098151006 -0.012186702 0.08457129 -0.014877168 -0.0065025124 0.036427286
0.047587954 0.06270523 0.04378168 0.064221226 0.06416629 0.06279913 -0.116589226 -0.05254295
-0.009206642 0.099043086 0.11449367 0.028770339 0.13013901 -0.00415261 0.041782327 -0.024434287
0.13461146 -0.041045103 0.07867019 0.116917945 0.052279886 0.05726498 0.072942 -0.08465667
-0.08291239 -0.080066375 0.07151646 0.08480899 0.051335134 0.08591905 0.061065514 0.031029563
0.10376594 0.02935382 0.052465744 -0.013625855 0.0145674655 -0.045419548 -0.091586225 -0.035494473
0.075895995 0.031837676 -0.008295399 0.042324763 0.03764536 -0.029880991 -0.09126299 0.1095181
-0.0338232 0.078892834 0.060573272 -0.034764905 -0.18430597 -0.05775319 0.12373725 0.10369542
0.08253081 -0.05490747 0.06675228 -0.15011437 0.022383865 -0.044668835 0.010442758 -0.044022784
-0.026144002 -0.021261053 -0.038404174 -0.020347398 -0.07864517 0.053891897 -0.33126333 -0.051869355
0.07394929 -0.08085708 0.09178525 0.11422296 -0.064148776 -0.05638322 -0.08072557 0.07680085
0.057963215 0.09275228 0.108678296 0.06273771 0.07197559 -0.07619906 0.04219197 -0.021133862
0.12820585 -0.0073215025 0.039824966 0.052657567 0.056989938 -0.020916853 -0.09330674 -0.17315978
0.052311458 0.007920655 0.09433588 0.14379303 0.027214332 -0.021505244 -0.0015042699 0.030479193
-0.043327704 0.10122082 0.0965348 -0.46885163 0.0007730728 -0.010228084 0.06182478 0.020125331
-0.032704037 0.13398206 -0.07719468 0.1262625 0.026503015 0.0120186135 -0.14956857 0.07453588
0.088827685 -0.11226432 0.021479797 0.059727427 -0.20926653 0.124884464 0.037950575 0.06341386
0.0705845 -0.059616283 0.14867231 0.08959947 -0.11282519 -0.035046272 -0.054642793 0.05670851
0.109254785 0.06887133 0.09552464 0.034946047 -0.064668745 -0.10904739 0.081133775 -0.027358675
0.057881538 0.09164959 -0.043485068 -0.1618365 0.06202377 0.019451827 -0.05079833 0.0015153834
0.10106105 0.08992485 -0.061252184 -0.17835473 0.08264897 0.12081609 0.025769288 0.017346289
0.036440976 0.0056531196 0.062309433 -0.21225147 -0.031869914 0.050326698 0.068788946 -0.07686762
-0.13772948 0.08640625 0.08596739 -0.05134716 0.052592833 0.12072466 -0.026911015 0.069143035
